EmpathyBot/model_snapshots/deep_emotion-200-64-0.005-0.5437488389373955.pt (torch_old, 271009 bytes, 24 tensors)

conv1.weight f4 [10, 1, 3, 3]
000000 30 28 0e be 33 28 a4 be 27 64 32 c0 87 f9 fd 3e
       -0.13882518 -0.3206192 -2.7873628 0.49604437
000010 32 2a 3c 3f c6 b4 2e 3d cf 2f bb bf 3c 5e 8b 3f
       0.73501885 0.042652868 -1.4623965 1.0888133
000020 ce 13 23 40 00 29 d3 bf a7 71 c7 3e 08 21 01 40
       2.5480838 -1.6496887 0.38953897 2.017641
000030 69 ef 2f c0 49 14 2c bf 3d 38 21 40 59 f7 45 bf
       -2.7489874 -0.6721845 2.5190575 -0.7733055
000040 f2 9b 0c 3f 7f 6b 77 3e 1d d1 d4 3f dd 21 d6 be
       0.54925454 0.241621 1.6626316 -0.4182271
000050 79 86 88 bf 4b 07 c8 3f a5 8a a3 be be 1c 99 bf
       -1.0666038 1.5627226 -0.31941715 -1.1961896
000060 20 4c 0b bf b1 fa 1c bf bf 58 9c bf 1b 63 df 3f
       -0.5441303 -0.61320025 -1.2214583 1.745212
000070 b4 44 15 40 2f a1 17 3f 09 bc 77 bf 67 07 4f 3e
       2.3323183 0.5923032 -0.96771294 0.20217668
000080 93 1d 4e be 8a 04 dd bf 14 44 6a bf d0 3e 75 bf
       -0.20128469 -1.726701 -0.9151013 -0.9579897
000090 46 6c 12 bd ae 5d 99 be d6 c8 08 3e 28 ae 8e bd
       -0.03574779 -0.29954284 0.13357863 -0.069668114
0000a0 66 d4 52 bf f3 08 2f bf 88 b7 03 40 ed 7a 10 3f
       -0.82355344 -0.6837303 2.0580769 0.5643757
0000b0 db 0a 63 bf 18 73 8c 3f c2 96 04 40 72 94 8b 3f
       -0.8868844 1.0972624 2.0717015 1.0904677
0000c0 0e df f1 3f ea 2a d8 bd 69 4f 68 c0 9a 3a bd 3d
       1.8896196 -0.1055506 -3.6298468 0.09239693
0000d0 8d 38 f5 3d 32 35 d4 bf 96 fd 84 bd 59 46 52 bc
       0.11973677 -1.6578734 -0.0649368 -0.012834155
0000e0 89 aa f4 bf 25 06 91 3f 5c 0c 1b 3f e3 f2 ed bf
       -1.9114543 1.133 0.60565734 -1.8589748
0000f0 f3 4a ee 3f 0e 2e 3b 3f 2a 01 0a bf d2 72 8a be
       1.8616623 0.7311715 -0.53908026 -0.27040726
000100 bb ef 6b 3e 81 d4 30 3f f3 bc 32 c0 99 55 ab be
       0.23040669 0.69074255 -2.7927825 -0.33463743
000110 c0 5b 52 3f d0 e0 b7 be 40 de eb 3f b4 e4 35 3f
       0.8217125 -0.35913706 1.84272 0.710521
000120 d1 4d 10 c0 f3 36 45 bf d4 f4 0a bf 01 94 01 3e
       -2.2547495 -0.7703697 -0.5427983 0.12654115
000130 f2 e9 25 3f b3 6c 45 3e e1 b1 f7 3f a4 d5 03 40
       0.648101 0.19279747 1.9351159 2.0599146
000140 39 27 a2 bf f2 0d 8f 3f 50 45 32 bf e0 e4 10 40
       -1.266822 1.1176131 -0.6963701 2.2639694
000150 a9 93 80 bf 0c 02 1d c0 90 d2 b8 bf ca a2 6f 3e
       -1.0045062 -2.45325 -1.4439259 0.23401943
000160 29 aa 6c 3f 39 b9 9f 3f
       0.92447144 1.24784

conv1.bias f4 [10]
000000 d2 ca eb 3e 6d f2 c4 be e6 01 5b bf a1 16 dc 3e
       0.46053177 -0.38466206 -0.8554977 0.42986014
000010 ed fe e8 bd af f0 70 bf 94 a0 5d 3f e2 9d 80 3f
       -0.11376748 -0.94117254 0.8657315 1.0048182
000020 67 93 10 3f 54 42 ec 3d
       0.5647492 0.115360886

conv2.weight f4 [10, 10, 3, 3]
000000 59 6c aa bd 61 a1 ed bd 91 92 c9 bd 7e 63 2c be
       -0.08321447 -0.11603046 -0.098424084 -0.16834828
000010 80 d0 d4 bd 31 57 ef bd 6d ab c9 bd 3d 95 81 be
       -0.10391331 -0.11686552 -0.0984715 -0.25309172
000020 4a dc eb bd f6 33 bb bd 88 4f eb 3c 18 de b1 bc
       -0.11516626 -0.0914077 0.028724447 -0.021712348
000030 ce ee 8a 3c 94 43 09 3d a8 59 22 3c 05 a5 e6 3c
       0.016959574 0.033511713 0.009909071 0.02815486
000040 57 22 10 be 56 80 48 b9 19 81 14 bd 28 03 15 3d
       -0.140756 -0.00019121295 -0.03625593 0.036379963
000050 d9 9f 7d 3d 0a c7 08 be 35 c0 18 3c 29 28 22 3c
       0.06192002 -0.13357177 0.0093231695 0.00989727
000060 4f 7c 8d 3c de de d4 bd 77 fe 07 be a4 18 04 be
       0.017271189 -0.10394071 -0.13280664 -0.12900025
000070 cc 68 f2 bd 15 e9 68 bc 3f d6 8f be c7 a1 88 be
       -0.11836395 -0.014215727 -0.28093144 -0.26685926
000080 8e 80 13 3d 0d 46 e5 bd 55 f6 12 be 73 c4 41 be
       0.03601127 -0.11195002 -0.1435178 -0.18922596
000090 a4 17 35 bd f1 d3 bd bd 11 49 6a be dd a3 89 bd
       -0.044212 -0.0926894 -0.22879435 -0.067207076
0000a0 5b e3 34 be e5 00 d8 3d 0f 73 9f bc 99 db cf bd
       -0.17664854 0.105470456 -0.019464044 -0.10149307
0000b0 f4 2a 5b be 17 be cd 3c b1 34 b1 bd 5f 67 27 bd
       -0.21403104 0.025115056 -0.08652628 -0.040870067
0000c0 8f 76 fd bc 9f 0a 96 3d e5 98 0a 3c f5 e5 cf ba
       -0.030940322 0.073262446 0.008459304 -0.0015861379
0000d0 6f e6 24 bd d2 f6 d6 bd e5 6e 5c be 0a 40 d9 bd
       -0.04025882 -0.10496296 -0.21526678 -0.106079176
0000e0 b2 3f d0 bd d2 5c 40 3d d1 6f 8d be 26 55 7c be
       -0.10168399 0.04696352 -0.27624372 -0.24641857
0000f0 33 a6 96 bd 44 d7 cd 3b 1c ac 10 be fd af 71 be
       -0.07355919 0.006281765 -0.14128155 -0.2360229
000100 f2 30 4c be 2c 99 5c bd a0 92 f1 bd f4 2b 17 be
       -0.19940546 -0.053857014 -0.117955446 -0.1476286
000110 3c f5 f2 3c 8d 7c 63 be a0 49 d1 bd 6b 65 b4 bd
       0.029657952 -0.22215481 -0.10219121 -0.088084064
000120 e7 21 6d be 4c dc b8 bd ed 3c 46 be 25 84 4c be
       -0.23157464 -0.09026393 -0.19359179 -0.19972284
000130 4c e6 2f be 87 2b 7e be c1 9c c7 bd 25 c7 95 bc
       -0.17177695 -0.24821292 -0.09746695 -0.018283436
000140 5b 7f 37 3d 17 4f d2 bd c7 e0 52 3d b3 b6 84 bd
       0.04479919 -0.102689914 0.051483896 -0.064801596
000150 e4 cf 31 be c0 64 fa bc 08 33 50 3c b5 10 3b bd
       -0.1736446 -0.03056562 0.012707479 -0.04567023
000160 c1 93 64 be c6 53 98 bd 34 9e 5f bf 5a d1 3c bf
       -0.22321989 -0.074378535 -0.87350774 -0.73756945
000170 b1 5e 34 bd 9c 94 9d 3e 93 c4 8e be 2f a3 80 be
       -0.044035617 0.30777442 -0.2788435 -0.251245
000180 6f dd 64 c0 b6 24 6c bf 07 68 d6 bf 4a 04 90 3e
       -3.5760152 -0.92243516 -1.6750497 0.28128272
000190 01 07 3c bf 4d 88 05 bf c3 b7 92 be 62 0e b7 bf
       -0.7344819 -0.52161103 -0.28655824 -1.4301264
0001a0 bd 99 82 bf 7b 16 62 be b2 24 84 bf c8 43 7f bf
       -1.0203167 -0.22078888 -1.0323699 -0.997128
0001b0 9b 6b 67 bf 6c 6f 4c bf e7 03 9e bf 17 4a 80 3d
       -0.9039857 -0.79857516 -1.2344941 0.062641315
0001c0 e3 79 33 be df 03 89 3d f9 d1 a6 3f 72 a1 46 3e
       -0.17526965 0.066901915 1.3032829 0.19397524
0001d0 0b 68 38 3f 3e be 37 be 0f 37 9f bf 5a bc cd bf
       0.72033757 -0.17943665 -1.2438678 -1.6073105
0001e0 24 fb 8e 3f 0c b3 57 3f 6b bb 07 bc b1 ae f7 3f
       1.1170392 0.8425758 -0.00828443 1.9350187
0001f0 df 6c b1 3f db ab a9 3f 9a 03 2b 3f 54 50 01 be
       1.386135 1.3255571 0.6680237 -0.12628299
000200 10 54 2e 3d 1d 0f 27 c0 9d 78 8b be 75 05 e9 3f
       0.042560637 -2.6102974 -0.27240458 1.820479
000210 10 3a 23 3f c0 5d 47 3f a7 3b 31 bf 84 b0 e7 3f
       0.6376047 0.77877426 -0.6923165 1.8100743
000220 e3 79 19 3f da 50 21 3f fc 0d 77 bf df 53 af 3e
       0.5995161 0.63013995 -0.96505713 0.34243676
000230 1d fe 74 3f e4 62 af bf d9 50 82 bf d3 6d 65 3d
       0.95700246 -1.3702054 -1.0180923 0.05601294
000240 37 91 43 be be de 4f be a5 45 1c 3f 0f 7b 87 bf
       -0.19098364 -0.20299813 0.6104377 -1.058443
000250 98 09 6b be 57 a7 c6 3e d8 82 55 bf 40 5f 84 be
       -0.22952878 0.38799545 -0.83402777 -0.2585392
000260 b4 f4 aa bf c9 27 39 3f 76 22 11 3f da 84 fd 3e
       -1.3355927 0.7232633 0.5669321 0.4951542
000270 6e ae a6 bf 8c 26 ac 3e f0 c1 38 40 8d 46 d4 3e
       -1.3021982 0.3362316 2.886837 0.41460076
000280 34 f9 8f 3d 8d 1f 87 3f de f2 be 3f e3 29 40 3f
       0.070299536 1.0556504 1.4917867 0.75063914
000290 58 05 45 3f a3 6b 49 c0 72 a8 e8 bf 10 52 52 3f
       0.7696128 -3.1471946 -1.8176405 0.8215647
0002a0 7c c4 07 c0 fb ef 13 c0 f9 f9 29 c0 71 0c d2 be
       -2.1213675 -2.3115222 -2.6558821 -0.41025117
0002b0 cf ce 21 bf 78 8b 29 bf 9d 61 e4 be 75 4f 8a 3d
       -0.6320619 -0.6622844 -0.44605723 0.067534365
0002c0 3f 0b db 3f 2d 03 27 40 60 e9 b0 be 87 0a be bf
       1.7112807 2.6095688 -0.3455305 -1.4846963
0002d0 03 37 39 c0 72 c7 a3 3f 23 0f b6 bf e6 63 b8 3e
       -2.8939826 1.2795241 -1.4223369 0.36013716
0002e0 32 a1 05 40 ee dc 4b bf b1 9f 97 3f 9b b0 c2 be
       2.0879636 -0.79633987 1.1845609 -0.38025364
0002f0 91 58 a2 bf cd 81 15 c0 7b 3e 8e 3f 49 78 9b 3f
       -1.2683278 -2.3360474 1.1112818 1.2146083
000300 b7 26 70 c0 18 6c ff be 30 81 03 c0 7a aa 8f c0
       -3.752363 -0.49887156 -2.05476 -4.48956
000310 18 f7 b1 3e f5 15 16 40 f2 dc 7a 3e 37 bd 97 3e
       0.3475883 2.3450902 0.24498346 0.29636547
000320 38 e5 af bf 58 82 dc 3f 44 07 4a 3f 49 45 c4 bf
       -1.3741827 1.7227278 0.78917336 -1.5333644
000330 ce 39 e1 3f 1a 84 a3 3f d8 e3 3e bf 28 f9 8a bf
       1.7595766 1.2774689 -0.7456641 -1.0857286
000340 03 cb 11 3f ec 06 e6 3f 3a 45 00 3f f3 6b 50 3f
       0.56950396 1.7970862 0.5010563 0.8141472
000350 57 93 d2 3e 3f 1e 05 bf 79 9c 4c 3f c5 60 88 3f
       0.41128036 -0.51999277 0.7992626 1.0654532
000360 33 22 89 bf 87 68 8d bf ee 8e b8 3f 2d 18 50 c0
       -1.0713562 -1.1047524 1.4418619 -3.2514756
000370 95 54 2f bf 6f a8 60 3f ff 8a 5b 3e 20 9f b9 3f
       -0.68488437 0.8775701 0.21439742 1.4501686
000380 62 03 74 be 12 44 4a 3f b5 d6 0a bb 91 85 65 bf
       -0.23829415 0.7901012 -0.0021185104 -0.8965693
000390 0a fe 30 3f 84 71 a2 be ce 8b 8d c0 9e b8 99 3f
       0.6913763 -0.3172723 -4.423316 1.2009466
0003a0 14 cd f8 3f 09 12 43 c0 f6 82 68 bf f1 41 fe bf
       1.9437585 -3.0479758 -0.9082483 -1.9863874
0003b0 7a 2e f3 be 74 63 bd bf a1 0d 9a bf 0f 70 8d be
       -0.47496396 -1.4795976 -1.2035409 -0.27624556
0003c0 88 5f 37 3f 12 69 0e 40 8c af a0 be 63 79 02 40
       0.71630144 2.225163 -0.31383932 2.0386589
0003d0 c7 db 74 3e 26 0a 68 c0 99 9d 9b 3f 71 17 a0 3c
       0.23911963 -3.6256194 1.215747 0.019542428
0003e0 b6 d5 c4 be 35 cf 36 c0 bf e2 5e bf 65 22 2d be
       -0.38444299 -2.856397 -0.8706474 -0.16907652
0003f0 74 c0 b8 3d c8 b6 bf 3e 2d 14 aa bf 31 e7 f5 be
       0.090210825 0.3744414 -1.3287407 -0.48027948

conv2.bias f4 [10]
000000 6b fa 81 be d6 61 b7 3f ee 88 0b be 4d 3f 9b bd
       -0.25386366 1.4326732 -0.13626453 -0.07580433
000010 c7 5a 36 40 51 b5 9d 40 39 16 a1 3e b1 8a 16 3f
       2.8492906 4.9283834 0.31462267 0.58805376
000020 1b 0e 3d bd 1e 07 fc 3f
       -0.04615603 1.9689672

conv3.weight f4 [10, 10, 3, 3]
000000 03 a7 ad bc c1 eb 02 3e bc d6 cd bd 84 fb 0a bd
       -0.021197801 0.12785245 -0.10050723 -0.03393127
000010 b8 84 da 3d 3a 3d 2c 3d b4 98 2a 3e 22 77 95 3d
       0.10669845 0.042050578 0.16659814 0.072981134
000020 86 5e 8a bc 2d 54 12 c0 1d 4b 5d bf eb 2c 85 bb
       -0.016890775 -2.2863877 -0.8644274 -0.0040641925
000030 7e e3 c3 bf e1 e7 d1 3e 5f e4 af 3e 2c bf 82 bf
       -1.53038 0.40997222 0.3435392 -1.0214591
000040 d8 b4 81 3f 5a 7b f2 3f 83 9b 5b be 12 84 35 bf
       1.0133314 1.8943894 -0.21446042 -0.7090465
000050 40 16 13 40 e4 c8 3d 3f 43 7b 1b 3f a7 01 29 40
       2.298233 0.7413466 0.6073496 2.6407259
000060 66 97 ab 3e 08 ab 79 3f 79 1b 50 40 b2 31 fe 3b
       0.33513945 0.975266 3.2516768 0.007757389
000070 d7 fd fd 3c c6 88 d3 bc 1d 35 92 bc 38 84 d5 3d
       0.03100483 -0.025822055 -0.017847592 0.10425609
000080 1f 1d bf bd 4f 38 11 3d eb 63 cc 3d aa ee e7 3d
       -0.09331726 0.03545409 0.09979995 0.113248184
000090 f1 47 d0 bf cb 24 46 c0 3d 8f 57 3e 7f 6d 14 3f
       -1.6271955 -3.0959957 0.21050735 0.5797958
0000a0 ba 86 36 40 28 1c e6 3f d7 05 63 3f c1 19 8e 3f
       2.851973 1.7977343 0.88680786 1.110161
0000b0 c3 76 af 3f c6 61 df 3e 4b 49 f4 3e e7 50 59 bc
       1.3708118 0.43629283 0.47712168 -0.0132639175
0000c0 40 bb 4e 3f da e5 8e be a5 de 34 3f 09 c4 1e 3f
       0.8075447 -0.27909738 0.7065223 0.62017876
0000d0 b5 0f 0f be 52 51 68 3f c7 58 eb be 81 8c 14 3e
       -0.13970836 0.90749085 -0.4596617 0.14506723
0000e0 b0 24 78 3f 9a 6c 95 3b d9 b6 e3 be 64 9a ee 3f
       0.9693098 0.0045600655 -0.4447544 1.8640866
0000f0 bc e6 1e bf 0c 2e 6d 3e 42 ed b8 3f 43 4c 0b c0
       -0.6207082 0.23162097 1.4447405 -2.1765296
000100 0e 5f 21 c0 24 b9 5f be 06 5e df bf c3 56 86 bf
       -2.5214267 -0.2184797 -1.7450569 -1.0495228
000110 62 e2 1c 3f 55 55 ca 3e 8f 36 ad 3f 88 19 89 3e
       0.6128293 0.39518228 1.3532275 0.2677729
000120 df 75 f6 bc a5 05 17 be 7a a5 da bd 83 79 c5 3d
       -0.030085502 -0.14748247 -0.106760934 0.09642317
000130 78 69 f6 3b a0 33 8c bd e3 52 4c 3e 9b 5a 84 3c
       0.007519897 -0.06845784 0.19953494 0.016156485
000140 8f 05 3d 3e 34 c7 2f 3f a8 07 90 3f 73 4c 7c 3f
       0.18459152 0.68663335 1.1252337 0.9855415
000150 ca c1 0f 40 23 4b 20 40 5e 86 77 3f 9c f4 3a 40
       2.246203 2.504586 0.96689403 2.9211798
000160 52 95 fd 3f 44 05 cb 3f 11 40 30 3d 73 3d 8f 3d
       1.9811194 1.5860982 0.04302985 0.069941424
000170 8a ce 3c bd f3 99 7d 3d ad 81 38 bd ae c3 fd 3d
       -0.04609541 0.061914396 -0.045045543 0.123908386
000180 cc bc 2c bd 35 68 de bb 72 06 da bd dd f2 9d 3c
       -0.04217224 -0.006787325 -0.106457606 0.019280845
000190 05 ab c1 bd a5 ab 8f bc c6 13 99 bd c0 6e cb bd
       -0.094564475 -0.017537901 -0.074744746 -0.09933233
0001a0 1d 8d 4f bd 8f 46 be ba 34 99 3c bd b4 fb d7 3c
       -0.050671685 -0.0014516878 -0.046044543 0.026365139
0001b0 30 43 28 3c 86 56 09 bd 0d d4 61 3c 29 ed cb bd
       0.010269925 -0.03352978 0.013783467 -0.09957344
0001c0 03 c8 d2 bc 83 47 d5 3d 53 e2 a5 3d fb 97 f5 bc
       -0.025730139 0.104140304 0.080998085 -0.029979696
0001d0 e8 fe a7 bb b4 94 fc 3c 7d 11 21 3c c1 7a e8 bd
       -0.0051268227 0.030832626 0.00983083 -0.113515384
0001e0 64 34 05 3d 29 26 e7 bd 4c 8f f3 bd 2c 57 c4 3d
       0.032520667 -0.11286575 -0.11892566 0.09586939
0001f0 8c de d4 bd b1 c2 80 3d f3 36 a9 bc b9 a8 2a 3c
       -0.1039401 0.062871344 -0.020656085 0.010416203
000200 00 e5 1c be a2 36 26 3d c1 24 dc bc d2 7c 58 3c
       -0.15321732 0.040579446 -0.026872994 0.013213353
000210 4b 8f 89 bd 70 5e 23 bc a0 b0 9a bd 7a 30 83 3d
       -0.06716784 -0.009971246 -0.0755322 0.064057305
000220 ab d4 0d be 34 5c 91 bd 2b 17 26 bd 53 b8 e2 bd
       -0.13850658 -0.070976645 -0.04054944 -0.11070313
000230 c3 59 ec bb 55 45 af 3d dd 6d f0 bd 37 bf d5 bd
       -0.007212849 0.08558146 -0.11739705 -0.10436862
000240 57 1d 1c bd 80 a2 5a bd a0 16 57 bb 88 05 10 bd
       -0.03811392 -0.05337763 -0.0032819882 -0.035161525
000250 4d b1 a9 bb 3f 7b 19 3d 43 81 77 bd 77 6a 17 bd
       -0.0051786066 0.037471052 -0.060426008 -0.036966767
000260 8a 35 87 3c d5 e5 be bd f2 6c 81 bd ba 38 19 bb
       0.016505022 -0.09321181 -0.06319608 -0.002337976
000270 37 4e 23 bd 15 da c9 bd 74 29 02 be bf 90 07 bd
       -0.039869513 -0.09856049 -0.12711126 -0.033097025
000280 0d 41 ef bd 34 36 1b be 2e 44 10 3e fc 70 c1 3c
       -0.11682329 -0.15157396 0.14088508 0.023613445
000290 d7 0e b2 3d c7 b2 8b 3c 72 e3 05 3e 63 c9 b6 3c
       0.08694237 0.017053021 0.13075045 0.022312826
0002a0 7a f5 df 3c ef cd ea 3d 24 2a 1a 3d f1 74 24 bd
       0.027338732 0.1146506 0.037637845 -0.040150587
0002b0 30 a0 fe bd 83 04 4d bd cc 49 09 3d f6 80 de bd
       -0.12432897 -0.05005313 0.033517644 -0.10864441
0002c0 f7 9d 0e bd 7d 28 4c 3d c7 8d 06 be 2c 43 8e bd
       -0.034818616 0.0498433 -0.13140021 -0.06946406
0002d0 5e f5 96 3d ef 7c af 3c 77 51 9b 3c 71 4c 3d 3c
       0.07371019 0.021421878 0.018959744 0.01155387
0002e0 3e e5 86 3d c9 c0 56 bc 29 04 a1 3d 18 3d f5 bd
       0.06586693 -0.013107487 0.078621216 -0.11974543
0002f0 94 90 a1 bd 79 03 0a 3f 55 97 a0 3e 8d c1 82 3f
       -0.07888904 0.5391155 0.31365457 1.0215317
000300 c5 43 2a bf e2 54 bf be 30 e3 6b bf 11 19 a5 be
       -0.6650966 -0.37369448 -0.92143536 -0.32245687
000310 61 c7 f8 be b6 9f 8b bf 4b ef aa bf 5e ec f8 bf
       -0.48589614 -1.0908115 -1.3354276 -1.9447134
000320 9b 9c 02 c0 ba 84 6a bf ca 1d 82 bf 66 e1 fa be
       -2.0408084 -0.91608775 -1.0165341 -0.4900009
000330 5c 8a 12 c0 42 35 c2 bf 02 f5 19 bf aa bb 3d 3d
       -2.2896948 -1.5172503 -0.6013948 0.04632155
000340 08 9c e6 bc bc 0d cd bd 75 a7 8b 3c 7b 9f 23 bb
       -0.028150573 -0.10012385 0.017047623 -0.0024966884
000350 c8 78 b1 3d bf 76 38 3d 05 31 cb 3c 25 d8 b4 bd
       0.08665615 0.04503512 0.024803648 -0.08830289
000360 9f 54 4e 3f f1 f0 8f 3e 2d 0a 6a 3f 5c f8 95 bf
       0.8059787 0.2811351 0.91421777 -1.1716418
000370 73 ff 89 bf 36 2e b2 be bb e6 05 c0 84 16 0b c0
       -1.0781082 -0.3480088 -2.0922077 -2.1732492
000380 ce 80 bb bf 32 f4 a5 be db b8 fd be 7b 84 0c 3f
       -1.4648683 -0.3241287 -0.49555096 0.5488965
000390 ec e0 39 3f d8 23 87 3f ae 59 b0 3f d7 86 f4 3f
       0.7260883 1.0557814 1.3777368 1.910365
0003a0 53 6c 09 40 95 e2 b2 3f c6 ee b3 3e fe 5a f6 3c
       2.1472366 1.3975397 0.35143107 0.030072685
0003b0 54 90 b3 3f 9b 60 62 3e 26 94 5e 3f 8e 94 18 40
       1.402842 0.22107165 0.86944807 2.384067
0003c0 56 97 7d 3f b7 56 05 3f fd 46 ac 3f 5a 1a c9 3e
       0.99059045 0.5208544 1.3459164 0.39277917
0003d0 b2 8b a1 3f 20 fb 38 3f d7 c0 f0 3e 52 09 20 bf
       1.2620757 0.72258186 0.47022125 -0.6251422
0003e0 19 14 5e bf 41 9a e9 bf 1a 31 f5 bf c5 af f9 bf
       -0.86749417 -1.82502 -1.915561 -1.9506766
0003f0 59 2b 91 3d cb a2 33 bc b2 a4 03 3d fe 63 dd 3c
       0.07088346 -0.010964106 0.032139488 0.027025219

conv3.bias f4 [10]
000000 1e e2 f2 bf aa ab a3 bd b3 30 ac 3f e1 c4 c2 bd
       -1.8975255 -0.07991727 1.3452362 -0.09510208
000010 a6 90 ac bb 85 9b 3f 3c 8b 24 be bd 7d 91 d4 bd
       -0.005266267 0.011694794 -0.09284314 -0.10379312
000020 ff a7 75 bd 78 82 02 41
       -0.059974667 8.156853

conv4.weight f4 [10, 10, 3, 3]
000000 46 78 32 bf f3 d0 d6 be f3 00 76 be 55 47 9e bf
       -0.6971477 -0.4195629 -0.240238 -1.2365519
000010 19 fb c8 bf d0 9b 7f bf ed 49 84 3f e1 60 ff bf
       -1.5701629 -0.99847126 1.033506 -1.995144
000020 f4 29 0b c0 da 4c af bd 64 6f 20 3d b0 72 56 bd
       -2.1744356 -0.0855958 0.03916873 -0.05235547
000030 58 11 74 3d 1a 73 8a 3d 45 5d ac 3d 5d 0e 91 bc
       0.059586853 0.06760235 0.08416227 -0.017707044
000040 f1 03 e4 3c 11 da a5 3d cf f3 33 be 74 3b 75 bd
       0.02783391 0.080982335 -0.17573474 -0.059871152
000050 f1 1e 1c 3c a0 6a c4 bf 86 68 02 3d 6f 57 7b 3f
       0.009528861 -1.5345039 0.031837963 0.9818029
000060 3b 1c 0d c0 81 ae 9d 3d e7 c7 20 40 24 7d 65 bc
       -2.204848 0.076992996 2.512201 -0.014006887
000070 bd a0 02 bd 72 00 cc bd 70 cc 10 3e 1a c5 90 bd
       -0.031891573 -0.099610224 0.14140487 -0.07068844
000080 8b c1 a9 3c d6 61 b8 3d c5 c5 c1 3d cd ac 85 bd
       0.020722171 0.09003036 0.0946155 -0.065271
000090 2d 73 e9 3c c7 d6 74 3d 39 7b a0 3c cf 31 d8 3d
       0.028497303 0.05977514 0.019590007 0.10556375
0000a0 82 1c 01 3c 59 c4 9b 3c 61 ff e5 3d 60 c5 3e 3c
       0.007880332 0.019014524 0.1123035 0.011643738
0000b0 ce 40 fc bc cb 78 56 3d 37 82 02 bd c0 6d 5b bd
       -0.03079262 0.05236129 -0.031862464 -0.053571463
0000c0 aa 7d 2b bd df a8 5a 3d 9c 63 01 3e 48 af d1 bd
       -0.04186789 0.053383704 0.12635654 -0.1023851
0000d0 86 b9 1b bd 34 8d 98 bd 68 7d 7c 3d aa e2 98 3b
       -0.038018726 -0.07448807 0.061643034 0.0046656923
0000e0 8b 47 81 bc ac cf 74 bd a0 a2 fc 3c 81 de 00 3e
       -0.015781185 -0.059768364 0.030839264 0.12584879
0000f0 18 44 4b bd 63 78 49 bd df db 16 bd 89 44 6b 3c
       -0.049625486 -0.049187075 -0.03683078 0.014359602
000100 53 08 2c 3d 59 49 6b 3d 71 bd f7 bd 5d 45 19 3d
       0.042000126 0.057442997 -0.1209668 0.037419666
000110 cd be ef 3d 58 a8 0e 3e c2 bd e5 bc 1e 17 ef bd
       0.11706314 0.13931406 -0.028044585 -0.11674331
000120 76 bb b0 bd 83 57 28 3d 29 80 e3 3c 36 1f 77 bd
       -0.08629505 0.041099083 0.027771072 -0.0603325
000130 f8 bb 28 be 9f 98 5e 3d bb 79 8c bc 79 13 ae 3c
       -0.16477954 0.05434477 -0.01714789 0.02124952
000140 b8 5a c1 bd 09 76 47 bf 16 9b b7 bf 23 23 af bf
       -0.09441131 -0.7791448 -1.4344203 -1.3682598
000150 33 2c 04 40 0b 93 0c be 85 54 eb bf 5f 8d fd 3f
       2.0651977 -0.13727967 -1.8385168 1.9808768
000160 ae 55 70 3f 49 4b 30 3f bd ec d2 3f 64 90 d5 3e
       0.93880737 0.68864876 1.6478497 0.41711724
000170 17 70 f3 3f 8b d0 2f bd 69 a9 4c 3f 33 0f 77 be
       1.9018582 -0.04292349 0.79946 -0.24126892
000180 e9 45 56 c0 33 d3 84 bf 74 2e 6c c0 2f a9 bd 3d
       -3.348017 -1.0376953 -3.6903353 0.09260785
000190 3e 52 c4 bc f0 f6 8c 3d d6 f7 a4 bc 9b e1 12 3d
       -0.023964997 0.06883037 -0.020137709 0.035859685
0001a0 14 45 a3 3c e4 e8 6c bd b0 c1 a5 3d eb 04 de bd
       0.0199304 -0.05783929 0.080935836 -0.10840782
0001b0 f6 a8 b7 3e b9 3b 1e 3e 7c 1e e2 3e 9a 79 90 bf
       0.35871094 0.1545247 0.44163883 -1.128711
0001c0 84 d6 f2 3e 90 c4 ee 3e 09 04 55 bf 04 b5 46 bf
       0.47429287 0.4663434 -0.8320928 -0.7761996
0001d0 0a 5a 99 3f 24 30 94 3d 70 a0 38 3d ac d1 61 bd
       1.1980603 0.072357446 0.04507488 -0.0551316
0001e0 60 3c cb bd 44 ff 14 3e 82 d3 5c be e6 ab 83 3d
       -0.09923625 0.14550501 -0.21565059 0.064292714
0001f0 18 6f 6d 3d 79 b0 dc bc 8e 7e 27 bd 17 ba d6 bd
       0.057967275 -0.026939617 -0.040892176 -0.104847126
000200 41 fc a5 3d 1a 9b fb 3d e2 2e 99 bd 4a df 2e 3d
       0.08104754 0.12285443 -0.07479645 0.042693414
000210 35 b6 48 3c d8 ea 31 3b 21 ee 3f bd aa ed a0 bd
       0.012250473 0.0027148034 -0.046857957 -0.07857831
000220 d5 6b 0c 3d 99 cb d3 bd 88 88 65 bd b3 f7 89 bd
       0.034282524 -0.103415675 -0.05603841 -0.06736698
000230 7c 44 93 3d 8a 0e 4a 3c 03 95 2d 3c 49 83 de bb
       0.07190797 0.012332568 0.010594609 -0.0067905528
000240 a4 a0 d5 3d 61 dc a5 3c 5c 10 b6 3c 76 8c 2e 3d
       0.104310304 0.020246686 0.022224598 0.042614423
000250 fd 3e 94 3c 94 5d ea bc f7 f1 d8 bd 08 5a 19 3d
       0.018096441 -0.028609075 -0.10593026 0.037439376
000260 17 e0 d0 bd 51 f3 b7 bd 4f d0 2a bd b9 1c c4 3d
       -0.10198992 -0.08981956 -0.041702565 0.09575791
000270 d2 72 4e 3b 13 d7 a0 bd 5d 28 7b 3d 98 28 a0 3d
       0.0031501544 -0.07853522 0.06131779 0.07820243
000280 6d 54 a4 bd 99 9a e4 bd 9d ab c2 3c ee be 12 bd
       -0.080239154 -0.111623 0.023763472 -0.035826616
000290 04 bb b7 3c 2b 1a 88 bc 83 6e 94 3c 36 e2 76 bd
       0.022428043 -0.01661404 0.018119102 -0.060274325
0002a0 af a7 c4 3d 83 97 15 be 73 1f 63 be a5 42 a2 bf
       0.096022956 -0.14608578 -0.22179966 -1.2676588
0002b0 85 d4 a5 bf 30 7f 4b bf 1d 52 81 3d 41 da b3 3e
       -1.2955481 -0.7949095 0.0631449 0.35127452
0002c0 28 4e be 3f f8 c7 b7 3f 47 62 62 3f ca 96 da be
       1.4867601 1.4357901 0.8843121 -0.42693168
0002d0 b2 a9 e4 be 65 35 e1 3f a6 ef 7a 3f 2e 3d ef 3f
       -0.44660717 1.759442 0.98021924 1.8690546
0002e0 0a 0a af 3f f9 b1 05 40 64 84 1a 3f a0 51 38 bf
       1.3674939 2.0889876 0.6035826 -0.7199955
0002f0 66 2c 85 bf cf 1d 8a bc ea 70 ba bd be 82 4a bd
       -1.0404174 -0.016859917 -0.09103568 -0.04944109
000300 d5 16 14 be 65 ab b3 3d 90 02 38 3d 17 ba df bd
       -0.14461835 0.08772925 0.04492432 -0.10924166
000310 e9 71 05 bd c8 1c 82 3d 22 08 e4 bf fc 72 50 bf
       -0.032579336 0.06353146 -1.7814982 -0.8142545
000320 59 bd 8c bf 9c 2f a9 bd 4c fd d5 bf 47 72 d3 bd
       -1.0995284 -0.08261034 -1.6717925 -0.10324531
000330 bc 5a 0c c0 68 1d 73 bf 62 ce be 3f 33 2e ec 3d
       -2.193038 -0.94966745 1.4906733 0.11532249
000340 1d b4 85 bd 33 8e 05 bd 0d 20 a9 bb 26 79 72 3d
       -0.065284945 -0.032606315 -0.0051612915 0.059197567
000350 c5 65 56 3d b4 85 9f bc 87 90 11 3e f8 15 d5 3d
       0.05234315 -0.019472934 0.14215289 0.10404581
000360 b0 bf 0c 3d 2e dc d1 3d b5 9d b7 3d 4a 26 37 bd
       0.034362495 0.10247074 0.08965627 -0.04471425
000370 be 50 f8 3d d4 06 1a ba 58 3e a9 bd 07 a8 21 bd
       0.12124775 -0.0005875651 -0.08263844 -0.039466884
000380 ff 00 27 bc 59 49 80 bd 98 00 9d bd f5 f2 ed 3d
       -0.010193109 -0.0626399 -0.07666129 0.11618606
000390 14 3b 2c 3a ea 15 6f 3b 6f 5f ba 3c 92 cb b7 bc
       0.00065700826 0.0036481568 0.022750584 -0.022435937
0003a0 5e ef 91 3d 60 b2 fc 3d 94 76 78 3d f2 93 51 3d
       0.07125734 0.1233871 0.06065996 0.051166482
0003b0 84 8e f3 bd 46 4c 23 bd 83 11 ae bd 6f cc 6e bd
       -0.11892417 -0.039867662 -0.08499434 -0.05830043
0003c0 08 01 b2 3d b6 4d 2c bd c2 90 f1 bc e8 87 43 3b
       0.08691603 -0.0420663 -0.029487971 0.0029835645
0003d0 76 6c 63 3c 5e b7 95 3d c5 40 4c 3c 9a f2 03 bc
       0.01388084 0.07310365 0.012466614 -0.008053446
0003e0 82 0d f2 ba 98 33 52 3b 3d 27 2d bc c8 50 9b bd
       -0.001846716 0.003207421 -0.010568437 -0.07583767
0003f0 74 b1 31 bc 6d 56 b0 3b df 25 e6 3d 4b 66 50 3d
       -0.010845531 0.0053813965 0.11237692 0.050878804

conv4.bias f4 [10]
000000 f6 70 65 3e 83 3c 90 3e 70 a8 8a bd 8f b2 6d bd
       0.22406372 0.28171167 -0.06770408 -0.058031615
000010 09 0c 7d be df 72 16 be a7 ec fe be f8 51 83 3e
       -0.24711622 -0.14692257 -0.49789926 0.25648475
000020 bd 99 df be 43 65 44 3e
       -0.4367198 0.19179253

norm.weight f4 [10]
000000 ca a1 a9 3e 7c cd 40 3e 50 13 52 3e d1 46 3c 3e
       0.33131248 0.18828386 0.2051518 0.1838639
000010 9a 85 10 3e f9 34 54 3e 76 c2 cd 3e 3b 40 49 3e
       0.14113465 0.20723332 0.40187424 0.19653408
000020 53 60 87 3e df 67 35 3e
       0.26440677 0.17715405

norm.bias f4 [10]
000000 de 72 c2 be 4e 81 58 be 62 bf af be 74 94 14 be
       -0.37978262 -0.21143076 -0.343257 -0.14509755
000010 cd f3 e4 bd a7 7c 50 be 11 a3 bd be 8e 53 3f be
       -0.11179314 -0.20360051 -0.37038472 -0.18684217
000020 8e 8e 85 be 78 1e 14 be
       -0.26085323 -0.14464748

norm.running_mean f4 [10]
000000 d5 3b 8f c4 b2 d4 cc c3 61 52 cb c3 a9 7b 85 c4
       -1145.8698 -409.66168 -406.6436 -1067.8644
000010 4d a8 d6 41 f4 f8 4c c4 7a 3a eb c4 5c bf 8f c4
       26.832178 -819.8899 -1881.8274 -1149.98
000020 df 6e 8a c4 d7 fc 35 c2
       -1107.4647 -45.496914

norm.running_var f4 [10]
000000 1f b1 d9 48 b9 88 9a 48 f3 5c de 48 e8 78 24 49
       445832.97 316485.78 455399.6 673678.5
000010 91 5b 7c 48 c9 3e 91 48 34 36 3f 49 aa 13 9c 48
       258414.27 297462.28 783203.25 319645.3
000020 b4 56 22 49 13 5a cd 48
       664939.25 420560.6

fc1.weight f4 [50, 810]
000000 0b 85 e2 be 47 18 79 bd 7b 1f a5 bf 9b de 11 c0
       -0.4424213 -0.06081417 -1.2900232 -2.2792118
000010 df 46 81 bf 0f 66 3c 3f 9e 6b 12 bf 8f ee e0 be
       -1.0099753 0.7359323 -0.5719546 -0.43932006
000020 f4 c3 99 3f c9 df 24 c0 65 36 fd be 82 9c c2 be
       1.2012925 -2.5761588 -0.49455562 -0.3801003
000030 a1 7f 19 3f 30 b9 9f 3f 9e 55 62 bf bc bd 88 3f
       0.5996037 1.247839 -0.8841189 1.0682902
000040 54 43 4d bf 14 cb 95 bf b3 09 b2 3e c6 48 b1 be
       -0.8018086 -1.17026 0.34773025 -0.34625834
000050 17 e3 0a c0 a7 a4 62 bf 8b 4e a1 be 49 ab c2 3e
       -2.1701105 -0.8853249 -0.31505236 0.38021305
000060 b6 bf c3 3e 3c 82 fd 3c 95 8d 88 3c bc e7 8b 3f
       0.382322 0.03094589 0.016669074 1.0930095
000070 ab 06 a3 3f 63 b7 1d be bb 54 3b 40 45 8f 9c 3f
       1.273641 -0.15401988 2.9270465 1.2231222
000080 b7 f1 6c 3f 2b 1c ec bf 71 60 4c be 2e 3b df 3a
       0.9255633 -1.8446096 -0.19958664 0.0017031187
000090 96 82 84 bf 38 19 10 3f d5 35 f7 3e 7d ef 78 bf
       -1.0352352 0.5628848 0.48283258 -0.9724043
0000a0 01 89 1a 3f 08 03 d1 3f ec d5 14 bf c2 c0 34 3d
       0.603653 1.632905 -0.5813892 0.04412914
0000b0 3b 2b 90 bf 70 81 b5 bf b6 14 85 bf 0f 8c 69 3e
       -1.1263193 -1.4180126 -1.0396945 0.22807334
0000c0 05 58 e7 bf 9a 1a 78 c0 d0 52 70 c0 00 68 94 c0
       -1.8073736 -3.8766236 -3.7550545 -4.6376953
0000d0 99 30 f6 bf f8 d2 65 3f d2 7d d7 be 5c 8f 8f c0
       -1.9233581 0.8977504 -0.4208818 -4.48625
0000e0 ce 25 3a bf cb eb a7 bf 23 2f e5 bf 05 58 99 be
       -0.72713935 -1.3118833 -1.790501 -0.29949966
0000f0 29 5a 0b c0 ac 17 82 3f 16 1c b2 bf 13 ca 59 bf
       -2.177378 1.0163474 -1.3914821 -0.85073966
000100 c9 6b eb bf bd 2f d8 3d 22 62 47 c0 8d 61 9a bf
       -1.8392268 0.1055598 -3.1153646 -1.206102
000110 25 5c 06 be 3c ea a7 c0 db 70 74 bf e4 61 97 bf
       -0.13121088 -5.247343 -0.95484704 -1.1826749
000120 65 21 bb 3e 35 2f 81 c0 6a e7 93 bf 9a 18 02 c0
       0.36548916 -4.0370126 -1.1554997 -2.0327516
000130 7a 01 e6 bc 90 1d c1 bf 5c be 8e 3f 91 c7 b2 bf
       -0.028076876 -1.5087147 1.1151843 -1.3967153
000140 3c 6e a1 bf 34 98 4c 3f 69 bb dd 3f f4 e8 9b bf
       -1.2611766 0.79919744 1.7322818 -1.2180467
000150 09 70 a8 bf 66 c1 27 c0 90 dd 92 3f 81 2f f0 3f
       -1.315919 -2.621179 1.1473866 1.8764497
000160 4d d1 2e 3d cd e1 9a 3f 51 67 73 bf 77 5d ed bd
       0.042680074 1.2100159 -0.95079523 -0.11590093
000170 bf 50 ea bf 13 71 a3 bf d1 ba 76 3f b0 1f b2 3f
       -1.8305892 -1.2768883 0.9637881 1.391592
000180 bc b9 df 3e fb 5d ab 3e f8 85 28 3f 38 dc 97 3f
       0.43696392 0.3347014 0.6582942 1.186408
000190 e2 49 36 3f 5e 66 2b bf 06 39 a4 be dd 45 45 3f
       0.71206486 -0.66953075 -0.32074755 0.7705973
0001a0 ed 57 81 3f 54 39 0c bf 92 ea f2 3e d2 73 fa 3d
       1.0104958 -0.54774976 0.47444588 0.12229122
0001b0 9d 00 7a bf 66 90 ee 3e ec ff 0b 3e 9b 1f 94 bd
       -0.97657186 0.46594542 0.13671845 -0.07232591
0001c0 96 1d 59 be fd ae 63 3e 3f f1 e5 bd 30 2d cd 3e
       -0.21202692 0.22234721 -0.11227655 0.40073538
0001d0 28 80 6a 3e 7e b9 5c 3d ef 49 81 3f 01 e7 19 3f
       0.2290045 0.053887837 1.0100688 0.6011811
0001e0 45 e0 13 be 90 f1 38 bf 79 47 0f 40 19 a1 7d bd
       -0.14441021 -0.72243595 2.2387373 -0.061921213
0001f0 ff bd 84 3f 1c ab b2 3f b9 5b 3a 3e 01 98 e5 3c
       1.0370482 1.3958468 0.18199052 0.028026583
000200 52 a0 48 c0 b7 df 21 c0 ae f5 9b bf e7 20 00 c0
       -3.1347852 -2.5292795 -1.218435 -2.0020082
000210 d6 83 5a bf c4 ff da 3f e0 ec 53 3f 64 e5 1c c0
       -0.85357416 1.7109303 0.8278332 -2.451501
000220 59 74 aa be 86 04 8c 3f 3e 86 a6 bf 33 a4 73 be
       -0.3329189 1.093888 -1.3009717 -0.23793106
000230 73 3d b6 bf 30 2d bb be f6 ca 92 3e 9b 4b b3 bd
       -1.4237503 -0.36557913 0.28670472 -0.08754655
000240 2b 3f bb 3f d0 75 b3 bf b1 14 1c c0 c7 1d 1c bf
       1.4628652 -1.4020329 -2.438763 -0.60982937
000250 76 ae 15 bf 1d cf c7 bf 28 fd 1b c0 06 e6 1d c0
       -0.5846933 -1.5610081 -2.4373264 -2.4671645
000260 4b 96 07 3e cb 4d 73 3f 3c 0d 01 c0 29 7a b2 bf
       0.13240926 0.9504058 -2.0164328 -1.394353
000270 19 00 e6 bf 66 d8 6a c0 81 16 7d bd dc 7f 9f 3e
       -1.796878 -3.669458 -0.06178904 0.31152236
000280 04 72 e2 be 41 41 cc 3f b5 86 7a bf 42 7b 33 c0
       -0.44227612 1.5957414 -0.97861797 -2.804398
000290 a1 c3 fd bf 55 b3 1b 3f 26 52 b1 be fc 05 00 c0
       -1.9825326 0.60820514 -0.34632987 -2.0003653
0002a0 5c 24 79 be e8 22 73 3f c0 18 58 3f 85 74 31 bf
       -0.24330276 0.9497514 0.84412766 -0.6931842
0002b0 a3 ba a5 be 56 f4 c6 bd d7 67 3d 3f 9f 28 06 c0
       -0.32368955 -0.09714572 0.7398657 -2.0962293
0002c0 44 1d 9a c0 ac 74 ca bf 21 c6 97 bd 79 35 d7 3e
       -4.8160725 -1.5816855 -0.07410837 0.42032984
0002d0 71 9e f8 be ef 49 cc be 45 94 3e 3d 54 eb 48 bf
       -0.4855838 -0.39900157 0.04652812 -0.7848408
0002e0 87 8a a5 bf 23 07 dd 3f ca bf c6 3d 46 dd 38 bf
       -1.29329 1.7267803 0.097045496 -0.72212636
0002f0 67 c0 a0 3f a1 99 cb 3f 82 ea 1a bd f2 4d ad 3f
       1.2558717 1.5906259 -0.0378213 1.3539412
000300 1e cd b4 3f c2 b3 33 3e f7 88 17 bf 9e e4 74 bf
       1.4125097 0.17549041 -0.59193367 -0.9566134
000310 80 8c 04 3f 3d df 1f 3f c4 bb 7d bd 92 c3 20 40
       0.51776886 0.6245001 -0.061946645 2.5119367
000320 1c 6a b6 3e 7a 7f ce bc d4 26 39 bf fe 8f fe bf
       0.3562783 -0.02520727 -0.7232487 -1.9887693
000330 1b bd dc 3e c7 2c 05 c0 5a ef 8c c0 89 5b be bd
       0.43113026 -2.080858 -4.4042177 -0.09294803
000340 9e f6 a0 3f ae 34 bb bf 76 cd 09 bf 6c 9c 50 c0
       1.2575262 -1.4625452 -0.53829134 -3.2595472
000350 d2 0d 8d bf 49 1f 9d bf 3c 50 c0 bf 27 d4 2d bf
       -1.1019843 -1.2275172 -1.5024486 -0.67901844
000360 37 9e a9 3f 8d 3a 5e be fd f6 62 bf 80 3a 6c bf
       1.3251408 -0.21702023 -0.88658124 -0.92276764
000370 10 6e 05 c0 53 04 8a bf 84 46 0c bf 1f bb 28 be
       -2.0848427 -1.078257 -0.547951 -0.16477631
000380 8b 4d 23 bf 74 3e 07 c0 87 1c 8a 3f cd 4a 52 bf
       -0.63790196 -2.1131868 1.0789956 -0.82145387
000390 82 62 53 bf 60 95 df be 61 f7 60 be b3 e4 99 bf
       -0.82572186 -0.43668652 -0.21969368 -1.2022918
0003a0 34 6a e5 3f b7 db 4d 3e 2c 7f 87 bf 30 f0 03 c0
       1.7923036 0.20103346 -1.0585685 -2.061535
0003b0 33 d9 4b bf cf b6 7a be 92 42 ea 3d 79 2b de bf
       -0.79628295 -0.24483798 0.114384785 -1.7357017
0003c0 9e d7 b3 bf 89 7a 86 be d9 2e 41 bb 2c 82 80 be
       -1.4050176 -0.26265362 -0.0029477386 -0.25099313
0003d0 93 f2 06 3f 57 35 8e be d1 ad ac be eb 69 62 3e
       0.5271389 -0.2777507 -0.3372636 0.22110717
0003e0 34 96 dd 3e da a4 b6 be 37 46 80 3e b3 a3 0c be
       0.43278658 -0.35672647 0.2505357 -0.13734321
0003f0 4a cf a4 bf e6 b8 a2 3e c7 8b ba 3e 8c 99 e9 3e
       -1.287576 0.3178169 0.36434767 0.4562496

fc1.bias f4 [50]
000000 6e 95 94 3f a1 2e fe 3f e7 20 54 be e7 03 12 3f
       1.1608102 1.985798 -0.20715676 0.57037205
000010 fc 87 a9 bd d6 90 a0 3f 09 07 8b 3f 0f 3c 32 be
       -0.0827789 1.25442 1.0861522 -0.17405723
000020 52 09 b7 3f 58 54 18 bd 9d 29 66 bf 9d 43 be 3e
       1.4299719 -0.03718981 -0.89907247 0.3716096
000030 c5 c3 34 bf 0e 60 fa 3f b5 cf 34 bd 54 5a 61 3f
       -0.7061122 1.9560564 -0.044143397 0.88028455
000040 16 29 a4 bd 36 05 73 bd d5 24 4e be 3b 78 e2 be
       -0.08015649 -0.05933114 -0.20131238 -0.44232354
000050 cf da b0 3f fe e8 67 40 25 44 59 be 3d ec 7b bc
       1.3816775 3.6235957 -0.21217401 -0.015376148
000060 ef 47 25 be d4 57 62 bf 10 99 10 bd a8 e0 37 3f
       -0.16140722 -0.88415265 -0.03530222 0.71827173
000070 ca 5e 06 40 45 4a 11 be 21 46 67 be 2a 0a 48 be
       2.0995355 -0.14188488 -0.22585346 -0.19535127
000080 06 f1 98 3d 18 5b 22 40 96 1e 84 bc e4 e6 0c bf
       0.074678466 2.53681 -0.016127866 -0.5503981
000090 cc 5a 6e be be c5 ba 3f 1f b8 47 be 89 df ef bd
       -0.23276824 1.4591596 -0.1950383 -0.11712558
0000a0 47 ae 87 be 7c 4c 3b 40 a8 65 26 3e df d1 21 be
       -0.2650015 2.9265432 0.16249716 -0.15802716
0000b0 a5 06 47 bd 58 c6 3c 3f df 28 4b 36 fd 7e c8 3f
       -0.04859032 0.7374015 3.0273147e-06 1.5663754
0000c0 0a cd 51 3f 22 af 0c 40
       0.8195349 2.1981893

fc2.weight f4 [7, 50]
000000 78 4e fb be 2d b3 70 3d 53 27 9b bd 9b c2 b7 be
       -0.49083304 0.058764625 -0.0757586 -0.3589066
000010 1a fd af bd d3 c0 25 be 3e 19 66 bf 6f 94 1e bf
       -0.08593197 -0.16186838 -0.89882267 -0.6194524
000020 3a ad 13 bd 64 7f 55 bd 87 c0 c7 bf f2 f6 52 be
       -0.036053874 -0.052123442 -1.560563 -0.20602015
000030 ae 3b 5a 3e 36 77 6b bd 9f 6a d4 bc d1 48 bd bc
       0.21311828 -0.057486735 -0.025929747 -0.02310601
000040 0f 7c a8 bd 2f 92 6f 3a 66 f3 66 be 7a 0b 30 be
       -0.08226787 0.00091389095 -0.22553787 -0.17191878
000050 20 b3 92 bd f5 36 06 3e d1 59 0c be a8 43 66 3d
       -0.07163072 0.13106902 -0.13706137 0.056216866
000060 d9 e3 8d bd 6b 11 83 3e e9 81 c1 bd 6e 4a 4c bd
       -0.06928224 0.25599226 -0.094486065 -0.04987567
000070 35 4a 3a be 49 78 1f 3d a0 1c 91 be c8 43 2c 3e
       -0.1819237 0.038933072 -0.28342152 0.16822731
000080 72 1c 0e be b1 5d 4a 3e e2 66 e8 be 0b 5e 72 bf
       -0.13878039 0.19762303 -0.45390993 -0.9467475
000090 e5 50 48 be 31 f1 5e 3e 81 40 07 be e9 71 62 bd
       -0.19562109 0.21771695 -0.132082 -0.055284414
0000a0 19 1f f7 bd 38 ad 86 bd a7 bd 3f bf 05 f7 4c be
       -0.12066478 -0.065760076 -0.7489876 -0.20016105
0000b0 f0 89 c0 bd 63 25 49 be 3e c3 9f 3d d6 5d 2f 3e
       -0.094013095 -0.19643168 0.07800911 0.1712564
0000c0 c7 a1 6a 3d 5e a6 31 be 29 4a a3 be fc 51 2d bf
       0.05728319 -0.1734862 -0.31892517 -0.67703223
0000d0 e6 fc a7 bd a0 bf f5 be 27 8d 83 3b 8d 38 e3 bc
       -0.082025334 -0.4799776 0.0040146294 -0.027736926
0000e0 97 6e e4 bf b8 0e bc bd df 4c 01 3e f9 83 98 3c
       -1.7846249 -0.09182495 0.1262698 0.018617617
0000f0 16 42 c3 c0 97 f6 38 bf 56 6b 06 be 96 37 71 be
       -6.101817 -0.72251266 -0.13126883 -0.2355636
000100 35 b2 d7 3c 02 3e d9 3d 6d ea 28 bd 0f 54 18 bd
       0.026330093 0.1060753 -0.04123919 -0.03718954
000110 f3 6c e7 bd ae f4 5b bd 0d b9 2a be a7 a6 dd bd
       -0.11300077 -0.05370014 -0.16672154 -0.10822802
000120 7f fb 7a bd fb 12 a4 3c 19 7c 86 3c b6 d4 50 be
       -0.061275 0.020028582 0.016416596 -0.20393643
000130 02 01 f0 bd 18 55 9f be 76 f3 79 be 48 1d ce 3d
       -0.11718942 -0.3111961 -0.24409279 0.10064179
000140 10 31 75 be c4 64 d1 3d 09 02 68 3d 7b 0d 94 be
       -0.23944497 0.10224298 0.056642566 -0.28916535
000150 58 e8 36 bf 15 08 22 c0 09 98 5d bc 20 b0 b0 be
       -0.7144828 -2.5317433 -0.013525018 -0.34509373
000160 90 97 68 be 73 27 e0 3c 87 b6 8f bd 2f 93 dd be
       -0.22714067 0.02736256 -0.07017236 -0.43276355
000170 a7 d7 46 bf 55 74 1e bd 3f e5 e1 3d 2f 34 b3 bd
       -0.7767281 -0.03868516 0.11030053 -0.087501876
000180 d1 d2 b7 3d fc 14 20 3f d5 01 04 be e1 cb c9 bb
       0.08975757 0.6253202 -0.12891324 -0.0061583375
000190 e5 4a 90 3e ff 09 07 bf bb e9 0a bd 66 3b 81 be
       0.2818214 -0.5274963 -0.03391431 -0.2524063
0001a0 f0 2a 3a 3d 89 56 21 bd c4 f9 76 bf e0 a8 82 3d
       0.045451105 -0.039389167 -0.9647486 0.063798666
0001b0 3b 53 af bd d4 68 58 3d b1 65 5d bd fb 26 87 be
       -0.08560797 0.052834347 -0.05405206 -0.26396927
0001c0 70 d0 6a bd 9e 65 9e be f7 55 00 3d 0d 25 99 3e
       -0.057327688 -0.30936903 0.031331982 0.2991108
0001d0 30 4d c7 bd 4d 4b 41 3c 24 00 90 be 9c 72 dc bc
       -0.09731519 0.011797738 -0.28125107 -0.026910119
0001e0 62 9a 15 be 13 01 39 bc df 67 81 3d d7 f2 15 bd
       -0.14609674 -0.01129176 0.0631864 -0.036608543
0001f0 6b 69 19 be 02 6f 30 3e 23 a0 5e bb 11 91 9e bd
       -0.1498162 0.17229846 -0.003396996 -0.07742513
000200 40 db 33 be 44 3a b3 3d d8 0b c5 be 7b e1 45 3c
       -0.17564106 0.08751348 -0.384856 0.0120776845
000210 62 bd 86 bd 83 ec 1b 3b 01 64 9c bd 1d e6 b4 3e
       -0.06579091 0.0023792095 -0.07636262 0.35331813
000220 7d 78 26 3e 8d 66 56 3d 2e f7 3e be 2f ef de bb
       0.162569 0.052343894 -0.18648979 -0.0068034153
000230 1c ee 5f be 4e 10 0e be 38 60 27 bf c4 46 43 be
       -0.21868175 -0.13873407 -0.65381193 -0.19069964
000240 d5 75 f9 bd 4f 3b 84 3e 0a b2 a6 3c ab 04 c6 bc
       -0.12180678 0.258265 0.020348568 -0.024172148
000250 7f 0b aa bd 22 96 e9 bd 52 ef ac be 1b b0 05 bf
       -0.08302974 -0.11405589 -0.33776337 -0.5222184
000260 01 69 75 3d df 9c df be 41 05 a7 3d f7 30 20 be
       0.059914593 -0.4367437 0.08155299 -0.15643679
000270 17 b0 33 bf f1 89 7b bf a2 c5 10 bd 62 a1 d7 3d
       -0.70190567 -0.98257357 -0.035344727 0.10528828
000280 10 bf ca bf dd 9f b6 3e b5 3a c6 3c c3 af 97 3e
       -1.5839558 0.3566884 0.024197916 0.29626283
000290 20 d8 87 bc e9 38 2b be cb d1 89 3c 02 72 94 bc
       -0.016582549 -0.16720928 0.01682367 -0.01812077
0002a0 8d 40 a5 bd 88 e2 a6 bd ea 70 a0 3e 25 30 0c 3d
       -0.08068953 -0.08148676 0.31336147 0.0342256
0002b0 4a 25 84 3c 4e fb 5e 3d 41 45 0f 3d ff 6d 54 bd
       0.016131062 0.05443888 0.034978155 -0.051862713
0002c0 8a 9b 5a bd 39 0c b1 3d 29 47 a3 3e bf 6f e0 bc
       -0.05337099 0.086449094 0.31890228 -0.027397035
0002d0 3b 8a 25 be b4 a8 ed 3d 6a b9 f8 bd cd a5 90 bd
       -0.16166012 0.11604443 -0.1214474 -0.07062874
0002e0 20 aa a7 be 38 b4 a3 bf 06 e2 01 bd fc 54 ce be
       -0.32746983 -1.2789373 -0.031709693 -0.40299213
0002f0 56 06 3e be c4 3e 79 bd ed 4f 3c bd bf c4 a6 3e
       -0.18557104 -0.060850874 -0.04597466 0.3257198
000300 a0 3e 13 be dd 0a d3 3d 20 f0 68 bd 37 de 96 bb
       -0.14379358 0.103048064 -0.056869626 -0.004604127
000310 71 b0 1c bd 78 59 d0 bd b6 d0 c0 be 09 51 23 3e
       -0.038254205 -0.10173315 -0.37659234 0.15948881
000320 56 33 57 be 65 20 31 bf 66 3a bb bd 16 fb b4 be
       -0.21015677 -0.69190055 -0.09141998 -0.35347813
000330 f6 43 0a 3e 8b 84 fe bd dc 7f 21 bf 37 3e c5 be
       0.13502488 -0.12427624 -0.6308572 -0.3852403
000340 ce a8 67 bd 9d d5 94 bc 5b 46 6e bf b8 6c 70 bd
       -0.05655747 -0.018168265 -0.93076104 -0.058697432
000350 4d 61 6e be 0c 25 4a be ec 94 eb 3d 84 f5 9d 3d
       -0.23279305 -0.19740695 0.11503014 0.07712844
000360 8f 23 2e bd fc 4b 4f bd 35 3b 38 3d 92 cb e9 be
       -0.04251438 -0.050609574 0.04497834 -0.45663124
000370 64 bd 7f bd 36 97 82 3e 7a 07 27 bd 7f aa 2b bd
       -0.062436476 0.2550599 -0.040778615 -0.041910645
000380 54 b9 5c 3b 97 c4 e5 bd 28 08 4d bd 58 4d 42 3d
       0.00336798 -0.11219137 -0.050056607 0.047437042
000390 a0 b1 30 be 51 67 b8 bd 0a c0 01 be 1b 23 ef bc
       -0.17255259 -0.09004081 -0.12670913 -0.029191544
0003a0 6b 6b 8d 3e ca 9d c9 3d 97 0c 5c be 97 a3 3e bf
       0.27621016 0.09844549 -0.21489178 -0.7446837
0003b0 d5 a8 ca 3c e4 90 f9 3d a2 26 8c 3d fe aa ae 3d
       0.024738709 0.12185839 0.06843306 0.08528708
0003c0 87 fc 1d be ce 23 5b be 05 1b 24 bf 19 18 07 be
       -0.15428363 -0.21400377 -0.6410373 -0.13192786
0003d0 bc 1c 8b 3d f2 98 23 be e4 9c 5b 3c 13 76 9b bd
       0.0679259 -0.15976313 0.013404105 -0.0759088
0003e0 17 15 11 3d c4 e9 21 bd be 46 3b be c9 cb 02 be
       0.035420503 -0.039529577 -0.18288705 -0.1277305
0003f0 5c f3 c2 bd 68 f5 86 3e b8 80 d0 3d 68 4a b2 3e
       -0.09519073 0.26359105 0.10180801 0.34822392

fc2.bias f4 [7]
000000 7f cf 8f be b0 48 c4 bf 33 06 1e 3e 6f 1a 9c 3d
       -0.28087994 -1.5334682 0.15432052 0.07622229
000010 07 d5 e4 3e c2 b9 cc be c8 01 80 3e
       0.44693777 -0.39985472 0.2500136

localization.0.weight f4 [8, 1, 7, 7]
000000 11 ac 3b 3d e0 54 ae bc 7d 0d a0 3d 22 e9 06 3e
       0.045818392 -0.021280706 0.07815073 0.1317487
000010 51 a3 50 3d 98 89 de 3d 70 82 2d 3e f0 dd 3d 3e
       0.050937 0.10866088 0.16944289 0.18541694
000020 d8 dd f4 3d f5 7f 7a 3e 26 6e df 3d ed 88 2d 3e
       0.11956376 0.24462874 0.10909681 0.16946764
000030 e4 35 6a 3e cf 5e 44 3c 00 9d 06 bd 08 07 af 3d
       0.2287212 0.011985495 -0.03286457 0.08546263
000040 8a d4 52 3e 33 e6 37 3b 83 16 40 3e 6d 63 19 3e
       0.2058889 0.0028060793 0.18758588 0.14979334
000050 f6 6d 98 bd d2 63 a7 3d d2 cd 95 bd 3a ad 55 bd
       -0.074428484 0.08173336 -0.07314648 -0.052167155
000060 16 b2 41 3e 49 83 46 3d 03 5f 61 3c 3d 44 b6 3c
       0.1891559 0.048465047 0.013755563 0.022249335
000070 3e f8 41 3d 23 11 a4 bd 9e 82 3f 3e a5 eb e2 3b
       0.047355883 -0.08011081 0.1870217 0.0069250637
000080 b1 5f ea 3d a5 fa 14 3e ac d7 29 bc cf b1 f2 3d
       0.11444033 0.14548738 -0.010366362 0.118503205
000090 ed ad a9 bd 62 5c 42 3e 6d 7f 09 3e f2 f4 23 3d
       -0.08285127 0.18980554 0.13427515 0.04002852
0000a0 63 8a 01 3e 24 e8 81 bd 17 72 8b bc 33 d3 02 3e
       0.12650447 -0.063431054 -0.017022176 0.12775879
0000b0 d2 fd 28 3d 9e 6a 79 bd 94 c3 fd 3c 7b c1 03 3e
       0.041257687 -0.060892694 0.030977048 0.12866776
0000c0 24 93 1c bc ab 75 de bd 80 25 96 bc 4d 0a a4 3d
       -0.009556565 -0.10862287 -0.018328428 0.08009777
0000d0 e4 a9 e0 bd 89 85 c0 bc df 56 42 3d d4 0a 82 39
       -0.10969904 -0.023501175 0.047446128 0.000248036
0000e0 62 15 0f 3e 6f 11 cb 3d 60 cd 07 be 6e a5 4d 3d
       0.13973 0.099154346 -0.13261938 0.050206594
0000f0 fc e7 cc 3d b1 42 e3 bd 8a ca 86 bc b6 e1 ca bc
       0.10005185 -0.11096705 -0.016454 -0.02476583
000100 94 8a db bd 99 8a a0 3d 1a aa c0 bd 27 3c 7a bd
       -0.10719791 0.078389354 -0.09407444 -0.061092522
000110 f3 62 57 3d 0e 7c 4d be f3 ea d3 bd ea 19 f8 bd
       0.0525846 -0.20066854 -0.103475474 -0.12114318
000120 ad 59 26 3d b7 32 c9 3d 62 99 e3 bd 0d b1 00 bd
       0.040612865 0.09824126 -0.1111324 -0.03141885
000130 03 77 80 bd cc f8 cd 3d b9 6e d7 bc 9f 1c 3a 3d
       -0.062727 0.1005722 -0.026297914 0.04543745
000140 e9 4e a9 3c fd fe c3 bd a3 5a 9f bd fa 85 c0 bd
       0.02066751 -0.095701195 -0.077809595 -0.09400554
000150 60 c0 33 be 56 22 8b 3d b6 11 13 bc e4 c5 99 3d
       -0.17553854 0.067936584 -0.008976391 0.07508448
000160 68 b5 c7 bd c3 41 55 bd 69 07 85 3a 50 d7 94 bb
       -0.09751397 -0.05206467 0.0010149303 -0.004542269
000170 06 33 ae bd de 7a 49 bd c7 06 0e be 9f 6b ad 3d
       -0.08505826 -0.04918944 -0.13869773 0.08467793
000180 3c 17 15 bd f5 bb 1e be 21 ea 4c bd ae cc aa bc
       -0.03639911 -0.15501387 -0.05002797 -0.020849552
000190 af 0a 4f 3d 6b 15 aa bd c1 35 c0 3d 36 b7 f1 3d
       0.050547298 -0.083048664 0.09385253 0.11802523
0001a0 e3 e2 3a bc 68 38 a0 3d 3a b4 1d bd 52 81 d6 bd
       -0.011406633 0.07823259 -0.038501956 -0.10473885
0001b0 22 4c 05 3e bf 16 84 3d dd 44 37 bd 83 07 fa bd
       0.13017324 0.06449651 -0.044743408 -0.12208464
0001c0 a8 c0 22 3b 00 a4 14 bd 9b 69 f9 bb c9 70 03 3e
       0.002483407 -0.036289215 -0.007611466 0.12835993
0001d0 b7 c9 cf bd c8 d5 a5 3d 88 d5 68 bd 75 5a b2 bd
       -0.10145896 0.08097416 -0.056844264 -0.087086596
0001e0 32 0a 83 bd 8e bc 9f bd 24 d4 e2 bb 79 59 25 be
       -0.06398429 -0.07799636 -0.006922262 -0.16147412
0001f0 03 37 01 be 93 0d 0c 3d 6d 17 00 3e e9 68 23 bd
       -0.12618642 0.034192633 0.12508936 -0.039894972
000200 fe ba 38 3d a5 89 b1 ba bf e6 b2 3d 04 1e 9c bc
       0.045100205 -0.001354505 0.087354176 -0.019057281
000210 73 42 6a 3d 75 7c 13 3e 28 00 cd bd 67 6b cd bd
       0.057192277 0.14402945 -0.100097954 -0.10030251
000220 01 6e c3 3c be 05 3e bd d5 ad 84 3b 0a df 6d 3c
       0.023856165 -0.046392195 0.0040490427 0.014518509
000230 55 1b 0a be 38 7b 8c 3d 30 dd 26 3c d5 68 6a 3d
       -0.13486989 0.068594396 0.010184571 0.057228882
000240 c7 30 a6 bd 2c 15 37 be b1 76 38 be c7 30 c4 bc
       -0.08114772 -0.1787917 -0.18014027 -0.02394904
000250 3d 9f c2 bd e4 d9 bd bd b7 08 1d bd e2 d9 33 3c
       -0.095030285 -0.09270075 -0.03833839 0.01097724
000260 67 e6 58 3d 76 c7 97 bd 39 ba 88 3d 46 3d 8a bc
       0.052954104 -0.07411091 0.06676144 -0.01687492
000270 fd 17 8a bd b3 e9 01 3e 68 d0 c1 3d 21 20 90 bd
       -0.06742857 0.12686805 0.094635785 -0.07037378
000280 04 2d ac 3d 30 9e 06 3e f9 38 f5 3d 20 09 93 3d
       0.084070235 0.13146281 0.11973757 0.07179475
000290 ca 8d 03 3e e9 72 31 3c 7b e0 f0 bd 2a 97 f7 3d
       0.12847057 0.010830619 -0.11761566 0.12089379
0002a0 9c 7e 90 3d 80 e0 43 3d a9 b6 f9 3c a4 ed 98 bc
       0.07055399 0.04782152 0.030482607 -0.018668003
0002b0 af 69 04 bd a4 ab fb bd 0b eb 0c 3e c7 98 c3 3d
       -0.03232735 -0.12288597 0.13761537 0.09550624
0002c0 24 86 84 bc d5 0c d4 3d 49 eb 91 3d a7 b0 a2 3d
       -0.016177244 0.1035401 0.07124955 0.0794385
0002d0 ff b3 a3 3d 53 c2 11 be f8 42 52 3d 31 45 44 be
       0.07993316 -0.14234285 0.051333398 -0.1916702
0002e0 4c 73 9b 3d ef d6 0d bd b7 ce 93 bd cd 7f 4a 3c
       0.075903505 -0.034628805 -0.07217162 0.012359572
0002f0 b9 fb 92 bd ff 56 1d be fb 57 18 be aa 70 7e 3c
       -0.071769185 -0.15365218 -0.14877312 0.015529791
000300 55 c6 c7 bd 2f 4c 07 bc b4 b2 61 3c 2c c8 84 3d
       -0.09754626 -0.00825791 0.013775516 0.06483492
000310 f7 9a 9b bd cb 86 18 be b1 b7 37 bc 08 d2 bf 3d
       -0.075979166 -0.1489517 -0.011213229 0.09366232
000320 3d e2 0a 3e 92 6b 20 bc 38 b9 3f bd fa fc ff bd
       0.13562866 -0.009791272 -0.046807498 -0.12499423
000330 13 64 b0 bd 2f d3 d8 3d 00 33 bc bd 76 d5 d1 3d
       -0.08612838 0.10587155 -0.09189415 0.102457926
000340 92 cf 11 3e 47 05 ee 3d c6 38 a1 bd 93 e1 9f bd
       0.14239338 0.116221 -0.07872157 -0.07806697
000350 c6 42 6f 3d 46 41 b5 bb 35 b8 18 3e 58 56 96 3d
       0.05841329 -0.005531463 0.1491402 0.073406875
000360 01 27 a7 3d 4f 9b 04 ba 1f c1 68 3d 50 91 64 bb
       0.08161736 -0.0005058543 0.0568248 -0.0034876652
000370 0f 1f d0 3d e1 79 83 bd 8d 2d 49 bd 48 82 01 3e
       0.10162174 -0.06419731 -0.049115706 0.12647355
000380 c7 a5 b2 bd b5 ea 05 bd d9 9a 12 bd 90 a9 ab 3d
       -0.08723026 -0.032694537 -0.035792205 0.08381951
000390 50 e1 90 bd c0 6f 63 3a 15 be e6 ba e7 c4 2d be
       -0.07074225 0.0008676015 -0.0017604256 -0.16969644
0003a0 f8 f3 a4 bb 61 b0 8c 3d 6e fd e3 bd b7 c8 dc 3d
       -0.005033966 0.06869579 -0.11132322 0.10780471
0003b0 03 3b f0 3d c4 7a 54 3d b4 f9 1a 3d 93 c2 0e be
       0.117300056 0.05187489 0.03783579 -0.13941412
0003c0 45 db 06 bc 59 87 dd 3c 25 82 4b 3d b9 3f 21 be
       -0.008230989 0.027042078 0.049684662 -0.15746965
0003d0 1f 55 71 3d 5c 7a 6b bc 3f d2 1c 3e f0 a7 e6 3d
       0.05891907 -0.0143724345 0.15314578 0.112625
0003e0 81 74 ee 3d 4a c7 83 3b 7f 18 de 3c 7a de 70 3c
       0.11643315 0.00402156 0.02711129 0.01470148
0003f0 03 a0 c7 3d 43 56 ca 3d 0f 48 47 bd b0 ee a4 3d
       0.09747317 0.09879734 -0.048652705 0.080533385

localization.0.bias f4 [8]
000000 c0 6d 36 3e ba 79 8e bd 8f e4 9c bd 03 10 5b be
       0.17815304 -0.06956811 -0.076607816 -0.21392827
000010 f1 38 30 bd 66 58 d9 bd 3f 2d 4c be e0 2b 70 be
       -0.043023054 -0.10612564 -0.19939135 -0.23454237
