EmpathyBot/model_snapshots/deep_emotion-200-64-0.005-0.5128800544925383.pt (torch_old, 271007 bytes, 24 tensors)

conv1.weight f4 [10, 1, 3, 3]
000000 56 0e 4a 3d 78 46 48 bd 3f 67 e1 bf 38 ca a1 3e
       0.049330078 -0.04889533 -1.7609633 0.31599593
000010 4e 5e f4 3e 17 83 f5 3c 80 c1 6f bf 03 38 57 3f
       0.477282 0.029969735 -0.9365463 0.8406984
000020 87 b3 a7 3f 55 95 6f bf c0 65 ab 3e 70 2f 97 3f
       1.3101662 -0.9358724 0.33476067 1.1811352
000030 c1 35 c5 bf be 56 30 bf ae c9 c5 3f c6 cb 00 bf
       -1.5407029 -0.6888236 1.5452173 -0.50310934
000040 a4 14 58 3e a8 49 d6 3e 11 68 73 3f 69 eb 63 be
       0.21101624 0.4185307 0.9508067 -0.2225777
000050 73 3d ba be 15 92 3d 3f 0f d7 d7 be dc 74 de be
       -0.36375007 0.7405103 -0.42156264 -0.43448532
000060 87 67 ea be b9 7b 02 bf 40 66 5b bf 44 4b 9a 3f
       -0.4578211 -0.50970036 -0.85702896 1.2054219
000070 22 e7 a5 3f 86 07 d2 3e 7b 6b 73 bf fe ff d2 bc
       1.2961161 0.41021365 -0.9508588 -0.025756832
000080 50 04 5d 3d a5 78 86 bf cd a5 23 bf 56 82 93 be
       0.05395919 -1.0505568 -0.63924867 -0.28810376
000090 f1 02 09 bf bd 5d a5 be ca 0f 8c 3e a0 42 42 3d
       -0.53520113 -0.3229808 0.27355796 0.04742682
0000a0 9c f7 cf be 57 4b c7 be e8 46 9c 3f 68 9f 0b 3f
       -0.40618598 -0.38924667 1.2209139 0.5454011
0000b0 89 af 96 be 52 f4 30 3f 8f 60 52 3f 41 66 52 3f
       -0.29430798 0.69122803 0.82178587 0.8218728
0000c0 7e c8 83 3f 5d ce 6f 3e df 67 ee bf fe 99 78 3e
       1.029556 0.23418565 -1.8625449 0.24277493
0000d0 e9 39 02 bf a2 28 72 bf 8c b4 ef bd 72 ab e1 3d
       -0.50869614 -0.9459325 -0.117043585 0.11019029
0000e0 81 0e 9b bf e2 88 54 3f 3b 3b 38 3f a5 74 9b bf
       -1.2113801 0.83021367 0.7196538 -1.2144972
0000f0 92 67 75 3f de e1 bf 3e 58 16 a9 be ae 1c 98 be
       0.9586116 0.3747701 -0.3302486 -0.2970938
000100 8c ca 8f be be 03 05 3f 31 5c c0 bf d9 27 58 be
       -0.28084219 0.51958835 -1.5028135 -0.2110895
000110 07 90 13 3f 26 a2 e7 3c 08 97 a6 3f 7d 96 e9 3e
       0.57641643 0.02827556 1.3014841 0.45622626
000120 91 bc a0 bf 39 8f 06 bf 0a 0b 53 be 87 72 81 3d
       -1.2557546 -0.5256229 -0.2060968 0.063206725
000130 7c 6e 9c 3e a9 a8 28 3e 15 d3 99 3f 25 f6 99 3f
       0.30553043 0.16470589 1.2017542 1.2028242
000140 ee 11 55 bf 00 af c7 3e 3c 30 f6 be 1f 34 86 3f
       -0.83230484 0.39000702 -0.48083675 1.0484656
000150 58 da 5d be 24 cd ae bf b5 15 47 bf 46 9e 6b 3e
       -0.21665323 -1.3656354 -0.777675 0.23009595
000160 7b a7 fa 3e b1 f6 6a 3f
       0.48955902 0.9178267

conv1.bias f4 [10]
000000 62 06 82 3e c7 20 8e be ad e9 04 bf b9 55 6e 3e
       0.25395495 -0.27759382 -0.5191906 0.23274888
000010 5e 0f 19 3e 78 17 1a bf 28 3b e3 3e d2 ad 16 3f
       0.14947268 -0.6019206 0.4438107 0.5885898
000020 07 e9 a6 3e 55 03 22 3e
       0.3259966 0.15821584

conv2.weight f4 [10, 10, 3, 3]
000000 59 6c aa bd 61 a1 ed bd 91 92 c9 bd 7e 63 2c be
       -0.08321447 -0.11603046 -0.098424084 -0.16834828
000010 80 d0 d4 bd 31 57 ef bd 6d ab c9 bd 3d 95 81 be
       -0.10391331 -0.11686552 -0.0984715 -0.25309172
000020 4a dc eb bd f6 33 bb bd 88 4f eb 3c 18 de b1 bc
       -0.11516626 -0.0914077 0.028724447 -0.021712348
000030 ce ee 8a 3c 94 43 09 3d a8 59 22 3c 05 a5 e6 3c
       0.016959574 0.033511713 0.009909071 0.02815486
000040 57 22 10 be 56 80 48 b9 19 81 14 bd 28 03 15 3d
       -0.140756 -0.00019121295 -0.03625593 0.036379963
000050 d9 9f 7d 3d 0a c7 08 be 35 c0 18 3c 29 28 22 3c
       0.06192002 -0.13357177 0.0093231695 0.00989727
000060 4f 7c 8d 3c de de d4 bd 77 fe 07 be a4 18 04 be
       0.017271189 -0.10394071 -0.13280664 -0.12900025
000070 cc 68 f2 bd 15 e9 68 bc 3f d6 8f be c7 a1 88 be
       -0.11836395 -0.014215727 -0.28093144 -0.26685926
000080 8e 80 13 3d 0d 46 e5 bd 55 f6 12 be 73 c4 41 be
       0.03601127 -0.11195002 -0.1435178 -0.18922596
000090 a4 17 35 bd f1 d3 bd bd 11 49 6a be dd a3 89 bd
       -0.044212 -0.0926894 -0.22879435 -0.067207076
0000a0 5b e3 34 be e5 00 d8 3d 0f 73 9f bc 99 db cf bd
       -0.17664854 0.105470456 -0.019464044 -0.10149307
0000b0 f4 2a 5b be 17 be cd 3c b1 34 b1 bd 5f 67 27 bd
       -0.21403104 0.025115056 -0.08652628 -0.040870067
0000c0 8f 76 fd bc 9f 0a 96 3d e5 98 0a 3c f5 e5 cf ba
       -0.030940322 0.073262446 0.008459304 -0.0015861379
0000d0 6f e6 24 bd d2 f6 d6 bd e5 6e 5c be 0a 40 d9 bd
       -0.04025882 -0.10496296 -0.21526678 -0.106079176
0000e0 b2 3f d0 bd d2 5c 40 3d d1 6f 8d be 26 55 7c be
       -0.10168399 0.04696352 -0.27624372 -0.24641857
0000f0 33 a6 96 bd 44 d7 cd 3b 1c ac 10 be fd af 71 be
       -0.07355919 0.006281765 -0.14128155 -0.2360229
000100 f2 30 4c be 2c 99 5c bd a0 92 f1 bd f4 2b 17 be
       -0.19940546 -0.053857014 -0.117955446 -0.1476286
000110 3c f5 f2 3c 8d 7c 63 be a0 49 d1 bd 6b 65 b4 bd
       0.029657952 -0.22215481 -0.10219121 -0.088084064
000120 e7 21 6d be 4c dc b8 bd ed 3c 46 be 25 84 4c be
       -0.23157464 -0.09026393 -0.19359179 -0.19972284
000130 4c e6 2f be 87 2b 7e be c1 9c c7 bd 25 c7 95 bc
       -0.17177695 -0.24821292 -0.09746695 -0.018283436
000140 5b 7f 37 3d 17 4f d2 bd c7 e0 52 3d b3 b6 84 bd
       0.04479919 -0.102689914 0.051483896 -0.064801596
000150 e4 cf 31 be c0 64 fa bc 08 33 50 3c b5 10 3b bd
       -0.1736446 -0.03056562 0.012707479 -0.04567023
000160 c1 93 64 be c6 53 98 bd 09 1e 05 bf f4 d4 7e be
       -0.22321989 -0.074378535 -0.51998955 -0.24885923
000170 46 f8 a0 3c 4b 30 26 bd d4 07 54 be 03 08 31 be
       0.019649636 -0.0405734 -0.20706111 -0.17288212
000180 cd 15 a5 bf 44 f4 31 bd e2 7e 09 bf 77 f0 4e 3d
       -1.2897278 -0.04344584 -0.5370923 0.050522294
000190 fa d6 a5 be ce 49 fa be 32 6b 3b bf f7 b3 99 bf
       -0.32390577 -0.48884434 -0.7321044 -1.2008046
0001a0 98 01 39 bf 2c b4 76 bd af a7 ad be c4 00 7b bf
       -0.72268057 -0.06023042 -0.33916995 -0.98048043
0001b0 98 a2 c5 be 80 00 1c be 62 81 ce be 2f 83 25 be
       -0.38600612 -0.15234566 -0.40333086 -0.16163324
0001c0 95 c8 18 be 17 5c 6e 3c d6 b3 18 3f 3e 98 58 bd
       -0.14920266 0.014548323 0.5964941 -0.052879564
0001d0 25 25 98 bc 2e 2e 6f be 29 41 5d bf c5 46 9c bf
       -0.0185724 -0.2335746 -0.8642755 -1.2209097
0001e0 02 16 81 3f aa 6c 50 3f b1 3d c0 3e 1d 8b ab 3f
       1.0084841 0.8141581 0.37547067 1.3401829
0001f0 71 f9 7b 3f c1 9f 6b 3f 2d 2b 39 3f ae c7 85 3e
       0.9842749 0.9204064 0.72331506 0.26128906
000200 a8 88 01 3e d0 f6 a3 bf 3d 0f 91 be a0 98 ff 3e
       0.12649786 -1.2809696 -0.28331938 0.4992113
000210 45 f7 fb 3e 49 d5 57 bf 57 f7 94 bf b1 bf 41 3f
       0.4921209 -0.8430982 -1.1637982 0.7568312
000220 88 b1 10 3f b2 8a 35 3e f8 95 ef be 4d c0 8d 3e
       0.5652089 0.1772869 -0.46794105 0.27685776
000230 3b a3 d6 3e f4 2d 8b bf ea 28 00 bf f9 f2 84 3e
       0.4192141 -1.0873399 -0.5006243 0.25966623
000240 fc 7e 22 be 95 e2 2e 3e 7a cf 21 3f ca c2 5c bf
       -0.15868753 0.17078622 0.6320721 -0.86234725
000250 47 ec 16 bc 8c 1f 4e 3e 3f 60 7b bf 99 b9 11 bf
       -0.009211606 0.20129222 -0.98193735 -0.56923825
000260 87 6a 9b be b2 14 ca 3e 51 81 bd 3e b7 c5 99 3e
       -0.3035471 0.39468914 0.37012723 0.30033657
000270 d2 49 4b bf cd b1 e9 3c a1 32 af 3f 6d 6b 00 3e
       -0.79409516 0.028527165 1.3687326 0.1254098
000280 48 60 cf bd 9d fc d7 3e 9b f9 29 3f 55 47 00 3f
       -0.10125786 0.42184916 0.6639649 0.50108844
000290 ba a5 d2 3e c2 df 99 bf f6 ef 8d bf a5 10 5c bd
       0.41142064 -1.202141 -1.1088855 -0.05372681
0002a0 91 70 8c bf 37 21 bc bf f3 b6 5f bf a6 cb 4b be
       -1.0971853 -1.4697636 -0.87388533 -0.19901904
0002b0 38 1b 08 bf 6b 3e 28 3e e8 d1 67 bf c5 62 d2 3e
       -0.5316653 0.1643006 -0.90554667 0.4109098
0002c0 a8 62 d3 3f 44 d4 90 3f c5 c1 aa be 27 40 47 bf
       1.6514482 1.1314778 -0.3335096 -0.77832264
0002d0 9a 7e 8c bf 52 70 42 bf 88 6a 60 bf 2a 9c 4a bf
       -1.0976136 -0.7595264 -0.87662554 -0.7914454
0002e0 b5 99 23 3f aa 92 ea 3d 0c f2 34 3f 3e 28 7e be
       0.63906413 0.11453755 0.70681834 -0.24820039
0002f0 73 16 b2 bf 68 6d c9 bf df 4d 0c 3f 68 2b e9 3e
       -1.3913101 -1.5736513 0.5480632 0.4554093
000300 35 35 22 c0 ec d9 4f bf 83 89 77 bf 54 4e 0a c0
       -2.5344975 -0.811919 -0.966942 -2.1610308
000310 92 01 34 be 7c e0 80 3f 17 dd e8 bd e8 d1 7b bd
       -0.17578724 1.0068507 -0.113702945 -0.06147948
000320 00 4a 2f bf 85 95 3c 3f c9 db 81 3e b1 5a 0a bf
       -0.6847229 0.7366565 0.25362995 -0.54044634
000330 b7 49 90 3f 9b 61 71 3f fc 10 96 3e 39 fa 70 be
       1.1272496 0.9428956 0.29309833 -0.23532952
000340 ae b2 e7 3e fc 1a 8d 3f fe ae e1 3d 84 58 9d 3e
       0.4525351 1.102386 0.11019705 0.30731595
000350 80 a5 ec 3e d3 9e 5f be f2 d2 d6 3e 35 db 6d 3f
       0.46220016 -0.2183793 0.41957814 0.9291261
000360 c6 0d 84 bf 44 70 15 3e 7b ab c0 bd 1b bc f6 bf
       -1.0316703 0.14593607 -0.09407707 -1.9276155
000370 ef cb 7d bf 57 8e 8f 3e ba 5c c4 be 6f 89 5c 3a
       -0.991393 0.28038284 -0.38351995 0.0008412813
000380 f9 07 2c be f4 13 f9 3e 66 81 24 3e b6 57 3e bf
       -0.16799916 0.48648036 0.16064987 -0.74352586
000390 48 10 d8 3b 5e df ba be 29 83 0a c0 e6 a0 1d 3f
       0.0065937378 -0.3649854 -2.1642554 0.61573637
0003a0 38 85 73 3f ec f3 79 bf cd e3 1c bf 1f 0b 4d bf
       0.9512515 -0.9763782 -0.61285096 -0.80095094
0003b0 f7 ee 0e bf f5 0a 68 bf 1e d2 5e bf d1 3e 6f bf
       -0.5583338 -0.9064172 -0.87039363 -0.93455225
0003c0 97 9d 1a 3f ac 08 aa 3f 36 30 e0 3e bf 7b 84 3f
       0.60396713 1.3283896 0.43786782 1.0350264
0003d0 dc 40 7a be 35 8a 08 c0 d5 25 50 3e c3 8e 78 be
       -0.24438804 -2.1334355 0.20326932 -0.2427321
0003e0 af 05 66 bd 89 6a f7 bf be 97 6b be 10 f1 dc 3c
       -0.056157764 -1.9329387 -0.23007104 0.026970416
0003f0 38 5d c9 bd 83 08 f1 3e 42 4e ba bf 64 40 8a be
       -0.09832233 0.47076806 -1.4555132 -0.2700225

conv2.bias f4 [10]
000000 6b fa 81 be 76 42 81 3f 46 5c fb 3d 4d 3f 9b bd
       -0.25386366 1.0098407 0.12273459 -0.07580433
000010 7f 43 d0 3f 65 0b e4 3f 1f 03 9f 3e 63 bc e7 3e
       1.6270598 1.7815977 0.3105707 0.45260915
000020 1b 0e 3d bd d6 ce 54 3f
       -0.04615603 0.83128107

conv3.weight f4 [10, 10, 3, 3]
000000 03 a7 ad bc c1 eb 02 3e bc d6 cd bd 84 fb 0a bd
       -0.021197801 0.12785245 -0.10050723 -0.03393127
000010 b8 84 da 3d 3a 3d 2c 3d b4 98 2a 3e 22 77 95 3d
       0.10669845 0.042050578 0.16659814 0.072981134
000020 86 5e 8a bc a3 41 87 bf a8 8f fe be 0c 4a 5d be
       -0.016890775 -1.0566906 -0.49718976 -0.21610278
000030 91 de 86 bf 62 87 1a 3e df b0 7f bd 8f 37 39 bf
       -1.0536672 0.15090707 -0.062424537 -0.723504
000040 2e 30 d6 3e 6a 13 a9 3f f0 24 dd be f3 68 9e bd
       0.41833633 1.320905 -0.43192244 -0.07734861
000050 9f 65 60 3f 22 7b e2 3d bf 0a d6 3e ac 8b d0 3f
       0.8765506 0.11058642 0.41805074 1.6292624
000060 b3 5a e8 3e 30 40 3a 3f 8f 5c a0 3f b2 31 fe 3b
       0.45381698 0.7275419 1.2528247 0.007757389
000070 d7 fd fd 3c c6 88 d3 bc 1d 35 92 bc 38 84 d5 3d
       0.03100483 -0.025822055 -0.017847592 0.10425609
000080 1f 1d bf bd 4f 38 11 3d eb 63 cc 3d aa ee e7 3d
       -0.09331726 0.03545409 0.09979995 0.113248184
000090 ab 42 fb be a7 32 aa bf 73 ee 7f 3d 03 5e ba 3e
       -0.490743 -1.3296708 0.062483262 0.3639985
0000a0 51 54 89 3f 80 35 85 3f 9e fd 4a 3a 01 5b 4c 3f
       1.0728856 1.0406952 0.00077434804 0.7982636
0000b0 f1 29 6e 3f f7 a4 49 3e ce bc b7 3e 6d 19 88 3e
       0.9303275 0.19691835 0.35886234 0.26581898
0000c0 7d 1a 1a 3f eb 27 19 be 5c 46 8a 3e ee 59 0d 3f
       0.6019667 -0.14956634 0.27006805 0.55215347
0000d0 e3 45 00 bc 70 a8 c3 3e c3 87 c9 be 84 a9 ac be
       -0.007829162 0.38214445 -0.3936139 -0.3372308
0000e0 54 9a 05 3f af 62 e1 bd fb 65 72 be 45 87 3e 3f
       0.5218861 -0.110051505 -0.23671715 0.74425155
0000f0 65 9c fb be 60 18 01 3e 97 70 5f 3f 43 3e a6 bf
       -0.49142757 0.12606955 0.87281173 -1.2987751
000100 d6 7d aa bf 66 38 09 be 57 31 86 bf bb 7c 06 bf
       -1.3319652 -0.1340042 -1.0483807 -0.52534074
000110 35 3e 28 3f a2 9f e7 3e 2d 9a 99 3f 60 40 c5 bd
       0.6571992 0.45238978 1.2000176 -0.09631419
000120 df 75 f6 bc a5 05 17 be 7a a5 da bd 83 79 c5 3d
       -0.030085502 -0.14748247 -0.106760934 0.09642317
000130 78 69 f6 3b a0 33 8c bd e3 52 4c 3e 9b 5a 84 3c
       0.007519897 -0.06845784 0.19953494 0.016156485
000140 8f 05 3d 3e ed a9 69 3e ef 0e 09 3f ba 8d cf 3e
       0.18459152 0.22818728 0.5353841 0.40537816
000150 4e b7 8f 3f 50 da b1 3f fb 6c 05 3f 06 e1 dc 3f
       1.1227815 1.3894749 0.52119416 1.7256172
000160 fe be a1 3f ee 9e 92 3f 11 40 30 3d 73 3d 8f 3d
       1.2636411 1.1454751 0.04302985 0.069941424
000170 8a ce 3c bd f3 99 7d 3d ad 81 38 bd ae c3 fd 3d
       -0.04609541 0.061914396 -0.045045543 0.123908386
000180 cc bc 2c bd 35 68 de bb 72 06 da bd dd f2 9d 3c
       -0.04217224 -0.006787325 -0.106457606 0.019280845
000190 05 ab c1 bd a5 ab 8f bc c6 13 99 bd c0 6e cb bd
       -0.094564475 -0.017537901 -0.074744746 -0.09933233
0001a0 1d 8d 4f bd 8f 46 be ba 34 99 3c bd b4 fb d7 3c
       -0.050671685 -0.0014516878 -0.046044543 0.026365139
0001b0 30 43 28 3c 86 56 09 bd 0d d4 61 3c 29 ed cb bd
       0.010269925 -0.03352978 0.013783467 -0.09957344
0001c0 03 c8 d2 bc 83 47 d5 3d 53 e2 a5 3d fb 97 f5 bc
       -0.025730139 0.104140304 0.080998085 -0.029979696
0001d0 e8 fe a7 bb b4 94 fc 3c 7d 11 21 3c c1 7a e8 bd
       -0.0051268227 0.030832626 0.00983083 -0.113515384
0001e0 64 34 05 3d 29 26 e7 bd 4c 8f f3 bd 2c 57 c4 3d
       0.032520667 -0.11286575 -0.11892566 0.09586939
0001f0 8c de d4 bd b1 c2 80 3d f3 36 a9 bc b9 a8 2a 3c
       -0.1039401 0.062871344 -0.020656085 0.010416203
000200 00 e5 1c be a2 36 26 3d c1 24 dc bc d2 7c 58 3c
       -0.15321732 0.040579446 -0.026872994 0.013213353
000210 4b 8f 89 bd 70 5e 23 bc a0 b0 9a bd 7a 30 83 3d
       -0.06716784 -0.009971246 -0.0755322 0.064057305
000220 ab d4 0d be 34 5c 91 bd 2b 17 26 bd 53 b8 e2 bd
       -0.13850658 -0.070976645 -0.04054944 -0.11070313
000230 c3 59 ec bb 55 45 af 3d dd 6d f0 bd 37 bf d5 bd
       -0.007212849 0.08558146 -0.11739705 -0.10436862
000240 57 1d 1c bd 80 a2 5a bd a0 16 57 bb 88 05 10 bd
       -0.03811392 -0.05337763 -0.0032819882 -0.035161525
000250 4d b1 a9 bb 3f 7b 19 3d 43 81 77 bd 77 6a 17 bd
       -0.0051786066 0.037471052 -0.060426008 -0.036966767
000260 8a 35 87 3c d5 e5 be bd f2 6c 81 bd ba 38 19 bb
       0.016505022 -0.09321181 -0.06319608 -0.002337976
000270 37 4e 23 bd 15 da c9 bd 74 29 02 be bf 90 07 bd
       -0.039869513 -0.09856049 -0.12711126 -0.033097025
000280 0d 41 ef bd 34 36 1b be 2e 44 10 3e fc 70 c1 3c
       -0.11682329 -0.15157396 0.14088508 0.023613445
000290 d7 0e b2 3d c7 b2 8b 3c 72 e3 05 3e 63 c9 b6 3c
       0.08694237 0.017053021 0.13075045 0.022312826
0002a0 7a f5 df 3c ef cd ea 3d 24 2a 1a 3d f1 74 24 bd
       0.027338732 0.1146506 0.037637845 -0.040150587
0002b0 30 a0 fe bd 83 04 4d bd cc 49 09 3d f6 80 de bd
       -0.12432897 -0.05005313 0.033517644 -0.10864441
0002c0 f7 9d 0e bd 7d 28 4c 3d c7 8d 06 be 2c 43 8e bd
       -0.034818616 0.0498433 -0.13140021 -0.06946406
0002d0 5e f5 96 3d ef 7c af 3c 77 51 9b 3c 71 4c 3d 3c
       0.07371019 0.021421878 0.018959744 0.01155387
0002e0 3e e5 86 3d c9 c0 56 bc 29 04 a1 3d 18 3d f5 bd
       0.06586693 -0.013107487 0.078621216 -0.11974543
0002f0 94 90 a1 bd b6 59 ec 3e bc 41 13 3d 33 ec 82 3f
       -0.07888904 0.46162194 0.03595136 1.0228332
000300 aa 19 f8 be ee a9 13 bf 80 02 13 bf 6b 4b f9 3d
       -0.4845708 -0.5768117 -0.5742569 0.12172588
000310 90 ba 80 be 4f 7e dd be 2a b5 3d be 72 1e 88 bf
       -0.25142336 -0.43260428 -0.1852614 -1.0634291
000320 0f e6 94 bf 31 01 80 bf ab cd 59 bf 61 32 72 bf
       -1.1632708 -1.0000364 -0.8507945 -0.9460812
000330 17 f5 b7 bf 3d bc 22 bf 01 c2 1a be aa bb 3d 3d
       -1.437167 -0.6356848 -0.15113069 0.04632155
000340 08 9c e6 bc bc 0d cd bd 75 a7 8b 3c 7b 9f 23 bb
       -0.028150573 -0.10012385 0.017047623 -0.0024966884
000350 c8 78 b1 3d bf 76 38 3d 05 31 cb 3c 25 d8 b4 bd
       0.08665615 0.04503512 0.024803648 -0.08830289
000360 06 ea 9c 3e e9 7f 6c 3e e2 5d 40 3f 9a d6 e7 bd
       0.30647296 0.23095669 0.75143254 -0.11320229
000370 11 aa d8 be e4 88 77 be 33 0e 71 bf 26 72 24 bf
       -0.4231725 -0.24173313 -0.9416229 -0.64236677
000380 6d 1d d5 be 4d e0 73 be dc eb bd bd 14 12 d3 3e
       -0.41624013 -0.23816033 -0.09273502 0.4122473
000390 54 bf 56 bb b8 64 be 3e 14 0e 44 3f 58 e8 9d 3f
       -0.003276785 0.37186217 0.7658398 1.2336531
0003a0 84 c1 af 3f 7f 83 3a 3f 2d 0b d5 3d 84 05 69 3c
       1.3730931 0.728569 0.10402522 0.014222506
0003b0 43 55 4d 3f 62 80 30 3e 37 05 07 3f af 8e a3 3f
       0.80208224 0.17236474 0.5274233 1.2777919
0003c0 eb c5 92 3e 29 b3 97 3e a5 a3 4c 3f 61 f4 19 3f
       0.28666624 0.29628876 0.799372 0.6013852
0003d0 98 f5 6e 3f 4e 69 94 3e ab 20 b5 3e 2a 9a 2c be
       0.93343496 0.2898659 0.35376486 -0.16855684
0003e0 51 33 60 be 90 71 79 bf 1c 61 ad bf 0a 9c 8a bf
       -0.21894576 -0.9743891 -1.354526 -1.0828869
0003f0 59 2b 91 3d cb a2 33 bc b2 a4 03 3d fe 63 dd 3c
       0.07088346 -0.010964106 0.032139488 0.027025219

conv3.bias f4 [10]
000000 5c 03 94 bf aa ab a3 bd 2c 28 b9 3f e1 c4 c2 bd
       -1.1563525 -0.07991727 1.4465384 -0.09510208
000010 a6 90 ac bb 85 9b 3f 3c 8b 24 be bd 7d 91 d4 bd
       -0.005266267 0.011694794 -0.09284314 -0.10379312
000020 ff a7 75 bd 35 40 4d 40
       -0.059974667 3.207044

conv4.weight f4 [10, 10, 3, 3]
000000 d8 48 22 bf 3e 8a bb be 47 d6 e2 be f0 73 1c bf
       -0.633924 -0.36628908 -0.44304106 -0.61114407
000010 30 35 5c bf be fe 0d bf 47 71 1f 3f 98 6a d8 bf
       -0.8601866 -0.5546683 0.6228222 -1.690753
000020 21 7d a2 bf da 4c af bd 64 6f 20 3d b0 72 56 bd
       -1.2694436 -0.0855958 0.03916873 -0.05235547
000030 58 11 74 3d 1a 73 8a 3d 45 5d ac 3d 5d 0e 91 bc
       0.059586853 0.06760235 0.08416227 -0.017707044
000040 f1 03 e4 3c 11 da a5 3d 76 68 bc bc 53 d7 11 be
       0.02783391 0.080982335 -0.02299903 -0.14242296
000050 c8 c7 88 be 4c bd 0c bf df e8 65 be d3 08 3a 3f
       -0.2671492 -0.54976344 -0.22452115 0.72669715
000060 ff c4 ab bf 4e e7 b0 3e 9f f3 a8 3f 24 7d 65 bc
       -1.3419493 0.3455147 1.3199347 -0.014006887
000070 bd a0 02 bd 72 00 cc bd 70 cc 10 3e 1a c5 90 bd
       -0.031891573 -0.099610224 0.14140487 -0.07068844
000080 8b c1 a9 3c d6 61 b8 3d c5 c5 c1 3d cd ac 85 bd
       0.020722171 0.09003036 0.0946155 -0.065271
000090 2d 73 e9 3c c7 d6 74 3d 39 7b a0 3c cf 31 d8 3d
       0.028497303 0.05977514 0.019590007 0.10556375
0000a0 82 1c 01 3c 59 c4 9b 3c 61 ff e5 3d 60 c5 3e 3c
       0.007880332 0.019014524 0.1123035 0.011643738
0000b0 ce 40 fc bc cb 78 56 3d 37 82 02 bd c0 6d 5b bd
       -0.03079262 0.05236129 -0.031862464 -0.053571463
0000c0 aa 7d 2b bd df a8 5a 3d 9c 63 01 3e 48 af d1 bd
       -0.04186789 0.053383704 0.12635654 -0.1023851
0000d0 86 b9 1b bd 34 8d 98 bd 68 7d 7c 3d aa e2 98 3b
       -0.038018726 -0.07448807 0.061643034 0.0046656923
0000e0 8b 47 81 bc ac cf 74 bd a0 a2 fc 3c 81 de 00 3e
       -0.015781185 -0.059768364 0.030839264 0.12584879
0000f0 18 44 4b bd 63 78 49 bd df db 16 bd 89 44 6b 3c
       -0.049625486 -0.049187075 -0.03683078 0.014359602
000100 53 08 2c 3d 59 49 6b 3d 71 bd f7 bd 5d 45 19 3d
       0.042000126 0.057442997 -0.1209668 0.037419666
000110 cd be ef 3d 58 a8 0e 3e c2 bd e5 bc 1e 17 ef bd
       0.11706314 0.13931406 -0.028044585 -0.11674331
000120 76 bb b0 bd 83 57 28 3d 29 80 e3 3c 36 1f 77 bd
       -0.08629505 0.041099083 0.027771072 -0.0603325
000130 f8 bb 28 be 9f 98 5e 3d bb 79 8c bc 79 13 ae 3c
       -0.16477954 0.05434477 -0.01714789 0.02124952
000140 b8 5a c1 bd b8 c3 8e be 56 01 30 bf 3d e0 82 bf
       -0.09441131 -0.27883697 -0.6875204 -1.0224682
000150 91 58 79 3f b5 99 ca 3d 33 45 47 bf 72 69 8d 3f
       0.97400767 0.098925985 -0.77839965 1.1047804
000160 90 85 17 3f 6d ac 11 3e 2b 3b 38 3f 78 ef a7 3e
       0.59188175 0.14225931 0.71965283 0.32799888
000170 d5 26 95 3f 7a a4 9b bb 00 c4 b7 3e f4 b7 09 bd
       1.1652476 -0.0047498317 0.35891724 -0.033622697
000180 c9 10 ec bf 4b 41 38 bf 93 51 07 c0 2f a9 bd 3d
       -1.8442622 -0.7197463 -2.114354 0.09260785
000190 3e 52 c4 bc f0 f6 8c 3d d6 f7 a4 bc 9b e1 12 3d
       -0.023964997 0.06883037 -0.020137709 0.035859685
0001a0 14 45 a3 3c e4 e8 6c bd b0 c1 a5 3d eb 04 de bd
       0.0199304 -0.05783929 0.080935836 -0.10840782
0001b0 54 38 e5 3d 1b 86 90 bb 4b b5 bc 3e 3f f3 46 bf
       0.11192384 -0.004410518 0.36857066 -0.77714914
0001c0 a5 cf 93 3d 48 5d b5 3e 47 54 00 bd af d1 15 bf
       0.072173394 0.3542273 -0.031330373 -0.58523077
0001d0 a4 36 db 3e 24 30 94 3d 70 a0 38 3d ac d1 61 bd
       0.42815125 0.072357446 0.04507488 -0.0551316
0001e0 60 3c cb bd 44 ff 14 3e 82 d3 5c be e6 ab 83 3d
       -0.09923625 0.14550501 -0.21565059 0.064292714
0001f0 18 6f 6d 3d 79 b0 dc bc 8e 7e 27 bd 17 ba d6 bd
       0.057967275 -0.026939617 -0.040892176 -0.104847126
000200 41 fc a5 3d 1a 9b fb 3d e2 2e 99 bd 4a df 2e 3d
       0.08104754 0.12285443 -0.07479645 0.042693414
000210 35 b6 48 3c d8 ea 31 3b 21 ee 3f bd aa ed a0 bd
       0.012250473 0.0027148034 -0.046857957 -0.07857831
000220 d5 6b 0c 3d 99 cb d3 bd 88 88 65 bd b3 f7 89 bd
       0.034282524 -0.103415675 -0.05603841 -0.06736698
000230 7c 44 93 3d 8a 0e 4a 3c 03 95 2d 3c 49 83 de bb
       0.07190797 0.012332568 0.010594609 -0.0067905528
000240 a4 a0 d5 3d 61 dc a5 3c 5c 10 b6 3c 76 8c 2e 3d
       0.104310304 0.020246686 0.022224598 0.042614423
000250 fd 3e 94 3c 94 5d ea bc f7 f1 d8 bd 08 5a 19 3d
       0.018096441 -0.028609075 -0.10593026 0.037439376
000260 17 e0 d0 bd 51 f3 b7 bd 4f d0 2a bd b9 1c c4 3d
       -0.10198992 -0.08981956 -0.041702565 0.09575791
000270 d2 72 4e 3b 13 d7 a0 bd 5d 28 7b 3d 98 28 a0 3d
       0.0031501544 -0.07853522 0.06131779 0.07820243
000280 6d 54 a4 bd 99 9a e4 bd 9d ab c2 3c ee be 12 bd
       -0.080239154 -0.111623 0.023763472 -0.035826616
000290 04 bb b7 3c 2b 1a 88 bc 83 6e 94 3c 36 e2 76 bd
       0.022428043 -0.01661404 0.018119102 -0.060274325
0002a0 af a7 c4 3d 83 97 15 be 73 1f 63 be 19 7f 89 bf
       0.096022956 -0.14608578 -0.22179966 -1.0741912
0002b0 7c 7b 4e bf cd 44 00 bf 07 04 f4 3d 80 48 ff 3d
       -0.8065717 -0.5010498 0.11914831 0.12465
0002c0 8b b8 39 3f 1f 00 76 3f ea cc 1a 3f a4 68 14 3e
       0.72547215 0.96093935 0.60468924 0.14493042
0002d0 a3 51 68 bd f4 c8 4a 3f e6 5e 08 3f 84 2d 07 3f
       -0.05671848 0.7921288 0.53269804 0.52803826
0002e0 62 86 61 3f e8 f1 b2 3f bf 39 09 3e 90 1a 83 be
       0.88095677 1.3980074 0.13400935 -0.25606203
0002f0 ad 07 1c bf cf 1d 8a bc ea 70 ba bd be 82 4a bd
       -0.6094921 -0.016859917 -0.09103568 -0.04944109
000300 d5 16 14 be 65 ab b3 3d 90 02 38 3d 17 ba df bd
       -0.14461835 0.08772925 0.04492432 -0.10924166
000310 e9 71 05 bd c8 1c 82 3d 8c 4e 46 bf f1 d0 1e bf
       -0.032579336 0.06353146 -0.77463603 -0.6203757
000320 fc f3 42 bf 6e 88 56 bd fe 78 a8 bf 90 ec f0 bd
       -0.7615354 -0.052376203 -1.3161924 -0.11763871
000330 08 8d aa bf bd 3d 2d bf cb 85 7e 3f 33 2e ec 3d
       -1.3324289 -0.6767233 0.994229 0.11532249
000340 1d b4 85 bd 33 8e 05 bd 0d 20 a9 bb 26 79 72 3d
       -0.065284945 -0.032606315 -0.0051612915 0.059197567
000350 c5 65 56 3d b4 85 9f bc 87 90 11 3e f8 15 d5 3d
       0.05234315 -0.019472934 0.14215289 0.10404581
000360 b0 bf 0c 3d 2e dc d1 3d b5 9d b7 3d 4a 26 37 bd
       0.034362495 0.10247074 0.08965627 -0.04471425
000370 be 50 f8 3d d4 06 1a ba 58 3e a9 bd 07 a8 21 bd
       0.12124775 -0.0005875651 -0.08263844 -0.039466884
000380 ff 00 27 bc 59 49 80 bd 98 00 9d bd f5 f2 ed 3d
       -0.010193109 -0.0626399 -0.07666129 0.11618606
000390 14 3b 2c 3a ea 15 6f 3b 6f 5f ba 3c 92 cb b7 bc
       0.00065700826 0.0036481568 0.022750584 -0.022435937
0003a0 5e ef 91 3d 60 b2 fc 3d 94 76 78 3d f2 93 51 3d
       0.07125734 0.1233871 0.06065996 0.051166482
0003b0 84 8e f3 bd 46 4c 23 bd 83 11 ae bd 6f cc 6e bd
       -0.11892417 -0.039867662 -0.08499434 -0.05830043
0003c0 08 01 b2 3d b6 4d 2c bd c2 90 f1 bc e8 87 43 3b
       0.08691603 -0.0420663 -0.029487971 0.0029835645
0003d0 76 6c 63 3c 5e b7 95 3d c5 40 4c 3c 9a f2 03 bc
       0.01388084 0.07310365 0.012466614 -0.008053446
0003e0 82 0d f2 ba 98 33 52 3b 3d 27 2d bc c8 50 9b bd
       -0.001846716 0.003207421 -0.010568437 -0.07583767
0003f0 74 b1 31 bc 6d 56 b0 3b df 25 e6 3d 4b 66 50 3d
       -0.010845531 0.0053813965 0.11237692 0.050878804

conv4.bias f4 [10]
000000 5a 16 3a 3e 6a c9 a9 3e 85 60 52 bd e0 d8 c0 bd
       0.18172589 0.3316148 -0.05136158 -0.094163656
000010 73 8e 8a be fb f8 43 bd bb 6d a3 be 1a 76 70 3e
       -0.27061805 -0.04784487 -0.31919655 0.23482552
000020 f5 41 e3 be 8e d9 81 3e
       -0.4438626 0.25361294

norm.weight f4 [10]
000000 98 5e dc 3e 43 4f 82 3e 0e 4d 88 3e 7b 7c 5b 3e
       0.4304092 0.25451097 0.26621288 0.21434204
000010 65 f2 f2 3d 2f a6 82 3e 4f e3 e2 3e 82 10 74 3e
       0.11862639 0.25517413 0.44314048 0.23834422
000020 ca c1 92 3e 04 dc 2d 3e
       0.28663474 0.1697846

norm.bias f4 [10]
000000 cd 70 ef be b5 6f 82 be 61 9b a7 be a3 5b 29 be
       -0.46765748 -0.2547585 -0.32735732 -0.16538863
000010 73 93 b1 bd e6 a6 78 be ee cd d6 be 81 e7 49 be
       -0.08670702 -0.24282417 -0.41953987 -0.19717218
000020 f5 e6 8e be a8 c9 21 be
       -0.2791058 -0.15799582

norm.running_mean f4 [10]
000000 c0 20 43 c3 7c eb 83 c2 f9 91 e3 c2 00 70 38 c3
       -195.12793 -65.95993 -113.7851 -184.4375
000010 80 c3 8c 41 db f5 02 c3 b6 7e 83 c3 84 db 6b c3
       17.595459 -130.96037 -262.98993 -235.85748
000020 54 9a 36 c3 63 2c 03 c1
       -182.60284 -8.198337

norm.running_var f4 [10]
000000 46 fc 32 46 c5 0d ca 45 f7 20 38 46 e8 09 8b 46
       11455.068 6465.721 11784.241 17796.953
000010 37 ca 85 45 8f 05 c6 45 e3 97 4f 46 c9 53 2f 46
       4281.277 6336.695 13285.972 11220.946
000020 f6 f0 78 46 cc 7b 1a 46
       15932.24 9886.949

fc1.weight f4 [50, 810]
000000 02 30 92 be c7 ef d6 bd db ec aa bf 57 c9 c9 bf
       -0.28552252 -0.10494953 -1.3353533 -1.5764569
000010 c4 16 a9 be ff 51 1a be 10 71 97 3e 23 d9 ad be
       -0.3302518 -0.15070342 0.29578447 -0.33954725
000020 45 89 07 3e 14 e4 45 bf ba b3 99 bf 60 f5 70 bf
       0.13235958 -0.77301145 -1.2007973 -0.9412441
000030 89 a6 c7 be e4 30 2f 3e 9e 56 1c bf 63 78 97 3f
       -0.38994244 0.17108494 -0.6106967 1.1833614
000040 4e b0 83 be 70 77 31 bf 19 fd ea 3e 12 c8 93 bd
       -0.25720447 -0.6932287 0.45896223 -0.07215895
000050 66 af 88 bf 3b ba 03 bf 4b 95 f7 be 2e 3f 91 be
       -1.0678527 -0.5145604 -0.4835609 -0.28368515
000060 5a 2d d3 3d a8 38 76 bf e9 15 f6 be 7f 6b 88 3d
       0.103113845 -0.961802 -0.4806359 0.06661128
000070 02 e9 9b be 23 67 52 3f 4b 42 40 3f 46 81 86 3e
       -0.30451208 0.82188624 0.75101155 0.26270503
000080 6e 5c 43 3d d9 c1 8c bf 49 d6 7a bf d7 ce 64 bd
       0.04769557 -1.0996658 -0.97983223 -0.05586132
000090 fa b3 9e 3d 41 94 67 bf a5 20 09 3f 98 3a 76 be
       0.077491716 -0.9046059 0.53565437 -0.24045789
0000a0 57 91 89 be 56 e4 87 be 7c 8c ab be 9c 9b 9b be
       -0.26868698 -0.26541394 -0.3350562 -0.30392158
0000b0 5c 99 76 bf ff ca cb be e4 0b a1 bf 71 3f b3 3e
       -0.9632776 -0.3980331 -1.2581754 0.3500934
0000c0 d8 cf ce be 32 4f 5e bf 32 5b 07 c0 79 57 97 bf
       -0.40392947 -0.8683959 -2.1149411 -1.182357
0000d0 32 21 92 bf ab 39 54 bf 46 5d b0 be b6 f4 50 bf
       -1.141638 -0.82900494 -0.34446162 -0.816234
0000e0 9f 89 01 3f 70 56 84 bf ee b1 1d bf b4 b7 c3 be
       0.5060062 -1.0338879 -0.61599624 -0.38226092
0000f0 08 5d 8d bf 19 2f 8e bd 8b bc 94 3b 03 c6 1f bf
       -1.1044016 -0.06942577 0.0045390776 -0.62411517
000100 03 b3 b6 be 8c a7 69 be 86 63 e5 bf 89 a9 14 bf
       -0.3568345 -0.2281782 -1.7920997 -0.5807119
000110 8e 8b e7 bf 73 b5 02 c0 61 7e d3 3e 46 05 ee bd
       -1.8089464 -2.0423248 0.41307357 -0.116220996
000120 ff 13 f8 be 85 25 11 c0 c6 3a aa bc ac 82 b2 bf
       -0.48452756 -2.267915 -0.020779978 -1.3946128
000130 02 6c 93 3e 55 69 bb bf c7 52 47 bf 25 53 c3 be
       0.2879334 -1.464152 -0.77860683 -0.38149372
000140 8c 5d e3 3d 0d b5 1d be de b1 b5 3e 36 85 29 bf
       0.11101827 -0.15401097 0.35487264 -0.6621889
000150 76 dd bb be 01 58 f2 be 42 9b 09 3f 27 01 9f 3f
       -0.366924 -0.47332767 0.5375253 1.2422227
000160 67 1b 86 be 79 47 15 3f f0 a6 31 3e 6c 6e e1 3e
       -0.2619278 0.58312184 0.17348838 0.44029558
000170 d3 af 6a bf d8 76 55 bf df d0 98 bf 9a f0 03 bf
       -0.91674536 -0.83384466 -1.1938742 -0.51539004
000180 29 45 ea bd b4 72 f3 3e 53 49 4b 3f 98 77 2f 3f
       -0.114389725 0.4754845 0.7940876 0.6854186
000190 0f c1 bf 3e be 9e ab 3e f8 ba 51 3c 0f 89 53 3f
       0.3745198 0.33519548 0.0128009245 0.8263101
0001a0 51 87 e5 3e ad 69 06 3d b2 ae 78 3e d2 1b 72 3e
       0.448298 0.032815624 0.24285391 0.23643425
0001b0 a2 64 5c 3e ff b6 ad 3d 82 21 7b be 90 18 4b be
       0.21522763 0.08482169 -0.24524501 -0.19833589
0001c0 b4 78 8e be d1 74 b2 bd b3 d6 87 be ab 50 80 3e
       -0.27826464 -0.08713687 -0.2653099 0.25061545
0001d0 69 d7 79 be a2 81 31 bf a3 fe 90 3e f9 05 22 3e
       -0.24398579 -0.6933843 0.28319272 0.15822591
0001e0 8a 6b c4 bf ce 9d 34 bf 9e d0 a0 be 5b 68 3f 3d
       -1.5345318 -0.7055329 -0.31409162 0.04673038
0001f0 e9 dd d1 3e e1 eb 1b 3d 0e e1 1e 3f a9 79 1b be
       0.40989617 0.03806675 0.62062156 -0.15183128
000200 5e 91 0a c0 82 5e d2 bf 53 d1 77 3c 1a 6d e5 3d
       -2.1651225 -1.6435091 0.01512559 0.1120245
000210 df b1 93 bd fb 97 2b 3e 27 bc 8c 3f a8 73 80 be
       -0.072116606 0.16757195 1.099492 -0.2508824
000220 fd 88 44 3f 9b 46 34 3f 24 c5 f8 bf 8d 65 1a bf
       0.7677153 0.70420235 -1.9435163 -0.60311204
000230 ba 04 16 bf 0a 37 40 bf 2f 1e 4e 3f 5a 07 1c 3f
       -0.5860096 -0.7508398 0.80514807 0.6094872
000240 9d b5 98 be 46 60 fd be f8 b8 b5 be 23 62 ba bf
       -0.2982606 -0.49487513 -0.35492682 -1.4561199
000250 98 8b ba bf f7 d5 4d bf 27 78 1a bf 1f 08 c7 bf
       -1.4573851 -0.8040461 -0.6033959 -1.5549353
000260 e7 6f 6c be 4a 69 c7 3c 7a e8 77 bf 5a ef c2 bf
       -0.23089562 0.024342198 -0.96839106 -1.5229294
000270 68 61 9a bf 47 3d d6 bf a1 dc 2e be 3f 33 4a bf
       -1.2060976 -1.673745 -0.17076351 -0.78984445
000280 28 ba f1 be 3f dc 9d 3e 9a 42 62 bf e5 c5 44 bf
       -0.47212338 0.30832097 -0.88382876 -0.76864463
000290 a3 04 22 bf f5 37 d3 bd 23 e8 52 bf 43 20 be bf
       -0.63288325 -0.10313407 -0.8238546 -1.4853595
0002a0 e2 f5 a6 bd 0e 09 ca 3e d6 1a c4 3e 75 65 47 3d
       -0.08152367 0.39460033 0.38301724 0.04868074
0002b0 95 3d 30 bf b2 94 34 bf 07 1c 8d bf 60 2c f0 bf
       -0.68843967 -0.7053939 -1.1024178 -1.8763542
0002c0 90 53 ac bf e7 45 f2 be 5d c8 fb bd f4 c9 4c bf
       -1.3463001 -0.47318956 -0.12294076 -0.79995656
0002d0 19 5b 8b 3e 1b eb a9 be ae 6d 80 bf 11 c0 f6 bf
       0.2721794 -0.33187184 -1.0033472 -1.9277364
0002e0 e4 a7 cc be c1 c8 97 3e 75 e3 79 3f 27 09 df bd
       -0.3997184 0.2964535 0.97612697 -0.108904175
0002f0 87 3c 71 3e 4f 9b df bb 4b 95 61 be e8 05 aa be
       0.23558246 -0.006823934 -0.22029607 -0.3320763
000300 ec 94 1c 3f 24 35 e1 3e 24 a7 8e be a5 c7 09 3f
       0.61164737 0.43985856 -0.27861893 0.5382026
000310 3d 99 82 3e 4d f5 2d 3f 93 dd 65 3d 36 e2 22 3e
       0.25507537 0.67952424 0.056119513 0.15906605
000320 e4 34 02 bf 02 4e b5 3d 12 c8 0d 3e 07 aa 49 bf
       -0.50861955 0.088527694 0.13845852 -0.78775066
000330 71 c7 02 3f 46 82 71 bf d8 08 51 bf d0 02 94 bf
       0.51085573 -0.94339406 -0.8165412 -1.1563358
000340 99 37 2a be 40 b3 94 bc b8 f6 cd be fe 99 dc bf
       -0.16622771 -0.01815188 -0.40227294 -1.7234495
000350 98 62 fe bc 60 25 e8 be 8b bb a4 bf 4b 0e 50 be
       -0.031052873 -0.45341015 -1.2869734 -0.20317952
000360 67 57 71 3e ed 5d 87 bf 47 ea 0a bf d3 d3 90 be
       0.23568498 -1.0575539 -0.5426373 -0.2828661
000370 ad 62 0f bf cc ec 77 bf 35 17 56 be 60 03 a2 be
       -0.5600994 -0.968457 -0.2090729 -0.316432
000380 f2 b1 03 bf f0 ca f9 be eb b6 b5 be 43 df 0e 3e
       -0.514434 -0.48787642 -0.35491118 0.13952355
000390 1e 88 42 be 87 d7 8d be ce f1 61 3e 95 bd 27 be
       -0.18997237 -0.27703497 0.22064897 -0.16380914
0003a0 70 05 dc 3d bd a1 1f 3e e3 be 5f bf 45 5b 8a bf
       0.107432246 0.15589042 -0.87400645 -1.0809103
0003b0 71 5e 6e bd 01 e9 04 bc 9e cc 4b 3f d3 a4 ee be
       -0.058195535 -0.008112193 0.79609096 -0.46610126
0003c0 70 10 72 bf 10 2e c0 3e 92 cc 43 3d de 8b 40 be
       -0.9455633 0.37535143 0.047802515 -0.18803355
0003d0 dd 3d b2 3e b0 29 48 3e e5 17 6e bd d1 b8 99 bf
       0.34812823 0.19547153 -0.058128256 -1.2009526
0003e0 23 b6 b2 be d3 f8 4d 3e 6f aa 82 3e 26 19 b2 3e
       -0.34904584 0.2011445 0.25520656 0.34784812
0003f0 dd ab 56 be e7 51 c2 3e 7b da a8 3e 0f bc 3a 3f
       -0.20963998 0.37953112 0.32979187 0.72943205

fc1.bias f4 [50]
000000 2d 06 b5 3c d0 f9 6d 3f e7 20 54 be 4a b7 51 3c
       0.022097671 0.9295931 -0.20715676 0.012800047
000010 fc 87 a9 bd 9a c3 0e 3f 17 79 be 3d fe ab d2 bc
       -0.0827789 0.55767214 0.0930044 -0.025716778
000020 3d 26 50 3f 58 54 18 bd de 6e 84 be 38 4a dd bc
       0.81308347 -0.03718981 -0.25865835 -0.02701293
000030 42 e6 5e be 28 c6 49 3f b5 cf 34 bd 71 83 53 3f
       -0.21767524 0.7881799 -0.044143397 0.8262244
000040 16 29 a4 bd 36 05 73 bd 96 38 2e bd 69 35 91 be
       -0.08015649 -0.05933114 -0.042534433 -0.2836106
000050 e2 0b af 3f 02 f2 01 40 25 44 59 be 3d ec 7b bc
       1.3675501 2.030396 -0.21217401 -0.015376148
000060 ef 47 25 be b2 21 33 bf 10 99 10 bd 5f 4d 90 3d
       -0.16140722 -0.6997329 -0.03530222 0.07046007
000070 7b 96 b6 3f 45 4a 11 be 39 65 8e bd 2a 0a 48 be
       1.4264673 -0.14188488 -0.069529004 -0.19535127
000080 fe 06 f9 3d 42 06 13 40 f3 5b 88 bd cd 3e 38 bd
       0.12159537 2.297257 -0.06658163 -0.044981766
000090 cc 5a 6e be aa 71 a9 3f a7 7c 14 bd 89 df ef bd
       -0.23276824 1.3237813 -0.03625169 -0.11712558
0000a0 ba be d9 bd 68 69 0a 40 6d aa 89 be 29 36 2d 3a
       -0.10632081 2.1626835 -0.26887837 0.0006607497
0000b0 a5 06 47 bd de 0a 86 3f df 28 4b 36 c9 8a 20 3f
       -0.04859032 1.0472066 3.0273147e-06 0.6271177
0000c0 84 97 fc bd e6 af d7 3f
       -0.12333587 1.6850555

fc2.weight f4 [7, 50]
000000 80 a6 e0 be 2d a2 3f 3e 53 27 9b bd 63 e6 95 be
       -0.4387703 0.18714209 -0.0757586 -0.29277334
000010 1a fd af bd ea 4e 57 be a6 99 45 bf f5 28 27 bd
       -0.08593197 -0.21026197 -0.77187574 -0.040810544
000020 38 d5 4f bd 64 7f 55 bd d7 05 bb bd cc 61 cc 3c
       -0.05074045 -0.052123442 -0.09131973 0.024948977
000030 b1 69 91 3e b5 4c 9e bd 9f 6a d4 bc 20 7e 43 bd
       0.2840095 -0.077294745 -0.025929747 -0.047727704
000040 0f 7c a8 bd 2f 92 6f 3a 88 93 8e bd 97 d2 07 bd
       -0.08226787 0.00091389095 -0.06961733 -0.03315982
000050 05 94 a9 bd 9e f4 0b 3e d1 59 0c be a8 43 66 3d
       -0.082801856 0.13667533 -0.13706137 0.056216866
000060 d9 e3 8d bd d1 c1 60 3e e9 81 c1 bd c2 c5 e5 bd
       -0.06928224 0.21948935 -0.094486065 -0.1121936
000070 51 48 57 be 49 78 1f 3d 37 4a a5 bb c8 43 2c 3e
       -0.2102368 0.038933072 -0.0050442475 0.16822731
000080 61 db 42 be 03 a6 50 3e 55 be 75 bd b7 b6 de bd
       -0.19028999 0.20375828 -0.059995968 -0.10874694
000090 e5 50 48 be 0c f7 89 3e a4 51 d7 3c e9 71 62 bd
       -0.19562109 0.26946294 0.026284046 -0.055284414
0000a0 f1 bc 29 3a 94 1f 95 bd ce ab 3d bf 73 5c 2e bd
       0.0006474993 -0.07281414 -0.7409028 -0.042568635
0000b0 f0 89 c0 bd 64 02 74 be 3e c3 9f 3d 4f 22 47 3e
       -0.094013095 -0.23829037 0.07800911 0.19446681
0000c0 dd 2c a2 3d e9 76 2d be 7f 0e 10 bf 35 d2 6b bf
       0.07918713 -0.16939892 -0.5627212 -0.92117625
0000d0 e6 fc a7 bd 82 13 37 bf 27 8d 83 3b 93 e8 c5 bd
       -0.082025334 -0.7151414 0.0040146294 -0.09663501
0000e0 ad 3c 4b bf b1 b7 99 3d f5 e0 c5 3d f9 83 98 3c
       -0.7938946 0.075057395 0.09662048 0.018617617
0000f0 d7 a7 05 3d d0 42 85 3d 03 2a 6b be 7a c4 a2 be
       0.032630768 0.06506884 -0.22965245 -0.31790525
000100 35 b2 d7 3c eb 5c 8e 3d 6d ea 28 bd 0f 54 18 bd
       0.026330093 0.069513164 -0.04123919 -0.03718954
000110 b0 72 b6 bb dc eb b1 3d e6 48 19 be 52 8e 08 be
       -0.005567871 0.08687565 -0.14969215 -0.13335541
000120 7f fb 7a bd fb 12 a4 3c 19 7c 86 3c 63 46 53 be
       -0.061275 0.020028582 0.016416596 -0.20632319
000130 02 01 f0 bd cf 35 84 be 69 44 aa be 48 1d ce 3d
       -0.11718942 -0.25822303 -0.33255318 0.10064179
000140 9f 71 82 bd c4 64 d1 3d 21 07 93 3e d9 2f c6 be
       -0.06369328 0.10224298 0.28716376 -0.3870838
000150 5d ac f2 bd 50 88 c0 3d 09 98 5d bc 66 92 6c be
       -0.11849282 0.094009995 -0.013525018 -0.23102722
000160 68 fa cd bd 73 27 e0 3c 4b 02 87 bd 19 70 b2 be
       -0.10057527 0.02736256 -0.06592234 -0.3485115
000170 b8 e7 6c bf 73 b8 95 3d 3f e5 e1 3d 73 8a a3 bd
       -0.92541075 0.073105715 0.11030053 -0.079853915
000180 d1 d2 b7 3d b1 6c 24 3f 14 14 2b bd 33 e1 6d bb
       0.08975757 0.6422835 -0.041767195 -0.003629756
000190 1d 4e e6 3e a5 8b 19 bf bb e9 0a bd c4 43 65 be
       0.4498147 -0.59978706 -0.03391431 -0.22389132
0001a0 f0 2a 3a 3d e6 47 62 3d f9 82 98 bf 51 9d ba 3d
       0.045451105 0.05524435 -1.191497 0.09112037
0001b0 a2 00 a3 bd d4 68 58 3d 14 47 f5 3b d4 e7 03 be
       -0.07959105 0.052834347 0.00748528 -0.12881404
0001c0 f2 33 50 bd c4 20 9a be f7 55 00 3d 98 33 5f 3e
       -0.05083079 -0.30103123 0.031331982 0.21797025
0001d0 30 4d c7 bd 4d 4b 41 3c 75 46 00 be ad de 3d be
       -0.09731519 0.011797738 -0.12526877 -0.18541975
0001e0 a8 5a ae bd 1d af 57 3b df 67 81 3d d7 f2 15 bd
       -0.08513385 0.0032910772 0.0631864 -0.036608543
0001f0 6b 69 19 be 91 01 86 3e 23 a0 5e bb cc 18 7b bd
       -0.1498162 0.2617307 -0.003396996 -0.061302945
000200 b9 65 2d be 44 3a b3 3d a1 7d 0f be 7b e1 45 3c
       -0.16933335 0.08751348 -0.14012767 0.0120776845
000210 69 f3 b4 bd 3d 73 a8 3b ca 2e 15 bd 81 f5 83 bc
       -0.08835489 0.0051406906 -0.036421575 -0.016108276
000220 7d 78 26 3e f8 13 97 3b c2 6d eb bc 2f ef de bb
       0.162569 0.0046105348 -0.02873886 -0.0068034153
000230 6c c3 8d bd 27 6a 52 be 6a f8 ab be bc 96 0c bd
       -0.069220394 -0.20548306 -0.33587962 -0.03432344
000240 d5 75 f9 bd 26 f6 80 3e 0a b2 a6 3c 9b 2b 23 3d
       -0.12180678 0.25187796 0.020348568 0.039836507
000250 31 78 a7 ba 97 19 63 be 0b dd bd be 8f 49 e4 be
       -0.0012776909 -0.2217773 -0.37082705 -0.4458737
000260 01 69 75 3d 5d 43 ed be 41 05 a7 3d 11 46 3e be
       0.059914593 -0.46340457 0.08155299 -0.18581416
000270 c4 3d 11 bf 16 f4 fc bb 15 e3 a1 bd 62 a1 d7 3d
       -0.5673487 -0.007719527 -0.079046406 0.10528828
000280 d1 80 4e be fb 63 9c 3d df fb f6 3c 3b 74 a2 3e
       -0.20166327 0.07636257 0.030149398 0.31729302
000290 20 d8 87 bc 7d bf 07 be cb d1 89 3c 02 72 94 bc
       -0.016582549 -0.1325664 0.01682367 -0.01812077
0002a0 e0 e6 8e 3d 13 b8 64 3d 2d 29 a2 3e c0 47 0f 3d
       0.0697763 0.05583961 0.3167204 0.034980536
0002b0 4a 25 84 3c 4e fb 5e 3d 41 45 0f 3d 83 9f c9 bc
       0.016131062 0.05443888 0.034978155 -0.024612194
0002c0 8a 9b 5a bd 15 a3 2d 3e 3e ba ad 3e bf 6f e0 bc
       -0.05337099 0.16956742 0.33931154 -0.027397035
0002d0 7f b6 8d 3d b4 a8 ed 3d 64 8c ed bd 86 41 00 bd
       0.06919574 0.11604443 -0.11599043 -0.031312488
0002e0 6e 28 53 3d 08 f0 f2 3c 06 e2 01 bd 4a 71 eb be
       0.05155223 0.029655471 -0.031709693 -0.4598487
0002f0 bf ce e6 bc c4 3e 79 bd 6a da e6 3d 44 58 cb 3e
       -0.028174756 -0.060850874 0.11272128 0.3971578
000300 dc 79 53 3b 09 81 63 bd 20 f0 68 bd 50 70 46 bc
       0.0032268679 -0.05554298 -0.056869626 -0.012111738
000310 71 b0 1c bd e0 d0 20 be 6a 1c eb be 02 27 99 3e
       -0.038254205 -0.1570468 -0.45920116 0.29912573
000320 10 17 31 be 67 78 ec be 66 3a bb bd 77 78 86 be
       -0.17293954 -0.4618561 -0.09141998 -0.26263782
000330 f6 43 0a 3e 50 74 eb bd 55 da 50 bf c8 47 38 bb
       0.13502488 -0.11496794 -0.8158315 -0.0028118957
000340 68 a7 e7 bd 9d d5 94 bc 7d 85 a4 bd 55 85 d1 3c
       -0.11311227 -0.018168265 -0.08033273 0.025576273
000350 8e 77 95 be f2 88 1c be ec 94 eb 3d 75 b2 21 3e
       -0.29192775 -0.15286615 0.11503014 0.15790732
000360 8f 23 2e bd fc 4b 4f bd f8 2d e8 bd f0 6a 9a be
       -0.04251438 -0.050609574 -0.11336893 -0.30159712
000370 0c 69 3a bd aa 00 81 3e 7a 07 27 bd 7f aa 2b bd
       -0.045510337 0.2519582 -0.040778615 -0.041910645
000380 54 b9 5c 3b 02 29 1b be 28 08 4d bd 4e e4 21 3c
       0.00336798 -0.15152362 -0.050056607 0.009881092
000390 d1 68 34 be 51 67 b8 bd e7 4b 1b bd 1b 23 ef bc
       -0.1761811 -0.09004081 -0.037914183 -0.029191544
0003a0 b3 bd 82 3e 49 9d c3 3d 00 14 01 3d 9a 62 96 3d
       0.25535354 0.09551484 0.031513214 0.073430255
0003b0 d5 a8 ca 3c 34 5d 08 3d ba a4 b8 bd fe aa ae 3d
       0.024738709 0.03329201 -0.09015794 0.08528708
0003c0 b9 33 77 bb d2 b4 48 be d2 8d ef be ed b9 d5 3c
       -0.0037720038 -0.19600227 -0.46787888 0.026089633
0003d0 bc 1c 8b 3d ea 9e 72 be e4 9c 5b 3c 8c e6 c7 bd
       0.0679259 -0.23693433 0.013404105 -0.0976077
0003e0 28 7e a7 bc 87 37 e0 bd e3 a3 01 3d 84 63 7c 3e
       -0.020445898 -0.10948091 0.031650435 0.24647337
0003f0 5c f3 c2 bd 45 87 cc 3e b8 80 d0 3d 47 8a c7 3e
       -0.09519073 0.39946952 0.10180801 0.38972685

fc2.bias f4 [7]
000000 7e e5 a8 be 93 ed cc bf 58 e1 4d 3c 13 7c 3f 3e
       -0.3298759 -1.6010002 0.012565933 0.18699674
000010 8b 07 06 3f ae 5b cb be 2c ab 8e 3e
       0.5235526 -0.39718384 0.2786497

localization.0.weight f4 [8, 1, 7, 7]
000000 11 ac 3b 3d e0 54 ae bc 7d 0d a0 3d 22 e9 06 3e
       0.045818392 -0.021280706 0.07815073 0.1317487
000010 51 a3 50 3d 98 89 de 3d 70 82 2d 3e f0 dd 3d 3e
       0.050937 0.10866088 0.16944289 0.18541694
000020 d8 dd f4 3d f5 7f 7a 3e 26 6e df 3d ed 88 2d 3e
       0.11956376 0.24462874 0.10909681 0.16946764
000030 e4 35 6a 3e cf 5e 44 3c 00 9d 06 bd 08 07 af 3d
       0.2287212 0.011985495 -0.03286457 0.08546263
000040 8a d4 52 3e 33 e6 37 3b 83 16 40 3e 6d 63 19 3e
       0.2058889 0.0028060793 0.18758588 0.14979334
000050 f6 6d 98 bd d2 63 a7 3d d2 cd 95 bd 3a ad 55 bd
       -0.074428484 0.08173336 -0.07314648 -0.052167155
000060 16 b2 41 3e 49 83 46 3d 03 5f 61 3c 3d 44 b6 3c
       0.1891559 0.048465047 0.013755563 0.022249335
000070 3e f8 41 3d 23 11 a4 bd 9e 82 3f 3e a5 eb e2 3b
       0.047355883 -0.08011081 0.1870217 0.0069250637
000080 b1 5f ea 3d a5 fa 14 3e ac d7 29 bc cf b1 f2 3d
       0.11444033 0.14548738 -0.010366362 0.118503205
000090 ed ad a9 bd 62 5c 42 3e 6d 7f 09 3e f2 f4 23 3d
       -0.08285127 0.18980554 0.13427515 0.04002852
0000a0 63 8a 01 3e 24 e8 81 bd 17 72 8b bc 33 d3 02 3e
       0.12650447 -0.063431054 -0.017022176 0.12775879
0000b0 d2 fd 28 3d 9e 6a 79 bd 94 c3 fd 3c 7b c1 03 3e
       0.041257687 -0.060892694 0.030977048 0.12866776
0000c0 24 93 1c bc ab 75 de bd 80 25 96 bc 4d 0a a4 3d
       -0.009556565 -0.10862287 -0.018328428 0.08009777
0000d0 e4 a9 e0 bd 89 85 c0 bc df 56 42 3d d4 0a 82 39
       -0.10969904 -0.023501175 0.047446128 0.000248036
0000e0 62 15 0f 3e 6f 11 cb 3d 60 cd 07 be 6e a5 4d 3d
       0.13973 0.099154346 -0.13261938 0.050206594
0000f0 fc e7 cc 3d b1 42 e3 bd 8a ca 86 bc b6 e1 ca bc
       0.10005185 -0.11096705 -0.016454 -0.02476583
000100 94 8a db bd 99 8a a0 3d 1a aa c0 bd 27 3c 7a bd
       -0.10719791 0.078389354 -0.09407444 -0.061092522
000110 f3 62 57 3d 0e 7c 4d be f3 ea d3 bd ea 19 f8 bd
       0.0525846 -0.20066854 -0.103475474 -0.12114318
000120 ad 59 26 3d b7 32 c9 3d 62 99 e3 bd 0d b1 00 bd
       0.040612865 0.09824126 -0.1111324 -0.03141885
000130 03 77 80 bd cc f8 cd 3d b9 6e d7 bc 9f 1c 3a 3d
       -0.062727 0.1005722 -0.026297914 0.04543745
000140 e9 4e a9 3c fd fe c3 bd a3 5a 9f bd fa 85 c0 bd
       0.02066751 -0.095701195 -0.077809595 -0.09400554
000150 60 c0 33 be 56 22 8b 3d b6 11 13 bc e4 c5 99 3d
       -0.17553854 0.067936584 -0.008976391 0.07508448
000160 68 b5 c7 bd c3 41 55 bd 69 07 85 3a 50 d7 94 bb
       -0.09751397 -0.05206467 0.0010149303 -0.004542269
000170 06 33 ae bd de 7a 49 bd c7 06 0e be 9f 6b ad 3d
       -0.08505826 -0.04918944 -0.13869773 0.08467793
000180 3c 17 15 bd f5 bb 1e be 21 ea 4c bd ae cc aa bc
       -0.03639911 -0.15501387 -0.05002797 -0.020849552
000190 af 0a 4f 3d 6b 15 aa bd c1 35 c0 3d 36 b7 f1 3d
       0.050547298 -0.083048664 0.09385253 0.11802523
0001a0 e3 e2 3a bc 68 38 a0 3d 3a b4 1d bd 52 81 d6 bd
       -0.011406633 0.07823259 -0.038501956 -0.10473885
0001b0 22 4c 05 3e bf 16 84 3d dd 44 37 bd 83 07 fa bd
       0.13017324 0.06449651 -0.044743408 -0.12208464
0001c0 a8 c0 22 3b 00 a4 14 bd 9b 69 f9 bb c9 70 03 3e
       0.002483407 -0.036289215 -0.007611466 0.12835993
0001d0 b7 c9 cf bd c8 d5 a5 3d 88 d5 68 bd 75 5a b2 bd
       -0.10145896 0.08097416 -0.056844264 -0.087086596
0001e0 32 0a 83 bd 8e bc 9f bd 24 d4 e2 bb 79 59 25 be
       -0.06398429 -0.07799636 -0.006922262 -0.16147412
0001f0 03 37 01 be 93 0d 0c 3d 6d 17 00 3e e9 68 23 bd
       -0.12618642 0.034192633 0.12508936 -0.039894972
000200 fe ba 38 3d a5 89 b1 ba bf e6 b2 3d 04 1e 9c bc
       0.045100205 -0.001354505 0.087354176 -0.019057281
000210 73 42 6a 3d 75 7c 13 3e 28 00 cd bd 67 6b cd bd
       0.057192277 0.14402945 -0.100097954 -0.10030251
000220 01 6e c3 3c be 05 3e bd d5 ad 84 3b 0a df 6d 3c
       0.023856165 -0.046392195 0.0040490427 0.014518509
000230 55 1b 0a be 38 7b 8c 3d 30 dd 26 3c d5 68 6a 3d
       -0.13486989 0.068594396 0.010184571 0.057228882
000240 c7 30 a6 bd 2c 15 37 be b1 76 38 be c7 30 c4 bc
       -0.08114772 -0.1787917 -0.18014027 -0.02394904
000250 3d 9f c2 bd e4 d9 bd bd b7 08 1d bd e2 d9 33 3c
       -0.095030285 -0.09270075 -0.03833839 0.01097724
000260 67 e6 58 3d 76 c7 97 bd 39 ba 88 3d 46 3d 8a bc
       0.052954104 -0.07411091 0.06676144 -0.01687492
000270 fd 17 8a bd b3 e9 01 3e 68 d0 c1 3d 21 20 90 bd
       -0.06742857 0.12686805 0.094635785 -0.07037378
000280 04 2d ac 3d 30 9e 06 3e f9 38 f5 3d 20 09 93 3d
       0.084070235 0.13146281 0.11973757 0.07179475
000290 ca 8d 03 3e e9 72 31 3c 7b e0 f0 bd 2a 97 f7 3d
       0.12847057 0.010830619 -0.11761566 0.12089379
0002a0 9c 7e 90 3d 80 e0 43 3d a9 b6 f9 3c a4 ed 98 bc
       0.07055399 0.04782152 0.030482607 -0.018668003
0002b0 af 69 04 bd a4 ab fb bd 0b eb 0c 3e c7 98 c3 3d
       -0.03232735 -0.12288597 0.13761537 0.09550624
0002c0 24 86 84 bc d5 0c d4 3d 49 eb 91 3d a7 b0 a2 3d
       -0.016177244 0.1035401 0.07124955 0.0794385
0002d0 ff b3 a3 3d 53 c2 11 be f8 42 52 3d 31 45 44 be
       0.07993316 -0.14234285 0.051333398 -0.1916702
0002e0 4c 73 9b 3d ef d6 0d bd b7 ce 93 bd cd 7f 4a 3c
       0.075903505 -0.034628805 -0.07217162 0.012359572
0002f0 b9 fb 92 bd ff 56 1d be fb 57 18 be aa 70 7e 3c
       -0.071769185 -0.15365218 -0.14877312 0.015529791
000300 55 c6 c7 bd 2f 4c 07 bc b4 b2 61 3c 2c c8 84 3d
       -0.09754626 -0.00825791 0.013775516 0.06483492
000310 f7 9a 9b bd cb 86 18 be b1 b7 37 bc 08 d2 bf 3d
       -0.075979166 -0.1489517 -0.011213229 0.09366232
000320 3d e2 0a 3e 92 6b 20 bc 38 b9 3f bd fa fc ff bd
       0.13562866 -0.009791272 -0.046807498 -0.12499423
000330 13 64 b0 bd 2f d3 d8 3d 00 33 bc bd 76 d5 d1 3d
       -0.08612838 0.10587155 -0.09189415 0.102457926
000340 92 cf 11 3e 47 05 ee 3d c6 38 a1 bd 93 e1 9f bd
       0.14239338 0.116221 -0.07872157 -0.07806697
000350 c6 42 6f 3d 46 41 b5 bb 35 b8 18 3e 58 56 96 3d
       0.05841329 -0.005531463 0.1491402 0.073406875
000360 01 27 a7 3d 4f 9b 04 ba 1f c1 68 3d 50 91 64 bb
       0.08161736 -0.0005058543 0.0568248 -0.0034876652
000370 0f 1f d0 3d e1 79 83 bd 8d 2d 49 bd 48 82 01 3e
       0.10162174 -0.06419731 -0.049115706 0.12647355
000380 c7 a5 b2 bd b5 ea 05 bd d9 9a 12 bd 90 a9 ab 3d
       -0.08723026 -0.032694537 -0.035792205 0.08381951
000390 50 e1 90 bd c0 6f 63 3a 15 be e6 ba e7 c4 2d be
       -0.07074225 0.0008676015 -0.0017604256 -0.16969644
0003a0 f8 f3 a4 bb 61 b0 8c 3d 6e fd e3 bd b7 c8 dc 3d
       -0.005033966 0.06869579 -0.11132322 0.10780471
0003b0 03 3b f0 3d c4 7a 54 3d b4 f9 1a 3d 93 c2 0e be
       0.117300056 0.05187489 0.03783579 -0.13941412
0003c0 45 db 06 bc 59 87 dd 3c 25 82 4b 3d b9 3f 21 be
       -0.008230989 0.027042078 0.049684662 -0.15746965
0003d0 1f 55 71 3d 5c 7a 6b bc 3f d2 1c 3e f0 a7 e6 3d
       0.05891907 -0.0143724345 0.15314578 0.112625
0003e0 81 74 ee 3d 4a c7 83 3b 7f 18 de 3c 7a de 70 3c
       0.11643315 0.00402156 0.02711129 0.01470148
0003f0 03 a0 c7 3d 43 56 ca 3d 0f 48 47 bd b0 ee a4 3d
       0.09747317 0.09879734 -0.048652705 0.080533385

localization.0.bias f4 [8]
000000 c0 6d 36 3e ba 79 8e bd 8f e4 9c bd 03 10 5b be
       0.17815304 -0.06956811 -0.076607816 -0.21392827
000010 f1 38 30 bd 66 58 d9 bd 3f 2d 4c be e0 2b 70 be
       -0.043023054 -0.10612564 -0.19939135 -0.23454237
