EmpathyBot/model_snapshots/deep_emotion-200-64-0.005-0.5336553346956467.pt (torch_old, 271009 bytes, 24 tensors)

conv1.weight f4 [10, 1, 3, 3]
-0.04529731 -0.21563126 -2.4044464 0.41622946 0.66561353 0.02392618 -1.267178 1.0115757
1.9811476 -1.2169127 0.3623696 1.6173981 -2.2669008 -0.71305776 2.1003532 -0.78398
0.33777025 0.19426733 1.3889557 -0.49043718 -0.9419784 1.1685724 -0.40885553 -0.86701226
-0.49904165 -0.537246 -0.9881776 1.5474133 1.9042915 0.51511526 -0.97409064 0.06732862
-0.140932 -1.3942946 -0.7982202 -0.7578539 -0.4327464 -0.2666723 0.17600515 -0.16177349
-0.5457017 -0.4423749 1.6502123 0.609525 -0.5885464 0.8560433 1.5230483 1.0223727
1.4938338 0.06717993 -2.8835518 0.20117857 -0.3492508 -1.3721558 0.041404795 0.07176847
-1.5941252 1.0014204 0.6145449 -1.5938563 1.5015124 0.56169605 -0.43195608 -0.31701514
0.0067553385 0.7030586 -2.2652647 -0.41327423 0.6791836 -0.20726982 1.5717751 0.58659816
-1.8459221 -0.63223773 -0.3278766 0.051674113 0.5729879 0.23828706 1.5328373 1.7625558
-0.9858782 0.8259846 -0.65565056 1.6815934 -0.63394225 -2.1765006 -1.1345602 0.27526042
0.639738 1.1710209
00000000: ac89 39bd 71ce 5cbe 73e2 19c0 071c d53e
00000010: a665 2a3f d600 c43c e432 a2bf 507b 813f
00000020: 3f96 fd3f ccc3 9bbf 8288 b93e e706 cf3f
00000030: e714 11c0 f48a 36bf 306c 0640 eab2 48bf
00000040: 39f0 ac3e 04ee 463e 4dc9 b13f 951a fbbe
00000050: 7f25 71bf c893 953f 8355 d1be 84f4 5dbf
00000060: 6382 ffbe f488 09bf 35f9 7cbf a411 c63f
00000070: d3bf f33f 98de 033f 015e 79bf 96e3 893d
00000080: 7a50 10be 3f78 b2bf 2958 4cbf b702 42bf
00000090: f090 ddbe 4689 88be b23a 343e f3a7 25be
000000a0: 1bb3 0bbf f77e e2be 283a d33f d509 1c3f
000000b0: faaa 16bf a725 5b3f 3ff3 c23f 1cdd 823f
000000c0: f235 bf3f a295 893d 1d8c 38c0 c101 4e3e
000000d0: 00d1 b2be cda2 afbf 1398 293d 59fb 923d
000000e0: 4b0c ccbf 8b2e 803f d152 1d3f 7c03 ccbf
000000f0: 8f31 c03f 50cb 0f3f 5929 ddbe cf4f a2be
00000100: e35b dd3b a6fb 333f 19fa 10c0 ae98 d3be
00000110: fade 2d3f 8a3e 54be ed2f c93f 4c2b 163f
00000120: 2d47 ecbf 55da 21bf 71df a7be 3ca8 533d
00000130: 56af 123f 8601 743e 0334 c43f 6e9b e13f
00000140: 8462 7cbf ba73 533f b7d8 27bf 743e d73f
00000150: 0a4a 22bf c94b 0bc0 4539 91bf efee 8c3e
00000160: dfc5 233f 03e4 953f

conv1.bias f4 [10]
0.36293438 -0.30636945 -0.63221973 0.3747421 0.17397165 -0.8036975 0.71311915 0.8506373
0.5444992 0.0926382
00000000: 89d2 b93e 75dc 9cbe 27d9 21bf 32de bf3e
00000010: a025 323e 1fbf 4dbf fa8e 363f 5ec3 593f
00000020: 4d64 0b3f 19b9 bd3d

conv2.weight f4 [10, 10, 3, 3]
-0.08321447 -0.11603046 -0.098424084 -0.16834828 -0.10391331 -0.11686552 -0.0984715 -0.25309172
-0.11516626 -0.0914077 0.028724447 -0.021712348 0.016959574 0.033511713 0.009909071 0.02815486
-0.140756 -0.00019121295 -0.03625593 0.036379963 0.06192002 -0.13357177 0.0093231695 0.00989727
0.017271189 -0.10394071 -0.13280664 -0.12900025 -0.11836395 -0.014215727 -0.28093144 -0.26685926
0.03601127 -0.11195002 -0.1435178 -0.18922596 -0.044212 -0.0926894 -0.22879435 -0.067207076
-0.17664854 0.105470456 -0.019464044 -0.10149307 -0.21403104 0.025115056 -0.08652628 -0.040870067
-0.030940322 0.073262446 0.008459304 -0.0015861379 -0.04025882 -0.10496296 -0.21526678 -0.106079176
-0.10168399 0.04696352 -0.27624372 -0.24641857 -0.07355919 0.006281765 -0.14128155 -0.2360229
-0.19940546 -0.053857014 -0.117955446 -0.1476286 0.029657952 -0.22215481 -0.10219121 -0.088084064
-0.23157464 -0.09026393 -0.19359179 -0.19972284 -0.17177695 -0.24821292 -0.09746695 -0.018283436
0.04479919 -0.102689914 0.051483896 -0.064801596 -0.1736446 -0.03056562 0.012707479 -0.04567023
-0.22321989 -0.074378535 -0.6329946 -0.5642807 0.064391784 0.20504592 -0.300106 -0.2361584
-2.419636 -0.76609683 -1.4098425 0.057787303 -0.42400303 -0.815613 -0.503137 -1.2976389
-0.7450393 0.0231825 -0.6161444 -0.6074635 -0.49201253 -0.4119959 -0.7988851 0.047236647
-0.15249997 -0.033657882 0.8367976 -0.04577367 0.27370632 -0.22381245 -1.1429086 -1.5959153
1.2154886 0.83055913 0.08342872 1.777621 1.242143 1.1362004 0.7806228 0.3357185
0.054809306 -2.6373677 -0.3149229 1.2115777 0.7478511 -0.0074649095 -1.2544471 1.2161902
0.796837 0.32360193 -0.5673638 0.46207267 0.7047564 -1.3426088 -0.9251827 0.25615963
-0.11404653 0.0686456 0.5578689 -1.0059838 -0.064328946 0.28297544 -1.0419557 -0.5124272
-0.72906536 0.52823514 0.5309793 0.38989007 -1.0867414 0.22783117 2.2112937 0.4501843
0.034671504 0.76868457 1.1705128 0.72534996 0.53053963 -2.3568752 -1.6294985 0.2226423
-1.7949306 -1.8988222 -1.9393421 -0.4779352 -0.75983465 -0.38497025 -0.6670472 0.42136022
1.8922046 2.179509 -0.47508615 -1.3231059 -2.045139 0.3594111 -1.4778297 -0.2350161
1.148738 -0.45640415 1.0960944 -0.33592203 -1.6592911 -2.1797771 0.89653665 0.94611675
-3.430363 -0.8611663 -1.4038411 -3.1245759 0.14103775 1.7323599 -0.02354509 -0.06684982
-1.1608325 1.3399572 0.5097252 -1.2642163 1.5683881 1.1393707 -0.34889215 -0.7878253
0.5462835 1.534437 0.28649923 0.5266384 0.42334622 -0.27603778 0.6433335 1.0497777
-1.0895121 -0.49198523 0.49585122 -3.1896012 -1.2163444 0.23345765 0.032243457 0.6748975
0.01920022 0.5524746 0.060543284 -1.0502075 0.42913055 -0.19046189 -3.534839 0.94471276
1.5092148 -2.1138918 -0.72680753 -1.4385097 -0.34481534 -1.2641473 -1.1076102 -0.7389276
0.76349485 1.9514132 -0.0014973165 1.6335418 -0.037995584 -2.942121 0.76621413 -0.2726659
-0.18828426 -2.433156 -0.566341 -0.100291625 0.18773766 0.6118832 -1.3709936 -1.3411914
00000000: 596c aabd 61a1 edbd 9192 c9bd 7e63 2cbe
00000010: 80d0 d4bd 3157 efbd 6dab c9bd 3d95 81be
00000020: 4adc ebbd f633 bbbd 884f eb3c 18de b1bc
00000030: ceee 8a3c 9443 093d a859 223c 05a5 e63c
00000040: 5722 10be 5680 48b9 1981 14bd 2803 153d
00000050: d99f 7d3d 0ac7 08be 35c0 183c 2928 223c
00000060: 4f7c 8d3c dede d4bd 77fe 07be a418 04be
00000070: cc68 f2bd 15e9 68bc 3fd6 8fbe c7a1 88be
00000080: 8e80 133d 0d46 e5bd 55f6 12be 73c4 41be
00000090: a417 35bd f1d3 bdbd 1149 6abe dda3 89bd
000000a0: 5be3 34be e500 d83d 0f73 9fbc 99db cfbd
000000b0: f42a 5bbe 17be cd3c b134 b1bd 5f67 27bd
000000c0: 8f76 fdbc 9f0a 963d e598 0a3c f5e5 cfba
000000d0: 6fe6 24bd d2f6 d6bd e56e 5cbe 0a40 d9bd
000000e0: b23f d0bd d25c 403d d16f 8dbe 2655 7cbe
000000f0: 33a6 96bd 44d7 cd3b 1cac 10be fdaf 71be
00000100: f230 4cbe 2c99 5cbd a092 f1bd f42b 17be
00000110: 3cf5 f23c 8d7c 63be a049 d1bd 6b65 b4bd
00000120: e721 6dbe 4cdc b8bd ed3c 46be 2584 4cbe
00000130: 4ce6 2fbe 872b 7ebe c19c c7bd 25c7 95bc
00000140: 5b7f 373d 174f d2bd c7e0 523d b3b6 84bd
00000150: e4cf 31be c064 fabc 0833 503c b510 3bbd
00000160: c193 64be c653 98bd ef0b 22bf b374 10bf
00000170: d7df 833d 8ff7 513e 7ea7 99be 82d3 71be
00000180: 51db 1ac0 ec1e 44bf b875 b4bf 61b2 6c3d
00000190: ed16 d9be 03cc 50bf 96cd 00bf 0819 a6bf
000001a0: e5ba 3ebf 3ae9 bd3c a4bb 1dbf ba82 1bbf
000001b0: 11e9 fbbe 20f1 d2be bc83 4cbf 377b 413d
000001c0: f428 1cbe d9dc 09bd 5e38 563f 2c7d 3bbd
000001d0: 3c23 8c3e 172f 65be d44a 92bf f446 ccbf
000001e0: 2195 9b3f 869f 543f addc aa3d 1689 e33f
000001f0: 8bfe 9e3f 046f 913f e5d6 473f 4ce3 ab3e
00000200: b97f 603d a2ca 28c0 933d a1be fa14 9b3f
00000210: 2b73 3f3f 339c f4bb b991 a0bf 1fac 9b3f
00000220: 82fd 4b3f 27af a53e c13e 11bf ca94 ec3e
00000230: ea6a 343f 9bda abbf c6d8 6cbf 5b27 833e
00000240: 3a91 e9bd 1096 8c3d 7fd0 0e3f 14c4 80bf
00000250: e5be 83bd 28e2 903e ce5e 85bf 6e2e 03bf
00000260: 07a4 3abf 6b3a 073f 42ee 073f ac9f c73e
00000270: 581a 8bbf 934c 693e d685 0d40 8e7e e63e
00000280: b503 0e3d 83c8 443f 5dd3 953f 89b0 393f
00000290: 72d1 073f 0bd7 16c0 6893 d0bf 58fc 633e
000002a0: 49c0 e5bf 9b0c f3bf 5d3c f8bf ecb3 f4be
000002b0: 8684 42bf d21a c5be 9bc3 2abf 87bc d73e
000002c0: c333 f23f 137d 0b40 7e3e f3be 895b a9bf
000002d0: 8fe3 02c0 bb04 b83e 8629 bdbf 0fa8 70be
000002e0: d909 933f cead e9be d24c 8c3f f9fd abbe
000002f0: a763 d4bf 7881 0bc0 6d83 653f b534 723f
00000300: 118b 5bc0 6575 5cbf 11b1 b3bf 0df9 47c0
00000310: 336c 103e f8bd dd3f a2e1 c0bc 8fe8 88bd
00000320: 2996 94bf b883 ab3f 5a7d 023f d7d1 a1bf
00000330: f1c0 c83f e6d6 913f fea1 b2be ebae 49bf
00000340: 3cd9 0b3f 6e68 c43f 07b0 923e c6d1 063f
00000350: d6c0 d83e d354 8dbe 81b1 243f 1e5f 863f
00000360: 2275 8bbf 7de5 fbbe 36e0 fd3e 6d22 4cc0
00000370: 2cb1 9bbf 860f 6f3e b711 043d 15c6 2c3f
00000380: c849 9d3c fa6e 0d3f 3cfc 773d 336d 86bf
00000390: 00b7 db3e 7108 43be cd3a 62c0 b2d8 713f
000003a0: f32d c13f 014a 07c0 0f10 3abf 1621 b8bf
000003b0: a38b b0be 94cf a1bf 2cc6 8dbf 5c2a 3dbf
000003c0: 6674 433f e8c7 f93f 9b41 c4ba e617 d13f
000003d0: 42a1 1bbd b64b 3cc0 9c26 443f dd9a 8bbe
000003e0: 97cd 40be d4b8 1bc0 b9fb 10bf b265 cdbd
000003f0: 4d3e 403e 61a4 1c3f b87c afbf 29ac abbf

conv2.bias f4 [10]
-0.25386366 1.2836044 0.008322482 -0.07580433 2.0716884 3.4420385 0.37711066 0.5414891
-0.04615603 1.3053783
00000000: 6bfa 81be 264d a43f 055b 083c 4d3f 9bbd
00000010: 8b96 0440 5c4a 5c40 a614 c13e 089f 0a3f
00000020: 1b0e 3dbd a316 a73f

conv3.weight f4 [10, 10, 3, 3]
-0.021197801 0.12785245 -0.10050723 -0.03393127 0.10669845 0.042050578 0.16659814 0.072981134
-0.016890775 -1.8163317 -0.57249546 -0.15262091 -1.420422 0.3602296 0.011622224 -0.76944155
0.92674977 1.8167138 -0.19916606 -0.6602223 1.8059028 0.41503823 0.57659966 2.44869
0.6517656 0.7760913 2.2904813 0.007757389 0.03100483 -0.025822055 -0.017847592 0.10425609
-0.09331726 0.03545409 0.09979995 0.113248184 -1.1579825 -2.1982846 0.31686237 0.5427532
2.0295951 1.4588553 0.477448 1.0421557 1.2709206 0.32583115 0.37241706 0.059278302
0.8714596 -0.36535308 0.43246543 0.6488475 -0.1523306 0.6817679 -0.36050975 0.010970133
0.77340394 0.17344733 -0.42478263 1.25789 -0.6501706 0.25118992 1.3110342 -1.8546479
-2.026992 -0.19951116 -1.1317428 -0.7349526 0.64413494 0.5128851 1.3352143 0.15666534
-0.030085502 -0.14748247 -0.106760934 0.09642317 0.007519897 -0.06845784 0.19953494 0.016156485
0.18459152 0.44099456 0.8522296 0.85465527 1.8968389 1.9803935 0.7066061 2.2843063
1.5529065 1.258438 0.04302985 0.069941424 -0.04609541 0.061914396 -0.045045543 0.123908386
-0.04217224 -0.006787325 -0.106457606 0.019280845 -0.094564475 -0.017537901 -0.074744746 -0.09933233
-0.050671685 -0.0014516878 -0.046044543 0.026365139 0.010269925 -0.03352978 0.013783467 -0.09957344
-0.025730139 0.104140304 0.080998085 -0.029979696 -0.0051268227 0.030832626 0.00983083 -0.113515384
0.032520667 -0.11286575 -0.11892566 0.09586939 -0.1039401 0.062871344 -0.020656085 0.010416203
-0.15321732 0.040579446 -0.026872994 0.013213353 -0.06716784 -0.009971246 -0.0755322 0.064057305
-0.13850658 -0.070976645 -0.04054944 -0.11070313 -0.007212849 0.08558146 -0.11739705 -0.10436862
-0.03811392 -0.05337763 -0.0032819882 -0.035161525 -0.0051786066 0.037471052 -0.060426008 -0.036966767
0.016505022 -0.09321181 -0.06319608 -0.002337976 -0.039869513 -0.09856049 -0.12711126 -0.033097025
-0.11682329 -0.15157396 0.14088508 0.023613445 0.08694237 0.017053021 0.13075045 0.022312826
0.027338732 0.1146506 0.037637845 -0.040150587 -0.12432897 -0.05005313 0.033517644 -0.10864441
-0.034818616 0.0498433 -0.13140021 -0.06946406 0.07371019 0.021421878 0.018959744 0.01155387
0.06586693 -0.013107487 0.078621216 -0.11974543 -0.07888904 0.5857492 0.06598382 0.91542095
-0.6852592 -0.33091316 -0.7388427 -0.29304534 -0.3039777 -0.75255007 -0.9509963 -1.622718
-1.771157 -0.7988373 -0.9578955 -0.91790646 -2.183517 -1.2937341 -0.5609502 0.04632155
-0.028150573 -0.10012385 0.017047623 -0.0024966884 0.08665615 0.04503512 0.024803648 -0.08830289
0.56818914 0.3719957 1.1630027 -0.5298477 -0.7291101 -0.44969845 -1.5180241 -1.346626
-1.0408753 -0.3750256 -0.16087665 0.4391476 0.38870394 0.73167074 1.1266222 1.5192558
1.9516644 1.0189531 0.36406824 0.010524975 1.1838555 0.13952602 0.5496119 2.0647018
0.7582712 0.4656783 1.0551271 0.6141418 0.91838187 0.40481192 0.4305878 -0.59231496
-0.29673988 -1.5130378 -1.7616506 -1.4661696 0.07088346 -0.010964106 0.032139488 0.027025219
00000000: 03a7 adbc c1eb 023e bcd6 cdbd 84fb 0abd
00000010: b884 da3d 3a3d 2c3d b498 2a3e 2277 953d
00000020: 865e 8abc 8f7d e8bf 108f 12bf a848 1cbe
00000030: 63d0 b5bf 0470 b83e 246b 3e3c 1ffa 44bf
00000040: 793f 6d3f 148a e83f 30f2 4bbe 5404 29bf
00000050: d327 e73f e47f d43e 099c 133f 56b7 1c40
00000060: 1cda 263f ebad 463f 3f97 1240 b231 fe3b
00000070: d7fd fd3c c688 d3bc 1d35 92bc 3884 d53d
00000080: 1f1d bfbd 4f38 113d eb63 cc3d aaee e73d
00000090: c538 94bf b2b0 0cc0 c93b a23e e0f1 0a3f
000000a0: e3e4 0140 c5bb ba3f 1074 f43e 5c65 853f
000000b0: 87ad a23f 57d3 a63e 73ad be3e cecd 723d
000000c0: fa17 5f3f 8f0f bbbe 1c6c dd3e df1a 263f
000000d0: 8efc 1bbe 5788 2e3f bc94 b8be 13bc 333c
000000e0: cdfd 453f 2d9c 313e 1c7d d9be 8a02 a13f
000000f0: 9571 26bf f79b 803e f8cf a73f 1a65 edbf
00000100: 3dba 01c0 a74c 4cbe f3dc 90bf db25 3cbf
00000110: 07e6 243f 704c 033f 4de8 aa3f e16c 203e
00000120: df75 f6bc a505 17be 7aa5 dabd 8379 c53d
00000130: 7869 f63b a033 8cbd e352 4c3e 9b5a 843c
00000140: 8f05 3d3e 0aca e13e b82b 5a3f b0ca 5a3f
00000150: 9ecb f23f 897d fd3f 23e4 343f 1332 1240
00000160: a4c5 c63f 7f14 a13f 1140 303d 733d 8f3d
00000170: 8ace 3cbd f399 7d3d ad81 38bd aec3 fd3d
00000180: ccbc 2cbd 3568 debb 7206 dabd ddf2 9d3c
00000190: 05ab c1bd a5ab 8fbc c613 99bd c06e cbbd
000001a0: 1d8d 4fbd 8f46 beba 3499 3cbd b4fb d73c
000001b0: 3043 283c 8656 09bd 0dd4 613c 29ed cbbd
000001c0: 03c8 d2bc 8347 d53d 53e2 a53d fb97 f5bc
000001d0: e8fe a7bb b494 fc3c 7d11 213c c17a e8bd
000001e0: 6434 053d 2926 e7bd 4c8f f3bd 2c57 c43d
000001f0: 8cde d4bd b1c2 803d f336 a9bc b9a8 2a3c
00000200: 00e5 1cbe a236 263d c124 dcbc d27c 583c
00000210: 4b8f 89bd 705e 23bc a0b0 9abd 7a30 833d
00000220: abd4 0dbe 345c 91bd 2b17 26bd 53b8 e2bd
00000230: c359 ecbb 5545 af3d dd6d f0bd 37bf d5bd
00000240: 571d 1cbd 80a2 5abd a016 57bb 8805 10bd
00000250: 4db1 a9bb 3f7b 193d 4381 77bd 776a 17bd
00000260: 8a35 873c d5e5 bebd f26c 81bd ba38 19bb
00000270: 374e 23bd 15da c9bd 7429 02be bf90 07bd
00000280: 0d41 efbd 3436 1bbe 2e44 103e fc70 c13c
00000290: d70e b23d c7b2 8b3c 72e3 053e 63c9 b63c
000002a0: 7af5 df3c efcd ea3d 242a 1a3d f174 24bd
000002b0: 30a0 febd 8304 4dbd cc49 093d f680 debd
000002c0: f79d 0ebd 7d28 4c3d c78d 06be 2c43 8ebd
000002d0: 5ef5 963d ef7c af3c 7751 9b3c 714c 3d3c
000002e0: 3ee5 863d c9c0 56bc 2904 a13d 183d f5bd
000002f0: 9490 a1bd a9f3 153f 8622 873d 0759 6a3f
00000300: 266d 2fbf 736d a9be cc24 3dbf 0a0a 96be
00000310: f7a2 9bbe 1fa7 40bf 7e74 73bf 39b5 cfbf
00000320: 46b5 e2bf 9a80 4cbf a438 75bf ebfb 6abf
00000330: bebe 0bc0 1499 a5bf 6f9a 0fbf aabb 3d3d
00000340: 089c e6bc bc0d cdbd 75a7 8b3c 7b9f 23bb
00000350: c878 b13d bf76 383d 0531 cb3c 25d8 b4bd
00000360: d874 113f 3876 be3e 46dd 943f 19a4 07bf
00000370: f6a6 3abf e03e e6be 9d4e c2bf 3e5e acbf
00000380: 673b 85bf 5b03 c0be d9bc 24be f4d7 e03e
00000390: 3404 c73e c64e 3b3f 2835 903f f976 c23f
000003a0: 24d0 f93f 0e6d 823f 2767 ba3e f270 2c3c
000003b0: 9488 973f e9df 0e3e 5eb3 0c3f 1324 0440
000003c0: 101e 423f 636d ee3e 680e 873f 6638 1d3f
000003d0: 131b 6b3f 8243 cf3e 0176 dc3e f4a1 17bf
000003e0: 4aee 97be 39ab c1bf c47d e1bf 72ab bbbf
000003f0: 592b 913d cba2 33bc b2a4 033d fe63 dd3c

conv3.bias f4 [10]
-1.8941245 -0.07991727 1.1262436 -0.09510208 -0.005266267 0.011694794 -0.09284314 -0.10379312
-0.059974667 5.9327865
00000000: ac72 f2bf aaab a3bd c028 903f e1c4 c2bd
00000010: a690 acbb 859b 3f3c 8b24 bebd 7d91 d4bd
00000020: ffa7 75bd 63d9 bd40

conv4.weight f4 [10, 10, 3, 3]
-0.74358827 -0.3467713 -0.17460494 -1.062503 -1.3938081 -0.70674103 0.7232804 -1.8576428
-1.9876882 -0.0855958 0.03916873 -0.05235547 0.059586853 0.06760235 0.08416227 -0.017707044
0.02783391 0.080982335 -0.044066194 -0.09516238 -0.17557223 -1.1727543 -0.09021028 0.7791056
-1.9253795 0.28411642 1.9382461 -0.014006887 -0.031891573 -0.099610224 0.14140487 -0.07068844
0.020722171 0.09003036 0.0946155 -0.065271 0.028497303 0.05977514 0.019590007 0.10556375
0.007880332 0.019014524 0.1123035 0.011643738 -0.03079262 0.05236129 -0.031862464 -0.053571463
-0.04186789 0.053383704 0.12635654 -0.1023851 -0.038018726 -0.07448807 0.061643034 0.0046656923
-0.015781185 -0.059768364 0.030839264 0.12584879 -0.049625486 -0.049187075 -0.03683078 0.014359602
0.042000126 0.057442997 -0.1209668 0.037419666 0.11706314 0.13931406 -0.028044585 -0.11674331
-0.08629505 0.041099083 0.027771072 -0.0603325 -0.16477954 0.05434477 -0.01714789 0.02124952
-0.09441131 -0.6683996 -0.9745115 -1.1952925 1.5741234 -0.1630327 -1.3333508 1.5708107
0.8650037 0.40663376 1.297028 0.35438317 1.6380312 -0.09964435 0.5678356 -0.31217033
-2.7043142 -0.87860435 -2.8976524 0.09260785 -0.023964997 0.06883037 -0.020137709 0.035859685
0.0199304 -0.05783929 0.080935836 -0.10840782 0.35796982 0.08211559 0.20076571 -1.0362306
0.23986125 0.50286335 -0.4737869 -0.72780627 0.8276083 0.072357446 0.04507488 -0.0551316
-0.09923625 0.14550501 -0.21565059 0.064292714 0.057967275 -0.026939617 -0.040892176 -0.104847126
0.08104754 0.12285443 -0.07479645 0.042693414 0.012250473 0.0027148034 -0.046857957 -0.07857831
0.034282524 -0.103415675 -0.05603841 -0.06736698 0.07190797 0.012332568 0.010594609 -0.0067905528
0.104310304 0.020246686 0.022224598 0.042614423 0.018096441 -0.028609075 -0.10593026 0.037439376
-0.10198992 -0.08981956 -0.041702565 0.09575791 0.0031501544 -0.07853522 0.06131779 0.07820243
-0.080239154 -0.111623 0.023763472 -0.035826616 0.022428043 -0.01661404 0.018119102 -0.060274325
0.096022956 -0.14608578 -0.22179966 -1.2304859 -1.0246786 -0.81626177 0.049227674 0.27192777
1.1792251 1.2189388 0.89041144 -0.0123030925 -0.1308096 1.4341384 0.68736064 1.173111
1.2328044 1.8042252 0.31510368 -0.5957315 -0.6272942 -0.016859917 -0.09103568 -0.04944109
-0.14461835 0.08772925 0.04492432 -0.10924166 -0.032579336 0.06353146 -1.1194788 -0.7294649
-1.0643951 -0.0029151812 -1.4352663 -0.102864794 -1.9449869 -0.8694801 1.4485711 0.11532249
-0.065284945 -0.032606315 -0.0051612915 0.059197567 0.05234315 -0.019472934 0.14215289 0.10404581
0.034362495 0.10247074 0.08965627 -0.04471425 0.12124775 -0.0005875651 -0.08263844 -0.039466884
-0.010193109 -0.0626399 -0.07666129 0.11618606 0.00065700826 0.0036481568 0.022750584 -0.022435937
0.07125734 0.1233871 0.06065996 0.051166482 -0.11892417 -0.039867662 -0.08499434 -0.05830043
0.08691603 -0.0420663 -0.029487971 0.0029835645 0.01388084 0.07310365 0.012466614 -0.008053446
-0.001846716 0.003207421 -0.010568437 -0.07583767 -0.010845531 0.0053813965 0.11237692 0.050878804
00000000: cd5b 3ebf 028c b1be a3cb 32be 1900 88bf
00000010: 4e68 b2bf fbec 34bf e728 393f 3dc7 edbf
00000020: 916c febf da4c afbd 646f 203d b072 56bd
00000030: 5811 743d 1a73 8a3d 455d ac3d 5d0e 91bc
00000040: f103 e43c 11da a53d c17e 34bd 7ee4 c2bd
00000050: 35c9 33be d01c 96bf 2bc0 b8bd 7773 473f
00000060: d672 f6bf b577 913e 7318 f83f 247d 65bc
00000070: bda0 02bd 7200 ccbd 70cc 103e 1ac5 90bd
00000080: 8bc1 a93c d661 b83d c5c5 c13d cdac 85bd
00000090: 2d73 e93c c7d6 743d 397b a03c cf31 d83d
000000a0: 821c 013c 59c4 9b3c 61ff e53d 60c5 3e3c
000000b0: ce40 fcbc cb78 563d 3782 02bd c06d 5bbd
000000c0: aa7d 2bbd dfa8 5a3d 9c63 013e 48af d1bd
000000d0: 86b9 1bbd 348d 98bd 687d 7c3d aae2 983b
000000e0: 8b47 81bc accf 74bd a0a2 fc3c 81de 003e
000000f0: 1844 4bbd 6378 49bd dfdb 16bd 8944 6b3c
00000100: 5308 2c3d 5949 6b3d 71bd f7bd 5d45 193d
00000110: cdbe ef3d 58a8 0e3e c2bd e5bc 1e17 efbd
00000120: 76bb b0bd 8357 283d 2980 e33c 361f 77bd
00000130: f8bb 28be 9f98 5e3d bb79 8cbc 7913 ae3c
00000140: b85a c1bd 3c1c 2bbf 9679 79bf 58ff 98bf
00000150: e07c c93f 0bf2 26be 3dab aabf 5310 c93f
00000160: e270 5d3f 4d32 d03e 0305 a63f b671 b53e
00000170: 02ab d13f 5612 ccbd ad5d 113f cad4 9fbe
00000180: 7c13 2dc0 37ec 60bf 2373 39c0 2fa9 bd3d
00000190: 3e52 c4bc f0f6 8c3d d6f7 a4bc 9be1 123d
000001a0: 1445 a33c e4e8 6cbd b0c1 a53d eb04 debd
000001b0: d247 b73e 382c a83d 8795 4d3e 34a3 84bf
000001c0: 309e 753e a7bb 003f 3294 f2be 8351 3abf
000001d0: 23de 533f 2430 943d 70a0 383d acd1 61bd
000001e0: 603c cbbd 44ff 143e 82d3 5cbe e6ab 833d
000001f0: 186f 6d3d 79b0 dcbc 8e7e 27bd 17ba d6bd
00000200: 41fc a53d 1a9b fb3d e22e 99bd 4adf 2e3d
00000210: 35b6 483c d8ea 313b 21ee 3fbd aaed a0bd
00000220: d56b 0c3d 99cb d3bd 8888 65bd b3f7 89bd
00000230: 7c44 933d 8a0e 4a3c 0395 2d3c 4983 debb
00000240: a4a0 d53d 61dc a53c 5c10 b63c 768c 2e3d
00000250: fd3e 943c 945d eabc f7f1 d8bd 085a 193d
00000260: 17e0 d0bd 51f3 b7bd 4fd0 2abd b91c c43d
00000270: d272 4e3b 13d7 a0bd 5d28 7b3d 9828 a03d
00000280: 6d54 a4bd 999a e4bd 9dab c23c eebe 12bd
00000290: 04bb b73c 2b1a 88bc 836e 943c 36e2 76bd
000002a0: afa7 c43d 8397 15be 731f 63be 9080 9dbf
000002b0: ab28 83bf 88f6 50bf f5a2 493d 1e3a 8b3e
000002c0: d9f0 963f 3006 9c3f 01f2 633f e992 49bc
000002d0: f4f2 05be d991 b73f def6 2f3f 8028 963f
000002e0: 89cc 9d3f daf0 e63f 4555 a13e dc81 18bf
000002f0: 5a96 20bf cf1d 8abc ea70 babd be82 4abd
00000300: d516 14be 65ab b33d 9002 383d 17ba dfbd
00000310: e971 05bd c81c 823d 154b 8fbf 36be 3abf
00000320: 193e 88bf a00c 3fbb ceb6 b7bf c7aa d2bd
00000330: 55f5 f8bf 3f96 5ebf c76a b93f 332e ec3d
00000340: 1db4 85bd 338e 05bd 0d20 a9bb 2679 723d
00000350: c565 563d b485 9fbc 8790 113e f815 d53d
00000360: b0bf 0c3d 2edc d13d b59d b73d 4a26 37bd
00000370: be50 f83d d406 1aba 583e a9bd 07a8 21bd
00000380: ff00 27bc 5949 80bd 9800 9dbd f5f2 ed3d
00000390: 143b 2c3a ea15 6f3b 6f5f ba3c 92cb b7bc
000003a0: 5eef 913d 60b2 fc3d 9476 783d f293 513d
000003b0: 848e f3bd 464c 23bd 8311 aebd 6fcc 6ebd
000003c0: 0801 b23d b64d 2cbd c290 f1bc e887 433b
000003d0: 766c 633c 5eb7 953d c540 4c3c 9af2 03bc
000003e0: 820d f2ba 9833 523b 3d27 2dbc c850 9bbd
000003f0: 74b1 31bc 6d56 b03b df25 e63d 4b66 503d

conv4.bias f4 [10]
0.15741962 0.29211536 -0.0813647 -0.067288004 -0.2649982 -0.15486741 -0.51004374 0.27072227
-0.40916005 0.20869748
00000000: 9c32 213e 2590 953e 89a2 a6bd 4bce 89bd
00000010: d8ad 87be 9095 1ebe 3a92 02bf 1c9c 8a3e
00000020: 6d7d d1be cbb4 553e

norm.weight f4 [10]
0.36228108 0.20505938 0.22221151 0.18698932 0.12565267 0.23407672 0.4035981 0.21349478
0.26770547 0.16471657
00000000: e87c b93e 16fb 513e 6a8b 633e 217a 3f3e
00000010: 18ab 003e cfb1 6f3e 69a4 ce3e 609e 5a3e
00000020: b110 893e 76ab 283e

norm.bias f4 [10]
-0.385822 -0.25630054 -0.35064077 -0.17166157 -0.10171356 -0.22818933 -0.381397 -0.2150087
-0.2482595 -0.12453512
00000000: 768a c5be d339 83be 3087 b3be 0dc8 2fbe
00000010: 334f d0bd 77aa 69be 7846 c3be 3e2b 5cbe
00000020: bd37 7ebe 450c ffbd

norm.running_mean f4 [10]
-556.8142 -193.3813 -287.4562 -504.92047 70.80473 -382.1811 -817.03864 -656.7544
-580.6858 21.542522
00000000: 1c34 0bc4 9d61 41c3 65ba 8fc3 d275 fcc3
00000010: 069c 8d42 2e17 bfc3 7942 4cc4 4830 24c4
00000020: e42b 11c4 1657 ac41

norm.running_var f4 [10]
109014.54 72035.67 130562.55 166013.78 51698.75 64346.53 158657.98 100247.49
196030.33 98186.266
00000000: 45eb d447 d6b1 8c47 4601 ff47 721f 2248
00000010: c0f2 4947 885a 7b47 7ff0 1a48 bfcb c347
00000020: 956f 3f48 22c5 bf47

fc1.weight f4 [50, 810]
-0.273839 -0.30960172 -1.7100407 -2.5072608 -0.82192683 0.11194017 0.02824051 0.3620417
1.0773699 -1.5997518 -0.39787424 -0.6564828 -0.18215498 1.5339214 -0.96198076 1.5335761
-0.6063103 -0.6092034 0.4510666 -0.2573014 -1.726646 -0.6073896 -0.22077052 0.4234092
-0.4264683 -0.48769608 0.08004549 0.95386654 1.5798963 -0.28373802 1.686565 0.6580029
0.57489294 -1.5800779 -0.53591746 -0.6254453 -0.66074973 0.08964451 0.6839905 0.22204685
0.64823025 0.039686084 -0.6086092 0.4355413 -1.1627547 -0.6309205 -0.8084676 -0.41921857
-1.2199523 -2.0928955 -2.8348036 -3.25356 -1.2253116 0.38553488 -1.0212464 -2.5351014
-0.47702298 -1.9968292 -1.1417835 -0.86515623 -2.0382857 0.4490276 -0.57805973 -1.0173886
-1.3395475 -0.4572021 -3.1205263 -1.0230998 -1.5645275 -4.259018 0.58553416 -1.0669249
-0.13178773 -3.278214 -0.1756594 -1.6304582 0.034706812 -1.9377847 -0.5391791 -0.5487047
-0.8656478 0.2743455 1.6527207 -1.1725823 -0.32204014 -1.0530989 1.1668814 1.2232481
0.08055422 0.8928346 -0.68058866 0.15212297 -0.8738028 -0.5748442 0.84784365 1.098045
0.2270156 0.2508146 0.6930121 0.75638026 0.70107424 -0.47804153 0.038668353 0.5876191
1.0218493 -0.3044772 0.25743327 0.14879642 -0.12647013 0.3887744 0.12901142 0.29306713
-0.48080176 -0.23439361 0.28416514 0.50956976 0.09951707 -0.6688154 0.81939137 -0.06335248
-1.1748327 -1.0679319 1.4106283 0.7067442 0.8425455 0.34591588 0.47317234 0.30619016
-3.278534 -2.005495 -0.7843874 -1.0910721 -0.7788378 0.8155697 0.76475877 -1.8605591
0.12457557 0.9992286 -1.8259501 -0.7436554 -0.9773228 -0.46227404 1.1903123 0.65650874
0.26736337 -0.7664211 -1.3856583 -0.7466098 -0.7491661 -1.4190422 -2.0137715 -2.4687731
-0.015373215 0.25624332 -1.4934262 -1.4069691 -1.7872806 -2.940099 -0.22601357 -0.014335445
-0.8073767 1.3953276 -1.6515621 -1.5983541 -1.0994524 0.38642594 0.10172183 -1.7347304
0.03722324 0.6677146 1.0143986 0.11115175 -0.084651515 0.17815068 0.17608804 -2.407514
-2.9475894 -0.536642 -0.024166174 0.28247628 -0.38364813 -0.16386972 0.17719431 -1.5188198
-0.6733968 1.1938446 -0.27661312 -0.9595709 0.7217962 0.4649693 -0.60902613 0.2237496
1.837271 0.53585106 0.5178906 -0.2380727 0.049581718 -0.22114024 -0.35867602 1.2265161
-0.37901935 0.49140608 -0.47528434 -1.5455396 0.4336132 -1.6940559 -2.578928 -0.81139636
0.87988347 -0.773123 -0.73485404 -1.5836152 -0.7400476 -0.7518207 -1.534629 -0.11008774
-0.13782802 -1.0967493 -0.034621894 0.03988102 -1.8442477 -1.1675235 -0.57018286 -0.8627895
-1.0576301 -0.38167354 0.6011506 0.20290652 -0.65540713 0.06763639 -0.11699178 -0.84823334
1.052634 -0.4213256 -0.47309074 -1.4611961 -0.42527306 -0.45132783 -0.10441304 -1.373336
-0.78849995 0.3845641 -0.110836245 0.29860508 0.49079263 0.448478 -0.12095921 -0.16280642
-0.06081226 -0.536657 0.21962103 0.030880764 -0.3593694 1.0699618 0.96038806 0.4872221
00000000: a034 8cbe 1e84 9ebe 9de2 dabf f676 20c0
00000010: cc69 52bf e340 e53d a458 e73c 885d b93e
00000020: 42e7 893f abc4 ccbf 2cb6 cbbe 420f 28bf
00000030: d686 3abe 8957 c43f 5f44 76bf 394c c43f
00000040: 2737 1bbf c1f4 1bbf 34f2 e63e 02bd 83be
00000050: bc02 ddbf e37d 1bbf ab11 62be 17c9 d83e
00000060: 0e5a dabe 4db3 f9be e4ee a33d 9930 743f
00000070: 0b3a ca3f 1c46 91be 5de1 d73f e172 283f
00000080: 2f2c 133f fe3f cabf e331 09bf 2f1d 20bf
00000090: e526 29bf 8a97 b73d 001a 2f3f 4060 633e
000000a0: 6bf2 253f e08d 223d d0cd 1bbf 45ff de3e
000000b0: 25d5 94bf 0284 21bf bcf7 4ebf d1a3 d6be
000000c0: 6627 9cbf 00f2 05c0 6c6d 35c0 543a 50c0
000000d0: 03d7 9cbf d464 c53e 34b8 82bf 1a3f 22c0
000000e0: 5b3c f4be 1998 ffbf f625 92bf e17a 5dbf
000000f0: 4673 02c0 f2e6 e53e b9fb 13bf ca39 82bf
00000100: 4b76 abbf 6516 eabe b4b6 47c0 eff4 82bf
00000110: 7042 c8bf e049 88c0 91e5 153f ff90 88bf
00000120: 5df3 06be 42ce 51c0 0fe0 33be dbb2 d0bf
00000130: bb28 0e3d 5409 f8bf a407 0abf e977 0cbf
00000140: 189b 5dbf 0377 8c3e 5a8c d33f 2d17 96bf
00000150: 72e2 a4be f2cb 86bf 5f5c 953f 6593 9c3f
00000160: 9cf9 a43d cf90 643f 0f3b 2ebf 20c6 1b3e
00000170: 8ab1 5fbf fd28 13bf 480c 593f bd8c 8c3f
00000180: c776 683e c56a 803e 3e69 313f 23a2 413f
00000190: 9a79 333f dcc1 f4be b562 1e3d 356e 163f
000001a0: f5cb 823f 70e4 9bbe 4bce 833e 175e 183e
000001b0: 6381 01be 700d c73e 921b 043e e50c 963e
000001c0: a62b f6be e104 70be 187e 913e 2a73 023f
000001d0: 9bcf cb3d 7c37 2bbf a2c3 513f f2be 81bd
000001e0: eb60 96bf feb1 88bf 788f b43f 30ed 343f
000001f0: 10b1 573f e31b b13e a543 f23e f5c4 9c3e
00000200: 80d3 51c0 085a 00c0 9dcd 48bf 40a8 8bbf
00000210: ea61 47bf 2dc9 503f 3bc7 433f cd26 eebf
00000220: 7a21 ff3d 72cd 7f3f bcb8 e9bf 3360 3ebf
00000230: d431 7abf 2faf ecbe 275c 983f f510 283f
00000240: dae3 883e 2c34 44bf 405d b1bf d221 3fbf
00000250: 59c9 3fbf 2da3 b5bf a2e1 00c0 6100 1ec0
00000260: f0df 7bbc 5332 833e 9728 bfbf 9017 b4bf
00000270: 9cc5 e4bf 952a 3cc0 1a70 67be 37df 6abc
00000280: 3db0 4ebf 189a b23f 6366 d3bf de96 ccbf
00000290: dbba 8cbf 9fd9 c53e 8953 d03d a50b debf
000002a0: 6577 183d 58ef 2a3f d0d7 813f 87a3 e33d
000002b0: c65d adbd 226d 363e 6c50 343e b614 1ac0
000002c0: 4ea5 3cc0 5f61 09bf 24f8 c5bc bba0 903e
000002d0: 876d c4be 77cd 27be 6d72 353e b068 c2bf
000002e0: bc63 2cbf e6cf 983f 3ca0 8dbe 70a6 75bf
000002f0: a3c7 383f 7510 ee3e 23e9 1bbf 9d1e 653e
00000300: b22b eb3f 892d 093f 7a94 043f 54c9 73be
00000310: 3316 4b3d 9672 62be 62a4 b7be 7bfe 9c3f
00000320: d30e c2be 9499 fb3e 7858 f3be 3ed4 c5bf
00000330: 8d02 de3e d3d6 d8bf 280d 25c0 acb7 4fbf
00000340: 0b40 613f 64eb 45bf 651f 3cbf e7b3 cabf
00000350: c273 3dbf 5277 40bf b96e c4bf ae75 e1bd
00000360: ca22 0dbe 4862 8cbf b0cf 0dbd 485a 233d
00000370: 4f10 ecbf 6971 95bf 81f7 11bf c6df 5cbf
00000380: 6c60 87bf b76a c3be 01e5 193f bac6 4f3e
00000390: c3c8 27bf f384 8a3d 6399 efbd d225 59bf
000003a0: b6bc 863f fdb7 d7be f338 f2be 7908 bbbf
000003b0: 64bd d9be 7114 e7be 81d6 d5bd 79c9 afbf
000003c0: 22db 49bf 96e5 c43e 1dfe e2bd c4e2 983e
000003d0: 2c49 fb3e e99e e53e 76b9 f7bd bab6 26be
000003e0: 4716 79bd 5a62 09bf 56e4 603e a8f9 fc3c
000003f0: 44ff b7be 82f4 883f fedb 753f 2d75 f93e

fc1.bias f4 [50]
0.5303078 1.5825497 -0.20715676 0.38872686 -0.0827789 1.0071368 0.5547765 -0.025716778
1.254488 -0.03718981 -0.31513366 -0.077151045 -0.57055444 1.4244533 -0.044143397 0.8083674
-0.08015649 -0.05933114 -0.20131238 -0.44232354 1.3179467 3.071541 -0.21217401 -0.015376148
-0.16140722 -0.84338564 -0.03530222 0.38451108 1.8098065 -0.14188488 -0.069529004 -0.19535127
0.1752084 2.5259755 -0.21775053 -0.17825204 -0.23276824 1.3779353 -0.1950383 -0.11712558
-0.10632081 2.6779096 -0.28942734 -0.15802716 -0.04859032 0.8301219 3.0273147e-06 1.2899019
0.4321135 2.017419
00000000: 41c2 073f fd90 ca3f e720 54be 3507 c73e
00000010: fc87 a9bd dce9 803f d505 0e3f feab d2bc
00000020: 1093 a03f 5854 18bd 3359 a1be 5e01 9ebd
00000030: db0f 12bf 7c54 b63f b5cf 34bd 2af1 4e3f
00000040: 1629 a4bd 3605 73bd d524 4ebe 3b78 e2be
00000050: 7ab2 a83f 2194 4440 2544 59be 3dec 7bbc
00000060: ef47 25be 1fe8 57bf 1099 10bd a3de c43e
00000070: bda7 e73f 454a 11be 3965 8ebd 2a0a 48be
00000080: d569 333e 95a9 2140 fff9 5ebe b487 36be
00000090: cc5a 6ebe 2f60 b03f 1fb8 47be 89df efbd
000000a0: babe d9bd df62 2b40 d22f 94be dfd1 21be
000000b0: a506 47bd de82 543f df28 4b36 811b a53f
000000c0: fb3d dd3e 651d 0140

fc2.weight f4 [7, 50]
-0.525061 0.1944859 -0.0757586 -0.35390726 -0.08593197 -0.23539545 -0.8664189 -0.040810544
-0.14136845 -0.052123442 -1.2982721 -0.21940231 0.22144115 -0.104787014 -0.025929747 -0.025747873
-0.08226787 0.00091389095 -0.22553787 -0.17191878 -0.0734251 0.15020892 -0.13706137 0.056216866
-0.06928224 0.23960556 -0.094486065 -0.0847101 -0.21067308 0.038933072 -0.0050442475 0.16822731
-0.12796532 0.23133084 -0.45802316 -0.3346901 -0.19562109 0.22252426 -0.132082 -0.055284414
0.0006474993 -0.10459467 -0.7972952 -0.20016105 -0.094013095 -0.15241541 0.07800911 0.18693268
0.048747886 -0.14109854 -0.23622228 -0.599355 -0.082025334 -0.47158286 0.0040146294 -0.05435133
-1.4479345 0.075057395 0.17686032 0.018617617 -5.2958508 -0.56979454 -0.12984759 -0.21940485
0.026330093 0.09384461 -0.04123919 -0.03718954 -0.11300077 -0.05370014 -0.1491936 -0.057514366
-0.061275 0.020028582 0.016416596 -0.18958627 -0.11718942 -0.25631866 -0.24184717 0.10064179
-0.06369328 0.10224298 0.1836332 -0.40034184 -0.7278102 -1.8759382 -0.013525018 -0.34649137
-0.22714067 0.02736256 -0.06592234 -0.41378152 -0.76913464 -0.03868516 0.11030053 -0.0045933407
0.08975757 0.6636882 -0.008145623 0.0072038006 0.40167102 -0.6354793 -0.03391431 -0.21427377
0.045451105 0.009687032 -0.83337325 0.09112037 -0.05846288 0.052834347 0.82952034 -0.23972492
0.0029611622 -0.30646074 0.031331982 0.30996314 -0.09731519 0.011797738 -0.28125107 -0.026910119
-0.08944892 0.042906076 0.0631864 -0.036608543 -0.1498162 0.2012341 -0.003396996 -0.0906677
-0.20113921 0.08751348 -0.14012767 0.0120776845 -0.04893033 0.0032664603 -0.023096953 0.7350033
0.162569 0.015575306 -0.18648979 -0.0068034153 -0.069220394 -0.1300256 -0.5634411 -0.19069964
-0.12180678 0.22433852 0.020348568 -0.008433081 -0.050305776 -0.19324726 -0.29752055 -0.45410255
0.059914593 -0.46893036 0.08155299 -0.16040453 -0.64971703 -0.007719527 -0.08992583 0.10528828
-1.6274074 0.34165677 0.024243493 0.29753688 -0.016582549 -0.14082068 0.01682367 -0.01812077
-0.08068953 -0.08148676 0.3522139 0.0006894943 0.016131062 0.05443888 0.034978155 -0.08508353
-0.05337099 0.1020454 0.3206478 -0.027397035 0.06919574 0.11604443 -0.11899777 -0.04650618
-0.379914 -0.60097134 -0.031709693 -0.39946303 -0.18557104 -0.060850874 0.11272128 0.34116912
-0.07019121 0.103048064 -0.056869626 -0.004312064 -0.038254205 -0.14420848 -0.4098372 0.20484248
-0.22232498 -0.68891734 -0.09141998 -0.38716802 0.13502488 -0.08690449 -0.70067704 -0.0028118957
-0.095671035 -0.018168265 -1.0005349 0.07371663 -0.2928481 -0.17087476 0.11503014 0.08730652
-0.04251438 -0.050609574 0.04497834 -0.45663124 -0.13181087 0.24040718 -0.040778615 -0.041910645
0.00336798 -0.116708994 -0.050056607 0.041459568 -0.18016537 -0.09004081 -0.037914183 -0.029191544
0.2488704 0.08264458 -0.102367535 -0.8349714 0.024738709 0.068399064 0.06843306 0.08528708
-0.0037720038 -0.17930108 -0.5466073 -0.13192786 0.0679259 -0.173265 0.013404105 -0.10293641
0.033042427 -0.07924596 -0.15790296 0.10077572 -0.09519073 0.3236702 0.10180801 0.35134318
00000000: 666a 06bf 5027 473e 5327 9bbd 5533 b5be
00000010: 1afd afbd 810b 71be a1cd 5dbf f528 27bd
00000020: e4c2 10be 647f 55bd c82d a6bf 00ab 60be
00000030: 78c1 623e 939a d6bd 9f6a d4bc 34ed d2bc
00000040: 0f7c a8bd 2f92 6f3a 66f3 66be 7a0b 30be
00000050: e65f 96bd 5ed0 193e d159 0cbe a843 663d
00000060: d9e3 8dbd 295b 753e e981 c1bd 7d7c adbd
00000070: afba 57be 4978 1f3d 374a a5bb c843 2c3e
00000080: 5709 03be fee1 6c3e 0382 eabe 805c abbe
00000090: e550 48be 66dd 633e 8140 07be e971 62bd
000000a0: f1bc 293a bb35 d6bd 8a1b 4cbf 05f7 4cbe
000000b0: f089 c0bd c912 1cbe 3ec3 9f3d 486b 3f3e
000000c0: ddab 473d 237c 10be 41e4 71be 546f 19bf
000000d0: e6fc a7bd 4f73 f1be 278d 833b 809f 5ebd
000000e0: eb55 b9bf b1b7 993d df1a 353e f983 983c
000000f0: 9c77 a9c0 0ede 11bf c4f6 04be aaab 60be
00000100: 35b2 d73c 9a31 c03d 6dea 28bd 0f54 18bd
00000110: f36c e7bd aef4 5bbd 35c6 18be 2f94 6bbd
00000120: 7ffb 7abd fb12 a43c 197c 863c e722 42be
00000130: 0201 f0bd 333c 83be c9a6 77be 481d ce3d
00000140: 9f71 82bd c464 d13d 570a 3c3e 9bf9 ccbe
00000150: c551 3abf be1e f0bf 0998 5dbc 5167 b1be
00000160: 9097 68be 7327 e03c 4b02 87bd 2cdb d3be
00000170: 02e6 44bf 5574 1ebd 3fe5 e13d bc83 96bb
00000180: d1d2 b73d 78e7 293f 3875 05bc dc0d ec3b
00000190: d3a7 cd3e c5ae 22bf bbe9 0abd 956a 5bbe
000001a0: f02a 3a3d 5bb6 1e3c f357 55bf 519d ba3d
000001b0: c676 6fbd d468 583d 725b 543f 737a 75be
000001c0: 0f10 423b 6ce8 9cbe f755 003d 7db3 9e3e
000001d0: 304d c7bd 4d4b 413c 2400 90be 9c72 dcbc
000001e0: ff30 b7bd 48be 2f3d df67 813d d7f2 15bd
000001f0: 6b69 19be 5010 4e3e 23a0 5ebb fdaf b9bd
00000200: 70f7 4dbe 443a b33d a17d 0fbe 7be1 453c
00000210: 2b6b 48bd 1c12 563b d235 bdbc 2d29 3c3f
00000220: 7d78 263e 912f 7f3c 2ef7 3ebe 2fef debb
00000230: 6cc3 8dbd 6e25 05be ad3d 10bf c446 43be
00000240: d575 f9bd ffb8 653e 0ab2 a63c e82a 0abc
00000250: 6e0d 4ebd 9ce2 45be 9d54 98be 2180 e8be
00000260: 0169 753d a417 f0be 4105 a73d 1641 24be
00000270: db53 26bf 16f4 fcbb 092b b8bd 62a1 d73d
00000280: e34e d0bf a3ed ae3e 4a9a c63c c156 983e
00000290: 20d8 87bc 4c33 10be cbd1 893c 0272 94bc
000002a0: 8d40 a5bd 88e2 a6bd 6155 b43e 2ebf 343a
000002b0: 4a25 843c 4efb 5e3d 4145 0f3d 4640 aebd
000002c0: 8a9b 5abd 2efd d03d f32b a43e bf6f e0bc
000002d0: 7fb6 8d3d b4a8 ed3d 1ab5 f3bd 447d 3ebd
000002e0: 1684 c2be 42d9 19bf 06e2 01bd 6b86 ccbe
000002f0: 5606 3ebe c43e 79bd 6ada e63d b8ad ae3e
00000300: 69c0 8fbd dd0a d33d 20f0 68bd 374c 8dbb
00000310: 71b0 1cbd 63ab 13be 2ed6 d1be 3ac2 513e
00000320: 29a9 63be e35c 30bf 663a bbbd e33a c6be
00000330: f643 0a3e fbfa b1bd 925f 33bf c847 38bb
00000340: 2def c3bd 9dd5 94bc 8711 80bf bff8 963d
00000350: 30f0 95be cbf9 2ebe ec94 eb3d c3cd b23d
00000360: 8f23 2ebd fc4b 4fbd 353b 383d 92cb e9be
00000370: 6ef9 06be 4d2d 763e 7a07 27bd 7faa 2bbd
00000380: 54b9 5c3b 2005 efbd 2808 4dbd 82d1 293d
00000390: 457d 38be 5167 b8bd e74b 1bbd 1b23 efbc
000003a0: e2d7 7e3e 9041 a93d 12a6 d1bd b0c0 55bf
000003b0: d5a8 ca3c cf14 8c3d a226 8c3d feaa ae3d
000003c0: b933 77bb b49a 37be 75ee 0bbf 1918 07be
000003d0: bc1c 8b3d 616c 31be e49c 5b3c 53d0 d2bd
000003e0: 7f57 073d b54b a2bd 50b1 21be 8063 ce3d
000003f0: 5cf3 c2bd 1ab8 a53e b880 d03d 41e3 b33e

fc2.bias f4 [7]
-0.32536304 -1.6668608 0.09740381 0.13363577 0.45860887 -0.37057242 0.3115057
00000000: fc95 a6be b25b d5bf a67b c73d d1d7 083e
00000010: c8ce ea3e abbb bdbe ad7d 9f3e

localization.0.weight f4 [8, 1, 7, 7]
0.045818392 -0.021280706 0.07815073 0.1317487 0.050937 0.10866088 0.16944289 0.18541694
0.11956376 0.24462874 0.10909681 0.16946764 0.2287212 0.011985495 -0.03286457 0.08546263
0.2058889 0.0028060793 0.18758588 0.14979334 -0.074428484 0.08173336 -0.07314648 -0.052167155
0.1891559 0.048465047 0.013755563 0.022249335 0.047355883 -0.08011081 0.1870217 0.0069250637
0.11444033 0.14548738 -0.010366362 0.118503205 -0.08285127 0.18980554 0.13427515 0.04002852
0.12650447 -0.063431054 -0.017022176 0.12775879 0.041257687 -0.060892694 0.030977048 0.12866776
-0.009556565 -0.10862287 -0.018328428 0.08009777 -0.10969904 -0.023501175 0.047446128 0.000248036
0.13973 0.099154346 -0.13261938 0.050206594 0.10005185 -0.11096705 -0.016454 -0.02476583
-0.10719791 0.078389354 -0.09407444 -0.061092522 0.0525846 -0.20066854 -0.103475474 -0.12114318
0.040612865 0.09824126 -0.1111324 -0.03141885 -0.062727 0.1005722 -0.026297914 0.04543745
0.02066751 -0.095701195 -0.077809595 -0.09400554 -0.17553854 0.067936584 -0.008976391 0.07508448
-0.09751397 -0.05206467 0.0010149303 -0.004542269 -0.08505826 -0.04918944 -0.13869773 0.08467793
-0.03639911 -0.15501387 -0.05002797 -0.020849552 0.050547298 -0.083048664 0.09385253 0.11802523
-0.011406633 0.07823259 -0.038501956 -0.10473885 0.13017324 0.06449651 -0.044743408 -0.12208464
0.002483407 -0.036289215 -0.007611466 0.12835993 -0.10145896 0.08097416 -0.056844264 -0.087086596
-0.06398429 -0.07799636 -0.006922262 -0.16147412 -0.12618642 0.034192633 0.12508936 -0.039894972
0.045100205 -0.001354505 0.087354176 -0.019057281 0.057192277 0.14402945 -0.100097954 -0.10030251
0.023856165 -0.046392195 0.0040490427 0.014518509 -0.13486989 0.068594396 0.010184571 0.057228882
-0.08114772 -0.1787917 -0.18014027 -0.02394904 -0.095030285 -0.09270075 -0.03833839 0.01097724
0.052954104 -0.07411091 0.06676144 -0.01687492 -0.06742857 0.12686805 0.094635785 -0.07037378
0.084070235 0.13146281 0.11973757 0.07179475 0.12847057 0.010830619 -0.11761566 0.12089379
0.07055399 0.04782152 0.030482607 -0.018668003 -0.03232735 -0.12288597 0.13761537 0.09550624
-0.016177244 0.1035401 0.07124955 0.0794385 0.07993316 -0.14234285 0.051333398 -0.1916702
0.075903505 -0.034628805 -0.07217162 0.012359572 -0.071769185 -0.15365218 -0.14877312 0.015529791
-0.09754626 -0.00825791 0.013775516 0.06483492 -0.075979166 -0.1489517 -0.011213229 0.09366232
0.13562866 -0.009791272 -0.046807498 -0.12499423 -0.08612838 0.10587155 -0.09189415 0.102457926
0.14239338 0.116221 -0.07872157 -0.07806697 0.05841329 -0.005531463 0.1491402 0.073406875
0.08161736 -0.0005058543 0.0568248 -0.0034876652 0.10162174 -0.06419731 -0.049115706 0.12647355
-0.08723026 -0.032694537 -0.035792205 0.08381951 -0.07074225 0.0008676015 -0.0017604256 -0.16969644
-0.005033966 0.06869579 -0.11132322 0.10780471 0.117300056 0.05187489 0.03783579 -0.13941412
-0.008230989 0.027042078 0.049684662 -0.15746965 0.05891907 -0.0143724345 0.15314578 0.112625
0.11643315 0.00402156 0.02711129 0.01470148 0.09747317 0.09879734 -0.048652705 0.080533385
00000000: 11ac 3b3d e054 aebc 7d0d a03d 22e9 063e
00000010: 51a3 503d 9889 de3d 7082 2d3e f0dd 3d3e
00000020: d8dd f43d f57f 7a3e 266e df3d ed88 2d3e
00000030: e435 6a3e cf5e 443c 009d 06bd 0807 af3d
00000040: 8ad4 523e 33e6 373b 8316 403e 6d63 193e
00000050: f66d 98bd d263 a73d d2cd 95bd 3aad 55bd
00000060: 16b2 413e 4983 463d 035f 613c 3d44 b63c
00000070: 3ef8 413d 2311 a4bd 9e82 3f3e a5eb e23b
00000080: b15f ea3d a5fa 143e acd7 29bc cfb1 f23d
00000090: edad a9bd 625c 423e 6d7f 093e f2f4 233d
000000a0: 638a 013e 24e8 81bd 1772 8bbc 33d3 023e
000000b0: d2fd 283d 9e6a 79bd 94c3 fd3c 7bc1 033e
000000c0: 2493 1cbc ab75 debd 8025 96bc 4d0a a43d
000000d0: e4a9 e0bd 8985 c0bc df56 423d d40a 8239
000000e0: 6215 0f3e 6f11 cb3d 60cd 07be 6ea5 4d3d
000000f0: fce7 cc3d b142 e3bd 8aca 86bc b6e1 cabc
00000100: 948a dbbd 998a a03d 1aaa c0bd 273c 7abd
00000110: f362 573d 0e7c 4dbe f3ea d3bd ea19 f8bd
00000120: ad59 263d b732 c93d 6299 e3bd 0db1 00bd
00000130: 0377 80bd ccf8 cd3d b96e d7bc 9f1c 3a3d
00000140: e94e a93c fdfe c3bd a35a 9fbd fa85 c0bd
00000150: 60c0 33be 5622 8b3d b611 13bc e4c5 993d
00000160: 68b5 c7bd c341 55bd 6907 853a 50d7 94bb
00000170: 0633 aebd de7a 49bd c706 0ebe 9f6b ad3d
00000180: 3c17 15bd f5bb 1ebe 21ea 4cbd aecc aabc
00000190: af0a 4f3d 6b15 aabd c135 c03d 36b7 f13d
000001a0: e3e2 3abc 6838 a03d 3ab4 1dbd 5281 d6bd
000001b0: 224c 053e bf16 843d dd44 37bd 8307 fabd
000001c0: a8c0 223b 00a4 14bd 9b69 f9bb c970 033e
000001d0: b7c9 cfbd c8d5 a53d 88d5 68bd 755a b2bd
000001e0: 320a 83bd 8ebc 9fbd 24d4 e2bb 7959 25be
000001f0: 0337 01be 930d 0c3d 6d17 003e e968 23bd
00000200: feba 383d a589 b1ba bfe6 b23d 041e 9cbc
00000210: 7342 6a3d 757c 133e 2800 cdbd 676b cdbd
00000220: 016e c33c be05 3ebd d5ad 843b 0adf 6d3c
00000230: 551b 0abe 387b 8c3d 30dd 263c d568 6a3d
00000240: c730 a6bd 2c15 37be b176 38be c730 c4bc
00000250: 3d9f c2bd e4d9 bdbd b708 1dbd e2d9 333c
00000260: 67e6 583d 76c7 97bd 39ba 883d 463d 8abc
00000270: fd17 8abd b3e9 013e 68d0 c13d 2120 90bd
00000280: 042d ac3d 309e 063e f938 f53d 2009 933d
00000290: ca8d 033e e972 313c 7be0 f0bd 2a97 f73d
000002a0: 9c7e 903d 80e0 433d a9b6 f93c a4ed 98bc
000002b0: af69 04bd a4ab fbbd 0beb 0c3e c798 c33d
000002c0: 2486 84bc d50c d43d 49eb 913d a7b0 a23d
000002d0: ffb3 a33d 53c2 11be f842 523d 3145 44be
000002e0: 4c73 9b3d efd6 0dbd b7ce 93bd cd7f 4a3c
000002f0: b9fb 92bd ff56 1dbe fb57 18be aa70 7e3c
00000300: 55c6 c7bd 2f4c 07bc b4b2 613c 2cc8 843d
00000310: f79a 9bbd cb86 18be b1b7 37bc 08d2 bf3d
00000320: 3de2 0a3e 926b 20bc 38b9 3fbd fafc ffbd
00000330: 1364 b0bd 2fd3 d83d 0033 bcbd 76d5 d13d
00000340: 92cf 113e 4705 ee3d c638 a1bd 93e1 9fbd
00000350: c642 6f3d 4641 b5bb 35b8 183e 5856 963d
00000360: 0127 a73d 4f9b 04ba 1fc1 683d 5091 64bb
00000370: 0f1f d03d e179 83bd 8d2d 49bd 4882 013e
00000380: c7a5 b2bd b5ea 05bd d99a 12bd 90a9 ab3d
00000390: 50e1 90bd c06f 633a 15be e6ba e7c4 2dbe
000003a0: f8f3 a4bb 61b0 8c3d 6efd e3bd b7c8 dc3d
000003b0: 033b f03d c47a 543d b4f9 1a3d 93c2 0ebe
000003c0: 45db 06bc 5987 dd3c 2582 4b3d b93f 21be
000003d0: 1f55 713d 5c7a 6bbc 3fd2 1c3e f0a7 e63d
000003e0: 8174 ee3d 4ac7 833b 7f18 de3c 7ade 703c
000003f0: 03a0 c73d 4356 ca3d 0f48 47bd b0ee a43d

localization.0.bias f4 [8]
0.17815304 -0.06956811 -0.076607816 -0.21392827 -0.043023054 -0.10612564 -0.19939135 -0.23454237
00000000: c06d 363e ba79 8ebd 8fe4 9cbd 0310 5bbe
00000010: f138 30bd 6658 d9bd 3f2d 4cbe e02b 70be

localization.3.weight f4 [10, 8, 5, 5]
-0.048773035 0.05511039 -0.07125551 -0.14174946 0.016310882 -0.0012840758 -0.014539196 -0.053762455
-0.022622779 -0.04222508 0.06733021 -0.08124869 -0.050193418 -0.06571745 -0.15413836 -0.009733278
-0.026390802 -0.10108833 -0.120435685 -0.059236426 -0.093409255 -0.044451553 -0.099883735 -0.12969762
-0.07492304 0.0768644 0.040610038 0.014311384 0.03225495 -0.071067214 0.014329678 0.055722326
-0.015207303 -0.09260049 -0.10678956 -0.022176228 0.023779692 -0.06691177 -0.0844517 -0.13571627
-0.037305456 0.0017715965 -0.026955891 -0.11632765 -0.11682437 -0.13220014 -0.07306092 -0.063302994
-0.17637044 -0.17766908 0.02336346 -0.008747907 0.00014871164 0.028772978 -0.046148613 -0.07931373
0.008737019 -0.12378507 0.0046382295 0.006973912 0.0797064 0.03763775 -0.08110593 0.033612404
-0.022723364 -0.05434976 -0.07335334 -0.022952612 0.0044028093 -0.07190567 -0.04171347 -0.11297617
-0.10345418 -0.059601717 0.0028365485 0.04051944 0.021258144 -0.02478212 -0.04677219 0.056345265
0.041490436 0.0050837393 -0.014616133 -0.12528887 0.030828627 -0.05551852 -0.014254214 -0.10877093
0.016698759 -0.080557555 0.030480208 -0.0943585 -0.029525355 -0.009800926 -0.034579825 -0.01357888
-0.1535039 -0.000740288 -0.05696966 -0.03257838 -0.06553778 -0.018970354 -0.13106884 -0.12759231
-0.066337705 -0.023718987 -0.09313245 -0.15022324 -0.12465754 -0.10018644 -0.077967666 -0.0935628
-0.03982172 -0.11336404 0.02242656 -0.03636886 -0.092246555 -0.03004917 -0.11341992 0.047301546
-0.06645211 -0.07171266 -0.10768694 -0.07112339 -0.032392237 -0.04781381 -0.1385749 -0.112540215
-0.19069709 -0.15622278 -0.12880446 -0.032040767 -0.10179857 -0.16514337 -0.15579917 -0.006977598
-0.09774689 -0.099757865 -0.036442176 -0.0474238 -0.108711705 -0.109433085 -0.11406571 0.024213362
-0.030320842 -0.017821427 -0.07181175 -0.05979452 0.083358176 -0.029255947 -0.010597931 0.008596569
0.00500519 0.030103235 0.011097717 0.11043315 0.018965146 -0.07873632 -0.0902844 -0.040060446
-0.075176984 -0.03406212 -0.04674968 -0.076024465 -0.14141642 -0.039597776 -0.11705113 -0.09325491
0.027390314 0.006556836 -0.07134953 -0.057100926 -0.061341338 -0.013215806 -0.046714786 -0.032495968
-0.051053654 -0.06557263 0.078975186 -0.04542294 0.06259143 -0.011425793 0.06380166 0.04972059
0.08467282 0.060615793 -0.033798743 -0.028246662 0.0010517936 -0.05955255 -0.010412012 -0.06084991
0.05593696 -0.06928391 0.021257801 -0.03578307 -0.015227677 -0.079987176 -0.03793525 -0.052924752
0.041673746 -0.07076959 0.020051708 0.01486599 -0.06438592 -0.038469233 -0.009831199 -0.0047320784
-0.03910356 0.0048622577 -0.009129325 0.032799833 -0.06901813 -0.08318339 -0.014216193 -0.08470092
-0.07990951 -0.03024706 -0.050767135 -0.050148867 0.042935234 0.04194266 -0.07641174 -0.027875539
-0.08440658 -0.0915431 0.04269036 0.03397286 -0.013930387 -0.003159101 -0.03512162 -0.07017123
-0.02692613 -0.07580863 0.0031737604 -0.033485014 0.024111107 -0.07192524 -0.0013024777 -0.010639037
-0.06802622 0.028582538 -0.036399953 -0.061443377 -0.05565248 -0.08022101 0.017118968 -0.095222324
-0.030549088 0.031324185 -0.054123092 -0.07874074 0.0008836254 -0.0013108983 -0.022103906 0.016876142
00000000: 3cc6 47bd 6fbb 613d 69ee 91bd c526 11be
00000010: 669e 853c 6f4e a8ba cf35 6ebc 0536 5cbd
00000020: 6853 b9bc 35f4 2cbd 6ce4 893d b765 a6bd
00000030: 9d97 4dbd df96 86bd 72d6 1dbe 5478 1fbc
00000040: 8631 d8bc 6607 cfbd fca6 f6bd e5a1 72bd
00000050: 5a4d bfbd d512 36bd d88f ccbd 74cf 04be
00000060: 4071 99bd 156b 9d3d b656 263d 4c7a 6a3c
00000070: c41d 043d b08b 91bd 07c7 6a3c 183d 643d
00000080: 0d28 79bc 53a5 bdbd 7cb4 dabd ecaa b5bc
00000090: a1cd c23c 0a09 89bd 03f5 acbd 35f9 0abe
000000a0: 9bcd 18bd ea34 e83a 9ad2 dcbc 313d eebd
000000b0: 9e41 efbd 795f 07be f7a0 95bd 00a5 81bd
000000c0: 749a 34be e2ee 35be ba64 bf3c 6253 0fbc
000000d0: 7aef 1b39 4fb5 eb3c 5406 3dbd 3d6f a2bd
000000e0: b725 0f3c 0783 fdbd 4afc 973b 6a85 e43b
000000f0: 1c3d a33d 0b2a 1a3d de1a a6bd 29ad 093d
00000100: 5926 babc db9d 5ebd 473a 96bd 1e07 bcbc
00000110: 7145 903b 4843 93bd bedb 2abd 0d60 e7bd
00000120: c9df d3bd ee20 74bd 63e5 393b b6f7 253d
00000130: 8f25 ae3c df03 cbbc 3294 3fbd 4bca 663d
00000140: e0f1 293d 7f95 a63b 8178 6fbc ba4b 00be
00000150: 518c fc3c 6367 63bd 828a 69bc 4bc3 debd
00000160: d6cb 883c 5cfb a4bd a1b1 f93c 073f c1bd
00000170: 28df f1bc 1094 20bc 93a3 0dbd f379 5ebc
00000180: 2030 1dbe e30f 42ba 0559 69bd e870 05bd
00000190: ac38 86bd b767 9bbc e936 06be 8fa7 02be
000001a0: 10dc 87bd 524e c2bc 3abc bebd 1fd4 19be
000001b0: 744c ffbd 8c2e cdbd 83ad 9fbd da9d bfbd
000001c0: 1a1c 23bd 682b e8bd e8b7 b73c 84f7 14bd
000001d0: c3eb bcbd ad29 f6bc b448 e8bd 44bf 413d
000001e0: 0b18 88bd 16de 92bd f88a dcbd 24a9 91bd
000001f0: b9ad 04bd 6ad8 43bd 94e6 0dbe 7c7b e6bd
00000200: 1946 43be ddf8 1fbe 51e5 03be 2e3d 03bd
00000210: c57b d0bd 581b 29be d189 1fbe 56a4 e4bb
00000220: 852f c8bd da4d ccbd 6444 15bd 753f 42bd
00000230: 3ea4 debd 741e e0bd 489b e9bd 1a5b c63c
00000240: 6a63 f8bc 3efe 91bc 0a12 93bd 19eb 74bd
00000250: b1b7 aa3d 2baa efbc f2a2 2dbc a0d8 0c3c
00000260: 9402 a43b 0f9b f63c 33d3 353c c62a e23d
00000270: cb5c 9b3c 8240 a1bd 07e7 b8bd 6c16 24bd
00000280: 64f6 99bd b984 0bbd 987c 3fbd b7b2 9bbd
00000290: 77cf 10be 4731 22bd 81b8 efbd 6efc bebd
000002a0: a761 e03c bada d63b b41f 92bd a9e2 69bd
000002b0: 0e41 7bbd 1c87 58bc 0158 3fbd 7e1a 05bd
000002c0: a31d 51bd f14a 86bd bebd a13d 680d 3abd
000002d0: f02f 803d 4033 3bbc 72aa 823d d1a7 4b3d
000002e0: f268 ad3d 4448 783d 8d70 0abd 8b65 e7bc
000002f0: 56dc 893a 60ed 73bd 2597 2abc c13d 79bd
00000300: 271e 653d b9e4 8dbd d724 ae3c 4591 12bd
00000310: 827d 79bc 51d0 a3bd fe61 1bbd a0c7 58bd
00000320: 17b2 2a3d a6ef 90bd 7b43 a43c 7b90 733c
00000330: c4dc 83bd ea91 1dbd 0a13 21bc 8d0f 9bbb
00000340: 0e2b 20bd 9353 9f3b 2a93 15bc 1e59 063d
00000350: 6159 8dbd 0e5c aabd 09eb 68bc ad77 adbd
00000360: 99a7 a3bd afc8 f7bc 33f1 4fbd e668 4dbd
00000370: dbdc 2f3d 11cc 2b3d c27d 9cbd 3e5b e4bc
00000380: 5bdd acbd f37a bbbd 16dc 2e3d 2027 0b3d
00000390: 473c 64bc eb08 4fbb b0db 0fbd efb5 8fbd
000003a0: 3094 dcbc 8e41 9bbd ddfe 4f3b 9527 09bd
000003b0: a884 c53c 8a4d 93bd e6b7 aaba 5b4f 2ebc
000003c0: 5551 8bbd ed25 ea3c 1e18 15bd 0dac 7bbd
000003d0: dbf3 63bd ea4a a4bd 143d 8c3c ec03 c3bd
000003e0: 1542 fabc ca4d 003d 2db0 5dbd d342 a1bd
000003f0: 19a3 673a 73d2 abba 4013 b5bc d63f 8a3c

localization.3.bias f4 [10]
-0.17835163 -0.00928745 0.039384037 0.020574413 -0.09235791 -0.08165188 -0.050329883 0.0019722732
-0.019946191 0.029526506
00000000: cfa1 36be 642a 18bc 2851 213d ac8b a83c
00000010: 2526 bdbd 1a39 a7bd b526 4ebd 4141 013b
00000020: 3266 a3bc 92e1 f13c
