EmpathyBot/model_snapshots/deep_emotion-200-64-0.005-0.5377113133940182.pt (torch_old, 271009 bytes, 24 tensors)

conv1.weight f4 [10, 1, 3, 3]
-0.04617158 -0.18426055 -2.4333441 0.45149797 0.77405834 0.052669056 -1.3257811 1.1355195
2.1443982 -1.3566033 0.3500881 1.6647658 -2.3643537 -0.6816509 2.2274797 -0.64221007
0.47739276 0.23053347 1.3996989 -0.5184953 -1.009955 1.276851 -0.40288025 -0.98058295
-0.5070378 -0.5951241 -1.0816252 1.5847262 2.0510013 0.5455663 -0.97012 0.16347852
-0.13502324 -1.4782227 -0.82961977 -0.8104294 -0.1833927 -0.186222 0.10965031 -0.09981448
-0.65870196 -0.45513508 1.7328093 0.6145256 -0.61031216 0.87691116 1.6730183 1.117566
1.5659419 0.073103376 -3.003255 0.010933655 -0.27610388 -1.4120681 0.00051496853 -0.028140046
-1.5300324 0.99831176 0.48501056 -1.6083902 1.5472157 0.54842484 -0.50070065 -0.33910978
0.08652254 0.7094348 -2.3686826 -0.36404282 0.69135016 -0.18071003 1.6954049 0.66792166
-1.9319558 -0.6489389 -0.38069442 0.114173114 0.5804292 0.250566 1.6589233 1.8372701
-0.99652475 0.9607028 -0.5766737 1.8498768 -0.70539516 -2.2314367 -1.1671911 0.19463137
0.6875133 1.1785368
00000000: 691e 3dbd ccae 3cbe e9bb 1bc0 be2a e73e
00000010: b028 463f 82bb 573d 32b3 a9bf b458 913f
00000020: d23d 0940 2da5 adbf bf3e b33e 0c17 d53f
00000030: 9251 17c0 ac80 2ebf 078f 0e40 e167 24bf
00000040: d36c f43e f710 6c3e 5529 b33f 1cbc 04bf
00000050: 3546 81bf db6f a33f 5246 cebe 7c07 7bbf
00000060: 3bcd 01bf 0e5a 18bf b272 8abf 4fd8 ca3f
00000070: 9b43 0340 3caa 0b3f c959 78bf ea66 273e
00000080: 8843 0abe 6736 bdbf f661 54bf 4d78 4fbf
00000090: 4ccb 3bbe fbb0 3ebe 5790 e03d 896b ccbd
000000a0: b1a0 28bf 7707 e9be b2cc dd3f 8d51 1d3f
000000b0: 6b3d 1cbf 407d 603f 7725 d63f 670c 8f3f
000000c0: c970 c83f 39b7 953d 5435 40c0 1323 333c
000000d0: 7d5d 8dbe a6be b4bf f4fe 063a f485 e6bc
000000e0: 1ad8 c3bf 5c91 7f3f 4e53 f83e bbdf cdbf
000000f0: 2a0b c63f 9265 0c3f eb2d 00bf cc9f adbe
00000100: bb32 b13d 859d 353f 7f98 17c0 d263 babe
00000110: 53fc 303f 0d0c 39be 0703 d93f eafc 2a3f
00000120: 544a f7bf dc20 26bf 61ea c2be 98d3 e93d
00000130: 0297 143f 304a 803e 9957 d43f ab2b eb3f
00000140: 3f1c 7fbf 9ef0 753f e3a0 13bf c3c8 ec3f
00000150: c794 34bf dccf 0ec0 8566 95bf 724d 473e
00000160: df00 303f 4bda 963f

conv1.bias f4 [10]
0.3024062 -0.44596994 -0.62401605 0.37686798 0.1676004 -0.82307374 0.7239441 0.8732215
0.48919538 0.071632974
00000000: fcd4 9a3e 2c56 e4be 84bf 1fbf d7f4 c03e
00000010: 709f 2b3e f6b4 52bf 6754 393f 728b 5f3f
00000020: d177 fa3e 4fb4 923d

conv2.weight f4 [10, 10, 3, 3]
-0.08321447 -0.11603046 -0.098424084 -0.16834828 -0.10391331 -0.11686552 -0.0984715 -0.25309172
-0.11516626 -0.0914077 0.028724447 -0.021712348 0.016959574 0.033511713 0.009909071 0.02815486
-0.140756 -0.00019121295 -0.03625593 0.036379963 0.06192002 -0.13357177 0.0093231695 0.00989727
0.017271189 -0.10394071 -0.13280664 -0.12900025 -0.11836395 -0.014215727 -0.28093144 -0.26685926
0.03601127 -0.11195002 -0.1435178 -0.18922596 -0.044212 -0.0926894 -0.22879435 -0.067207076
-0.17664854 0.105470456 -0.019464044 -0.10149307 -0.21403104 0.025115056 -0.08652628 -0.040870067
-0.030940322 0.073262446 0.008459304 -0.0015861379 -0.04025882 -0.10496296 -0.21526678 -0.106079176
-0.10168399 0.04696352 -0.27624372 -0.24641857 -0.07355919 0.006281765 -0.14128155 -0.2360229
-0.19940546 -0.053857014 -0.117955446 -0.1476286 0.029657952 -0.22215481 -0.10219121 -0.088084064
-0.23157464 -0.09026393 -0.19359179 -0.19972284 -0.17177695 -0.24821292 -0.09746695 -0.018283436
0.04479919 -0.102689914 0.051483896 -0.064801596 -0.1736446 -0.03056562 0.012707479 -0.04567023
-0.22321989 -0.074378535 -0.65570664 -0.7391001 -0.23794039 0.2390335 -0.22566886 -0.26885527
-2.7128463 -0.7375124 -1.3197066 0.095675655 -0.29864147 -0.56689274 -0.5120985 -1.33184
-0.78911096 -0.064542234 -0.72035295 -0.81584954 -0.60737354 -0.37107876 -0.81680906 0.05997685
-0.048818175 0.010367168 0.9248183 0.03729834 0.38429916 -0.20229483 -1.2449745 -1.6568286
1.2203556 0.8505286 0.08184901 1.8930249 1.3290416 1.188114 0.66291815 0.24388877
0.07716949 -2.8301008 -0.49246958 1.4433401 0.6457744 0.055466603 -1.2803982 1.3491719
0.62488955 0.27828208 -0.6429697 0.3922178 0.69528407 -1.3588536 -1.1028748 0.175745
-0.09878626 0.057858534 0.52868086 -0.94324183 -0.04736571 0.44272822 -1.0222993 -0.5242411
-0.75340736 0.59374315 0.54959893 0.4180334 -1.1385055 0.24377564 2.3454337 0.42341024
0.07098689 0.8498046 1.2114162 0.7203055 0.6109342 -2.4892027 -1.7039298 0.48069805
-1.8461244 -2.057262 -1.9365938 -0.72199625 -0.6268821 -0.4395107 -0.7288507 0.5184959
1.951491 2.331712 -0.38675135 -1.3932815 -2.0629034 0.8342952 -1.3152369 0.70171666
1.6260761 -0.599248 1.2568789 -0.26567796 -1.6129383 -2.467071 1.1183146 1.0330633
-3.8293843 -0.65841997 -1.5441743 -3.569023 0.029671775 1.8094923 0.10560983 -0.0072810566
-1.1615762 1.4237323 0.5382264 -1.299547 1.6785086 1.2309899 -0.36550006 -0.88382566
0.53498334 1.5890633 0.24465759 0.5278912 0.38026968 -0.31188008 0.7078037 1.1420377
-1.0909221 -0.6252117 0.7607929 -3.156763 -1.0869937 0.5666303 0.027016146 0.7882199
-0.1682775 0.5542745 0.1652145 -0.8352052 0.48686433 -0.14799237 -3.731906 1.0900095
1.6950227 -2.1610527 -0.7912475 -1.542379 -0.33512235 -1.2560072 -1.0374207 -0.54951864
0.81446373 2.0716984 -0.14335993 1.7480837 0.17685044 -2.937312 0.84398806 -0.07334756
-0.16275023 -2.5046194 -0.6441036 -0.138689 0.2792602 0.7156242 -1.2098075 -0.8002853
00000000: 596c aabd 61a1 edbd 9192 c9bd 7e63 2cbe
00000010: 80d0 d4bd 3157 efbd 6dab c9bd 3d95 81be
00000020: 4adc ebbd f633 bbbd 884f eb3c 18de b1bc
00000030: ceee 8a3c 9443 093d a859 223c 05a5 e63c
00000040: 5722 10be 5680 48b9 1981 14bd 2803 153d
00000050: d99f 7d3d 0ac7 08be 35c0 183c 2928 223c
00000060: 4f7c 8d3c dede d4bd 77fe 07be a418 04be
00000070: cc68 f2bd 15e9 68bc 3fd6 8fbe c7a1 88be
00000080: 8e80 133d 0d46 e5bd 55f6 12be 73c4 41be
00000090: a417 35bd f1d3 bdbd 1149 6abe dda3 89bd
000000a0: 5be3 34be e500 d83d 0f73 9fbc 99db cfbd
000000b0: f42a 5bbe 17be cd3c b134 b1bd 5f67 27bd
000000c0: 8f76 fdbc 9f0a 963d e598 0a3c f5e5 cfba
000000d0: 6fe6 24bd d2f6 d6bd e56e 5cbe 0a40 d9bd
000000e0: b23f d0bd d25c 403d d16f 8dbe 2655 7cbe
000000f0: 33a6 96bd 44d7 cd3b 1cac 10be fdaf 71be
00000100: f230 4cbe 2c99 5cbd a092 f1bd f42b 17be
00000110: 3cf5 f23c 8d7c 63be a049 d1bd 6b65 b4bd
00000120: e721 6dbe 4cdc b8bd ed3c 46be 2584 4cbe
00000130: 4ce6 2fbe 872b 7ebe c19c c7bd 25c7 95bc
00000140: 5b7f 373d 174f d2bd c7e0 523d b3b6 84bd
00000150: e4cf 31be c064 fabc 0833 503c b510 3bbd
00000160: c193 64be c653 98bd 64dc 27bf aa35 3dbf
00000170: a5a6 73be 33c5 743e bd15 67be 66a7 89be
00000180: 469f 2dc0 9dcd 3cbf 25ec a8bf 99f1 c33d
00000190: 89e7 98be e21f 11bf e318 03bf bc79 aabf
000001a0: 2d03 4abf b82e 84bd 0d69 38bf 84db 50bf
000001b0: d57c 1bbf 09fe bdbe 661a 51bf 49aa 753d
000001c0: 91f5 47bd 0edb 293c e4c0 6c3f 25c6 183d
000001d0: dcc2 c43e 6026 4fbe 535b 9fbf f612 d4bf
000001e0: 9d34 9c3f 3ebc 593f 74a0 a73d a44e f23f
000001f0: 091e aa3f 1f14 983f 01b5 293f fabd 793e
00000200: 0a0b 9e3d 5f20 35c0 f924 fcbe 5ebf b83f
00000210: 7951 253f f330 633d 17e4 a3bf aab1 ac3f
00000220: c3f8 1f3f fd7a 8e3e aa99 24bf c5d0 c83e
00000230: 23fe 313f eaee adbf 002b 8dbf 7ff6 333e
00000240: 7350 cabd 12fd 6c3d a157 073f 4c78 71bf
00000250: 8c02 42bd 46ad e23e b4da 82bf aa34 06bf
00000260: 4edf 40bf 8dff 173f 84b2 0c3f 7908 d63e
00000270: 8cba 91bf 52a0 793e 961b 1640 3ac9 d83e
00000280: 9361 913d cb8c 593f b00f 9b3f f165 383f
00000290: 2f66 1c3f 194f 1fc0 5f1a dabf 0e1e f63e
000002a0: ce4d ecbf 2eaa 03c0 4ee2 f7bf bfd4 38bf
000002b0: 587b 20bf 8c07 e1be f695 3abf 26bc 043f
000002c0: 75ca f93f c53a 1540 4604 c6be 0c57 b2bf
000002d0: 9c06 04c0 5f94 553f af59 a8bf b4a3 333f
000002e0: 4323 d03f 5168 19bf 68e1 a03f f106 88be
000002f0: c374 cebf 7ee4 1dc0 ef24 8f3f 6b3b 843f
00000300: a214 75c0 368e 28bf 81a7 c5bf df6a 64c0
00000310: 3912 f33c 729d e73f f749 d83d ee95 eebb
00000320: 87ae 94bf dc3c b63f 35c9 093f 8e57 a6bf
00000330: 5fd9 d63f 1491 9d3f d322 bbbe 6642 62bf
00000340: abf4 083f 6d66 cb3f 8587 7a3e e123 073f
00000350: b5b2 c23e bfae 9fbe a032 353f 4b2e 923f
00000360: 56a3 8bbf e00d 20bf 53c3 423f 6808 4ac0
00000370: 9c22 8bbf af0e 113f f750 dd3c c8c8 493f
00000380: f050 2cbe efe4 0d3f fd2d 293e 02d0 55bf
00000390: 4846 f93e 508b 17be 8cd7 6ec0 6e85 8b3f
000003a0: 81f6 d83f b04e 0ac0 328f 4abf ad6c c5bf
000003b0: 2895 abbe d8c4 a0bf 34ca 84bf 41ad 0cbf
000003c0: b280 503f b596 0440 f2cc 12be 35c1 df3f
000003d0: 4818 353e ebfc 3bc0 9a0f 583f 3f37 96bd
000003e0: ffa7 26be af4b 20c0 f9e3 24bf 7d04 0ebe
000003f0: 31fb 8e3e 2633 373f f9da 9abf 7fdf 4cbf

conv2.bias f4 [10]
-0.25386366 1.3371819 0.029469166 -0.07580433 2.2594657 3.7577515 0.35980338 0.4835759
-0.04615603 1.4724735
00000000: 6bfa 81be c728 ab3f 5269 f13c 4d3f 9bbd
00000010: 169b 1040 007f 7040 2638 b83e 4397 f73e
00000020: 1b0e 3dbd 037a bc3f

conv3.weight f4 [10, 10, 3, 3]
-0.021197801 0.12785245 -0.10050723 -0.03393127 0.10669845 0.042050578 0.16659814 0.072981134
-0.016890775 -1.9117098 -0.5677497 -0.08749217 -1.3491707 0.43852335 -0.040828753 -0.859908
1.033341 1.879779 -0.30081642 -0.606631 1.9813377 0.5348687 0.58821094 2.521323
0.68750346 0.62897265 2.6209629 0.007757389 0.03100483 -0.025822055 -0.017847592 0.10425609
-0.09331726 0.03545409 0.09979995 0.113248184 -1.3986865 -2.5430334 0.33620146 0.5916382
2.2154117 1.3737679 0.76602906 1.2717247 1.1926743 0.2454154 0.3713 0.17779799
0.7974528 -0.3429369 0.41522253 0.6018792 -0.0353976 0.7957976 -0.39377385 -0.043848008
0.7758057 0.24214171 -0.5122485 1.3708291 -0.611739 0.25294662 1.1919869 -1.9909534
-2.0499504 -0.07996913 -1.2564452 -0.7630986 0.5830072 0.43103385 1.4105933 0.12076864
-0.030085502 -0.14748247 -0.106760934 0.09642317 0.007519897 -0.06845784 0.19953494 0.016156485
0.18459152 0.45207298 1.0220402 0.7312561 2.1108525 1.8336071 0.56360227 2.6469154
1.4370662 1.2194996 0.04302985 0.069941424 -0.04609541 0.061914396 -0.045045543 0.123908386
-0.04217224 -0.006787325 -0.106457606 0.019280845 -0.094564475 -0.017537901 -0.074744746 -0.09933233
-0.050671685 -0.0014516878 -0.046044543 0.026365139 0.010269925 -0.03352978 0.013783467 -0.09957344
-0.025730139 0.104140304 0.080998085 -0.029979696 -0.0051268227 0.030832626 0.00983083 -0.113515384
0.032520667 -0.11286575 -0.11892566 0.09586939 -0.1039401 0.062871344 -0.020656085 0.010416203
-0.15321732 0.040579446 -0.026872994 0.013213353 -0.06716784 -0.009971246 -0.0755322 0.064057305
-0.13850658 -0.070976645 -0.04054944 -0.11070313 -0.007212849 0.08558146 -0.11739705 -0.10436862
-0.03811392 -0.05337763 -0.0032819882 -0.035161525 -0.0051786066 0.037471052 -0.060426008 -0.036966767
0.016505022 -0.09321181 -0.06319608 -0.002337976 -0.039869513 -0.09856049 -0.12711126 -0.033097025
-0.11682329 -0.15157396 0.14088508 0.023613445 0.08694237 0.017053021 0.13075045 0.022312826
0.027338732 0.1146506 0.037637845 -0.040150587 -0.12432897 -0.05005313 0.033517644 -0.10864441
-0.034818616 0.0498433 -0.13140021 -0.06946406 0.07371019 0.021421878 0.018959744 0.01155387
0.06586693 -0.013107487 0.078621216 -0.11974543 -0.07888904 0.48875308 0.1595725 1.0859194
-0.78877425 -0.33972374 -0.62489134 -0.24217582 -0.43610725 -0.7027789 -1.204519 -1.5520587
-1.6169409 -0.9678957 -0.84457684 -0.60707885 -2.4443135 -1.1230396 -0.5508588 0.04632155
-0.028150573 -0.10012385 0.017047623 -0.0024966884 0.08665615 0.04503512 0.024803648 -0.08830289
0.57114357 0.49369666 1.0614249 -0.68919057 -0.7524329 -0.28029907 -1.803827 -1.535576
-0.9467843 -0.3926374 -0.14990914 0.5085087 0.58947736 0.76714826 1.1659902 1.6956362
1.9383606 0.9325075 0.28951734 0.11018344 1.1974382 0.2041553 0.83265924 2.0352764
0.7086335 0.43240264 1.111666 0.61926013 1.0034784 0.4574389 0.38889068 -0.64759576
-0.42542264 -1.5711112 -2.0349407 -1.5896039 0.07088346 -0.010964106 0.032139488 0.027025219
00000000: 03a7 adbc c1eb 023e bcd6 cdbd 84fb 0abd
00000010: b884 da3d 3a3d 2c3d b498 2a3e 2277 953d
00000020: 865e 8abc e8b2 f4bf 0b58 11bf 182f b3bd
00000030: a0b1 acbf 2286 e03e 0d3c 27bd ee22 5cbf
00000040: 8544 843f 999c f03f 9c04 9abe 2b4c 1bbf
00000050: 799c fd3f 28ed 083f fe94 163f 5b5d 2140
00000060: 3a00 303f 5a04 213f dbbd 2740 b231 fe3b
00000070: d7fd fd3c c688 d3bc 1d35 92bc 3884 d53d
00000080: 1f1d bfbd 4f38 113d eb63 cc3d aaee e73d
00000090: 2908 b3bf 0fc1 22c0 9922 ac3e 9a75 173f
000000a0: 4ec9 0d40 a0d7 af3f 7b1a 443f e0c7 a23f
000000b0: 8da9 983f 2d4e 7b3e 091b be3e ad10 363e
000000c0: de25 4c3f 6d95 afbe 0c98 d43e c114 1a3f
000000d0: 13fd 10bd 64b9 4b3f ba9c c9be f899 33bd
000000e0: 349b 463f fff3 773e b822 03bf 5477 af3f
000000f0: ed9a 1cbf 3882 813e 0793 983f 90d7 febf
00000100: 6332 03c0 dbc6 a3bd 32d3 a0bf 6e5a 43bf
00000110: f63f 153f 78b0 dc3e 528e b43f 8c55 f73d
00000120: df75 f6bc a505 17be 7aa5 dabd 8379 c53d
00000130: 7869 f63b a033 8cbd e352 4c3e 9b5a 843c
00000140: 8f05 3d3e 1c76 e73e 37d2 823f 9a33 3b3f
00000150: 3518 0740 a3b3 ea3f 3d48 103f 1067 2940
00000160: c9f1 b73f 9018 9c3f 1140 303d 733d 8f3d
00000170: 8ace 3cbd f399 7d3d ad81 38bd aec3 fd3d
00000180: ccbc 2cbd 3568 debb 7206 dabd ddf2 9d3c
00000190: 05ab c1bd a5ab 8fbc c613 99bd c06e cbbd
000001a0: 1d8d 4fbd 8f46 beba 3499 3cbd b4fb d73c
000001b0: 3043 283c 8656 09bd 0dd4 613c 29ed cbbd
000001c0: 03c8 d2bc 8347 d53d 53e2 a53d fb97 f5bc
000001d0: e8fe a7bb b494 fc3c 7d11 213c c17a e8bd
000001e0: 6434 053d 2926 e7bd 4c8f f3bd 2c57 c43d
000001f0: 8cde d4bd b1c2 803d f336 a9bc b9a8 2a3c
00000200: 00e5 1cbe a236 263d c124 dcbc d27c 583c
00000210: 4b8f 89bd 705e 23bc a0b0 9abd 7a30 833d
00000220: abd4 0dbe 345c 91bd 2b17 26bd 53b8 e2bd
00000230: c359 ecbb 5545 af3d dd6d f0bd 37bf d5bd
00000240: 571d 1cbd 80a2 5abd a016 57bb 8805 10bd
00000250: 4db1 a9bb 3f7b 193d 4381 77bd 776a 17bd
00000260: 8a35 873c d5e5 bebd f26c 81bd ba38 19bb
00000270: 374e 23bd 15da c9bd 7429 02be bf90 07bd
00000280: 0d41 efbd 3436 1bbe 2e44 103e fc70 c13c
00000290: d70e b23d c7b2 8b3c 72e3 053e 63c9 b63c
000002a0: 7af5 df3c efcd ea3d 242a 1a3d f174 24bd
000002b0: 30a0 febd 8304 4dbd cc49 093d f680 debd
000002c0: f79d 0ebd 7d28 4c3d c78d 06be 2c43 8ebd
000002d0: 5ef5 963d ef7c af3c 7751 9b3c 714c 3d3c
000002e0: 3ee5 863d c9c0 56bc 2904 a13d 183d f5bd
000002f0: 9490 a1bd d83d fa3e f966 233e 68ff 8a3f
00000300: 1ced 49bf 45f0 adbe e1f8 1fbf f0fc 77be
00000310: 7349 dfbe 51e9 33bf ae2d 9abf dca9 c6bf
00000320: ebf7 cebf 03c8 77bf 3036 58bf 8569 1bbf
00000330: a26f 1cc0 c3bf 8fbf 1505 0dbf aabb 3d3d
00000340: 089c e6bc bc0d cdbd 75a7 8b3c 7b9f 23bb
00000350: c878 b13d bf76 383d 0531 cb3c 25d8 b4bd
00000360: 7736 123f cfc5 fc3e c5dc 873f cb6e 30bf
00000370: 719f 40bf 5c83 8fbe cee3 e6bf c18d c4bf
00000380: 7560 72bf c507 c9be c881 19be a02d 023f
00000390: fde7 163f d463 443f 2b3f 953f 9b0a d93f
000003a0: 331c f83f d0b8 6e3f 9e3b 943e dba7 e13d
000003b0: a845 993f 160e 513e 2829 553f f841 0240
000003c0: 0169 353f e163 dd3e 124b 8e3f d587 1e3f
000003d0: fb71 803f 6e35 ea3e ae1c c73e d6c8 25bf
000003e0: ffd0 d9be 2c1a c9bf 783c 02c0 2478 cbbf
000003f0: 592b 913d cba2 33bc b2a4 033d fe63 dd3c

conv3.bias f4 [10]
-1.882768 -0.07991727 1.3208941 -0.09510208 -0.005266267 0.011694794 -0.09284314 -0.10379312
-0.059974667 6.3354263
00000000: 8bfe f0bf aaab a3bd 0f13 a93f e1c4 c2bd
00000010: a690 acbb 859b 3f3c 8b24 bebd 7d91 d4bd
00000020: ffa7 75bd d0bb ca40

conv4.weight f4 [10, 10, 3, 3]
-0.6627293 -0.28026062 -0.023604816 -1.103084 -1.4671531 -0.75096214 0.90760213 -2.0842838
-2.0087786 -0.0855958 0.03916873 -0.05235547 0.059586853 0.06760235 0.08416227 -0.017707044
0.02783391 0.080982335 0.021757264 -0.10319046 -0.101770066 -1.1713104 0.048589364 0.85148144
-2.0657868 0.3030066 2.0725799 -0.014006887 -0.031891573 -0.099610224 0.14140487 -0.07068844
0.020722171 0.09003036 0.0946155 -0.065271 0.028497303 0.05977514 0.019590007 0.10556375
0.007880332 0.019014524 0.1123035 0.011643738 -0.03079262 0.05236129 -0.031862464 -0.053571463
-0.04186789 0.053383704 0.12635654 -0.1023851 -0.038018726 -0.07448807 0.061643034 0.0046656923
-0.015781185 -0.059768364 0.030839264 0.12584879 -0.049625486 -0.049187075 -0.03683078 0.014359602
0.042000126 0.057442997 -0.1209668 0.037419666 0.11706314 0.13931406 -0.028044585 -0.11674331
-0.08629505 0.041099083 0.027771072 -0.0603325 -0.16477954 0.05434477 -0.01714789 0.02124952
-0.09441131 -0.6763205 -1.0402788 -1.0395353 1.7347406 -0.19566697 -1.3664687 1.635978
0.9157522 0.39087224 1.345148 0.3065718 1.668402 -0.038460523 0.65209514 -0.23476756
-2.799486 -0.8754949 -3.1069252 0.09260785 -0.023964997 0.06883037 -0.020137709 0.035859685
0.0199304 -0.05783929 0.080935836 -0.10840782 0.22239238 -0.00020293659 0.22889884 -1.0894414
0.28256303 0.59232515 -0.384016 -0.6663151 0.9406348 0.072357446 0.04507488 -0.0551316
-0.09923625 0.14550501 -0.21565059 0.064292714 0.057967275 -0.026939617 -0.040892176 -0.104847126
0.08104754 0.12285443 -0.07479645 0.042693414 0.012250473 0.0027148034 -0.046857957 -0.07857831
0.034282524 -0.103415675 -0.05603841 -0.06736698 0.07190797 0.012332568 0.010594609 -0.0067905528
0.104310304 0.020246686 0.022224598 0.042614423 0.018096441 -0.028609075 -0.10593026 0.037439376
-0.10198992 -0.08981956 -0.041702565 0.09575791 0.0031501544 -0.07853522 0.06131779 0.07820243
-0.080239154 -0.111623 0.023763472 -0.035826616 0.022428043 -0.01661404 0.018119102 -0.060274325
0.096022956 -0.14608578 -0.22179966 -1.2698443 -1.178709 -0.8001967 0.026118351 0.29057968
1.2300758 1.3908632 0.94800985 -0.2641495 -0.080862224 1.2001966 0.49686927 1.3891164
1.2734019 1.9046657 0.44944176 -0.79755574 -0.8436094 -0.016859917 -0.09103568 -0.04944109
-0.14461835 0.08772925 0.04492432 -0.10924166 -0.032579336 0.06353146 -1.192073 -0.6097595
-0.8851119 -0.10671452 -1.5492998 -0.13240078 -2.2284615 -0.8736092 1.4938434 0.11532249
-0.065284945 -0.032606315 -0.0051612915 0.059197567 0.05234315 -0.019472934 0.14215289 0.10404581
0.034362495 0.10247074 0.08965627 -0.04471425 0.12124775 -0.0005875651 -0.08263844 -0.039466884
-0.010193109 -0.0626399 -0.07666129 0.11618606 0.00065700826 0.0036481568 0.022750584 -0.022435937
0.07125734 0.1233871 0.06065996 0.051166482 -0.11892417 -0.039867662 -0.08499434 -0.05830043
0.08691603 -0.0420663 -0.029487971 0.0029835645 0.01388084 0.07310365 0.012466614 -0.008053446
-0.001846716 0.003207421 -0.010568437 -0.07583767 -0.010845531 0.0053813965 0.11237692 0.050878804
00000000: a1a8 29bf 527e 8fbe e35e c1bc db31 8dbf
00000010: accb bbbf 0e3f 40bf 9d58 683f e864 05c0
00000020: d48f 00c0 da4c afbd 646f 203d b072 56bd
00000030: 5811 743d 1a73 8a3d 455d ac3d 5d0e 91bc
00000040: f103 e43c 11da a53d 4a3c b23c 8555 d3bd
00000050: d36c d0bd 80ed 95bf a405 473d b0fa 593f
00000060: da35 04c0 ae23 9b3e 26a5 0440 247d 65bc
00000070: bda0 02bd 7200 ccbd 70cc 103e 1ac5 90bd
00000080: 8bc1 a93c d661 b83d c5c5 c13d cdac 85bd
00000090: 2d73 e93c c7d6 743d 397b a03c cf31 d83d
000000a0: 821c 013c 59c4 9b3c 61ff e53d 60c5 3e3c
000000b0: ce40 fcbc cb78 563d 3782 02bd c06d 5bbd
000000c0: aa7d 2bbd dfa8 5a3d 9c63 013e 48af d1bd
000000d0: 86b9 1bbd 348d 98bd 687d 7c3d aae2 983b
000000e0: 8b47 81bc accf 74bd a0a2 fc3c 81de 003e
000000f0: 1844 4bbd 6378 49bd dfdb 16bd 8944 6b3c
00000100: 5308 2c3d 5949 6b3d 71bd f7bd 5d45 193d
00000110: cdbe ef3d 58a8 0e3e c2bd e5bc 1e17 efbd
00000120: 76bb b0bd 8357 283d 2980 e33c 361f 77bd
00000130: f8bb 28be 9f98 5e3d bb79 8cbc 7913 ae3c
00000140: b85a c1bd 5723 2dbf db27 85bf 7e0f 85bf
00000150: fb0b de3f ec5c 48be 72e8 aebf ba67 d13f
00000160: bc6e 6a3f 6820 c83e cf2d ac3f fbf6 9c3e
00000170: 328e d53f c888 1dbd b5ef 263f e866 70be
00000180: c72a 33c0 6f20 60bf ddd7 46c0 2fa9 bd3d
00000190: 3e52 c4bc f0f6 8c3d d6f7 a4bc 9be1 123d
000001a0: 1445 a33c e4e8 6cbd b0c1 a53d eb04 debd
000001b0: d4ba 633e 60cb 54b9 7564 6a3e d172 8bbf
000001c0: 1aac 903e 9fa2 173f bf9d c4be a093 2abf
000001d0: 71cd 703f 2430 943d 70a0 383d acd1 61bd
000001e0: 603c cbbd 44ff 143e 82d3 5cbe e6ab 833d
000001f0: 186f 6d3d 79b0 dcbc 8e7e 27bd 17ba d6bd
00000200: 41fc a53d 1a9b fb3d e22e 99bd 4adf 2e3d
00000210: 35b6 483c d8ea 313b 21ee 3fbd aaed a0bd
00000220: d56b 0c3d 99cb d3bd 8888 65bd b3f7 89bd
00000230: 7c44 933d 8a0e 4a3c 0395 2d3c 4983 debb
00000240: a4a0 d53d 61dc a53c 5c10 b63c 768c 2e3d
00000250: fd3e 943c 945d eabc f7f1 d8bd 085a 193d
00000260: 17e0 d0bd 51f3 b7bd 4fd0 2abd b91c c43d
00000270: d272 4e3b 13d7 a0bd 5d28 7b3d 9828 a03d
00000280: 6d54 a4bd 999a e4bd 9dab c23c eebe 12bd
00000290: 04bb b73c 2b1a 88bc 836e 943c 36e2 76bd
000002a0: afa7 c43d 8397 15be 731f 63be 428a a2bf
000002b0: f0df 96bf b1d9 4cbf 27f6 d53c dcc6 943e
000002c0: 2073 9d3f ce07 b23f c6b0 723f 9a3e 87be
000002d0: 189b a5bd 0ba0 993f a665 fe3e 91ce b13f
000002e0: d5fe a23f 16cc f33f 3b1d e63e 9d2c 4cbf
000002f0: c9f6 57bf cf1d 8abc ea70 babd be82 4abd
00000300: d516 14be 65ab b33d 9002 383d 17ba dfbd
00000310: e971 05bd c81c 823d d995 98bf 3319 1cbf
00000320: b296 62bf 248d dabd 754f c6bf 1294 07be
00000330: 1d9f 0ec0 daa4 5fbf 4336 bf3f 332e ec3d
00000340: 1db4 85bd 338e 05bd 0d20 a9bb 2679 723d
00000350: c565 563d b485 9fbc 8790 113e f815 d53d
00000360: b0bf 0c3d 2edc d13d b59d b73d 4a26 37bd
00000370: be50 f83d d406 1aba 583e a9bd 07a8 21bd
00000380: ff00 27bc 5949 80bd 9800 9dbd f5f2 ed3d
00000390: 143b 2c3a ea15 6f3b 6f5f ba3c 92cb b7bc
000003a0: 5eef 913d 60b2 fc3d 9476 783d f293 513d
000003b0: 848e f3bd 464c 23bd 8311 aebd 6fcc 6ebd
000003c0: 0801 b23d b64d 2cbd c290 f1bc e887 433b
000003d0: 766c 633c 5eb7 953d c540 4c3c 9af2 03bc
000003e0: 820d f2ba 9833 523b 3d27 2dbc c850 9bbd
000003f0: 74b1 31bc 6d56 b03b df25 e63d 4b66 503d

conv4.bias f4 [10]
0.17215346 0.30437788 -0.073177256 -0.057418548 -0.2689643 -0.14872797 -0.5029539 0.25666702
-0.40969664 0.1992751
00000000: ff48 303e 6bd7 9b3e f5dd 95bd b62f 6bbd
00000010: b0b5 89be 254c 18be 96c1 00bf dc69 833e
00000020: c2c3 d1be c60e 4c3e

norm.weight f4 [10]
0.33300453 0.2052828 0.19851746 0.18088812 0.13691384 0.22863986 0.40330896 0.19949126
0.27110827 0.14025907
00000000: 927f aa3e a835 523e 2948 4b3e bc3a 393e
00000010: 2433 0c3e 9120 6a3e 837e ce3e 7047 4c3e
00000020: b4ce 8a3e 13a0 0f3e

norm.bias f4 [10]
-0.41938546 -0.24384807 -0.35624814 -0.14230129 -0.124198906 -0.21029834 -0.38370162 -0.19714259
-0.25073057 -0.1499642
00000000: b1b9 d6be 4fb3 79be 2866 b6be 6eb7 11be
00000010: ff5b febd 7358 57be 8a74 c4be bfdf 49be
00000020: c25f 80be 3790 19be

norm.running_mean f4 [10]
-662.8762 -248.75145 -327.78595 -656.7156 93.84265 -467.8445 -1008.72205 -742.23114
-693.4898 54.301895
00000000: 14b8 25c4 5fc0 78c3 9ae4 a3c3 cc2d 24c4
00000010: 70af bb42 19ec e9c3 362e 7cc4 cb8e 39c4
00000020: 595f 2dc4 2435 5942

norm.running_var f4 [10]
144946.38 100051.27 169890.08 229657.81 83261.13 99292.65 217373.12 130073.19
251894.58 130546.06
00000000: 988c 0d48 a369 c347 85e8 2548 7446 6048
00000010: 919e a247 53ee c147 4847 5448 980c fe47
00000020: a5fd 7548 08f9 fe47

fc1.weight f4 [50, 810]
-0.26896313 -0.47936767 -1.5202153 -2.4573908 -0.68968666 0.84418255 -0.39703125 0.67561674
0.6376803 -1.8210168 -0.40145212 -0.8601568 -0.4536211 1.1645708 -0.93515986 1.1017759
-0.6311263 -0.7407812 0.24968262 -0.34147322 -1.6575373 -0.68556285 0.28091678 0.29550093
-0.49703413 -0.21318135 0.07907203 1.0840935 1.3934659 -0.1139432 2.331516 1.0491545
1.0794011 -1.6730086 -0.5941883 -0.28099367 -0.8147037 0.15437016 0.2646803 -0.091775045
0.91146255 0.37252745 -1.021818 0.54301834 -1.5935503 -0.76467437 -1.0128163 0.22618139
-1.0976628 -1.9623266 -3.1103065 -3.6849701 -0.8404762 0.2747066 -1.1129398 -2.9854636
-0.259776 -1.8687137 -1.1552497 -0.5832076 -1.8614404 0.79430753 -1.000912 -1.3727123
-1.2840106 -0.14086233 -3.3078372 -0.9777458 -1.0786734 -4.0796413 0.3266491 -0.5523336
-0.21025313 -3.2571297 -0.7999183 -1.9200152 -0.8129165 -2.1783555 0.1624826 -0.98901576
-0.5852028 0.33433875 2.1806893 -1.1540017 -0.43036273 -1.3403846 0.8338696 1.04507
0.40009144 1.0890735 -0.9089949 -0.13270223 -1.0852039 -0.6362886 0.9410329 1.4662716
0.37922764 0.33324674 0.36867172 0.92749166 0.6641843 -0.85249597 0.09974447 0.92821926
0.9967713 -0.36231145 0.22320002 0.28666013 -0.51403195 0.3919913 0.1112464 0.18295942
-0.23306869 0.11353678 0.28273433 0.73278946 -0.16851708 -0.35889575 0.6361629 0.11837541
-0.9918468 -1.5430163 1.696656 0.22454602 1.066267 0.70289665 0.5388356 0.5844117
-3.2606676 -2.5346217 -0.726037 -1.2418748 -1.0548564 0.9996001 0.81396836 -1.8710145
-0.2038028 0.86796755 -1.9951392 -0.6107535 -1.0177501 -0.2759335 1.2447879 0.6601635
0.35615095 -0.41020474 -1.1970174 -0.031110635 -0.6283125 -1.650805 -2.6024537 -2.560027
0.24721187 -0.20504713 -1.68812 -1.2244672 -2.0296183 -3.5373962 -0.4535585 0.1962148
-0.55335325 1.675069 -1.5303288 -2.0348883 -1.6016264 0.024533182 0.08814332 -2.180017
-0.10851622 0.5069308 0.7435734 -0.28276414 -0.73951256 0.13689406 0.5805669 -2.8178165
-3.5220993 -1.1075408 -0.0842871 0.5045972 -0.57167464 -0.28584844 0.15637565 -1.4795718
-0.48988035 1.2535087 0.10721184 -0.8052337 0.66983414 0.5949209 -0.69419897 0.32530406
2.2011266 1.0827562 0.31104934 0.3655962 0.39495793 -0.48999804 -0.13769257 1.2853069
0.054385647 0.39423752 -0.39968264 -1.5427606 0.32235247 -1.9965779 -2.5724463 -0.58537537
0.70140094 -1.1979315 -0.4499634 -1.8038812 -0.90716785 -1.0485777 -1.7547445 -0.30205446
0.4376494 -1.2899446 -0.049541585 -0.121958576 -2.201445 -0.9504911 -0.5604911 -0.4628958
-1.4313058 -0.5964582 0.63455164 0.25962046 -0.7741919 -0.13671902 0.22755204 -0.97039306
1.1485739 -0.13422084 -0.8756298 -1.512446 -0.2167944 -0.5711959 -0.15780298 -1.378728
-0.49333468 0.18392827 0.17905092 0.5854967 0.33903107 0.37317795 -0.40688372 0.2312905
-0.021106714 -0.3587331 0.4788087 0.17233647 -0.41931123 0.82166225 0.54494536 0.50330013
00000000: 89b5 89be ae6f f5be 6a96 c2bf e445 1dc0
00000010: 4e8f 30bf 591c 583f ae47 cbbe 38f5 2c3f
00000020: 043f 233f 1417 e9bf 228b cdbe 3c33 5cbf
00000030: 0641 e8be a810 953f a366 6fbf fe06 8d3f
00000040: 7e91 21bf d6a3 3dbf cdac 7f3e 94d5 aebe
00000050: 2f2a d4bf 0c81 2fbf 53d4 8f3e e64b 973e
00000060: 427b febe 364c 5abe 84f0 a13d 93c3 8a3f
00000070: 175d b23f 0d5b e9bd 8f37 1540 b24a 863f
00000080: d129 8a3f 2525 d6bf b91c 18bf 67de 8fbe
00000090: 6c90 50bf 3613 1e3e 2d84 873e 8ef4 bbbd
000000a0: 9c55 693f ebbb be3e efca 82bf 4003 0b3f
000000b0: 75f9 cbbf b3c1 43bf f7a3 81bf 189c 673e
000000c0: 3780 8cbf 852d fbbf 430f 47c0 8dd6 6bc0
000000d0: 7329 57bf 58a6 8c3e d074 8ebf d611 3fc0
000000e0: 5c01 85be 0332 efbf 39df 93bf 184d 15bf
000000f0: ae43 eebf bd57 4b3f e21d 80bf 09b5 afbf
00000100: 765a a4bf 373e 10be 9bb3 53c0 8c4d 7abf
00000110: f811 8abf 6c8c 82c0 8d3e a73e bc65 0dbf
00000120: 994c 57be d074 50c0 72c7 4cbf 0fc3 f5bf
00000130: 4c1b 50bf 2d6a 0bc0 d761 263e 2330 7dbf
00000140: dacf 15bf 732e ab3e 6a90 0b40 54b6 93bf
00000150: 8158 dcbe b991 abbf 7a78 553f dbc4 853f
00000160: c9d8 cc3e c366 8b3f e4b3 68bf 18e3 07be
00000170: f6e7 8abf cfe3 22bf 88e7 703f caae bb3f
00000180: 202a c23e 519f aa3e 8ac2 bc3e 1870 6d3f
00000190: fb07 2a3f 2d3d 5abf d446 cc3d c79f 6d3f
000001a0: 672c 7f3f e380 b9be 8c8e 643e 1ec5 923e
000001b0: 9997 03bf 15b3 c83e 27d5 e33d b759 3b3e
000001c0: 8fa9 6ebe f985 e83d 8ec2 903e 1798 3b3f
000001d0: be8f 2cbe 2fc1 b7be 92db 223f cf6e f23d
000001e0: ace9 7dbf 8f81 c5bf 062c d93f 64ef 653e
000001f0: 707b 883f 09f1 333f 21f1 093f 019c 153f
00000200: c7ae 50c0 3e37 22c0 90dd 39bf c1f5 9ebf
00000210: 8905 87bf cbe5 7f3f 3b60 503f 677d efbf
00000220: aeb1 50be 1f33 5e3f b960 ffbf 575a 1cbf
00000230: a345 82bf 2847 8dbe 3655 9f3f 7a00 293f
00000240: 6b59 b63e 5b06 d2be de37 99bf bbdb febc
00000250: 17d9 20bf 944d d3bf 9a8e 26c0 7bd7 23c0
00000260: 1c25 7d3e e0f7 51be 5114 d8bf 57bb 9cbf
00000270: 44e5 01c0 b364 62c0 d238 e8be 88ec 483e
00000280: 8fa8 0dbf a968 d63f d0e1 c3bf 9c3b 02c0
00000290: 1802 cdbf d0f9 c83c 7c84 b43d 6685 0bc0
000002a0: c03d debd 38c6 013f d45a 3e3f 76c6 90be
000002b0: b250 3dbf f52d 0c3e 08a0 143f 1b57 34c0
000002c0: 136a 61c0 e6c3 8dbf b79e acbd 482d 013f
000002d0: 4559 12bf ba5a 92be f020 203e 9c62 bdbf
000002e0: 99d1 fabe f972 a03f e291 db3d cc23 4ebf
000002f0: 407a 2b3f bc4c 183f 06b7 31bf 418e a63e
00000300: 42df 0c40 c197 8a3f dc41 9f3e 6d2f bb3e
00000310: ed37 ca3e 06e1 fabe 48ff 0cbe f084 a43f
00000320: 7cc3 5e3d 80d9 c93e 34a3 ccbe 2e79 c5bf
00000330: 620b a53e dd8f ffbf f6a2 24c0 29db 15bf
00000340: 038f 333f d255 99bf 9a61 e6be 94e5 e6bf
00000350: 273c 68bf cb37 86bf 789b e0bf e2a6 9abe
00000360: 9513 e03e e81c a5bf 1eec 4abd 6bc5 f9bd
00000370: 7ae4 0cc0 6253 73bf 587c 0fbf ae00 edbe
00000380: 0735 b7bf 7cb1 18bf fa71 223f f9ec 843e
00000390: 7131 46bf 1200 0cbe 6703 693e ae6b 78bf
000003a0: 7804 933f 3071 09be 4629 60bf d597 c1bf
000003b0: 5aff 5dbe e539 12bf 1b97 21be 297a b0bf
000003c0: 5d96 fcbe b157 3c3e 2059 373e 1de3 153f
000003d0: 7b95 ad3e 2e11 bf3e 1053 d0be 6bd7 6c3e
000003e0: fde7 acbc ddab b7be 6a26 f53e f978 303e
000003f0: f6af d6be 7558 523f 8a81 0b3f 47d8 003f

fc1.bias f4 [50]
0.7149928 1.6937257 -0.20715676 0.37457147 -0.0827789 1.0374768 0.53754926 -0.025716778
1.2412142 -0.03718981 -0.32963157 -0.028086256 -0.68088645 1.5758413 -0.044143397 0.8665287
-0.08015649 -0.05933114 -0.20131238 -0.44232354 1.373779 3.2787843 -0.21217401 -0.015376148
-0.16140722 -0.81264085 -0.03530222 0.42529577 1.8419461 -0.14188488 -0.069529004 -0.19535127
0.26625726 2.5271149 0.046448875 -0.3834974 -0.23276824 1.3513268 -0.1950383 -0.11712558
-0.10632081 2.6526995 -0.1863252 -0.15802716 -0.04859032 0.80492955 3.0273147e-06 1.3878083
0.56347555 2.0400286
00000000: c509 373f 01cc d83f e720 54be d5c7 bf3e
00000010: fc87 a9bd 0acc 843f d49c 093f feab d2bc
00000020: 1be0 9e3f 5854 18bd 78c5 a8be 2615 e6bc
00000030: 934e 2ebf 2bb5 c93f b5cf 34bd d3d4 5d3f
00000040: 1629 a4bd 3605 73bd d524 4ebe 3b78 e2be
00000050: fed7 af3f 9ad7 5140 2544 59be 3dec 7bbc
00000060: ef47 25be 3b09 50bf 1099 10bd 5ec0 d93e
00000070: e4c4 eb3f 454a 11be 3965 8ebd 2a0a 48be
00000080: df52 883e 40bc 2140 2d41 3e3d c559 c4be
00000090: cc5a 6ebe 47f8 ac3f 1fb8 47be 89df efbd
000000a0: babe d9bd d4c5 2940 09cc 3ebe dfd1 21be
000000b0: a506 47bd dd0f 4e3f df28 4b36 b4a3 b13f
000000c0: ef3f 103f d48f 0240

fc2.weight f4 [7, 50]
-0.35985297 0.06335419 -0.0757586 -0.3381301 -0.08593197 -0.19857359 -0.85644335 -0.040810544
-0.059168667 -0.052123442 -1.7277391 -0.2136811 0.17259467 -0.1602717 -0.025929747 -0.016548293
-0.08226787 0.00091389095 -0.22553787 -0.17191878 -0.051322337 0.15168294 -0.13706137 0.056216866
-0.06928224 0.22382961 -0.094486065 -0.09957824 -0.19411512 0.038933072 -0.0050442475 0.16822731
-0.12195682 0.19117637 -0.48243287 -0.56385314 -0.19562109 0.24321428 -0.132082 -0.055284414
0.0006474993 -0.080955796 -0.70552176 -0.20016105 -0.094013095 -0.13320571 0.07800911 0.18901765
0.048691683 -0.14547135 -0.16819692 -0.41527444 -0.082025334 -0.65433455 0.0040146294 -0.07451079
-1.5594851 0.075057395 0.06849636 0.018617617 -7.0683184 -0.5015621 -0.07757027 -0.14763485
0.026330093 0.12200351 -0.04123919 -0.03718954 -0.11300077 -0.05370014 -0.12224341 -0.07966652
-0.061275 0.020028582 0.016416596 -0.15149663 -0.11718942 -0.24841593 -0.26106504 0.10064179
-0.06369328 0.10224298 0.13403982 -0.28110778 -0.9410957 -1.7748274 -0.013525018 -0.2760774
-0.22714067 0.02736256 -0.06592234 -0.39011502 -0.6714566 -0.03868516 0.11030053 -0.06868025
0.08975757 0.6477537 -0.088707425 0.06107355 0.35292798 -0.5664499 -0.03391431 -0.2779789
0.045451105 -0.032907404 -0.9161911 0.09112037 -0.0408967 0.052834347 0.6725907 -0.25713715
-0.025639003 -0.2678475 0.031331982 0.29856175 -0.09731519 0.011797738 -0.28125107 -0.026910119
-0.157963 0.012275636 0.0631864 -0.036608543 -0.1498162 0.21955368 -0.003396996 -0.07228513
-0.18362884 0.08751348 -0.14012767 0.0120776845 -0.0664014 0.007285023 -0.056212932 0.44724682
0.162569 -0.0003847452 -0.18648979 -0.0068034153 -0.069220394 -0.13647486 -0.59772766 -0.19069964
-0.12180678 0.24686283 0.020348568 -0.051383138 -0.061023284 -0.13798034 -0.4647974 -0.52805
0.059914593 -0.44401342 0.08155299 -0.16478252 -0.75858825 -0.007719527 -0.11570095 0.10528828
-1.6549039 0.25535518 0.034534216 0.30240294 -0.016582549 -0.15841456 0.01682367 -0.01812077
-0.08068953 -0.08148676 0.33496585 -0.004385841 0.016131062 0.05443888 0.034978155 -0.06290039
-0.05337099 0.12225833 0.30107778 -0.027397035 0.06919574 0.11604443 -0.16162388 -0.079541676
-0.45615575 -0.55109817 -0.031709693 -0.3844373 -0.18557104 -0.060850874 0.11272128 0.3658874
-0.13589129 0.103048064 -0.056869626 -0.03886523 -0.038254205 -0.1206394 -0.3301817 0.1489841
-0.270238 -0.5945476 -0.09141998 -0.32551622 0.13502488 -0.08662217 -0.65636265 -0.0028118957
-0.09031676 -0.018168265 -0.65118694 0.14089693 -0.23071899 -0.12777983 0.11503014 0.102795005
-0.04251438 -0.050609574 0.04497834 -0.45663124 -0.09597768 0.24496065 -0.040778615 -0.041910645
0.00336798 -0.095600426 -0.050056607 -0.0036575561 -0.18732464 -0.09004081 -0.037914183 -0.029191544
0.27475718 0.107092366 -0.083053134 -0.48316666 0.024738709 0.113818936 0.06843306 0.08528708
-0.0037720038 -0.21897788 -0.57015276 -0.13192786 0.0679259 -0.17830876 0.013404105 -0.09118731
0.015523987 -0.079464406 -0.155927 0.069225915 -0.09519073 0.33783892 0.10180801 0.36925572
00000000: a63e b8be d7bf 813d 5327 9bbd 631f adbe
00000010: 1afd afbd e056 4bbe df3f 5bbf f528 27bd
00000020: d85a 72bd 647f 55bd 8e26 ddbf 38cf 5abe
00000030: a8bc 303e 441e 24be 9f6a d4bc 4990 87bc
00000040: 0f7c a8bd 2f92 6f3a 66f3 66be 7a0b 30be
00000050: 5f37 52bd c652 1b3e d159 0cbe a843 663d
00000060: d9e3 8dbd 9733 653e e981 c1bd adef cbbd
00000070: 1dc6 46be 4978 1f3d 374a a5bb c843 2c3e
00000080: 7fc4 f9bd bdc3 433e 7101 f7be ae58 10bf
00000090: e550 48be 2a0d 793e 8140 07be e971 62bd
000000a0: f1bc 293a 27cc a5bd 139d 34bf 05f7 4cbe
000000b0: f089 c0bd 1467 08be 3ec3 9f3d d88d 413e
000000c0: ee70 473d 71f6 14be d03b 2cbe da9e d4be
000000d0: e6fc a7bd 7882 27bf 278d 833b 1d99 98bd
000000e0: 359d c7bf b1b7 993d d247 8c3d f983 983c
000000f0: aa2f e2c0 6066 00bf 29dd 9ebd 972d 17be
00000100: 35b2 d73c fadc f93d 6dea 28bd 0f54 18bd
00000110: f36c e7bd aef4 5bbd c15a fabd 3328 a3bd
00000120: 7ffb 7abd fb12 a43c 197c 863c ef21 1bbe
00000130: 0201 f0bd bf60 7ebe 51aa 85be 481d ce3d
00000140: 9f71 82bd c464 d13d bc41 093e 5ced 8fbe
00000150: a6eb 70bf 8b2d e3bf 0998 5dbc 045a 8dbe
00000160: 9097 68be 7327 e03c 4b02 87bd 28bd c7be
00000170: 94e4 2bbf 5574 1ebd 3fe5 e13d 3ba8 8cbd
00000180: d1d2 b73d 30d3 253f 3dac b5bd 4228 7a3d
00000190: fab2 b43e dc02 11bf bbe9 0abd 4053 8ebe
000001a0: f02a 3a3d eac9 06bd 808b 6abf 519d ba3d
000001b0: 4c83 27bd d468 583d e72e 2c3f 7ba7 83be
000001c0: e308 d2bc 4f23 89be f755 003d 16dd 983e
000001d0: 304d c7bd 4d4b 413c 2400 90be 9c72 dcbc
000001e0: 0dc1 21be c01f 493c df67 813d d7f2 15bd
000001f0: 6b69 19be aed2 603e 23a0 5ebb 3a0a 94bd
00000200: 3309 3cbe 443a b33d a17d 0fbe 7be1 453c
00000210: 75fd 87bd 34b7 ee3b 883f 66bd 89fd e43e
00000220: 7d78 263e a0b7 c9b9 2ef7 3ebe 2fef debb
00000230: 6cc3 8dbd 11c0 0bbe ae04 19bf c446 43be
00000240: d575 f9bd 9cc9 7c3e 0ab2 a63c 2077 52bd
00000250: 8df3 79bd b84a 0dbe edf9 edbe 492e 07bf
00000260: 0169 753d ba55 e3be 4105 a73d c0bc 28be
00000270: d732 42bf 16f4 fcbb 9ff4 ecbd 62a1 d73d
00000280: e4d3 d3bf eabd 823e c073 0d3d 8fd4 9a3e
00000290: 20d8 87bc 6d37 22be cbd1 893c 0272 94bc
000002a0: 8d40 a5bd 88e2 a6bd a580 ab3e 1ab7 8fbb
000002b0: 4a25 843c 4efb 5e3d 4145 0f3d ebd1 80bd
000002c0: 8a9b 5abd 9362 fa3d de26 9a3e bf6f e0bc
000002d0: 7fb6 8d3d b4a8 ed3d bb80 25be bfe6 a2bd
000002e0: 3f8d e9be c514 0dbf 06e2 01bd f7d4 c4be
000002f0: 5606 3ebe c43e 79bd 6ada e63d 9855 bb3e
00000300: 1627 0bbe dd0a d33d 20f0 68bd 2631 1fbd
00000310: 71b0 1cbd ca11 f7bd 930d a9be 4a8f 183e
00000320: a35c 8abe 4634 18bf 663a bbbd 10aa a6be
00000330: f643 0a3e f766 b1bd 6207 28bf c847 38bb
00000340: fef7 b8bd 9dd5 94bc 30b4 26bf 4947 103e
00000350: 9941 6cbe b7d8 02be ec94 eb3d 3086 d23d
00000360: 8f23 2ebd fc4b 4fbd 353b 383d 92cb e9be
00000370: f28f c4bd f7d6 7a3e 7a07 27bd 7faa 2bbd
00000380: 54b9 5c3b 28ca c3bd 2808 4dbd 9cb3 6fbb
00000390: 08d2 3fbe 5167 b8bd e74b 1bbd 1b23 efbc
000003a0: f9ac 8c3e 3e53 db3d c317 aabd 9f61 f7be
000003b0: d5a8 ca3c e719 e93d a226 8c3d feaa ae3d
000003c0: b933 77bb bd3b 60be 88f5 11bf 1918 07be
000003d0: bc1c 8b3d 9296 36be e49c 5b3c 6ac0 babd
000003e0: 5258 7e3c 3cbe a2bd 54ab 1fbe 51c6 8d3d
000003f0: 5cf3 c2bd 39f9 ac3e b880 d03d 160f bd3e

fc2.bias f4 [7]
-0.34295112 -1.6616118 0.07065564 0.12885101 0.47767967 -0.3388453 0.31396008
00000000: 4a97 afbe b2af d4bf e7b3 903d 85f1 033e
00000010: 6e92 f43e 227d adbe 60bf a03e

localization.0.weight f4 [8, 1, 7, 7]
0.045818392 -0.021280706 0.07815073 0.1317487 0.050937 0.10866088 0.16944289 0.18541694
0.11956376 0.24462874 0.10909681 0.16946764 0.2287212 0.011985495 -0.03286457 0.08546263
0.2058889 0.0028060793 0.18758588 0.14979334 -0.074428484 0.08173336 -0.07314648 -0.052167155
0.1891559 0.048465047 0.013755563 0.022249335 0.047355883 -0.08011081 0.1870217 0.0069250637
0.11444033 0.14548738 -0.010366362 0.118503205 -0.08285127 0.18980554 0.13427515 0.04002852
0.12650447 -0.063431054 -0.017022176 0.12775879 0.041257687 -0.060892694 0.030977048 0.12866776
-0.009556565 -0.10862287 -0.018328428 0.08009777 -0.10969904 -0.023501175 0.047446128 0.000248036
0.13973 0.099154346 -0.13261938 0.050206594 0.10005185 -0.11096705 -0.016454 -0.02476583
-0.10719791 0.078389354 -0.09407444 -0.061092522 0.0525846 -0.20066854 -0.103475474 -0.12114318
0.040612865 0.09824126 -0.1111324 -0.03141885 -0.062727 0.1005722 -0.026297914 0.04543745
0.02066751 -0.095701195 -0.077809595 -0.09400554 -0.17553854 0.067936584 -0.008976391 0.07508448
-0.09751397 -0.05206467 0.0010149303 -0.004542269 -0.08505826 -0.04918944 -0.13869773 0.08467793
-0.03639911 -0.15501387 -0.05002797 -0.020849552 0.050547298 -0.083048664 0.09385253 0.11802523
-0.011406633 0.07823259 -0.038501956 -0.10473885 0.13017324 0.06449651 -0.044743408 -0.12208464
0.002483407 -0.036289215 -0.007611466 0.12835993 -0.10145896 0.08097416 -0.056844264 -0.087086596
-0.06398429 -0.07799636 -0.006922262 -0.16147412 -0.12618642 0.034192633 0.12508936 -0.039894972
0.045100205 -0.001354505 0.087354176 -0.019057281 0.057192277 0.14402945 -0.100097954 -0.10030251
0.023856165 -0.046392195 0.0040490427 0.014518509 -0.13486989 0.068594396 0.010184571 0.057228882
-0.08114772 -0.1787917 -0.18014027 -0.02394904 -0.095030285 -0.09270075 -0.03833839 0.01097724
0.052954104 -0.07411091 0.06676144 -0.01687492 -0.06742857 0.12686805 0.094635785 -0.07037378
0.084070235 0.13146281 0.11973757 0.07179475 0.12847057 0.010830619 -0.11761566 0.12089379
0.07055399 0.04782152 0.030482607 -0.018668003 -0.03232735 -0.12288597 0.13761537 0.09550624
-0.016177244 0.1035401 0.07124955 0.0794385 0.07993316 -0.14234285 0.051333398 -0.1916702
0.075903505 -0.034628805 -0.07217162 0.012359572 -0.071769185 -0.15365218 -0.14877312 0.015529791
-0.09754626 -0.00825791 0.013775516 0.06483492 -0.075979166 -0.1489517 -0.011213229 0.09366232
0.13562866 -0.009791272 -0.046807498 -0.12499423 -0.08612838 0.10587155 -0.09189415 0.102457926
0.14239338 0.116221 -0.07872157 -0.07806697 0.05841329 -0.005531463 0.1491402 0.073406875
0.08161736 -0.0005058543 0.0568248 -0.0034876652 0.10162174 -0.06419731 -0.049115706 0.12647355
-0.08723026 -0.032694537 -0.035792205 0.08381951 -0.07074225 0.0008676015 -0.0017604256 -0.16969644
-0.005033966 0.06869579 -0.11132322 0.10780471 0.117300056 0.05187489 0.03783579 -0.13941412
-0.008230989 0.027042078 0.049684662 -0.15746965 0.05891907 -0.0143724345 0.15314578 0.112625
0.11643315 0.00402156 0.02711129 0.01470148 0.09747317 0.09879734 -0.048652705 0.080533385
00000000: 11ac 3b3d e054 aebc 7d0d a03d 22e9 063e
00000010: 51a3 503d 9889 de3d 7082 2d3e f0dd 3d3e
00000020: d8dd f43d f57f 7a3e 266e df3d ed88 2d3e
00000030: e435 6a3e cf5e 443c 009d 06bd 0807 af3d
00000040: 8ad4 523e 33e6 373b 8316 403e 6d63 193e
00000050: f66d 98bd d263 a73d d2cd 95bd 3aad 55bd
00000060: 16b2 413e 4983 463d 035f 613c 3d44 b63c
00000070: 3ef8 413d 2311 a4bd 9e82 3f3e a5eb e23b
00000080: b15f ea3d a5fa 143e acd7 29bc cfb1 f23d
00000090: edad a9bd 625c 423e 6d7f 093e f2f4 233d
000000a0: 638a 013e 24e8 81bd 1772 8bbc 33d3 023e
000000b0: d2fd 283d 9e6a 79bd 94c3 fd3c 7bc1 033e
000000c0: 2493 1cbc ab75 debd 8025 96bc 4d0a a43d
000000d0: e4a9 e0bd 8985 c0bc df56 423d d40a 8239
000000e0: 6215 0f3e 6f11 cb3d 60cd 07be 6ea5 4d3d
000000f0: fce7 cc3d b142 e3bd 8aca 86bc b6e1 cabc
00000100: 948a dbbd 998a a03d 1aaa c0bd 273c 7abd
00000110: f362 573d 0e7c 4dbe f3ea d3bd ea19 f8bd
00000120: ad59 263d b732 c93d 6299 e3bd 0db1 00bd
00000130: 0377 80bd ccf8 cd3d b96e d7bc 9f1c 3a3d
00000140: e94e a93c fdfe c3bd a35a 9fbd fa85 c0bd
00000150: 60c0 33be 5622 8b3d b611 13bc e4c5 993d
00000160: 68b5 c7bd c341 55bd 6907 853a 50d7 94bb
00000170: 0633 aebd de7a 49bd c706 0ebe 9f6b ad3d
00000180: 3c17 15bd f5bb 1ebe 21ea 4cbd aecc aabc
00000190: af0a 4f3d 6b15 aabd c135 c03d 36b7 f13d
000001a0: e3e2 3abc 6838 a03d 3ab4 1dbd 5281 d6bd
000001b0: 224c 053e bf16 843d dd44 37bd 8307 fabd
000001c0: a8c0 223b 00a4 14bd 9b69 f9bb c970 033e
000001d0: b7c9 cfbd c8d5 a53d 88d5 68bd 755a b2bd
000001e0: 320a 83bd 8ebc 9fbd 24d4 e2bb 7959 25be
000001f0: 0337 01be 930d 0c3d 6d17 003e e968 23bd
00000200: feba 383d a589 b1ba bfe6 b23d 041e 9cbc
00000210: 7342 6a3d 757c 133e 2800 cdbd 676b cdbd
00000220: 016e c33c be05 3ebd d5ad 843b 0adf 6d3c
00000230: 551b 0abe 387b 8c3d 30dd 263c d568 6a3d
00000240: c730 a6bd 2c15 37be b176 38be c730 c4bc
00000250: 3d9f c2bd e4d9 bdbd b708 1dbd e2d9 333c
00000260: 67e6 583d 76c7 97bd 39ba 883d 463d 8abc
00000270: fd17 8abd b3e9 013e 68d0 c13d 2120 90bd
00000280: 042d ac3d 309e 063e f938 f53d 2009 933d
00000290: ca8d 033e e972 313c 7be0 f0bd 2a97 f73d
000002a0: 9c7e 903d 80e0 433d a9b6 f93c a4ed 98bc
000002b0: af69 04bd a4ab fbbd 0beb 0c3e c798 c33d
000002c0: 2486 84bc d50c d43d 49eb 913d a7b0 a23d
000002d0: ffb3 a33d 53c2 11be f842 523d 3145 44be
000002e0: 4c73 9b3d efd6 0dbd b7ce 93bd cd7f 4a3c
000002f0: b9fb 92bd ff56 1dbe fb57 18be aa70 7e3c
00000300: 55c6 c7bd 2f4c 07bc b4b2 613c 2cc8 843d
00000310: f79a 9bbd cb86 18be b1b7 37bc 08d2 bf3d
00000320: 3de2 0a3e 926b 20bc 38b9 3fbd fafc ffbd
00000330: 1364 b0bd 2fd3 d83d 0033 bcbd 76d5 d13d
00000340: 92cf 113e 4705 ee3d c638 a1bd 93e1 9fbd
00000350: c642 6f3d 4641 b5bb 35b8 183e 5856 963d
00000360: 0127 a73d 4f9b 04ba 1fc1 683d 5091 64bb
00000370: 0f1f d03d e179 83bd 8d2d 49bd 4882 013e
00000380: c7a5 b2bd b5ea 05bd d99a 12bd 90a9 ab3d
00000390: 50e1 90bd c06f 633a 15be e6ba e7c4 2dbe
000003a0: f8f3 a4bb 61b0 8c3d 6efd e3bd b7c8 dc3d
000003b0: 033b f03d c47a 543d b4f9 1a3d 93c2 0ebe
000003c0: 45db 06bc 5987 dd3c 2582 4b3d b93f 21be
000003d0: 1f55 713d 5c7a 6bbc 3fd2 1c3e f0a7 e63d
000003e0: 8174 ee3d 4ac7 833b 7f18 de3c 7ade 703c
000003f0: 03a0 c73d 4356 ca3d 0f48 47bd b0ee a43d

localization.0.bias f4 [8]
0.17815304 -0.06956811 -0.076607816 -0.21392827 -0.043023054 -0.10612564 -0.19939135 -0.23454237
00000000: c06d 363e ba79 8ebd 8fe4 9cbd 0310 5bbe
00000010: f138 30bd 6658 d9bd 3f2d 4cbe e02b 70be

localization.3.weight f4 [10, 8, 5, 5]
-0.048773035 0.05511039 -0.07125551 -0.14174946 0.016310882 -0.0012840758 -0.014539196 -0.053762455
-0.022622779 -0.04222508 0.06733021 -0.08124869 -0.050193418 -0.06571745 -0.15413836 -0.009733278
-0.026390802 -0.10108833 -0.120435685 -0.059236426 -0.093409255 -0.044451553 -0.099883735 -0.12969762
-0.07492304 0.0768644 0.040610038 0.014311384 0.03225495 -0.071067214 0.014329678 0.055722326
-0.015207303 -0.09260049 -0.10678956 -0.022176228 0.023779692 -0.06691177 -0.0844517 -0.13571627
-0.037305456 0.0017715965 -0.026955891 -0.11632765 -0.11682437 -0.13220014 -0.07306092 -0.063302994
-0.17637044 -0.17766908 0.02336346 -0.008747907 0.00014871164 0.028772978 -0.046148613 -0.07931373
0.008737019 -0.12378507 0.0046382295 0.006973912 0.0797064 0.03763775 -0.08110593 0.033612404
-0.022723364 -0.05434976 -0.07335334 -0.022952612 0.0044028093 -0.07190567 -0.04171347 -0.11297617
-0.10345418 -0.059601717 0.0028365485 0.04051944 0.021258144 -0.02478212 -0.04677219 0.056345265
0.041490436 0.0050837393 -0.014616133 -0.12528887 0.030828627 -0.05551852 -0.014254214 -0.10877093
0.016698759 -0.080557555 0.030480208 -0.0943585 -0.029525355 -0.009800926 -0.034579825 -0.01357888
-0.1535039 -0.000740288 -0.05696966 -0.03257838 -0.06553778 -0.018970354 -0.13106884 -0.12759231
-0.066337705 -0.023718987 -0.09313245 -0.15022324 -0.12465754 -0.10018644 -0.077967666 -0.0935628
-0.03982172 -0.11336404 0.02242656 -0.03636886 -0.092246555 -0.03004917 -0.11341992 0.047301546
-0.06645211 -0.07171266 -0.10768694 -0.07112339 -0.032392237 -0.04781381 -0.1385749 -0.112540215
-0.19069709 -0.15622278 -0.12880446 -0.032040767 -0.10179857 -0.16514337 -0.15579917 -0.006977598
-0.09774689 -0.099757865 -0.036442176 -0.0474238 -0.108711705 -0.109433085 -0.11406571 0.024213362
-0.030320842 -0.017821427 -0.07181175 -0.05979452 0.083358176 -0.029255947 -0.010597931 0.008596569
0.00500519 0.030103235 0.011097717 0.11043315 0.018965146 -0.07873632 -0.0902844 -0.040060446
-0.075176984 -0.03406212 -0.04674968 -0.076024465 -0.14141642 -0.039597776 -0.11705113 -0.09325491
0.027390314 0.006556836 -0.07134953 -0.057100926 -0.061341338 -0.013215806 -0.046714786 -0.032495968
-0.051053654 -0.06557263 0.078975186 -0.04542294 0.06259143 -0.011425793 0.06380166 0.04972059
0.08467282 0.060615793 -0.033798743 -0.028246662 0.0010517936 -0.05955255 -0.010412012 -0.06084991
0.05593696 -0.06928391 0.021257801 -0.03578307 -0.015227677 -0.079987176 -0.03793525 -0.052924752
0.041673746 -0.07076959 0.020051708 0.01486599 -0.06438592 -0.038469233 -0.009831199 -0.0047320784
-0.03910356 0.0048622577 -0.009129325 0.032799833 -0.06901813 -0.08318339 -0.014216193 -0.08470092
-0.07990951 -0.03024706 -0.050767135 -0.050148867 0.042935234 0.04194266 -0.07641174 -0.027875539
-0.08440658 -0.0915431 0.04269036 0.03397286 -0.013930387 -0.003159101 -0.03512162 -0.07017123
-0.02692613 -0.07580863 0.0031737604 -0.033485014 0.024111107 -0.07192524 -0.0013024777 -0.010639037
-0.06802622 0.028582538 -0.036399953 -0.061443377 -0.05565248 -0.08022101 0.017118968 -0.095222324
-0.030549088 0.031324185 -0.054123092 -0.07874074 0.0008836254 -0.0013108983 -0.022103906 0.016876142
00000000: 3cc6 47bd 6fbb 613d 69ee 91bd c526 11be
00000010: 669e 853c 6f4e a8ba cf35 6ebc 0536 5cbd
00000020: 6853 b9bc 35f4 2cbd 6ce4 893d b765 a6bd
00000030: 9d97 4dbd df96 86bd 72d6 1dbe 5478 1fbc
00000040: 8631 d8bc 6607 cfbd fca6 f6bd e5a1 72bd
00000050: 5a4d bfbd d512 36bd d88f ccbd 74cf 04be
00000060: 4071 99bd 156b 9d3d b656 263d 4c7a 6a3c
00000070: c41d 043d b08b 91bd 07c7 6a3c 183d 643d
00000080: 0d28 79bc 53a5 bdbd 7cb4 dabd ecaa b5bc
00000090: a1cd c23c 0a09 89bd 03f5 acbd 35f9 0abe
000000a0: 9bcd 18bd ea34 e83a 9ad2 dcbc 313d eebd
000000b0: 9e41 efbd 795f 07be f7a0 95bd 00a5 81bd
000000c0: 749a 34be e2ee 35be ba64 bf3c 6253 0fbc
000000d0: 7aef 1b39 4fb5 eb3c 5406 3dbd 3d6f a2bd
000000e0: b725 0f3c 0783 fdbd 4afc 973b 6a85 e43b
000000f0: 1c3d a33d 0b2a 1a3d de1a a6bd 29ad 093d
00000100: 5926 babc db9d 5ebd 473a 96bd 1e07 bcbc
00000110: 7145 903b 4843 93bd bedb 2abd 0d60 e7bd
00000120: c9df d3bd ee20 74bd 63e5 393b b6f7 253d
00000130: 8f25 ae3c df03 cbbc 3294 3fbd 4bca 663d
00000140: e0f1 293d 7f95 a63b 8178 6fbc ba4b 00be
00000150: 518c fc3c 6367 63bd 828a 69bc 4bc3 debd
00000160: d6cb 883c 5cfb a4bd a1b1 f93c 073f c1bd
00000170: 28df f1bc 1094 20bc 93a3 0dbd f379 5ebc
00000180: 2030 1dbe e30f 42ba 0559 69bd e870 05bd
00000190: ac38 86bd b767 9bbc e936 06be 8fa7 02be
000001a0: 10dc 87bd 524e c2bc 3abc bebd 1fd4 19be
000001b0: 744c ffbd 8c2e cdbd 83ad 9fbd da9d bfbd
000001c0: 1a1c 23bd 682b e8bd e8b7 b73c 84f7 14bd
000001d0: c3eb bcbd ad29 f6bc b448 e8bd 44bf 413d
000001e0: 0b18 88bd 16de 92bd f88a dcbd 24a9 91bd
000001f0: b9ad 04bd 6ad8 43bd 94e6 0dbe 7c7b e6bd
00000200: 1946 43be ddf8 1fbe 51e5 03be 2e3d 03bd
00000210: c57b d0bd 581b 29be d189 1fbe 56a4 e4bb
00000220: 852f c8bd da4d ccbd 6444 15bd 753f 42bd
00000230: 3ea4 debd 741e e0bd 489b e9bd 1a5b c63c
00000240: 6a63 f8bc 3efe 91bc 0a12 93bd 19eb 74bd
00000250: b1b7 aa3d 2baa efbc f2a2 2dbc a0d8 0c3c
00000260: 9402 a43b 0f9b f63c 33d3 353c c62a e23d
00000270: cb5c 9b3c 8240 a1bd 07e7 b8bd 6c16 24bd
00000280: 64f6 99bd b984 0bbd 987c 3fbd b7b2 9bbd
00000290: 77cf 10be 4731 22bd 81b8 efbd 6efc bebd
000002a0: a761 e03c bada d63b b41f 92bd a9e2 69bd
000002b0: 0e41 7bbd 1c87 58bc 0158 3fbd 7e1a 05bd
000002c0: a31d 51bd f14a 86bd bebd a13d 680d 3abd
000002d0: f02f 803d 4033 3bbc 72aa 823d d1a7 4b3d
000002e0: f268 ad3d 4448 783d 8d70 0abd 8b65 e7bc
000002f0: 56dc 893a 60ed 73bd 2597 2abc c13d 79bd
00000300: 271e 653d b9e4 8dbd d724 ae3c 4591 12bd
00000310: 827d 79bc 51d0 a3bd fe61 1bbd a0c7 58bd
00000320: 17b2 2a3d a6ef 90bd 7b43 a43c 7b90 733c
00000330: c4dc 83bd ea91 1dbd 0a13 21bc 8d0f 9bbb
00000340: 0e2b 20bd 9353 9f3b 2a93 15bc 1e59 063d
00000350: 6159 8dbd 0e5c aabd 09eb 68bc ad77 adbd
00000360: 99a7 a3bd afc8 f7bc 33f1 4fbd e668 4dbd
00000370: dbdc 2f3d 11cc 2b3d c27d 9cbd 3e5b e4bc
00000380: 5bdd acbd f37a bbbd 16dc 2e3d 2027 0b3d
00000390: 473c 64bc eb08 4fbb b0db 0fbd efb5 8fbd
000003a0: 3094 dcbc 8e41 9bbd ddfe 4f3b 9527 09bd
000003b0: a884 c53c 8a4d 93bd e6b7 aaba 5b4f 2ebc
000003c0: 5551 8bbd ed25 ea3c 1e18 15bd 0dac 7bbd
000003d0: dbf3 63bd ea4a a4bd 143d 8c3c ec03 c3bd
000003e0: 1542 fabc ca4d 003d 2db0 5dbd d342 a1bd
000003f0: 19a3 673a 73d2 abba 4013 b5bc d63f 8a3c

localization.3.bias f4 [10]
-0.17835163 -0.00928745 0.039384037 0.020574413 -0.09235791 -0.08165188 -0.050329883 0.0019722732
-0.019946191 0.029526506
00000000: cfa1 36be 642a 18bc 2851 213d ac8b a83c
00000010: 2526 bdbd 1a39 a7bd b526 4ebd 4141 013b
00000020: 3266 a3bc 92e1 f13c
