EmpathyBot/model_snapshots/deep_emotion-200-64-0.005-0.5332528329927549.pt (torch_old, 271009 bytes, 24 tensors)

conv1.weight f4 [10, 1, 3, 3]
-0.027523734 -0.1959248 -2.3509746 0.35563168 0.63161135 0.009537344 -1.2113266 0.9304868
1.833516 -1.1355894 0.37167102 1.5556756 -2.1193144 -0.6416039 2.0778155 -0.71123296
0.3621913 0.3003088 1.3799489 -0.4388577 -0.84096104 1.1062683 -0.44170845 -0.82955277
-0.44815332 -0.52864605 -0.96387154 1.5417589 1.8153329 0.4886139 -0.99487615 0.021205617
-0.10909205 -1.288354 -0.740045 -0.63154274 -0.43373078 -0.3453606 0.1574645 -0.14915705
-0.5470446 -0.43898723 1.6085714 0.60696894 -0.5166954 0.7863752 1.4287928 0.9778764
1.4149916 0.08369605 -2.7388747 0.27338165 -0.41220653 -1.3217944 -0.079575025 0.015217488
-1.5615071 0.9664233 0.6365831 -1.5051569 1.3807359 0.4755652 -0.44834384 -0.35459247
-0.08294932 0.7572528 -2.1198514 -0.3941641 0.6961765 -0.15921552 1.4884908 0.5360025
-1.7205167 -0.6375005 -0.34860158 0.06060689 0.4979173 0.20871782 1.4614582 1.6316389
-0.9857229 0.7889878 -0.63414586 1.5096395 -0.56170994 -2.0437734 -1.0480423 0.23620433
0.5680796 1.1617352
00000000: 7479 e1bc 83a0 48be 5e76 16c0 5b15 b63e
00000010: 48b1 213f 8542 1c3c c00c 9bbf 6234 6e3f
00000020: a7b0 ea3f fe5a 91bf aa4b be3e 6120 c73f
00000030: d9a2 07c0 2740 24bf eefa 0440 5d13 36bf
00000040: 2371 b93e 13c2 993e 2aa2 b03f f5b1 e0be
00000050: 3949 57bf 339a 8d3f 9c27 e2be 925d 54bf
00000060: 5a74 e5be 5955 07bf 49c0 76bf 5b58 c53f
00000070: d45c e83f 9a2b fa3e 34b0 7ebf 67b7 ad3c
00000080: a76b dfbd c9e8 a4bf 9773 3dbf c9ac 21bf
00000090: f611 debe 1bd3 b0be 603e 213e a0bc 18be
000000a0: 1d0b 0cbf efc2 e0be abe5 cd3f 5162 1b3f
000000b0: 2646 04bf e34f 493f afe2 b63f 1c56 7a3f
000000c0: 721e b53f d668 ab3d b949 2fc0 aef8 8b3e
000000d0: bc0c d3be 8f30 a9bf 3bf8 a2bd c552 793c
000000e0: 77df c7bf 8467 773f 1cf7 223f fba8 c0bf
000000f0: f4bb b03f 487d f33e 538d e5be 258d b5be
00000100: 55e1 a9bd 52db 413f a5ab 07c0 e0cf c9be
00000110: a038 323f 6509 23be de86 be3f 7637 093f
00000120: e439 dcbf 3c33 23bf e87b b2be ee3e 783d
00000130: 04ef fe3e 20ba 553e 1011 bb3f 8bd9 d03f
00000140: 5658 7cbf 1bfb 493f 6257 22bf de3b c13f
00000150: 39cc 0fbf 2fcd 02c0 4026 86bf 8cdf 713e
00000160: aa6d 113f bdb3 943f

conv1.bias f4 [10]
0.27930987 -0.3423137 -0.69057024 0.33952168 0.25774425 -0.77715176 0.67224634 0.769729
0.44383806 0.16612336
00000000: b401 8f3e be43 afbe 36c9 30bf c9d5 ad3e
00000010: 0ef7 833e 6bf3 46bf 5618 2c3f f60c 453f
00000020: be3e e33e 3e1c 2a3e

conv2.weight f4 [10, 10, 3, 3]
-0.08321447 -0.11603046 -0.098424084 -0.16834828 -0.10391331 -0.11686552 -0.0984715 -0.25309172
-0.11516626 -0.0914077 0.028724447 -0.021712348 0.016959574 0.033511713 0.009909071 0.02815486
-0.140756 -0.00019121295 -0.03625593 0.036379963 0.06192002 -0.13357177 0.0093231695 0.00989727
0.017271189 -0.10394071 -0.13280664 -0.12900025 -0.11836395 -0.014215727 -0.28093144 -0.26685926
0.03601127 -0.11195002 -0.1435178 -0.18922596 -0.044212 -0.0926894 -0.22879435 -0.067207076
-0.17664854 0.105470456 -0.019464044 -0.10149307 -0.21403104 0.025115056 -0.08652628 -0.040870067
-0.030940322 0.073262446 0.008459304 -0.0015861379 -0.04025882 -0.10496296 -0.21526678 -0.106079176
-0.10168399 0.04696352 -0.27624372 -0.24641857 -0.07355919 0.006281765 -0.14128155 -0.2360229
-0.19940546 -0.053857014 -0.117955446 -0.1476286 0.029657952 -0.22215481 -0.10219121 -0.088084064
-0.23157464 -0.09026393 -0.19359179 -0.19972284 -0.17177695 -0.24821292 -0.09746695 -0.018283436
0.04479919 -0.102689914 0.051483896 -0.064801596 -0.1736446 -0.03056562 0.012707479 -0.04567023
-0.22321989 -0.074378535 -0.74546194 -0.5964836 0.10080578 0.12016891 -0.16209774 -0.13629925
-2.1423125 -0.59198236 -1.2923739 0.16946048 -0.43340948 -0.815414 -0.59955096 -1.3304964
-0.6287185 -0.052848104 -0.6534777 -0.7255607 -0.67717665 -0.52520394 -0.7029219 -0.052771296
-0.18666615 0.018959057 0.68955606 -0.13614279 0.24163967 -0.27653587 -1.1616635 -1.5608183
1.1181599 0.75295407 0.0600467 1.6564721 1.1461608 1.0268939 0.8200079 0.3342674
0.19858408 -2.379496 -0.35007086 1.1183964 0.7175804 -0.3068832 -1.41213 0.9005195
0.45463377 0.32736677 -0.69197166 0.2730932 0.69439995 -1.4086046 -0.90966296 0.21854153
-0.08955493 0.14637056 0.63688654 -0.9736493 -0.044416636 0.343486 -1.0935034 -0.5324583
-0.55573297 0.5221004 0.4780467 0.3723942 -1.0313727 0.15863483 2.086623 0.44262886
0.046988126 0.7031716 0.9267582 0.5495611 0.45572174 -2.190742 -1.5447179 0.15778165
-1.6435069 -1.8429257 -1.5366662 -0.42087752 -0.6270141 -0.03461243 -0.893643 0.53407425
1.8940891 1.9960085 -0.5181555 -1.4881985 -1.930891 0.28369182 -1.231117 -0.5092794
1.1713433 -0.22588395 0.96264106 -0.19395398 -1.5598302 -1.9837221 0.9455064 0.75991297
-3.2700415 -0.78710467 -1.1923476 -2.6245835 0.37757024 1.684334 0.0663814 -0.058188856
-1.0744675 1.3092815 0.42532593 -1.1114086 1.5449579 1.1148579 -0.18892783 -0.67411953
0.56576127 1.498869 0.31728587 0.54103893 0.49792156 -0.25858492 0.61588 1.1153522
-1.186417 -0.58076066 0.6123892 -3.014911 -1.2832767 0.049845535 -0.029394558 0.46823743
-0.096025415 0.47772425 -0.0371888 -0.9382519 0.4611908 -0.1895491 -3.2206547 0.9133016
1.6217772 -1.6925869 -0.7313337 -1.4520799 -0.37120625 -1.2850599 -1.289237 -0.7617274
0.76720136 1.7455008 -0.016451793 1.3264534 -0.14776729 -2.9301324 0.5976673 -0.18435502
-0.09889196 -2.293616 -0.4103093 -0.030571321 -0.32936293 0.09172204 -1.4817908 -1.454721
00000000: 596c aabd 61a1 edbd 9192 c9bd 7e63 2cbe
00000010: 80d0 d4bd 3157 efbd 6dab c9bd 3d95 81be
00000020: 4adc ebbd f633 bbbd 884f eb3c 18de b1bc
00000030: ceee 8a3c 9443 093d a859 223c 05a5 e63c
00000040: 5722 10be 5680 48b9 1981 14bd 2803 153d
00000050: d99f 7d3d 0ac7 08be 35c0 183c 2928 223c
00000060: 4f7c 8d3c dede d4bd 77fe 07be a418 04be
00000070: cc68 f2bd 15e9 68bc 3fd6 8fbe c7a1 88be
00000080: 8e80 133d 0d46 e5bd 55f6 12be 73c4 41be
00000090: a417 35bd f1d3 bdbd 1149 6abe dda3 89bd
000000a0: 5be3 34be e500 d83d 0f73 9fbc 99db cfbd
000000b0: f42a 5bbe 17be cd3c b134 b1bd 5f67 27bd
000000c0: 8f76 fdbc 9f0a 963d e598 0a3c f5e5 cfba
000000d0: 6fe6 24bd d2f6 d6bd e56e 5cbe 0a40 d9bd
000000e0: b23f d0bd d25c 403d d16f 8dbe 2655 7cbe
000000f0: 33a6 96bd 44d7 cd3b 1cac 10be fdaf 71be
00000100: f230 4cbe 2c99 5cbd a092 f1bd f42b 17be
00000110: 3cf5 f23c 8d7c 63be a049 d1bd 6b65 b4bd
00000120: e721 6dbe 4cdc b8bd ed3c 46be 2584 4cbe
00000130: 4ce6 2fbe 872b 7ebe c19c c7bd 25c7 95bc
00000140: 5b7f 373d 174f d2bd c7e0 523d b3b6 84bd
00000150: e4cf 31be c064 fabc 0833 503c b510 3bbd
00000160: c193 64be c653 98bd 98d6 3ebf 26b3 18bf
00000170: 4373 ce3d 1e1b f63d f3fc 25be 0892 0bbe
00000180: a61b 09c0 288c 17bf 826c a5bf 0c87 2d3e
00000190: d9e7 ddbe f9be 50bf 2c7c 19bf b54d aabf
000001a0: b2f3 20bf 4177 58bd 514a 27bf 59be 39bf
000001b0: 735b 2dbf c473 06bf b1f2 33bf b726 58bd
000001c0: 6925 3fbe 0650 9b3c bf86 303f 0469 0bbe
000001d0: 6470 773e 1c96 8dbe 64b1 94bf e5c8 c7bf
000001e0: dd1f 8f3f 99c1 403f 87f3 753d 4707 d43f
000001f0: 66b5 923f 4271 833f 0aec 513f 1925 ab3e
00000200: a059 4b3e aa49 18c0 7d3c b3be 9d27 8f3f
00000210: 59b3 373f cb1f 9dbe adc0 b4bf 7288 663f
00000220: c2c5 e83e 9e9c a73e 0e25 31bf dfd2 8b3e
00000230: 32c4 313f 284d b4bf acdf 68bf 5ac9 5f3e
00000240: 9368 b7bd 2ae2 153e ff0a 233f 1541 79bf
00000250: 38ee 35bd 66dd af3e ebf7 8bbf 304f 08bf
00000260: 8444 0ebf 5fa8 053f 89c2 f43e 74aa be3e
00000270: 0504 84bf 2b71 223e 3b8b 0540 40a0 e23e
00000280: 9f76 403d 0e03 343f 0740 6d3f 09b0 0c3f
00000290: 5c54 e93e 1e35 0cc0 51b9 c5bf 8391 213e
000002a0: 6f5e d2bf fde4 ebbf 7ab1 c4bf 427d d7be
000002b0: ff83 20bf c3c5 0dbd cac5 64bf 17b9 083f
000002c0: 8371 f23f 357d ff3f d7a5 04bf 4a7d bebf
000002d0: 7027 f7bf 0e40 913e 3e95 9dbf 2260 02bf
000002e0: 94ee 953f 1f4e 67be a56f 763f df9b 46be
000002f0: 84a8 c7bf 9bea fdbf b50c 723f a889 423f
00000300: 5c48 51c0 b17f 49bf d99e 98bf 2df9 27c0
00000310: e350 c13e 4298 d73f f9f2 873d 7057 6ebd
00000320: 2788 89bf 8996 a73f 52c4 d93e a342 8ebf
00000330: 2ec1 c53f aab3 8e3f 4c76 41be 1993 2cbf
00000340: bbd5 103f f0da bf3f 4b73 a23e 8781 0a3f
00000350: 93ef fe3e 3e65 84be 50aa 1d3f dcc3 8e3f
00000360: 83dc 97bf bbac 14bf 8ac5 1c3f 4df4 40c0
00000370: 6942 a4bf d52a 4c3d dbcc f0bc d1bc ef3e
00000380: f9a8 c4bd 4698 f43e 4853 18bd 4731 70bf
00000390: 3321 ec3e 2919 42be 351f 4ec0 22ce 693f
000003a0: 6596 cf3f b0a6 d8bf af38 3bbf c1dd b9bf
000003b0: bf0e bebe d87c a4bf b805 a5bf 9100 43bf
000003c0: 4f67 443f 926c df3f e9c5 86bc 3ac9 a93f
000003d0: 4f50 17be 4a87 3bc0 b900 193f 90c7 3cbe
000003e0: de87 cabd 9bca 12c0 1014 d2be b570 fabc
000003f0: 42a2 a8be c4d8 bb3d 52ab bdbf 4c34 babf

conv2.bias f4 [10]
-0.25386366 1.2145663 0.006746501 -0.07580433 1.9927183 3.1129594 0.43791264 0.47901988
-0.04615603 1.2333317
00000000: 6bfa 81be e976 9b3f c111 dd3b 4d3f 9bbd
00000010: 6511 ff3f ba3a 4740 1636 e03e 1842 f53e
00000020: 1b0e 3dbd d0dd 9d3f

conv3.weight f4 [10, 10, 3, 3]
-0.021197801 0.12785245 -0.10050723 -0.03393127 0.10669845 0.042050578 0.16659814 0.072981134
-0.016890775 -1.6891657 -0.46868545 -0.10130025 -1.3676329 0.42595702 -0.051406678 -0.731243
0.7310293 1.6259803 -0.04230997 -0.4947641 1.6550509 0.32209778 0.4377887 2.3954992
0.3560184 0.7270518 1.9039763 0.007757389 0.03100483 -0.025822055 -0.017847592 0.10425609
-0.09331726 0.03545409 0.09979995 0.113248184 -1.228126 -1.9185386 0.3465129 0.61017036
1.9399403 1.3000505 0.53459036 1.0368853 1.2895484 0.24443772 0.47822788 0.19640918
0.79163575 -0.29274508 0.3961894 0.70776004 -0.13211995 0.6561649 -0.3370393 -0.033114817
0.7412647 0.030911649 -0.45084155 1.1994833 -0.70480895 0.16406368 1.267311 -1.7173811
-1.9403199 -0.31807515 -1.0585546 -0.72411025 0.57041144 0.5302793 1.4602088 0.058778904
-0.030085502 -0.14748247 -0.106760934 0.09642317 0.007519897 -0.06845784 0.19953494 0.016156485
0.18459152 0.3904113 0.7966517 0.72018707 2.0334437 1.9465127 0.6062865 2.1745276
1.3837974 1.1106124 0.04302985 0.069941424 -0.04609541 0.061914396 -0.045045543 0.123908386
-0.04217224 -0.006787325 -0.106457606 0.019280845 -0.094564475 -0.017537901 -0.074744746 -0.09933233
-0.050671685 -0.0014516878 -0.046044543 0.026365139 0.010269925 -0.03352978 0.013783467 -0.09957344
-0.025730139 0.104140304 0.080998085 -0.029979696 -0.0051268227 0.030832626 0.00983083 -0.113515384
0.032520667 -0.11286575 -0.11892566 0.09586939 -0.1039401 0.062871344 -0.020656085 0.010416203
-0.15321732 0.040579446 -0.026872994 0.013213353 -0.06716784 -0.009971246 -0.0755322 0.064057305
-0.13850658 -0.070976645 -0.04054944 -0.11070313 -0.007212849 0.08558146 -0.11739705 -0.10436862
-0.03811392 -0.05337763 -0.0032819882 -0.035161525 -0.0051786066 0.037471052 -0.060426008 -0.036966767
0.016505022 -0.09321181 -0.06319608 -0.002337976 -0.039869513 -0.09856049 -0.12711126 -0.033097025
-0.11682329 -0.15157396 0.14088508 0.023613445 0.08694237 0.017053021 0.13075045 0.022312826
0.027338732 0.1146506 0.037637845 -0.040150587 -0.12432897 -0.05005313 0.033517644 -0.10864441
-0.034818616 0.0498433 -0.13140021 -0.06946406 0.07371019 0.021421878 0.018959744 0.01155387
0.06586693 -0.013107487 0.078621216 -0.11974543 -0.07888904 0.64086163 0.018663941 0.9770003
-0.61440367 -0.48609 -0.6923663 -0.23699515 -0.37580687 -0.6660675 -0.6521788 -1.5929642
-1.8000332 -0.7748675 -0.68607795 -1.2242242 -2.5206544 -1.0184866 -0.6675481 0.04632155
-0.028150573 -0.10012385 0.017047623 -0.0024966884 0.08665615 0.04503512 0.024803648 -0.08830289
0.5198511 0.40352407 1.107085 -0.38685015 -0.9012197 -0.30590656 -1.2894433 -1.4457761
-0.94990534 -0.33756977 -0.06477465 0.50793076 0.37573245 0.5182387 1.0718373 1.4107193
1.8614677 0.8972209 0.20572105 0.104584314 1.1040632 0.36158836 0.56004316 1.7919402
0.73352844 0.48872402 0.9593557 0.47650468 0.96963215 0.2877923 0.3597839 -0.6229578
-0.46866268 -1.4369413 -1.7430893 -1.3630728 0.07088346 -0.010964106 0.032139488 0.027025219
00000000: 03a7 adbc c1eb 023e bcd6 cdbd 84fb 0abd
00000010: b884 da3d 3a3d 2c3d b498 2a3e 2277 953d
00000020: 865e 8abc 9536 d8bf 8af7 efbe 8176 cfbd
00000030: 980e afbf 0a17 da3e cf8f 52bd be32 3bbf
00000040: bc24 3b3f 1f20 d03f 384d 2dbd b851 fdbe
00000050: b5d8 d33f 00ea a43e d725 e03e dc4f 1940
00000060: 0b48 b63e 1120 3a3f 7fb5 f33f b231 fe3b
00000070: d7fd fd3c c688 d3bc 1d35 92bc 3884 d53d
00000080: 1f1d bfbd 4f38 113d eb63 cc3d aaee e73d
00000090: 3c33 9dbf ac92 f5bf 246a b13e 2034 1c3f
000000a0: f74f f83f 0e68 a63f eada 083f a8b8 843f
000000b0: ec0f a53f e24d 7a3e 49da f43e 7d1f 493e
000000c0: a4a8 4a3f afe2 95be 56d9 ca3e c32f 353f
000000d0: 744a 07be 6cfa 273f 6a90 acbe 67a3 07bd
000000e0: 86c3 3d3f 6d3a fd3c b4d4 e6be ab88 993f
000000f0: 5c6e 34bf 4f00 283e 3f37 a23f 25d3 dbbf
00000100: 675c f8bf bfda a2be b87e 87bf 4a5f 39bf
00000110: 7c06 123f 62c0 073f 1fe8 ba3f 26c2 703d
00000120: df75 f6bc a505 17be 7aa5 dabd 8379 c53d
00000130: 7869 f63b a033 8cbd e352 4c3e 9b5a 843c
00000140: 8f05 3d3e fde3 c73e 5ef1 4b3f 2e5e 383f
00000150: f123 0240 5427 f93f 9835 1b3f 762b 0b40
00000160: 4620 b13f 8c28 8e3f 1140 303d 733d 8f3d
00000170: 8ace 3cbd f399 7d3d ad81 38bd aec3 fd3d
00000180: ccbc 2cbd 3568 debb 7206 dabd ddf2 9d3c
00000190: 05ab c1bd a5ab 8fbc c613 99bd c06e cbbd
000001a0: 1d8d 4fbd 8f46 beba 3499 3cbd b4fb d73c
000001b0: 3043 283c 8656 09bd 0dd4 613c 29ed cbbd
000001c0: 03c8 d2bc 8347 d53d 53e2 a53d fb97 f5bc
000001d0: e8fe a7bb b494 fc3c 7d11 213c c17a e8bd
000001e0: 6434 053d 2926 e7bd 4c8f f3bd 2c57 c43d
000001f0: 8cde d4bd b1c2 803d f336 a9bc b9a8 2a3c
00000200: 00e5 1cbe a236 263d c124 dcbc d27c 583c
00000210: 4b8f 89bd 705e 23bc a0b0 9abd 7a30 833d
00000220: abd4 0dbe 345c 91bd 2b17 26bd 53b8 e2bd
00000230: c359 ecbb 5545 af3d dd6d f0bd 37bf d5bd
00000240: 571d 1cbd 80a2 5abd a016 57bb 8805 10bd
00000250: 4db1 a9bb 3f7b 193d 4381 77bd 776a 17bd
00000260: 8a35 873c d5e5 bebd f26c 81bd ba38 19bb
00000270: 374e 23bd 15da c9bd 7429 02be bf90 07bd
00000280: 0d41 efbd 3436 1bbe 2e44 103e fc70 c13c
00000290: d70e b23d c7b2 8b3c 72e3 053e 63c9 b63c
000002a0: 7af5 df3c efcd ea3d 242a 1a3d f174 24bd
000002b0: 30a0 febd 8304 4dbd cc49 093d f680 debd
000002c0: f79d 0ebd 7d28 4c3d c78d 06be 2c43 8ebd
000002d0: 5ef5 963d ef7c af3c 7751 9b3c 714c 3d3c
000002e0: 3ee5 863d c9c0 56bc 2904 a13d 183d f5bd
000002f0: 9490 a1bd 820f 243f 1fe5 983c b11c 7a3f
00000300: 8f49 1dbf cae0 f8be eb3e 31bf dbae 72be
00000310: c269 c0be 6683 2abf 31f5 26bf 40e6 cbbf
00000320: 7d67 e6bf b75d 46bf cea2 2fbf 61b3 9cbf
00000330: 6752 21c0 c55d 82bf 6fe4 2abf aabb 3d3d
00000340: 089c e6bc bc0d cdbd 75a7 8b3c 7b9f 23bb
00000350: c878 b13d bf76 383d 0531 cb3c 25d8 b4bd
00000360: f614 053f b59a ce3e f6b4 8d3f 3911 c6be
00000370: 56b6 66bf c99f 9cbe 7a0c a5bf 310f b9bf
00000380: ff2c 73bf f2d5 acbe 92a8 84bd c007 023f
00000390: 0160 c03e 4bab 043f f731 893f 7392 b43f
000003a0: 9344 ee3f 45b0 653f 8aa8 523e 4d30 d63d
000003b0: f151 8d3f 1c22 b93e fd5e 0f3f 4c5e e53f
000003c0: 85c8 3b3f 093a fa3e 5698 753f 6cf8 f33e
000003d0: d039 783f 8359 933e 9835 b83e 2a7a 1fbf
000003e0: 8ef4 efbe b1ed b7bf 8d1d dfbf 2b79 aebf
000003f0: 592b 913d cba2 33bc b2a4 033d fe63 dd3c

conv3.bias f4 [10]
-1.746982 -0.07991727 1.2074038 -0.09510208 -0.005266267 0.011694794 -0.09284314 -0.10379312
-0.059974667 5.4312344
00000000: 1b9d dfbf aaab a3bd 358c 9a3f e1c4 c2bd
00000010: a690 acbb 859b 3f3c 8b24 bebd 7d91 d4bd
00000020: ffa7 75bd accc ad40

conv4.weight f4 [10, 10, 3, 3]
-0.7534458 -0.43556878 -0.20428395 -0.82626647 -1.2171391 -0.6619503 0.6859848 -1.9068075
-1.8337203 -0.0855958 0.03916873 -0.05235547 0.059586853 0.06760235 0.08416227 -0.017707044
0.02783391 0.080982335 -0.013763541 -0.1689423 -0.31609267 -1.0484412 -0.18722883 0.7855388
-1.8252729 0.376065 1.8992882 -0.014006887 -0.031891573 -0.099610224 0.14140487 -0.07068844
0.020722171 0.09003036 0.0946155 -0.065271 0.028497303 0.05977514 0.019590007 0.10556375
0.007880332 0.019014524 0.1123035 0.011643738 -0.03079262 0.05236129 -0.031862464 -0.053571463
-0.04186789 0.053383704 0.12635654 -0.1023851 -0.038018726 -0.07448807 0.061643034 0.0046656923
-0.015781185 -0.059768364 0.030839264 0.12584879 -0.049625486 -0.049187075 -0.03683078 0.014359602
0.042000126 0.057442997 -0.1209668 0.037419666 0.11706314 0.13931406 -0.028044585 -0.11674331
-0.08629505 0.041099083 0.027771072 -0.0603325 -0.16477954 0.05434477 -0.01714789 0.02124952
-0.09441131 -0.51013243 -0.93431216 -1.1471599 1.5036303 -0.10728578 -1.2729648 1.4691597
0.80724066 0.29827502 1.2158813 0.40462652 1.4988104 -0.019910557 0.637335 -0.34625596
-2.543659 -0.8407008 -2.7071135 0.09260785 -0.023964997 0.06883037 -0.020137709 0.035859685
0.0199304 -0.05783929 0.080935836 -0.10840782 0.1679217 0.10763654 0.39110494 -1.0024606
0.16848806 0.5627858 -0.3479957 -0.77817243 0.7585505 0.072357446 0.04507488 -0.0551316
-0.09923625 0.14550501 -0.21565059 0.064292714 0.057967275 -0.026939617 -0.040892176 -0.104847126
0.08104754 0.12285443 -0.07479645 0.042693414 0.012250473 0.0027148034 -0.046857957 -0.07857831
0.034282524 -0.103415675 -0.05603841 -0.06736698 0.07190797 0.012332568 0.010594609 -0.0067905528
0.104310304 0.020246686 0.022224598 0.042614423 0.018096441 -0.028609075 -0.10593026 0.037439376
-0.10198992 -0.08981956 -0.041702565 0.09575791 0.0031501544 -0.07853522 0.06131779 0.07820243
-0.080239154 -0.111623 0.023763472 -0.035826616 0.022428043 -0.01661404 0.018119102 -0.060274325
0.096022956 -0.14608578 -0.22179966 -1.3069048 -0.93139255 -0.7013438 0.019323206 0.26584885
1.0536668 1.2472814 0.7873379 -0.13782457 -0.06147997 1.5072849 0.6838392 1.0867658
1.0773063 1.6232061 0.26339707 -0.5783698 -0.66834486 -0.016859917 -0.09103568 -0.04944109
-0.14461835 0.08772925 0.04492432 -0.10924166 -0.032579336 0.06353146 -1.0634125 -0.7564947
-1.061217 -0.04552743 -1.4063377 -0.023043787 -1.9577118 -0.86959755 1.3443137 0.11532249
-0.065284945 -0.032606315 -0.0051612915 0.059197567 0.05234315 -0.019472934 0.14215289 0.10404581
0.034362495 0.10247074 0.08965627 -0.04471425 0.12124775 -0.0005875651 -0.08263844 -0.039466884
-0.010193109 -0.0626399 -0.07666129 0.11618606 0.00065700826 0.0036481568 0.022750584 -0.022435937
0.07125734 0.1233871 0.06065996 0.051166482 -0.11892417 -0.039867662 -0.08499434 -0.05830043
0.08691603 -0.0420663 -0.029487971 0.0029835645 0.01388084 0.07310365 0.012466614 -0.008053446
-0.001846716 0.003207421 -0.010568437 -0.07583767 -0.010845531 0.0053813965 0.11237692 0.050878804
00000000: d3e1 40bf df02 dfbe d02f 51be 3386 53bf
00000010: 37cb 9bbf 9375 29bf b39c 2f3f 4512 f4bf
00000020: 59b7 eabf da4c afbd 646f 203d b072 56bd
00000030: 5811 743d 1a73 8a3d 455d ac3d 5d0e 91bc
00000040: f103 e43c 11da a53d 7a80 61bc 36ff 2cbe
00000050: e6d6 a1be 5233 86bf eab8 3fbe 1219 493f
00000060: 8ba2 e9bf 978b c03e e01b f33f 247d 65bc
00000070: bda0 02bd 7200 ccbd 70cc 103e 1ac5 90bd
00000080: 8bc1 a93c d661 b83d c5c5 c13d cdac 85bd
00000090: 2d73 e93c c7d6 743d 397b a03c cf31 d83d
000000a0: 821c 013c 59c4 9b3c 61ff e53d 60c5 3e3c
000000b0: ce40 fcbc cb78 563d 3782 02bd c06d 5bbd
000000c0: aa7d 2bbd dfa8 5a3d 9c63 013e 48af d1bd
000000d0: 86b9 1bbd 348d 98bd 687d 7c3d aae2 983b
000000e0: 8b47 81bc accf 74bd a0a2 fc3c 81de 003e
000000f0: 1844 4bbd 6378 49bd dfdb 16bd 8944 6b3c
00000100: 5308 2c3d 5949 6b3d 71bd f7bd 5d45 193d
00000110: cdbe ef3d 58a8 0e3e c2bd e5bc 1e17 efbd
00000120: 76bb b0bd 8357 283d 2980 e33c 361f 77bd
00000130: f8bb 28be 9f98 5e3d bb79 8cbc 7913 ae3c
00000140: b85a c1bd 0a98 02bf 152f 6fbf 23d6 92bf
00000150: f576 c03f a6b8 dbbd 83f0 a2bf 6d0d bc3f
00000160: 53a7 4e3f 81b7 983e 00a2 9b3f 352b cf3e
00000170: 05d9 bf3f 771b a3bc 6328 233f 7648 b1be
00000180: 4fcb 22c0 2b38 57bf 5941 2dc0 2fa9 bd3d
00000190: 3e52 c4bc f0f6 8c3d d6f7 a4bc 9be1 123d
000001a0: 1445 a33c e4e8 6cbd b0c1 a53d eb04 debd
000001b0: abf3 2b3e 8c70 dc3d e83e c83e a150 80bf
000001c0: 2288 2c3e bb12 103f 7e2c b2be 4f36 47bf
000001d0: 5e30 423f 2430 943d 70a0 383d acd1 61bd
000001e0: 603c cbbd 44ff 143e 82d3 5cbe e6ab 833d
000001f0: 186f 6d3d 79b0 dcbc 8e7e 27bd 17ba d6bd
00000200: 41fc a53d 1a9b fb3d e22e 99bd 4adf 2e3d
00000210: 35b6 483c d8ea 313b 21ee 3fbd aaed a0bd
00000220: d56b 0c3d 99cb d3bd 8888 65bd b3f7 89bd
00000230: 7c44 933d 8a0e 4a3c 0395 2d3c 4983 debb
00000240: a4a0 d53d 61dc a53c 5c10 b63c 768c 2e3d
00000250: fd3e 943c 945d eabc f7f1 d8bd 085a 193d
00000260: 17e0 d0bd 51f3 b7bd 4fd0 2abd b91c c43d
00000270: d272 4e3b 13d7 a0bd 5d28 7b3d 9828 a03d
00000280: 6d54 a4bd 999a e4bd 9dab c23c eebe 12bd
00000290: 04bb b73c 2b1a 88bc 836e 943c 36e2 76bd
000002a0: afa7 c43d 8397 15be 731f 63be a848 a7bf
000002b0: be6f 6ebf 448b 33bf b34b 9e3c 571d 883e
000002c0: 8ede 863f eba6 9f3f fa8e 493f e221 0dbe
000002d0: 6cd2 7bbd b6ee c03f 1610 2f3f 241b 8b3f
000002e0: 2ce5 893f 38c5 cf3f fbdb 863e 0b10 14bf
000002f0: a618 2bbf cf1d 8abc ea70 babd be82 4abd
00000300: d516 14be 65ab b33d 9002 383d 17ba dfbd
00000310: e971 05bd c81c 823d e71d 88bf a3a9 41bf
00000320: f5d5 87bf f87a 3abd e002 b4bf 53c6 bcbc
00000330: 4d96 fabf f29d 5ebf 7912 ac3f 332e ec3d
00000340: 1db4 85bd 338e 05bd 0d20 a9bb 2679 723d
00000350: c565 563d b485 9fbc 8790 113e f815 d53d
00000360: b0bf 0c3d 2edc d13d b59d b73d 4a26 37bd
00000370: be50 f83d d406 1aba 583e a9bd 07a8 21bd
00000380: ff00 27bc 5949 80bd 9800 9dbd f5f2 ed3d
00000390: 143b 2c3a ea15 6f3b 6f5f ba3c 92cb b7bc
000003a0: 5eef 913d 60b2 fc3d 9476 783d f293 513d
000003b0: 848e f3bd 464c 23bd 8311 aebd 6fcc 6ebd
000003c0: 0801 b23d b64d 2cbd c290 f1bc e887 433b
000003d0: 766c 633c 5eb7 953d c540 4c3c 9af2 03bc
000003e0: 820d f2ba 9833 523b 3d27 2dbc c850 9bbd
000003f0: 74b1 31bc 6d56 b03b df25 e63d 4b66 503d

conv4.bias f4 [10]
0.15933578 0.2978021 -0.07415403 -0.0727681 -0.24364036 -0.14756133 -0.5270899 0.26813146
-0.4135225 0.20828815
00000000: eb28 233e 8479 983e 11de 97bd 7107 95bd
00000010: dc7c 79be 511a 17be 5def 06bf 8748 893e
00000020: 39b9 d3be 7d49 553e

norm.weight f4 [10]
0.37369698 0.21018966 0.2221507 0.18472968 0.12608606 0.2334577 0.386325 0.21350558
0.27378383 0.16160443
00000000: 3655 bf3e f53b 573e 797b 633e c729 3d3e
00000010: b41c 013e 890f 6f3e 64cc c53e 35a1 5a3e
00000020: 652d 8c3e a27b 253e

norm.bias f4 [10]
-0.40498087 -0.2532329 -0.33691368 -0.1512679 -0.11142856 -0.22293879 -0.39191154 -0.21570857
-0.24507055 -0.15183689
00000000: a759 cfbe bea7 81be f37f acbe f9e5 1abe
00000010: a834 e4bd 114a 64be a1a8 c8be b5e2 5cbe
00000020: c6f3 7abe 217b 1bbe

norm.running_mean f4 [10]
-458.30786 -152.83463 -172.96005 -360.10492 49.188305 -302.31595 -657.48035 -470.74164
-422.46124 -35.317368
00000000: 6827 e5c3 aad5 18c3 c6f5 2cc3 6e0d b4c3
00000010: d3c0 4442 7128 97c3 be5e 24c4 ee5e ebc3
00000020: 0a3b d3c3 fc44 0dc2

norm.running_var f4 [10]
70875.875 42275.68 63143.5 99890.31 31678.328 41974.848 112174.64 56696.9
106877.28 58234.65
00000000: f06d 8a47 ae23 2547 80a7 7647 2819 c347
00000010: a87c f746 d9f6 2347 5217 db47 e678 5d47
00000020: a4be d047 a67a 6347

fc1.weight f4 [50, 810]
-0.663931 -0.4165817 -1.4823 -2.3465729 -0.31404078 0.21851996 -0.33093098 0.20171751
0.41861832 -1.1867917 -0.31741294 -0.5780207 -0.30752397 0.9600109 -0.98905253 1.7802539
-0.4466653 -0.7848973 0.20059799 -0.35863233 -2.1385028 -0.27411228 0.15940619 0.5305937
-0.2656196 -0.39229938 -0.71087724 0.5334826 1.3892214 -0.44708696 1.6076341 0.822275
0.91759056 -1.6591294 -0.68042964 -0.5370116 -0.9392326 -0.105551854 0.24057075 -0.20228632
0.4948828 -0.06188218 -0.4216018 0.14400637 -0.72859454 -0.41977042 -0.9350341 -0.35676047
-0.6513093 -2.0699186 -3.036084 -2.3686833 -1.4458203 0.36598948 -0.3042991 -2.0779028
-0.45539036 -1.87374 -0.892473 -0.544504 -2.0363288 0.33391812 -0.56393266 -1.0220213
-1.3654392 -0.36019015 -2.9049954 -1.0233277 -2.1261833 -3.8021014 1.0587984 -0.63811177
-0.06905796 -3.3965285 -0.09385433 -1.6404656 0.28403002 -1.5790683 -0.74579245 -0.7655973
-0.83009434 0.37490243 1.5508952 -1.069339 -0.7049166 -1.1350862 0.6729416 1.5187138
0.29965395 0.98320556 -0.5577796 0.16947092 -0.6363247 -0.15834047 0.74030817 0.9656521
0.44503638 0.17463095 0.55345356 0.81392 0.5211244 -0.30938935 -0.143222 0.91583574
1.421863 -0.47108203 0.12877582 -0.015682004 -0.3629452 0.2271801 0.038563818 0.15656653
0.32863235 0.12746324 0.27820215 0.31563437 0.1698074 -0.58943623 0.79467326 0.3516086
-1.1839896 -1.4969633 0.8618132 0.17377643 0.99732125 0.7559622 0.5783646 0.07035808
-2.7518792 -2.0016696 -0.84918904 -0.91497254 -0.8260093 0.6149397 1.0715557 -1.3106806
0.6758865 0.7521917 -1.6091297 -0.4275858 -0.9475739 -0.12401963 1.1377327 1.0279254
-0.23545434 -0.74615407 -0.86813486 -1.2244315 -0.96236897 -1.3954792 -2.041293 -2.0313206
-0.22698683 -0.3599511 -1.8615265 -1.2496258 -1.6324855 -2.5958931 -0.8545184 -0.06981141
-0.79115003 1.2763736 -1.3561065 -1.2854912 -1.0686793 0.2643413 -0.121791676 -1.3139632
0.032709822 0.7212745 0.8788735 0.058081035 0.045716517 -0.041731033 0.38658804 -2.2139952
-3.0411775 -0.66341335 0.17113113 0.13754734 -0.28726402 -0.27340412 0.043539636 -1.7395178
-0.5485244 0.48635578 0.23107511 -0.53519404 0.6651582 0.038291007 -0.41119632 -0.17003296
1.6858587 0.4901786 0.06760663 -0.5963003 0.2774512 -0.046947505 -0.35447764 1.0647988
-0.76516366 0.4714412 -0.5501239 -1.7558948 0.8768705 -1.5046306 -2.159391 -0.7727916
0.7525609 -0.113616005 -0.3121445 -2.1977215 -0.9091828 -0.25173578 -1.581934 0.4811747
-0.12661853 -1.4006138 -0.029607017 -0.089082964 -1.6201798 -1.3210315 -0.6350526 -0.07299313
-0.48621362 -0.1993815 0.48368475 -0.022071674 -0.6973655 -0.02455866 -0.1432297 -0.12550929
1.1470457 -0.4041868 -0.42556956 -1.7144399 -0.55497843 -0.7590954 0.16939874 -1.049071
-0.973577 0.652511 -0.027588917 0.039008748 0.81899196 0.44650176 -0.12919615 -0.35821518
-0.4158469 -0.038258336 0.30643842 0.6009816 -0.26607916 0.8679119 0.36276907 0.80431026
00000000: 62f7 29bf 324a d5be 02bc bdbf 402e 16c0
00000010: f4c9 a0be b2c3 5f3e c96f a9be 098f 4e3e
00000020: 2455 d63e cae8 97bf f383 a2be 2af9 13bf
00000030: c873 9dbe 46c3 753f 8c32 7dbf 5cdf e33f
00000040: 50b1 e4be 08ef 48bf 8f69 4d3e a89e b7be
00000050: 3bdd 08c0 7258 8cbe 603b 233e fdd4 073f
00000060: 4bff 87be 77db c8be 0dfc 35bf 5192 083f
00000070: 02d2 b13f 95e8 e4be f4c6 cd3f 9d80 523f
00000080: 37e7 6a3f 5a5e d4bf a330 2ebf 9879 09bf
00000090: 8c71 70bf 922b d8bd 2e58 763e 2524 4fbe
000000a0: 4761 fd3e 2b78 7dbd 31dc d7be 6876 133e
000000b0: 2c85 3abf 26ec d6be 655e 6fbf 4fa9 b6be
000000c0: 35bc 26bf 8c79 04c0 334f 42c0 8298 17c0
000000d0: a410 b9bf f962 bb3e 17cd 9bbe 5cfc 04c0
000000e0: ed28 e9be b6d6 efbf 1c79 64bf 9d64 0bbf
000000f0: 3653 02c0 51f7 aa3e e45d 10bf 98d1 82bf
00000100: b6c6 aebf d86a b8be 72eb 39c0 67fc 82bf
00000110: 6313 08c0 a155 73c0 b586 873f 4b5b 23bf
00000120: 426e 8dbd b960 59c0 b336 c0bd c7fa d1bf
00000130: 626c 913e e91e cabf 41ec 3ebf 2ffe 43bf
00000140: 1081 54bf 36f3 bf3e bc83 c63f 1ae0 88bf
00000150: 6a75 34bf 814a 91bf e745 2c3f 3765 c23f
00000160: 3e6c 993e 5cb3 7b3f a5ca 0ebf c989 2d3e
00000170: 2de6 22bf 0124 22be d684 3d3f fa34 773f
00000180: cfdb e33e 75d2 323e 22af 0d3f 105d 503f
00000190: 6968 053f 4868 9ebe caa8 12be 3674 6a3f
000001a0: 9bff b53f aa31 f1be cfdd 033e 8c77 80bc
000001b0: f4d3 b9be e6a1 683e 18f5 1d3d fa52 203e
000001c0: 8042 a83e b985 023e 8370 8e3e d49a a13e
000001d0: fee1 2d3e 4be5 16bf b56f 4b3f 0b06 b43e
000001e0: f98c 97bf 7e9c bfbf ca9f 5c3f 73f2 313e
000001f0: 7250 7f3f bd86 413f b40f 143f e617 903d
00000200: ca1e 30c0 5b1b 00c0 7464 59bf a43b 6abf
00000210: 5875 53bf b06c 1d3f bd28 893f 62c4 a7bf
00000220: e606 2d3f a38f 403f f6f7 cdbf 87ec dabe
00000230: 3494 72bf 01fe fdbd 3aa1 913f 0f93 833f
00000240: f11a 71be f403 3fbf 163e 5ebf 2cba 9cbf
00000250: d05d 76bf 109f b2bf 8ba4 02c0 2801 02c0
00000260: 3c6f 68be 834b b8be 8046 eebf bdf3 9fbf
00000270: 49f5 d0bf 1d23 26c0 b8c1 5abf 49f9 8ebd
00000280: cf88 4abf 3660 a33f e694 adbf fa8a a4bf
00000290: 7cca 88bf be57 873e ea6d f9bd f22f a8bf
000002a0: bcfa 053d 72a5 383f dbfd 603f 61e6 6d3d
000002b0: 3e41 3b3d 29ee 2abd deee c53e 19b2 0dc0
000002c0: a7a2 42c0 75d5 29bf 003d 2f3e 36d9 0c3e
000002d0: 4514 93be a0fb 8bbe 9e56 323d 85a8 debf
000002e0: 186c 0cbf a003 f93e f49e 6c3e 7a02 09bf
000002f0: cf47 2a3f 08d7 1c3d 5388 d2be 1f1d 2ebe
00000300: 38ca d73f b1f8 fa3e 5875 8a3d 23a7 18bf
00000310: 150e 8e3e 074c 40bd 187e b5be 544b 883f
00000320: c4e1 43bf be60 f13e ebd4 0cbf 29c1 e0bf
00000330: 967a 603f bc97 c0bf 7633 0ac0 acd5 45bf
00000340: d5a7 403f 82af e8bd 67d1 9fbe 78a7 0cc0
00000350: 34c0 68bf 83e3 80be d07c cabf 885c f63e
00000360: 4aa8 01be 5047 b3bf 6a8a f2bc 2171 b6bd
00000370: 0d62 cfbf 8f17 a9bf cf92 22bf 6c7d 95bd
00000380: fef0 f8be aa2a 4cbe 87a5 f73e a8cf b4bc
00000390: 8c86 32bf 3e2f c9bc ceaa 12be 8285 00be
000003a0: 65d2 923f 92f1 cebe 41e4 d9be c472 dbbf
000003b0: 1113 0ebf 1354 42bf dd76 2d3e f547 86bf
000003c0: 583c 79bf f60a 273f 2702 e2bc a3c7 1f3d
000003d0: 75a9 513f e19b e43e ff4b 04be fb67 b7be
000003e0: e3e9 d4be c6b4 1cbd 7fe5 9c3e eed9 193f
000003f0: 873b 88be 792f 5e3f debc b93e 47e7 4d3f

fc1.bias f4 [50]
0.39851138 1.4025506 -0.20715676 0.2911841 -0.0827789 0.8915901 0.42529204 -0.025716778
1.2388124 -0.03718981 -0.37843746 -0.21321246 -0.5575659 1.3073151 -0.044143397 0.7998328
-0.08015649 -0.05933114 -0.042534433 -0.44232354 1.3887821 2.9794757 -0.21217401 -0.015376148
-0.16140722 -0.8500148 -0.03530222 0.36250782 1.8064443 -0.14188488 -0.069529004 -0.19535127
0.2261344 2.528664 -0.2878275 -0.25407058 -0.23276824 1.4441098 -0.1950383 -0.11712558
-0.10632081 2.6052744 -0.25992268 -0.15802716 -0.04859032 0.8325674 3.0273147e-06 1.267029
0.32856497 1.9076802
00000000: af09 cc3e c786 b33f e720 54be 1516 953e
00000010: fc87 a9bd 403f 643f e1bf d93e feab d2bc
00000020: 6891 9e3f 5854 18bd 8ec2 c1be 5e54 5abe
00000030: a4bc 0ebf 1a56 a73f b5cf 34bd d8c1 4c3f
00000040: 1629 a4bd 3605 73bd 9638 2ebd 3b78 e2be
00000050: 9dc3 b13f bbaf 3e40 2544 59be 3dec 7bbc
00000060: ef47 25be 929a 59bf 1099 10bd a09a b93e
00000070: 9139 e73f 454a 11be 3965 8ebd 2a0a 48be
00000080: c78f 673e a2d5 2140 205e 93be 8a15 82be
00000090: cc5a 6ebe 97d8 b83f 1fb8 47be 89df efbd
000000a0: babe d9bd d1bc 2640 9614 85be dfd1 21be
000000b0: a506 47bd 2323 553f df28 4b36 022e a23f
000000c0: ab39 a83e dd2e f43f

fc2.weight f4 [7, 50]
-0.37468052 0.2063101 -0.0757586 -0.3940696 -0.08593197 -0.2411814 -0.8386611 -0.040810544
-0.15475717 -0.052123442 -1.5174347 -0.30785573 0.2290527 -0.10223794 -0.025929747 -0.02462249
-0.08226787 0.00091389095 -0.06961733 -0.17191878 -0.01866622 0.14607218 -0.13706137 0.056216866
-0.06928224 0.24610369 -0.094486065 -0.08127257 -0.23307809 0.038933072 -0.0050442475 0.16822731
-0.20344914 0.22779882 -0.4756144 -0.39028686 -0.19562109 0.23737851 -0.132082 -0.055284414
0.0006474993 -0.08212208 -0.6859377 -0.20016105 -0.094013095 -0.16493738 0.07800911 0.19167927
0.061905798 -0.17148584 -0.21140401 -0.4215167 -0.082025334 -0.7075434 0.0040146294 -0.10390553
-1.740418 0.075057395 0.15266179 0.018617617 -4.9393086 -0.6028062 -0.20799947 -0.12074066
0.026330093 0.07681809 -0.04123919 -0.03718954 -0.005567871 -0.05370014 -0.09994169 -0.051217962
-0.061275 0.020028582 0.016416596 -0.17164417 -0.11718942 -0.29482046 -0.3231307 0.10064179
-0.06369328 0.10224298 0.19021857 -0.41798282 -0.8932704 -0.67700905 -0.013525018 -0.36535037
-0.22714067 0.02736256 -0.06592234 -0.3627245 -0.8432132 -0.03868516 0.11030053 -0.021874141
0.08975757 0.6233879 -0.045252074 0.02884842 0.46301478 -0.5076749 -0.03391431 -0.19464684
0.045451105 0.01477582 -0.8729932 0.09112037 -0.024494024 0.052834347 0.64652985 -0.21820334
0.007714733 -0.3399408 0.031331982 0.2866596 -0.09731519 0.011797738 -0.12526877 -0.026910119
-0.14160022 0.003830777 0.0631864 -0.036608543 -0.1498162 0.20858878 -0.003396996 -0.035803147
-0.09745854 0.08751348 -0.14012767 0.0120776845 -0.037923 -0.020610606 -0.04037009 0.15475783
0.162569 0.0124755 -0.18648979 -0.0068034153 -0.069220394 -0.19981293 -0.59972245 -0.19069964
-0.12180678 0.2734831 0.020348568 -0.01669724 -0.03885663 -0.14060499 -0.77671236 -0.5829751
0.059914593 -0.57778144 0.08155299 -0.18637156 -0.6800756 -0.007719527 -0.10902296 0.10528828
-1.3088421 0.34374177 -0.038703058 0.31497452 -0.016582549 -0.18645394 0.01682367 -0.01812077
0.0697763 -0.08148676 0.32182655 -0.007439661 0.016131062 0.05443888 0.034978155 -0.017755555
-0.05337099 0.12947047 0.31080997 -0.027397035 0.06919574 0.11604443 -0.124892145 -0.03361797
-0.41878977 -0.29771718 -0.031709693 -0.42641574 -0.18557104 -0.060850874 0.11272128 0.36865616
-0.0444535 0.103048064 -0.056869626 -0.035408746 -0.038254205 -0.096563585 -0.4335406 0.24309897
-0.2227077 -0.6235124 -0.09141998 -0.3137574 0.13502488 -0.044797964 -0.63049847 -0.0028118957
-0.09741856 -0.018168265 -0.80017024 0.14787988 -0.24920857 -0.16527365 0.11503014 0.11039811
-0.04251438 -0.050609574 -0.11336893 -0.45663124 -0.07209467 0.26545808 -0.040778615 -0.041910645
0.00336798 -0.11526401 -0.050056607 -0.013093928 -0.20963097 -0.09004081 -0.037914183 -0.029191544
0.28178775 0.0998604 -0.059335608 -0.11913129 0.024738709 0.102241725 0.06843306 0.08528708
-0.0037720038 -0.22690906 -0.534512 -0.13192786 0.0679259 -0.22654073 0.013404105 -0.10172428
0.009423401 -0.12326376 -0.1248363 0.040856097 -0.09519073 0.40185884 0.10180801 0.3320223
00000000: 20d6 bfbe f442 533e 5327 9bbd 7ec3 c9be
00000010: 1afd afbd 42f8 76be 7eb2 56bf f528 27bd
00000020: aa78 1ebe 647f 55bd 4d3b c2bf 449f 9dbe
00000030: ca8c 6a3e 2062 d1bd 9f6a d4bc 1bb5 c9bc
00000040: 0f7c a8bd 2f92 6f3a 8893 8ebd 7a0b 30be
00000050: e7e9 98bc f293 153e d159 0cbe a843 663d
00000060: d9e3 8dbd 9b02 7c3e e981 c1bd 3c72 a6bd
00000070: 06ac 6ebe 4978 1f3d 374a a5bb c843 2c3e
00000080: f954 50be 1844 693e bb83 f3be aed3 c7be
00000090: e550 48be 5a13 733e 8140 07be e971 62bd
000000a0: f1bc 293a 9f2f a8bd 9d99 2fbf 05f7 4cbe
000000b0: f089 c0bd 58e5 28be 3ec3 9f3d 9247 443e
000000c0: ef90 7d3d fc99 2fbe 4b7a 58be 09d1 d7be
000000d0: e6fc a7bd 9021 35bf 278d 833b 6ccc d4bd
000000e0: 04c6 debf b1b7 993d 5f53 1c3e f983 983c
000000f0: d10e 9ec0 8251 1abf d0fd 54be e146 f7bd
00000100: 35b2 d73c ce52 9d3d 6dea 28bd 0f54 18bd
00000110: b072 b6bb aef4 5bbd 3bae ccbd edc9 51bd
00000120: 7ffb 7abd fb12 a43c 197c 863c 7dc3 2fbe
00000130: 0201 f0bd b5f2 96be 6371 a5be 481d ce3d
00000140: 9f71 82bd c464 d13d a8c8 423e d801 d6be
00000150: 5ead 64bf 7750 2dbf 0998 5dbc 340f bbbe
00000160: 9097 68be 7327 e03c 4b02 87bd 07b7 b9be
00000170: d2dc 57bf 5574 1ebd 3fe5 e13d 6631 b3bc
00000180: d1d2 b73d 5996 1f3f 3d5a 39bd 8653 ec3c
00000190: 4610 ed3e fbf6 01bf bbe9 0abd 8051 47be
000001a0: f02a 3a3d 4816 723c 7b7c 5fbf 519d ba3d
000001b0: b1a7 c8bc d468 583d fb82 253f b270 5fbe
000001c0: dfcb fc3b b80c aebe f755 003d 0cc5 923e
000001d0: 304d c7bd 4d4b 413c 7546 00be 9c72 dcbc
000001e0: a6ff 10be c60d 7b3b df67 813d d7f2 15bd
000001f0: 6b69 19be 4c98 553e 23a0 5ebb 52a6 12bd
00000200: 5898 c7bd 443a b33d a17d 0fbe 7be1 453c
00000210: 2655 1bbd 93d7 a8bc 1c5b 25bd d678 1e3e
00000220: 7d78 263e 0a66 4c3c 2ef7 3ebe 2fef debb
00000230: 6cc3 8dbd c39b 4cbe 6987 19bf c446 43be
00000240: d575 f9bd fa05 8c3e 0ab2 a63c a6c8 88bc
00000250: 2128 1fbd c1fa 0fbe 9fd6 46bf db3d 15bf
00000260: 0169 753d 7ce9 13bf 4105 a73d 30d8 3ebe
00000270: 6f19 2ebf 16f4 fcbb 6e47 dfbd 62a1 d73d
00000280: 2388 a7bf ecfe af3e 1987 1ebd 5744 a13e
00000290: 20d8 87bc c8ed 3ebe cbd1 893c 0272 94bc
000002a0: e0e6 8e3d 88e2 a6bd 73c6 a43e 66c8 f3bb
000002b0: 4a25 843c 4efb 5e3d 4145 0f3d 1974 91bc
000002c0: 8a9b 5abd e893 043e 7c22 9f3e bf6f e0bc
000002d0: 7fb6 8d3d b4a8 ed3d 74c7 ffbd ffb2 09bd
000002e0: 9d6b d6be 636e 98be 06e2 01bd 2a53 dabe
000002f0: 5606 3ebe c43e 79bd 6ada e63d 80c0 bc3e
00000300: e014 36bd dd0a d33d 20f0 68bd c308 11bd
00000310: 71b0 1cbd 21c3 c5bd 09f9 ddbe f0ee 783e
00000320: 7d0d 64be 829e 1fbf 663a bbbd cfa4 a0be
00000330: f643 0a3e 127e 37bd 5968 21bf c847 38bb
00000340: 6283 c7bd 9dd5 94bc f5d7 4cbf d36d 173e
00000350: 8830 7fbe 7f3d 29be ec94 eb3d 6718 e23d
00000360: 8f23 2ebd fc4b 4fbd f82d e8bd 92cb e9be
00000370: 5fa6 93bd 1fea 873e 7a07 27bd 7faa 2bbd
00000380: 54b9 5c3b 8a0f ecbd 2808 4dbd ea87 56bc
00000390: 80a9 56be 5167 b8bd e74b 1bbd 1b23 efbc
000003a0: 7c46 903e 9c83 cc3d e509 73bd 1bfb f3bd
000003b0: d5a8 ca3c 1c64 d13d a226 8c3d feaa ae3d
000003c0: b933 77bb d95a 68be c7d5 08bf 1918 07be
000003d0: bc1c 8b3d 4bfa 67be e49c 5b3c d254 d0bd
000003e0: 9c64 1a3c b671 fcbd 2daa ffbd b958 273d
000003f0: 5cf3 c2bd 71c0 cd3e b880 d03d d4fe a93e

fc2.bias f4 [7]
-0.33977994 -1.7219135 0.07552639 0.13553342 0.488635 -0.36623347 0.32817844
00000000: a3f7 adbe a967 dcbf 94ad 9a3d 46c9 0a3e
00000010: 5e2e fa3e f482 bbbe 0107 a83e

localization.0.weight f4 [8, 1, 7, 7]
0.045818392 -0.021280706 0.07815073 0.1317487 0.050937 0.10866088 0.16944289 0.18541694
0.11956376 0.24462874 0.10909681 0.16946764 0.2287212 0.011985495 -0.03286457 0.08546263
0.2058889 0.0028060793 0.18758588 0.14979334 -0.074428484 0.08173336 -0.07314648 -0.052167155
0.1891559 0.048465047 0.013755563 0.022249335 0.047355883 -0.08011081 0.1870217 0.0069250637
0.11444033 0.14548738 -0.010366362 0.118503205 -0.08285127 0.18980554 0.13427515 0.04002852
0.12650447 -0.063431054 -0.017022176 0.12775879 0.041257687 -0.060892694 0.030977048 0.12866776
-0.009556565 -0.10862287 -0.018328428 0.08009777 -0.10969904 -0.023501175 0.047446128 0.000248036
0.13973 0.099154346 -0.13261938 0.050206594 0.10005185 -0.11096705 -0.016454 -0.02476583
-0.10719791 0.078389354 -0.09407444 -0.061092522 0.0525846 -0.20066854 -0.103475474 -0.12114318
0.040612865 0.09824126 -0.1111324 -0.03141885 -0.062727 0.1005722 -0.026297914 0.04543745
0.02066751 -0.095701195 -0.077809595 -0.09400554 -0.17553854 0.067936584 -0.008976391 0.07508448
-0.09751397 -0.05206467 0.0010149303 -0.004542269 -0.08505826 -0.04918944 -0.13869773 0.08467793
-0.03639911 -0.15501387 -0.05002797 -0.020849552 0.050547298 -0.083048664 0.09385253 0.11802523
-0.011406633 0.07823259 -0.038501956 -0.10473885 0.13017324 0.06449651 -0.044743408 -0.12208464
0.002483407 -0.036289215 -0.007611466 0.12835993 -0.10145896 0.08097416 -0.056844264 -0.087086596
-0.06398429 -0.07799636 -0.006922262 -0.16147412 -0.12618642 0.034192633 0.12508936 -0.039894972
0.045100205 -0.001354505 0.087354176 -0.019057281 0.057192277 0.14402945 -0.100097954 -0.10030251
0.023856165 -0.046392195 0.0040490427 0.014518509 -0.13486989 0.068594396 0.010184571 0.057228882
-0.08114772 -0.1787917 -0.18014027 -0.02394904 -0.095030285 -0.09270075 -0.03833839 0.01097724
0.052954104 -0.07411091 0.06676144 -0.01687492 -0.06742857 0.12686805 0.094635785 -0.07037378
0.084070235 0.13146281 0.11973757 0.07179475 0.12847057 0.010830619 -0.11761566 0.12089379
0.07055399 0.04782152 0.030482607 -0.018668003 -0.03232735 -0.12288597 0.13761537 0.09550624
-0.016177244 0.1035401 0.07124955 0.0794385 0.07993316 -0.14234285 0.051333398 -0.1916702
0.075903505 -0.034628805 -0.07217162 0.012359572 -0.071769185 -0.15365218 -0.14877312 0.015529791
-0.09754626 -0.00825791 0.013775516 0.06483492 -0.075979166 -0.1489517 -0.011213229 0.09366232
0.13562866 -0.009791272 -0.046807498 -0.12499423 -0.08612838 0.10587155 -0.09189415 0.102457926
0.14239338 0.116221 -0.07872157 -0.07806697 0.05841329 -0.005531463 0.1491402 0.073406875
0.08161736 -0.0005058543 0.0568248 -0.0034876652 0.10162174 -0.06419731 -0.049115706 0.12647355
-0.08723026 -0.032694537 -0.035792205 0.08381951 -0.07074225 0.0008676015 -0.0017604256 -0.16969644
-0.005033966 0.06869579 -0.11132322 0.10780471 0.117300056 0.05187489 0.03783579 -0.13941412
-0.008230989 0.027042078 0.049684662 -0.15746965 0.05891907 -0.0143724345 0.15314578 0.112625
0.11643315 0.00402156 0.02711129 0.01470148 0.09747317 0.09879734 -0.048652705 0.080533385
00000000: 11ac 3b3d e054 aebc 7d0d a03d 22e9 063e
00000010: 51a3 503d 9889 de3d 7082 2d3e f0dd 3d3e
00000020: d8dd f43d f57f 7a3e 266e df3d ed88 2d3e
00000030: e435 6a3e cf5e 443c 009d 06bd 0807 af3d
00000040: 8ad4 523e 33e6 373b 8316 403e 6d63 193e
00000050: f66d 98bd d263 a73d d2cd 95bd 3aad 55bd
00000060: 16b2 413e 4983 463d 035f 613c 3d44 b63c
00000070: 3ef8 413d 2311 a4bd 9e82 3f3e a5eb e23b
00000080: b15f ea3d a5fa 143e acd7 29bc cfb1 f23d
00000090: edad a9bd 625c 423e 6d7f 093e f2f4 233d
000000a0: 638a 013e 24e8 81bd 1772 8bbc 33d3 023e
000000b0: d2fd 283d 9e6a 79bd 94c3 fd3c 7bc1 033e
000000c0: 2493 1cbc ab75 debd 8025 96bc 4d0a a43d
000000d0: e4a9 e0bd 8985 c0bc df56 423d d40a 8239
000000e0: 6215 0f3e 6f11 cb3d 60cd 07be 6ea5 4d3d
000000f0: fce7 cc3d b142 e3bd 8aca 86bc b6e1 cabc
00000100: 948a dbbd 998a a03d 1aaa c0bd 273c 7abd
00000110: f362 573d 0e7c 4dbe f3ea d3bd ea19 f8bd
00000120: ad59 263d b732 c93d 6299 e3bd 0db1 00bd
00000130: 0377 80bd ccf8 cd3d b96e d7bc 9f1c 3a3d
00000140: e94e a93c fdfe c3bd a35a 9fbd fa85 c0bd
00000150: 60c0 33be 5622 8b3d b611 13bc e4c5 993d
00000160: 68b5 c7bd c341 55bd 6907 853a 50d7 94bb
00000170: 0633 aebd de7a 49bd c706 0ebe 9f6b ad3d
00000180: 3c17 15bd f5bb 1ebe 21ea 4cbd aecc aabc
00000190: af0a 4f3d 6b15 aabd c135 c03d 36b7 f13d
000001a0: e3e2 3abc 6838 a03d 3ab4 1dbd 5281 d6bd
000001b0: 224c 053e bf16 843d dd44 37bd 8307 fabd
000001c0: a8c0 223b 00a4 14bd 9b69 f9bb c970 033e
000001d0: b7c9 cfbd c8d5 a53d 88d5 68bd 755a b2bd
000001e0: 320a 83bd 8ebc 9fbd 24d4 e2bb 7959 25be
000001f0: 0337 01be 930d 0c3d 6d17 003e e968 23bd
00000200: feba 383d a589 b1ba bfe6 b23d 041e 9cbc
00000210: 7342 6a3d 757c 133e 2800 cdbd 676b cdbd
00000220: 016e c33c be05 3ebd d5ad 843b 0adf 6d3c
00000230: 551b 0abe 387b 8c3d 30dd 263c d568 6a3d
00000240: c730 a6bd 2c15 37be b176 38be c730 c4bc
00000250: 3d9f c2bd e4d9 bdbd b708 1dbd e2d9 333c
00000260: 67e6 583d 76c7 97bd 39ba 883d 463d 8abc
00000270: fd17 8abd b3e9 013e 68d0 c13d 2120 90bd
00000280: 042d ac3d 309e 063e f938 f53d 2009 933d
00000290: ca8d 033e e972 313c 7be0 f0bd 2a97 f73d
000002a0: 9c7e 903d 80e0 433d a9b6 f93c a4ed 98bc
000002b0: af69 04bd a4ab fbbd 0beb 0c3e c798 c33d
000002c0: 2486 84bc d50c d43d 49eb 913d a7b0 a23d
000002d0: ffb3 a33d 53c2 11be f842 523d 3145 44be
000002e0: 4c73 9b3d efd6 0dbd b7ce 93bd cd7f 4a3c
000002f0: b9fb 92bd ff56 1dbe fb57 18be aa70 7e3c
00000300: 55c6 c7bd 2f4c 07bc b4b2 613c 2cc8 843d
00000310: f79a 9bbd cb86 18be b1b7 37bc 08d2 bf3d
00000320: 3de2 0a3e 926b 20bc 38b9 3fbd fafc ffbd
00000330: 1364 b0bd 2fd3 d83d 0033 bcbd 76d5 d13d
00000340: 92cf 113e 4705 ee3d c638 a1bd 93e1 9fbd
00000350: c642 6f3d 4641 b5bb 35b8 183e 5856 963d
00000360: 0127 a73d 4f9b 04ba 1fc1 683d 5091 64bb
00000370: 0f1f d03d e179 83bd 8d2d 49bd 4882 013e
00000380: c7a5 b2bd b5ea 05bd d99a 12bd 90a9 ab3d
00000390: 50e1 90bd c06f 633a 15be e6ba e7c4 2dbe
000003a0: f8f3 a4bb 61b0 8c3d 6efd e3bd b7c8 dc3d
000003b0: 033b f03d c47a 543d b4f9 1a3d 93c2 0ebe
000003c0: 45db 06bc 5987 dd3c 2582 4b3d b93f 21be
000003d0: 1f55 713d 5c7a 6bbc 3fd2 1c3e f0a7 e63d
000003e0: 8174 ee3d 4ac7 833b 7f18 de3c 7ade 703c
000003f0: 03a0 c73d 4356 ca3d 0f48 47bd b0ee a43d

localization.0.bias f4 [8]
0.17815304 -0.06956811 -0.076607816 -0.21392827 -0.043023054 -0.10612564 -0.19939135 -0.23454237
00000000: c06d 363e ba79 8ebd 8fe4 9cbd 0310 5bbe
00000010: f138 30bd 6658 d9bd 3f2d 4cbe e02b 70be

localization.3.weight f4 [10, 8, 5, 5]
-0.048773035 0.05511039 -0.07125551 -0.14174946 0.016310882 -0.0012840758 -0.014539196 -0.053762455
-0.022622779 -0.04222508 0.06733021 -0.08124869 -0.050193418 -0.06571745 -0.15413836 -0.009733278
-0.026390802 -0.10108833 -0.120435685 -0.059236426 -0.093409255 -0.044451553 -0.099883735 -0.12969762
-0.07492304 0.0768644 0.040610038 0.014311384 0.03225495 -0.071067214 0.014329678 0.055722326
-0.015207303 -0.09260049 -0.10678956 -0.022176228 0.023779692 -0.06691177 -0.0844517 -0.13571627
-0.037305456 0.0017715965 -0.026955891 -0.11632765 -0.11682437 -0.13220014 -0.07306092 -0.063302994
-0.17637044 -0.17766908 0.02336346 -0.008747907 0.00014871164 0.028772978 -0.046148613 -0.07931373
0.008737019 -0.12378507 0.0046382295 0.006973912 0.0797064 0.03763775 -0.08110593 0.033612404
-0.022723364 -0.05434976 -0.07335334 -0.022952612 0.0044028093 -0.07190567 -0.04171347 -0.11297617
-0.10345418 -0.059601717 0.0028365485 0.04051944 0.021258144 -0.02478212 -0.04677219 0.056345265
0.041490436 0.0050837393 -0.014616133 -0.12528887 0.030828627 -0.05551852 -0.014254214 -0.10877093
0.016698759 -0.080557555 0.030480208 -0.0943585 -0.029525355 -0.009800926 -0.034579825 -0.01357888
-0.1535039 -0.000740288 -0.05696966 -0.03257838 -0.06553778 -0.018970354 -0.13106884 -0.12759231
-0.066337705 -0.023718987 -0.09313245 -0.15022324 -0.12465754 -0.10018644 -0.077967666 -0.0935628
-0.03982172 -0.11336404 0.02242656 -0.03636886 -0.092246555 -0.03004917 -0.11341992 0.047301546
-0.06645211 -0.07171266 -0.10768694 -0.07112339 -0.032392237 -0.04781381 -0.1385749 -0.112540215
-0.19069709 -0.15622278 -0.12880446 -0.032040767 -0.10179857 -0.16514337 -0.15579917 -0.006977598
-0.09774689 -0.099757865 -0.036442176 -0.0474238 -0.108711705 -0.109433085 -0.11406571 0.024213362
-0.030320842 -0.017821427 -0.07181175 -0.05979452 0.083358176 -0.029255947 -0.010597931 0.008596569
0.00500519 0.030103235 0.011097717 0.11043315 0.018965146 -0.07873632 -0.0902844 -0.040060446
-0.075176984 -0.03406212 -0.04674968 -0.076024465 -0.14141642 -0.039597776 -0.11705113 -0.09325491
0.027390314 0.006556836 -0.07134953 -0.057100926 -0.061341338 -0.013215806 -0.046714786 -0.032495968
-0.051053654 -0.06557263 0.078975186 -0.04542294 0.06259143 -0.011425793 0.06380166 0.04972059
0.08467282 0.060615793 -0.033798743 -0.028246662 0.0010517936 -0.05955255 -0.010412012 -0.06084991
0.05593696 -0.06928391 0.021257801 -0.03578307 -0.015227677 -0.079987176 -0.03793525 -0.052924752
0.041673746 -0.07076959 0.020051708 0.01486599 -0.06438592 -0.038469233 -0.009831199 -0.0047320784
-0.03910356 0.0048622577 -0.009129325 0.032799833 -0.06901813 -0.08318339 -0.014216193 -0.08470092
-0.07990951 -0.03024706 -0.050767135 -0.050148867 0.042935234 0.04194266 -0.07641174 -0.027875539
-0.08440658 -0.0915431 0.04269036 0.03397286 -0.013930387 -0.003159101 -0.03512162 -0.07017123
-0.02692613 -0.07580863 0.0031737604 -0.033485014 0.024111107 -0.07192524 -0.0013024777 -0.010639037
-0.06802622 0.028582538 -0.036399953 -0.061443377 -0.05565248 -0.08022101 0.017118968 -0.095222324
-0.030549088 0.031324185 -0.054123092 -0.07874074 0.0008836254 -0.0013108983 -0.022103906 0.016876142
00000000: 3cc6 47bd 6fbb 613d 69ee 91bd c526 11be
00000010: 669e 853c 6f4e a8ba cf35 6ebc 0536 5cbd
00000020: 6853 b9bc 35f4 2cbd 6ce4 893d b765 a6bd
00000030: 9d97 4dbd df96 86bd 72d6 1dbe 5478 1fbc
00000040: 8631 d8bc 6607 cfbd fca6 f6bd e5a1 72bd
00000050: 5a4d bfbd d512 36bd d88f ccbd 74cf 04be
00000060: 4071 99bd 156b 9d3d b656 263d 4c7a 6a3c
00000070: c41d 043d b08b 91bd 07c7 6a3c 183d 643d
00000080: 0d28 79bc 53a5 bdbd 7cb4 dabd ecaa b5bc
00000090: a1cd c23c 0a09 89bd 03f5 acbd 35f9 0abe
000000a0: 9bcd 18bd ea34 e83a 9ad2 dcbc 313d eebd
000000b0: 9e41 efbd 795f 07be f7a0 95bd 00a5 81bd
000000c0: 749a 34be e2ee 35be ba64 bf3c 6253 0fbc
000000d0: 7aef 1b39 4fb5 eb3c 5406 3dbd 3d6f a2bd
000000e0: b725 0f3c 0783 fdbd 4afc 973b 6a85 e43b
000000f0: 1c3d a33d 0b2a 1a3d de1a a6bd 29ad 093d
00000100: 5926 babc db9d 5ebd 473a 96bd 1e07 bcbc
00000110: 7145 903b 4843 93bd bedb 2abd 0d60 e7bd
00000120: c9df d3bd ee20 74bd 63e5 393b b6f7 253d
00000130: 8f25 ae3c df03 cbbc 3294 3fbd 4bca 663d
00000140: e0f1 293d 7f95 a63b 8178 6fbc ba4b 00be
00000150: 518c fc3c 6367 63bd 828a 69bc 4bc3 debd
00000160: d6cb 883c 5cfb a4bd a1b1 f93c 073f c1bd
00000170: 28df f1bc 1094 20bc 93a3 0dbd f379 5ebc
00000180: 2030 1dbe e30f 42ba 0559 69bd e870 05bd
00000190: ac38 86bd b767 9bbc e936 06be 8fa7 02be
000001a0: 10dc 87bd 524e c2bc 3abc bebd 1fd4 19be
000001b0: 744c ffbd 8c2e cdbd 83ad 9fbd da9d bfbd
000001c0: 1a1c 23bd 682b e8bd e8b7 b73c 84f7 14bd
000001d0: c3eb bcbd ad29 f6bc b448 e8bd 44bf 413d
000001e0: 0b18 88bd 16de 92bd f88a dcbd 24a9 91bd
000001f0: b9ad 04bd 6ad8 43bd 94e6 0dbe 7c7b e6bd
00000200: 1946 43be ddf8 1fbe 51e5 03be 2e3d 03bd
00000210: c57b d0bd 581b 29be d189 1fbe 56a4 e4bb
00000220: 852f c8bd da4d ccbd 6444 15bd 753f 42bd
00000230: 3ea4 debd 741e e0bd 489b e9bd 1a5b c63c
00000240: 6a63 f8bc 3efe 91bc 0a12 93bd 19eb 74bd
00000250: b1b7 aa3d 2baa efbc f2a2 2dbc a0d8 0c3c
00000260: 9402 a43b 0f9b f63c 33d3 353c c62a e23d
00000270: cb5c 9b3c 8240 a1bd 07e7 b8bd 6c16 24bd
00000280: 64f6 99bd b984 0bbd 987c 3fbd b7b2 9bbd
00000290: 77cf 10be 4731 22bd 81b8 efbd 6efc bebd
000002a0: a761 e03c bada d63b b41f 92bd a9e2 69bd
000002b0: 0e41 7bbd 1c87 58bc 0158 3fbd 7e1a 05bd
000002c0: a31d 51bd f14a 86bd bebd a13d 680d 3abd
000002d0: f02f 803d 4033 3bbc 72aa 823d d1a7 4b3d
000002e0: f268 ad3d 4448 783d 8d70 0abd 8b65 e7bc
000002f0: 56dc 893a 60ed 73bd 2597 2abc c13d 79bd
00000300: 271e 653d b9e4 8dbd d724 ae3c 4591 12bd
00000310: 827d 79bc 51d0 a3bd fe61 1bbd a0c7 58bd
00000320: 17b2 2a3d a6ef 90bd 7b43 a43c 7b90 733c
00000330: c4dc 83bd ea91 1dbd 0a13 21bc 8d0f 9bbb
00000340: 0e2b 20bd 9353 9f3b 2a93 15bc 1e59 063d
00000350: 6159 8dbd 0e5c aabd 09eb 68bc ad77 adbd
00000360: 99a7 a3bd afc8 f7bc 33f1 4fbd e668 4dbd
00000370: dbdc 2f3d 11cc 2b3d c27d 9cbd 3e5b e4bc
00000380: 5bdd acbd f37a bbbd 16dc 2e3d 2027 0b3d
00000390: 473c 64bc eb08 4fbb b0db 0fbd efb5 8fbd
000003a0: 3094 dcbc 8e41 9bbd ddfe 4f3b 9527 09bd
000003b0: a884 c53c 8a4d 93bd e6b7 aaba 5b4f 2ebc
000003c0: 5551 8bbd ed25 ea3c 1e18 15bd 0dac 7bbd
000003d0: dbf3 63bd ea4a a4bd 143d 8c3c ec03 c3bd
000003e0: 1542 fabc ca4d 003d 2db0 5dbd d342 a1bd
000003f0: 19a3 673a 73d2 abba 4013 b5bc d63f 8a3c

localization.3.bias f4 [10]
-0.17835163 -0.00928745 0.039384037 0.020574413 -0.09235791 -0.08165188 -0.050329883 0.0019722732
-0.019946191 0.029526506
00000000: cfa1 36be 642a 18bc 2851 213d ac8b a83c
00000010: 2526 bdbd 1a39 a7bd b526 4ebd 4141 013b
00000020: 3266 a3bc 92e1 f13c
