EmpathyBot/model_snapshots/deep_emotion-6-64-0.005.pt (torch_old, 271009 bytes, 24 tensors)

conv1.weight f4 [10, 1, 3, 3]
0.03435349 -0.26933137 -0.051742386 0.055612702 -0.031844534 -0.43995562 0.4373012 -0.047955904
-0.30048734 0.38868725 -0.33701676 -0.092503585 0.44532934 -0.040815186 -0.10624544 0.3525608
-0.13541351 -0.017949838 0.6091104 0.72742826 0.17526583 0.53749895 0.038644716 -0.3942956
-0.16275965 -0.8233558 -0.80980504 -0.16139306 -0.42037728 -0.4229174 0.07464757 -0.26744068
0.009259134 0.81986445 0.45683402 0.22656468 -0.3231016 0.43748388 0.19702558 -0.07006799
-0.005245191 -0.3486997 0.051943623 0.2588434 -0.2914305 0.0013155036 0.25453714 0.15546632
-0.33145058 0.28663695 0.03315607 -0.17733145 -0.08023408 0.059635427 0.18206164 0.216158
0.116649956 -0.22315994 -0.053717516 -0.101778656 -0.09571777 -0.011844927 0.0575059 1.1074097
-0.4429282 -0.3147109 -0.08737923 -0.5663499 0.12235081 -0.26162753 0.53032726 -0.25285065
0.1874874 0.7211776 0.60474914 -0.16717881 -0.015955804 -0.40082845 -0.063668296 -0.53584254
-0.20649163 0.4163094 0.38412198 0.17916803 -0.00048255688 -0.007939857 -0.5094422 0.34065834
-0.1845511 -0.5347524
00000000: 3fb6 0c3d cde5 89be d3ef 53bd 25ca 633d
00000010: 6a6f 02bd dd41 e1be f1e5 df3e 696d 44bd
00000020: 7ad9 99be 0402 c73e 768d acbe 8572 bdbd
00000030: 3502 e43e d32d 27bd 3697 d9bd d982 b43e
00000040: d7a9 0abe 8a0b 93bc a9ee 1b3f bd38 3a3f
00000050: e378 333e 8899 093f ec49 1e3d 1de1 c9be
00000060: 77aa 26be 72c7 52bf 624f 4fbf 3944 25be
00000070: b13b d7be a188 d8be d3e0 983d fced 88be
00000080: 9fb3 173c a3e2 513f 26e6 e93e 9200 683e
00000090: 936d a5be e3fd df3e 13c1 493e ce7f 8fbd
000000a0: dadf abbb c488 b2be d6c2 543d 1f87 843e
000000b0: 6136 95be fa6c ac3a b152 823e 9032 1f3e
000000c0: e4b3 a9be 14c2 923e a9ce 073d 6096 35be
000000d0: c451 a4bd 4744 743d 5e6e 3a3e 8658 5d3e
000000e0: 2ce6 ee3d 0a84 64be e606 5cbd 5471 d0bd
000000f0: ae07 c4bd 3a11 42bc 4e8b 6b3d 9abf 8d3f
00000100: 7cc7 e2be c921 a1be e2f3 b2bd 4ffc 10bf
00000110: 1093 fa3d 0bf4 85be 87c3 073f a475 81be
00000120: b2fc 3f3e 189f 383f d7d0 1a3f ec30 2bbe
00000130: bfb5 82bc 6339 cdbe 8664 82bd fa2c 09bf
00000140: 8b72 53be 8126 d53e a3ab c43e d377 373e
00000150: b0ff fcb9 2d16 02bc ce6a 02bf c56a ae3e
00000160: f7fa 3cbe 89e5 08bf

conv1.bias f4 [10]
0.064624235 -0.5107937 0.061047774 -0.31519243 0.2795393 0.7143216 -0.36509046 0.3528608
0.1921987 0.3936061
00000000: b659 843d 60c3 02bf 3b0d 7a3d e760 a1be
00000010: c61f 8f3e c8dd 363f 23ed babe 2caa b43e
00000020: bccf 443e bd86 c93e

conv2.weight f4 [10, 10, 3, 3]
0.059220135 -0.2517164 -0.14272429 0.17451024 0.009146267 -0.009369501 -0.07727802 0.01789604
0.19821092 0.09313786 0.03281244 -0.02362344 0.09787784 0.03865368 -0.13787755 0.021990469
-0.04488899 -0.2656028 -1.1823885 -0.8004281 -0.45497128 -0.9810365 -0.95914394 -0.42546383
-0.439884 -0.924714 -0.24014042 -0.3400211 -0.5329514 -0.41037115 -0.2663415 0.15089236
0.19661404 -0.06601402 -0.028190488 -0.017939929 -0.10295329 0.25220335 0.42427906 -0.22930858
-0.019384082 0.09517804 -0.16532446 0.08212251 -0.054223843 0.12431687 0.31800607 0.16274291
-0.15728669 0.029656183 0.09892021 -0.073768 -0.004226354 -0.06808062 -0.111333564 -0.26203224
-0.09656355 0.0029297154 0.0069233454 0.004449211 0.11178503 0.07222398 -0.003392149 -0.26780075
-0.27469555 0.10588865 0.086227685 0.38435802 -0.06423634 0.5508022 0.08322591 -0.62541306
-0.42473677 -0.123220615 -0.07832829 -0.45446604 -0.08426215 -0.15385784 -0.135944 -0.009972144
0.23009785 -0.3591373 -0.27646068 0.27801758 0.07302399 -0.030278228 0.2760834 0.16950457
0.022704268 0.012352835 0.20553373 0.20581008 0.10778827 0.17905857 0.14803421 0.15028906
-0.11272425 -0.09661643 0.029141746 -0.049742255 -0.05103679 0.290858 0.28243253 -0.5990688
-0.05675513 0.08753395 -0.3109221 -0.2500217 -0.3309928 -0.09334374 -0.41869164 0.1507738
0.19314381 0.15398481 -0.3498755 -0.2392601 -0.19233558 0.10223119 -0.1689407 -0.41515562
-0.44612053 -0.5199387 -0.51105237 -0.08364758 -0.20293587 0.17510645 -0.6146416 -0.2528102
-0.061422344 0.018974654 0.29695442 0.106950566 0.10569794 0.064082734 0.14508906 -0.12696393
-0.07905852 0.027660519 0.19503897 0.04350671 0.15259485 0.029847689 0.008504227 0.09660947
-0.058629423 -0.054626264 0.00022879042 -0.023096012 0.0024478885 -0.0058703288 -0.017947879 0.04075873
0.08635302 1.1966801 0.07149766 -0.63915956 0.18035305 -0.5435674 -0.007162806 -0.47991017
-0.21530126 0.30807215 -0.6411274 -0.8279803 -0.75194573 0.043139122 0.03528294 0.30826172
0.08267361 0.098970346 0.05930953 -0.18055671 -0.52857065 -0.5642034 -0.19044857 0.12397167
0.13872756 -0.20208932 0.11916403 0.19090307 -0.15720083 -0.0037182334 0.05117966 0.02771729
-0.14870977 0.013373967 0.039497 0.019612398 -0.016733082 -0.06390425 -0.05945298 0.109016396
-0.14675422 0.0035956393 0.042267624 -0.02372279 -0.024705568 0.13203135 -0.030355731 0.031968437
-0.038492624 -0.06877006 -0.008756065 0.08895047 -0.045262877 -0.03026752 0.12784177 -0.027826091
-0.06629314 -0.098823346 -0.0019396417 0.016717672 -0.034897942 -0.03617762 -0.16521896 -0.07936281
0.0869485 0.13611004 -0.06838898 0.13787432 0.055708326 -0.0489684 -0.030961983 0.044511188
-0.11108965 -0.043462645 -0.075763606 -0.08692202 -0.06714728 0.013958375 -0.062435046 -0.046748098
-0.05119965 -0.090088874 0.13545299 -0.062060777 -0.07064614 -0.043719318 0.112465456 0.031130483
0.116914965 0.088610284 -0.003488332 -0.06662521 -0.11863586 -0.07664335 0.1112071 -0.0064308266
-0.06370517 -0.0021392545 -0.056504406 -0.13871957 -0.11897238 -0.048241567 0.00048991916 -0.069978915
00000000: d090 723d f9e0 80be 5126 12be d0b2 323e
00000010: 39da 153c 8982 19bc f043 9ebd b79a 923c
00000020: cef7 4a3e 10bf be3d 5666 063d f285 c1bc
00000030: 2d74 c83d 5253 1e3d c62f 0dbe 5b25 b43c
00000040: 85dd 37bd 17fd 87be 8258 97bf dbe8 4cbf
00000050: fff1 e8be 3525 7bbf 758a 75bf 65d6 d9be
00000060: 7a38 e1be 0fba 6cbf 5fe7 75be 3f17 aebe
00000070: 816f 08bf 2b1c d2be ea5d 88be 8783 1a3e
00000080: 3155 493e 5c32 87bd bdef e6bc c2f6 92bc
00000090: 2dd9 d2bd cc20 813e 1b3b d93e decf 6abe
000000a0: 5ecb 9ebc b4ec c23d d14a 29be d92f a83d
000000b0: d219 5ebd d899 fe3d b1d1 a23e 14a6 263e
000000c0: c30f 21be 86f1 f23c ae96 ca3d ad13 97bd
000000d0: 3a7d 8abb da6d 8bbd da02 e4bd 1729 86be
000000e0: 1cc3 c5bd 7800 403b 3bdd e23b b0ca 913b
000000f0: 8def e43d 2bea 933d d14e 5ebb 2e1d 89be
00000100: e5a4 8cbe 26dc d83d 2498 b03d 93ca c43e
00000110: 588e 83bd 5f01 0d3f 5972 aa3d 121b 20bf
00000120: 1977 d9be 175b fcbd 956a a0bd c6af e8be
00000130: a291 acbd e98c 1dbe e734 0bbe 3462 23bc
00000140: c59e 6b3e d8e0 b7be 418c 8dbe 5258 8e3e
00000150: 9a8d 953d 0c0a f8bc ce5a 8d3e 9b92 2d3e
00000160: 4dfe b93c 8c63 4a3c 6f77 523e e1bf 523e
00000170: 19c0 dc3d 215b 373e 4896 173e 60e5 193e
00000180: f9db e6bd d6de c5bd acba ee3c 89be 4bbd
00000190: f40b 51bd 57eb 943e ff9a 903e 935c 19bf
000001a0: 1178 68bd 0045 b33d 2e31 9fbe d802 80be
000001b0: e377 a9be 012b bfbd c05e d6be 7264 1a3e
000001c0: 7ec7 453e 32ae 1d3e e222 b3be 9a00 75be
000001d0: 9ef3 44be 965e d13d cafe 2cbe 478f d4be
000001e0: e969 e4be b41a 05bf 54d4 02bf 6c4f abbd
000001f0: 6cce 4fbe 1b4f 333e 2759 1dbf 5770 81be
00000200: ff95 7bbd bc70 9b3c 690a 983e e608 db3d
00000210: 2978 d83d cf3d 833d 3a92 143e d502 02be
00000220: 6fe9 a1bd 5098 e23c 4cb8 473e 1834 323d
00000230: d341 1c3e 2483 f43c 5055 0b3c 30db c53d
00000240: 6825 70bd cabf 5fbd 76e7 6f39 d933 bdbc
00000250: c16c 203b e35b c0bb 6e07 93bc a0f2 263d
00000260: dad9 b03d d02c 993f 5d6d 923d f69f 23bf
00000270: 78ae 383e 3c27 0bbf f9b5 eabb c9b6 f5be
00000280: ef77 5cbe a2bb 9d3e ed20 24bf 84f6 53bf
00000290: 847f 40bf a6b2 303d d884 103d 7bd4 9d3e
000002a0: c850 a93d f7b0 ca3d 8dee 723d dce3 38be
000002b0: 6850 07bf a26f 10bf f304 43be dce4 fd3d
000002c0: 990e 0e3e 81f0 4ebe 450c f43d 187c 433e
000002d0: 41f9 20be 9bad 73bb c3a1 513d 5f0f e33c
000002e0: 6047 18be 7c1e 5b3c 9bc7 213d 2eaa a03c
000002f0: d113 89bc 3be0 82bd f884 73bd fd43 df3d
00000300: bd46 16be d1a4 6b3b d120 2d3d 4c56 c2bc
00000310: 5563 cabc 3a33 073e 95ac f8bc 56f1 023d
00000320: 71aa 1dbd 51d7 8cbd 9975 0fbc aa2b b63d
00000330: 9165 39bd 97f3 f7bc f4e8 023e 8bf3 e3bc
00000340: b3c4 87bd e563 cabd 933b feba 80f3 883c
00000350: 25f1 0ebd fc2e 14bd 292f 29be f888 a2bd
00000360: 0e12 b23d 6e60 0b3e 860f 8cbd ed2e 0d3e
00000370: 6a2e 643d 1793 48bd fca3 fdbc 5d51 363d
00000380: f882 e3bd e305 32bd f329 9bbd 2c04 b2bd
00000390: 8384 89bd abb1 643c e4bb 7fbd ef7a 3fbd
000003a0: b9b6 51bd 8480 b8bd 30b4 0a3e 7133 7ebd
000003b0: ecae 90bd 0713 33bd 4a54 e63d 5b05 ff3c
000003c0: 1d71 ef3d 4f79 b53d 809c 64bb cc72 88bd
000003d0: 5cf7 f2bd 30f7 9cbd 8cc0 e33d afb9 d2bb
000003e0: db77 82bd bc32 0cbb 2a71 67bd 810c 0ebe
000003f0: cba7 f3bd f398 45bd eb6d 003a 1b51 8fbd

conv2.bias f4 [10]
0.54819286 0.7423283 -0.13499957 -0.09120418 -0.09197733 0.39788303 -0.3604752 -0.15055695
-0.06686801 -0.03726646
00000000: 5e56 0c3f 3a09 3e3f 543d 0abe 42c9 babd
00000010: 9c5e bcbd 53b7 cb3e 3590 b8be 9a2b 1abe
00000020: 18f2 88bd b7a4 18bd

conv3.weight f4 [10, 10, 3, 3]
-0.024200028 0.032928523 -0.077610426 -0.11106234 0.07111342 -0.10568002 -0.16063042 0.033782355
-0.050723806 -0.09333783 -0.17703795 -0.10137605 -0.09357257 -0.17754853 -0.048506748 0.059123807
-0.032515634 -0.06810068 -0.020846032 0.014263557 0.0915586 -0.087836966 0.053717267 -0.0045166584
0.019273886 0.03057349 0.10791322 0.0012302707 0.04440816 0.04761787 0.10710143 -0.097957246
0.021046126 0.078038946 -0.121757805 -0.005461344 -0.028007796 0.10570344 0.030005956 -0.03600731
0.05805189 0.040642973 -0.03134163 0.053580664 -0.10099668 -0.2080633 0.050875217 -0.002962463
-0.25255075 -0.033150945 -0.12430316 -0.30329302 0.034838792 0.05071142 0.05475944 -0.02462409
0.08682685 0.043071795 0.07051601 0.06892095 -0.09394909 0.009876356 0.02259195 0.023284683
0.045179218 0.05323707 0.06170773 -0.013015657 0.0041046417 0.039522838 -0.09269121 0.048971538
0.035737112 -0.053785432 -0.06163967 0.07549138 0.0067521515 -0.13302457 0.11386093 0.02677448
0.060137197 -0.054414395 0.0082133785 -0.094099715 -0.07005702 0.10484711 0.093306154 -0.04050295
0.08197879 -0.01683049 -0.025250422 0.5549752 -0.122362874 0.3760222 -0.19137077 0.11042146
-0.103358805 -0.41058826 -0.2794093 0.0819357 0.2980684 0.3170258 0.681171 -0.09302844
0.66371113 -0.44408187 -0.17913829 0.5068602 -0.11625742 0.105073765 -0.047811184 -0.09295906
-0.101178646 -0.068967514 -0.12644386 0.063202545 0.100005835 0.068622455 -0.019446818 0.07274968
0.028500795 0.019925185 -0.13833474 -0.026961248 -0.048076354 0.113107555 0.021429505 0.043673597
-0.121896006 -0.1427741 0.0059018945 -0.010656743 -0.058458272 0.009680391 0.053776775 0.024426354
-0.0674889 -0.53814024 0.6838887 0.2686384 -0.2765591 0.038915604 0.16748947 0.15279476
0.1764869 0.055281393 0.25814244 0.38144758 0.277629 0.14355226 -0.060896337 -0.0384837
-0.09866629 -0.001087688 0.011657083 -0.05474249 -0.17110363 0.0586061 -0.017782269 0.01677972
0.04622256 0.050468247 0.057734873 -0.11012446 -0.055339046 0.108010136 -0.08677848 0.069147505
-0.105282046 0.041570045 0.10834898 0.01105571 0.05323453 0.008497024 -0.06136177 0.08816143
-0.020430667 0.07906977 -0.026330547 -0.033540174 0.03563958 0.061901253 -0.12623179 -0.018923346
0.007884737 0.028093344 -0.13350308 -0.017946662 -0.024540065 -0.059349533 0.049725883 0.018076727
0.03327329 -0.014840056 -0.05856842 0.010212791 -0.046440568 -0.07988433 -0.01014165 0.0055320067
0.05622327 -0.0031739767 -0.006973182 0.0030534293 -0.07675483 -0.11999892 0.046152905 0.04042119
-0.11031576 0.036203593 0.022600833 0.03702251 0.08125328 0.10537262 -0.02066317 0.00030414294
-0.007842775 0.015144103 -0.066828765 0.04061122 0.06398013 -0.027783401 -0.025499808 0.1421312
0.0819139 0.027808437 -0.04761352 -0.10035172 -0.10938779 -0.050528664 -0.14590748 -0.010653694
0.0072863256 -0.04254746 -0.13371693 -0.042335097 0.051329955 -0.05725299 -0.022816215 0.054852273
-0.08440055 0.12132033 -0.06170578 -0.14180298 0.0025314107 0.07893078 0.03488016 0.07651326
-0.03793327 0.07292605 0.043920517 -0.045262855 -0.06690716 -0.1068763 -0.11273556 0.0069038514
00000000: 233f c6bc 0fe0 063d 37f2 9ebd a774 e3bd
00000010: eaa3 913d c46e d8bd 4d7c 24be 5e5f 0a3d
00000020: c4c3 4fbd e727 bfbd 7049 35be 3f9e cfbd
00000030: faa2 bfbd 48cf 35be 03af 46bd ce2b 723d
00000040: 1d2f 05bd 5f78 8bbd 4cc5 aabc b2b1 693c
00000050: 1383 bb3d dee3 b3bd a306 5c3d 7a00 94bb
00000060: 45e4 9d3c 4175 fa3c 9b01 dd3d 0941 a13a
00000070: 55e5 353d f50a 433d ff57 db3d cf9d c8bd
00000080: ed68 ac3c e2d2 9f3d 285c f9bd 13f5 b2bb
00000090: 9b70 e5bc 0c7b d83d 0dcf f53c 677c 13bd
000000a0: d2c7 6d3d 3f79 263d 1560 00bd 6677 5b3d
000000b0: 59d7 cebd 8c0e 55be 8862 503d e225 42bb
000000c0: 554e 81be 49c9 07bd a892 febd 3949 9bbe
000000d0: 1fb3 0e3d c7b6 4f3d 6f4b 603d 76b8 c9bc
000000e0: 47d2 b13d 0d6c 303d b36a 903d 6d26 8d3d
000000f0: 6168 c0bd 71d0 213c c112 b93c 85bf be3c
00000100: d80d 393d 1d0f 5a3d 3fc1 7c3d 9f3f 55bc
00000110: 3b80 863b b3e2 213d e4d4 bdbd 6196 483d
00000120: 1461 123d 1d4e 5cbd e179 7cbd 3a9b 9a3d
00000130: 2741 dd3b 9837 08be eb2f e93d 2756 db3c
00000140: 6c52 763d a1e1 5ebd 6891 063c 5ab7 c0bd
00000150: 0e7a 8fbd 15ba d63d 4c17 bf3d 6ce6 25bd
00000160: 7fe4 a73d 19e0 89bc f9d9 cebc db12 0e3f
00000170: 6399 fabd fb85 c03e b3f6 43be a524 e23d
00000180: c8ad d3bd a038 d2be bc0e 8fbe e7cd a73d
00000190: 6c9c 983e 3551 a23e 3961 2e3f b285 bebd
000001a0: f9e8 293f b35e e3be 0770 37be 97c1 013f
000001b0: 5f18 eebd ea30 d73d a9d5 43bd 5261 bebd
000001c0: c036 cfbd d73e 8dbd 807a 01be 5670 813d
000001d0: dccf cc3d ee89 8c3d ef4e 9fbc c9fd 943d
000001e0: 807a e93c 243a a33c 9fa7 0dbe d6dd dcbc
000001f0: b6eb 44bd efa4 e73d ee8c af3c 16e3 323d
00000200: 9da4 f9bd 6033 12be ae64 c13b 9f99 2ebc
00000210: f171 6fbd 819a 1e3c 0945 5c3d c719 c83c
00000220: 9f37 8abd 8fc3 09bf 5413 2f3f f98a 893e
00000230: 2899 8dbe f865 1f3d 5c82 2b3e 3b76 1c3e
00000240: fbb8 343e be6e 623d 3f2b 843e 194d c33e
00000250: 6325 8e3e 5dff 123e 706e 79bd 16a1 1dbd
00000260: 8d11 cabd c190 8eba 5afd 3e3c a939 60bd
00000270: ca35 2fbe f30c 703d 1fac 91bc a075 893c
00000280: de53 3d3d cbb7 4e3d 677b 6c3d ef88 e1bd
00000290: 32ab 62bd 6b34 dd3d eab8 b1bd 359d 8d3d
000002a0: 1d9e d7bd 5a45 2a3d 12e6 dd3d 0223 353c
000002b0: 730c 5a3d 1a37 0b3c 7b56 7bbd fb8d b43d
000002c0: 375e a7bc 55ef a13d 29b3 d7bc 6c61 09bd
000002d0: cffa 113d 2b8c 7d3d e842 01be 2205 9bbc
000002e0: fc2e 013c 0324 e63c 08b5 08be e104 93bc
000002f0: 3f08 c9bc 7f18 73bd 5ead 4b3d a515 943c
00000300: 9349 083d b523 73bc 71e5 6fbd 8d53 273c
00000310: 7738 3ebd 659a a3bd 2a29 26bc d645 b53b
00000320: 5f4a 663d 7e02 50bb 4a7f e4bb 0b1c 483b
00000330: a331 9dbd fec1 f5bd d40a 3d3d b190 253d
00000340: 3bed e1bd 384a 143d 6225 b93c eaa4 173d
00000350: 1f68 a63d 9acd d73d cf45 a9bc 6075 9f39
00000360: fc7e 00bc f91e 783c 85dd 88bd f357 263d
00000370: 0408 833d 049a e3bc f9e4 d0bc d78a 113e
00000380: 7ac2 a73d 85ce e33c 6506 43bd 3485 cdbd
00000390: b506 e0bd 25f7 4ebd c568 15be d58c 2ebc
000003a0: 21c2 ee3b 3f46 2ebd 17ed 08be 9167 2dbd
000003b0: 5c3f 523d 1c82 6abd 12e9 babc c7ac 603d
000003c0: 32da acbd cb76 f83d 33bf 7cbd cd34 11be
000003d0: 06e6 253b 76a6 a13d 80de 0e3d fcb2 9c3d
000003e0: eb5f 1bbd 415a 953d 00e6 333d 8b65 39bd
000003f0: 9f06 89bd f6e1 dabd e7e1 e6bd b439 e23b

conv3.bias f4 [10]
-0.0029441742 0.84712964 -0.06356543 -0.061266445 0.18008828 -0.11465091 0.7185923 -0.15880069
-0.12543114 -0.0982794
00000000: 0cf3 40bb 7ddd 583f 982e 82bd 86f2 7abd
00000010: 1069 383e 19ce eabd aaf5 373f a69c 22be
00000020: 0571 00be b646 c9bd

conv4.weight f4 [10, 10, 3, 3]
0.07455592 0.0019517908 -0.08815174 -0.007345154 0.13448082 -0.10578576 0.061903473 0.0238944
0.023965707 -0.7269571 -0.37546465 -0.1916032 -0.20703134 -0.5059493 -0.32362056 0.29531476
0.21934856 0.0061967103 -0.021840319 0.045227308 -0.050583795 -0.04446081 -0.039842483 0.07373036
-0.045382604 -0.04410833 0.004681117 -0.16866972 -0.07765393 -0.0912394 -0.12915497 0.061895266
-0.029101474 -0.11064915 0.016170142 0.12951422 0.054945566 -0.0287352 0.07464785 -0.14469963
-0.13919105 0.03641703 -0.116961375 -0.0745186 -0.03503721 0.090512656 0.0256364 -0.11028177
-0.08026336 0.065727465 -0.051028192 0.08924896 0.07412889 -0.040542178 -0.056725748 -0.30291545
-0.22324881 -0.13580893 -0.2183616 -0.18397613 -0.14826617 -0.2645043 -0.26813242 0.03538209
0.07480823 -0.03797576 0.09130105 -0.0013448521 0.03863483 0.062395234 -0.018881239 -0.062143136
0.13918714 -0.043456387 -0.00845208 0.065043 0.031477675 -0.08513961 0.042415023 0.035823554
-0.16228296 0.07773685 0.04176714 -0.024341166 0.0019770612 -0.0049555656 -0.08794378 -0.04364751
0.019631214 -0.04447948 -0.12220655 0.060557146 0.02770794 -0.01220079 0.021889633 -0.14318189
-0.09711558 0.07709935 -0.019646617 0.2828139 0.06938229 -0.26029444 -0.5989719 -0.26907375
0.1571791 0.049761403 0.314546 0.07343701 -0.03029155 0.0018711914 0.05320725 -0.11986232
-0.058027215 0.076231964 0.0040342817 -0.050505545 -0.024101142 -0.021485219 0.07615862 -0.055177245
0.083286785 -0.1529975 -0.03574234 -0.031763084 0.11560424 0.22907797 0.09873473 0.15611567
-0.038700603 0.0054054847 -0.027910324 0.04806045 -0.10712748 0.088178076 -0.068284675 -0.013997302
0.013737736 -0.070109844 0.11105322 0.09065816 -0.078992695 -0.03986805 -0.003196069 0.09685793
-0.13363382 -0.5640734 -0.33428267 -0.37481812 -0.13576756 -0.0035653473 0.58777404 0.07272537
0.041822936 0.01774654 -0.052042075 0.09626048 -0.013450677 -0.09240956 0.05227817 0.04187904
-0.06611535 0.09384879 -0.0075831315 -0.123845 0.0009152408 -0.14103311 -0.08563588 0.026606828
0.028714303 -0.14856544 -0.04019398 0.022574384 0.15257296 0.069730714 -0.034684736 0.002175723
-0.01728387 -0.030541655 -0.02955338 -0.09330465 -0.07932453 -0.04541275 0.12163965 -0.23039746
0.18541417 0.007912405 -0.19453056 0.023142928 -0.013355468 -0.019501802 -0.33448222 -0.20303534
0.060518183 -0.37900916 -0.1684814 -0.5795538 0.038334005 0.03724535 -0.15173735 0.03610377
0.036774833 -0.02270759 -0.09030578 0.013021505 -0.1308308 -0.104493305 0.08774182 -0.11321237
-0.06921559 -0.045340676 -0.010025894 -0.02353954 0.12153994 0.13229427 -0.09217343 0.04497183
0.16254725 0.060751345 -0.24883436 -0.046578243 -0.122856356 -0.13291354 -0.3061588 -0.08324997
-0.18033104 0.09348472 0.10885778 0.057936437 0.028494889 0.09098608 -0.05565187 0.09517952
-0.038177952 0.06739998 -0.1229413 0.12581703 0.38954636 -0.46159455 0.014810052 0.36507496
-0.9245182 0.17901504 0.35466328 -0.0896881 0.010275662 0.099464886 -0.025200794 0.04022301
-0.0051643997 -0.030774357 0.020455234 -0.04946882 0.075245254 0.044212017 -0.061011862 0.0319397
00000000: c6b0 983d 3bd3 ff3a e688 b4bd 9eaf f0bb
00000010: 57b5 093e 34a6 d8bd 7f8e 7d3d 30be c33c
00000020: bb53 c43c dc19 3abf e73c c0be a133 44be
00000030: 0600 54be e585 01bf 98b1 a5be 7f33 973e
00000040: e99c 603e c60d cb3b 78ea b2bc 4540 393d
00000050: f430 4fbd 8a1c 36bd df31 23bd f1ff 963d
00000060: 1ce3 39bd f0aa 34bd 0e64 993b c1b7 2cbe
00000070: 0609 9fbd b9db babd 3341 04be e485 7d3d
00000080: 3766 eebc 069c e2bd 3f77 843c 609f 043e
00000090: 9a0e 613d 1566 ebbc f9e0 983d 242c 14be
000000a0: 1988 0ebe 062a 153d 7289 efbd 359d 98bd
000000b0: 2d83 0fbd b35e b93d 6d03 d23c 69db e1bd
000000c0: 1e61 a4bd 1f9c 863d f002 51bd 29c8 b63d
000000d0: e3d0 973d 8e0f 26bd 4259 68bd bc17 9bbe
000000e0: 569b 64be 7f11 0bbe 2f9a 5fbe 3d64 3cbe
000000f0: 16d3 17be 1c6d 87be a748 89be cfec 103d
00000100: 0f35 993d 788c 1bbd 0bfc ba3d c045 b0ba
00000110: 8e3f 1e3d 2592 7f3d d4ac 9abc cd89 7ebd
00000120: 1387 0e3e 53ff 31bd 987a 0abc 4435 853d
00000130: bcee 003d ad5d aebd 60bb 2d3d b8bb 123d
00000140: 812d 26be 7f34 9f3d 0514 2b3d 2067 c7bc
00000150: 9591 013b 4c62 a2bb de1b b4bd bbc7 32bd
00000160: a4d1 a03c 1d30 36bd 6d47 fabd c50a 783d
00000170: c3fb e23c d3e5 47bc e351 b33c 469e 12be
00000180: 89e4 c6bd 44e6 9d3d f1f1 a0bc fccc 903e
00000190: 4d18 8e3d 5045 85be 3956 19bf 09c4 89be
000001a0: 8ff3 203e 9dd2 4b3d 2c0c a13e 2566 963d
000001b0: fc25 f8bc c442 f53a d8ef 593d 607a f5bd
000001c0: f2ad 6dbd 811f 9c3d 0232 843b e7de 4ebd
000001d0: c26f c5bc c501 b0bc 0df9 9b3d 8901 62bd
000001e0: 4392 aa3d 60ab 1cbe 8f66 12bd 021a 02bd
000001f0: eac1 ec3d 6a93 6a3e 6f35 ca3d c9dc 1f3e
00000200: 8684 1ebd 7e20 b13b 31a4 e4bc 09db 443d
00000210: a765 dbbd b596 b43d d6d8 8bbd f154 65bc
00000220: 3e14 613c c095 8fbd df6f e33d fcaa b93d
00000230: ecc6 a1bd ae4c 23bd 2475 51bb 735d c63d
00000240: 4ed7 08be 1d67 10bf 1927 abbe 29e8 bfbe
00000250: a706 0bbe 9aa8 69bb 5c78 163f 0af1 943d
00000260: 874e 2b3d 3161 913c 122a 55bd 3724 c53d
00000270: 3a60 5cbc 3941 bdbd a221 563d 5b89 2b3d
00000280: 7c67 87bd cb33 c03d eb7b f8bb 73a2 fdbd
00000290: c5ec 6f3a fc6a 10be dd61 afbd 90f6 d93c
000002a0: 423a eb3c 8a21 18be 71a2 24bd eaed b83c
000002b0: 163c 1c3e face 8e3d 9511 0ebd 9396 0e3b
000002c0: e796 8dbc 7e32 fabc ee19 f2bc 8216 bfbd
000002d0: e674 a2bd b802 3abd 351e f93d 50ed 6bbe
000002e0: 36dd 3d3e 08a3 013c 0533 47be 3d96 bd3c
000002f0: e5d0 5abc 3ec2 9fbc 4141 abbe 7fe8 4fbe
00000300: eae1 773d 7d0d c2be 6386 2cbe a35d 14bf
00000310: 1e04 1d3d 958e 183d 0961 1bbe 8ce1 133d
00000320: 35a1 163d 4505 babc 3df2 b8bd 2758 553c
00000330: 82f8 05be 9600 d6bd fcb1 b33d e3db e7bd
00000340: e7c0 8dbd 25b7 39bd a643 24bc fed5 c0bc
00000350: efe9 f83d 2678 073e 6cc5 bcbd 6234 383d
00000360: c972 263e 67d6 783d 6fce 7ebe d4c8 3ebd
00000370: 1d9c fbbd 7d1a 08be d9c0 9cbe f67e aabd
00000380: b3a8 38be eb74 bf3d d4f0 de3d c24e 6d3d
00000390: 1d6e e93c e956 ba3d 37f3 63bd 7bed c23d
000003a0: 7c60 1cbd 0009 8a3d a6c8 fbbd 2ed6 003e
000003b0: 9f72 c73e 1f56 ecbe dca5 723c 1beb ba3e
000003c0: 3aad 6cbf b84f 373e 6d96 b53e 65ae b7bd
000003d0: 405b 283c 3fb4 cb3d e571 cebc e2c0 243d
000003e0: 203a a9bb 811a fcbc bc91 a73c d19f 4abd
000003f0: 2f1a 9a3d a917 353d 93e7 79bd 34d3 023d

conv4.bias f4 [10]
0.13392517 0.05540202 0.015430547 -0.02858639 -0.12396693 -0.10684334 0.07549827 0.12994447
-0.09162729 0.11402223
00000000: ae23 093e 3bed 623d 68d0 7c3c 012e eabc
00000010: 60e2 fdbd aed0 dabd d69e 9a3d 2a10 053e
00000020: 17a7 bbbd 7d84 e93d

norm.weight f4 [10]
0.38136166 0.2941552 0.37525 0.55493534 0.39071006 0.3900011 0.47553846 0.2506365
0.4194482 0.35596505
00000000: d641 c33e 839b 963e c520 c03e 3e10 0e3f
00000010: 260b c83e 39ae c73e c779 f33e 6d53 803e
00000020: eac1 d63e 0d41 b63e

norm.bias f4 [10]
-0.20354924 -0.25581676 -0.26359516 -0.6419131 -0.2277943 -0.33394027 -0.53183824 -0.14832403
-0.41500303 -0.3555549
00000000: 366f 50be 6afa 82be f2f5 86be 6b54 24bf
00000010: e942 69be 38fa aabe 8d26 08bf 41e2 17be
00000020: 477b d4be 4b0b b6be

norm.running_mean f4 [10]
-10.660561 -2.968048 -4.879395 -3.764757 9.521553 5.191718 -3.5265794 0.8869695
0.730085 -1.5719779
00000000: a891 2ac1 80f4 3dc0 0124 9cc0 c7f1 70c0
00000010: 4858 1841 8e22 a640 7ab3 61c0 6f10 633f
00000020: dae6 3a3f 9236 c9bf

norm.running_var f4 [10]
10.802826 4.308398 5.9244533 3.8335924 9.680004 3.491735 7.0713115 6.419738
2.985498 7.0217147
00000000: 60d8 2c41 65de 8940 1f95 bd40 9459 7540
00000010: 4ce1 1a41 9678 5f40 2f48 e240 7e6e cd40
00000020: 6612 3f40 e3b1 e040

fc1.weight f4 [50, 810]
0.018215302 -0.037092887 -0.026326032 -0.035731483 -0.026257046 0.019427108 -0.054595754 -0.010481452
0.026939977 -0.022778405 -0.034964934 -0.07573017 -0.03629122 -0.024911987 -0.0056236293 -0.05095439
-0.0072211614 -0.015159993 -0.024048224 -0.03924054 -0.038310755 -0.00051763 -0.028305857 0.011051472
-0.014590653 -0.06572346 0.030056093 0.03386144 0.052955374 -0.028303536 -0.07744708 -0.013725416
-0.035137434 -0.039325196 0.025256518 -0.025002757 -0.02521079 -0.048585813 -0.02426156 -0.08749054
-0.024908403 -0.012628623 -0.04097892 -0.027223773 -0.062173393 -0.05664399 -0.030864853 -0.040875413
0.0031623829 0.0299962 -0.049720567 -0.036355104 -0.018921036 -0.046655547 0.04425135 0.002100598
-0.05423418 -0.031288892 0.027610967 -0.02712587 -0.044933725 0.07240047 -0.010091896 -0.033084955
-0.021116413 0.014522946 -0.030495025 -0.02493029 0.024454456 0.051447578 0.016951047 0.03400459
-0.057251096 -0.029122116 0.01245408 0.04643843 -0.07334137 -0.012300638 -0.0073315236 -0.05382785
-0.0339236 -0.015062698 -0.052673202 0.0057689436 -0.016771063 0.0034473783 -0.024845053 -0.03645904
-0.0028597764 0.027558647 -0.02997982 -0.07599289 0.012833876 -0.007595953 -0.022427583 0.027054952
0.0023551516 0.043554306 0.0021875468 0.021032052 0.02710582 0.0058014574 0.0023290722 -0.024119576
0.01392023 -0.024180043 0.005767987 -0.004546408 -0.015128433 0.03556451 -0.023550179 -0.026425054
0.04047917 0.012434844 -0.046153493 -0.0029301809 0.048236284 -0.008234242 0.025594546 0.0035810035
0.0011379409 0.0127883805 -0.0012653787 -0.027132962 0.016691234 -0.02695539 -0.029677073 -0.025521524
0.012282858 -0.021209257 0.0013446364 -0.0022398706 0.037234545 -0.006202413 -0.039679997 0.042795572
-0.048849672 0.0025367509 -0.0354313 -0.039425068 -0.064574435 -0.07366088 0.039588872 0.020672327
-0.04541542 0.016607666 -0.015782513 -0.034054443 -0.040266268 0.03008184 -0.04351005 -0.028699264
0.016884655 -0.07809603 0.021216443 0.01767044 -0.014646694 -0.02514983 0.023387473 -0.06332261
-0.04075647 -0.011889336 -0.037423402 -0.060038276 0.010471867 -0.055415913 -0.023761822 0.026312957
-0.048173547 -0.018338945 -0.0121382 -0.03517746 -0.03919143 -0.02910519 0.0013761696 -0.0047461935
-0.018998194 -0.035216853 0.030449767 0.028743783 -0.040936064 -0.049908727 -0.024598014 -0.0017043089
-0.03392866 0.027813658 -0.0033904216 0.01162932 -0.00047234053 -0.011538722 0.032840054 0.0030297975
-0.028805483 -0.00946248 0.021059312 -0.010029564 0.04500429 0.04439699 0.0033155906 0.0020035808
0.0040745605 0.032043874 0.023624627 0.007026157 0.06303727 -0.038804095 0.00019742065 -0.0030690997
0.008111676 0.0004327824 0.019068241 -0.05260851 0.001878147 0.013292909 -0.038221803 -0.09622599
-0.04737199 -0.07348455 -0.032386027 -0.04072173 -0.039994854 0.0020897863 -0.039863497 -0.032872472
-0.065295026 -0.012015448 -0.0038345682 -0.021129161 0.016663702 -0.024559783 -0.05990091 -0.01628023
-0.024003856 -0.03581308 -0.08181366 0.010072208 -0.057026956 0.05542379 -0.016963312 0.026101992
-0.013892452 -0.095320106 -0.038825806 0.043730643 0.016913041 0.020545095 -0.03738397 -0.094964184
-0.008847759 0.009610202 -0.02135564 0.014051365 -0.034833193 -0.0030206935 0.0020645645 -0.02934366
00000000: 4238 953c b6ee 17bd b1a9 d7bc 2d5b 12bd
00000010: 0419 d7bc 9925 9f3c cc9f 5fbd 65ba 2bbc
00000020: 3ab1 dc3c c799 babc 6437 0fbd 6b18 9bbd
00000030: 1aa6 14bd 3914 ccbc 6c46 b8bb 8db5 50bd
00000040: 7e9f ecbb 9f61 78bc c800 c5bc b0ba 20bd
00000050: bdeb 1cbd 90b1 07ba afe1 e7bc 3c11 353c
00000060: a20d 6fbc 059a 86bd 3238 f63c 4bb2 0a3d
00000070: bce7 583d d1dc e7bc 939c 9ebd 91e0 60bc
00000080: 45ec 0fbd 7513 21bd c2e6 ce3c 95d2 ccbc
00000090: dc86 cebc eb01 47bd 2ec0 c6bc 3e2e b3bd
000000a0: b50c ccbc 49e8 4ebc 83d9 27bd 6404 dfbc
000000b0: 87a9 7ebd 8703 68bd 4ad8 fcbc fa6c 27bd
000000c0: fb3f 4f3b 97ba f53c cba7 4bbd 17e9 14bd
000000d0: 4a00 9bbc e319 3fbd e740 353d 30aa 093b
000000e0: a924 5ebd c828 00bd 6530 e23c 1337 debc
000000f0: 6d0c 38bd b346 943d 7b58 25bc 1784 07bd
00000100: 54fc acbc a7f1 6d3c b4d0 f9bc 9c3a ccbc
00000110: b654 c83c b2ba 523d ecdc 8a3c 6648 0b3d
00000120: 2080 6abd 8191 eebc 330c 4c3c 3936 3e3d
00000130: 0034 96bd 9d88 49bc 473d f0bb 977a 5cbd
00000140: 79f3 0abd 89c9 76bc dbbf 57bd 6809 bd3b
00000150: 7863 89bc 69ed 613b da87 cbbc 1356 15bd
00000160: 166b 3bbb acc2 e13c 3d98 f5bc 29a2 9bbd
00000170: 2d45 523c 79e7 f8bb 0dba b7bc 59a2 dd3c
00000180: e358 1a3b 0066 323d f25c 0f3b 694b ac3c
00000190: 060d de3c 271a be3b 59a3 183b 6b96 c5bc
000001a0: ad11 643c 3a15 c6bc 6201 bd3b 09fa 94bb
000001b0: 3fdd 77bc 17ac 113d 4eec c0bc 5b79 d8bc
000001c0: 7ccd 253d 84bb 4b3c 720b 3dbd 4708 40bb
000001d0: 6993 453d eae8 06bc a7ab d13c 45af 6a3b
000001e0: f626 953a 5b86 513c 10db a5ba f245 debc
000001f0: 0ebc 883c 8dd1 dcbc 551d f3bc 8412 d1bc
00000200: 0a3e 493c 09bf adbc 833e b03a cbca 12bb
00000210: 4083 183d 9c3d cbbb 7e87 22bd 694a 2f3d
00000220: 9816 48bd 9e3f 263b 6920 11bd 2e7c 21bd
00000230: 9a3f 84bd 84db 96bd f127 223d 0359 a93c
00000240: 8505 3abd cd0c 883c 544a 81bc ac7c 0bbd
00000250: 3eee 24bd 316e f63c 9837 32bd b81a ebbc
00000260: b051 8a3c d0f0 9fbd 1bce ad3c 99c1 903c
00000270: b0f8 6fbc 0407 cebc 1697 bf3c 49af 81bd
00000280: 42f0 26bd 7dcb 42bc 4849 19bd b2ea 75bd
00000290: 3292 2b3c ccfb 62bd 27a8 c2bc 458e d73c
000002a0: a051 45bd 8e3b 96bc 4ddf 46bc 3e16 10bd
000002b0: 3187 20bd 026e eebc 9760 b43a f585 9bbb
000002c0: 1aa2 9bbc 8c3f 10bd ca71 f93c 1578 eb3c
000002d0: 93ac 27bd 186d 4cbd c681 c9bc 1e63 dfba
000002e0: c7f8 0abd 78d9 e33c d631 5ebb e788 3e3c
000002f0: 79a4 f7b9 e80c 3dbc 4b83 063d 918f 463b
00000300: 7af9 ebbc 8508 1bbc 9484 ac3c 0a53 24bc
00000310: 6b56 383d 9ed9 353d 614a 593b 824e 033b
00000320: e483 853b 7040 033d 6f88 c13c ad3b e63b
00000330: af19 813d 0bf1 1ebd b402 4f39 f322 49bb
00000340: d6e6 043c 12e7 e239 0035 9c3c 057c 57bd
00000350: 282c f63a 80ca 593c 778e 1cbd 2212 c5bd
00000360: 2209 42bd 117f 96bd 36a7 04bd d4cb 26bd
00000370: a5d1 23bd ccf4 083b e847 23bd 49a5 06bd
00000380: 66b9 85bd 71dc 44bc 614d 7bbb 1017 adbc
00000390: 5182 883c 9931 c9bc a85a 75bd 1e5e 85bc
000003a0: bca3 c4bc bcb0 12bd ec8d a7bd e705 253c
000003b0: 1995 69bd 0e04 633d a5f6 8abc d8d3 d53c
000003c0: 2b9d 63bc 3037 c3bd cf07 1fbd e71e 333d
000003d0: 388d 8a3c 304e a83c ef1f 19bd 957c c2bd
000003e0: 31f6 10bc 1c74 1d3c 06f2 aebc b237 663c
000003f0: 40ad 0ebd d4f6 45bb a54d 073b 1e62 f0bc

fc1.bias f4 [50]
0.033079255 -0.13331693 0.2789128 -0.056795213 1.2462473 0.050252963 -0.009132382 -0.051765002
-0.06410728 0.03858764 -0.034496572 -0.041252505 -0.0049140505 -0.0013497972 0.01334621 -0.014478681
-0.03553404 0.7884503 -0.043196738 -0.058071364 -0.041471146 -0.021059852 0.12585069 -0.060390778
-0.021409972 0.09093668 0.011493682 -0.05947962 0.033666868 -0.040948246 -0.08553665 0.012063431
-0.0011024803 -0.06258405 -0.035282604 0.0038306643 -0.03713033 -0.0042473758 -0.036874417 -0.08265564
-0.020606427 -0.15560433 -0.05451125 0.13595827 -0.028669044 -0.010274331 -0.007654478 -0.05336536
-0.043977793 -0.029420957
00000000: 1d7e 073d 3c84 08be a9cd 8e3e 19a2 68bd
00000010: 0885 9f3f 0dd6 4d3d fd9f 15bc 8a07 54bd
00000020: ad4a 83bd 130e 1e3d 474c 0dbd 63f8 28bd
00000030: 0b06 a1bb aeeb b0ba 10aa 5a3c fd37 6dbc
00000040: 248c 11bd e1d7 493f 10ef 30bd 3ddc 6dbd
00000050: a6dd 29bd b685 acbc 01df 003e 525c 77bd
00000060: f763 afbc 033d ba3d ff4f 3c3c e7a0 73bd
00000070: 45e6 093d 59b9 27bd d72d afbd b2a5 453c
00000080: 1a81 90ba 112c 80bd 7e84 10bd e20b 7b3b
00000090: f915 18bd 922d 8bbb a109 17bd 5c47 a9bd
000000a0: cfce a8bc be56 1fbe 3047 5fbd a538 0b3e
000000b0: 58db eabc ab55 28bc 6ad2 fabb a395 5abd
000000c0: 0f22 34bd 3804 f1bc

fc2.weight f4 [7, 50]
-0.03706294 -0.06888446 0.1253958 -0.03741051 -0.1119415 0.101434335 0.0152927805 0.097364485
0.1389926 0.0150101315 -0.040958323 0.003929762 -0.08774213 0.10983895 0.03521327 0.064639844
0.03711068 0.20900407 0.09472961 -0.071383 -0.06482513 -0.052390944 0.011696433 -0.033707384
-0.11373995 -0.017339543 0.077006206 -0.0774422 0.068574354 0.04977081 0.06958433 0.058536623
0.056272414 0.029958662 0.022348037 -0.049993526 -0.016009353 -0.027852638 -0.01651532 0.037990235
-0.08229167 0.25299326 -0.006453591 0.05146228 0.09982707 0.02293319 0.10869184 0.06357693
0.07395587 0.059492595 -0.16046882 -0.017783104 0.04205856 0.0065425946 -0.12989074 0.080363736
0.059357688 -0.57439387 0.009098038 -0.031799536 -0.07279726 -0.012421246 0.10834136 -0.05811607
-0.090802 -0.1334395 -0.13927245 0.13889655 -0.14195955 -0.24616769 -0.08560934 -0.10492264
0.06338688 0.042954024 -0.49970016 -0.16827416 0.005064661 -0.19816995 -0.023758184 -0.05367303
-0.09781821 -0.060741246 -0.103170834 0.08124912 -0.018892402 -0.024849879 -0.18702866 0.038145285
0.034444682 -0.0762169 -0.11434145 -0.04719526 0.008294877 -0.6711402 0.10108553 -0.14935935
0.051391933 0.0014697529 -0.016704462 -0.13791661 -0.05786166 0.11767355 -0.035666883 -0.0069410903
-0.10629001 -0.13610817 0.013276302 -0.22545183 -0.028457675 -0.07225794 -0.04567512 0.13022499
-0.06187706 -0.03918295 0.015249333 -0.10784584 -0.085742846 0.064151675 -0.02396861 -0.1366958
0.02629088 0.03557635 0.14950313 0.09649741 -0.09303817 -0.030446053 -0.093683444 0.076812536
-0.0009558463 -0.16050111 -0.11715563 0.027993374 0.021277718 -0.072553344 -0.039168224 -0.13159718
0.26429582 0.103902675 -0.07807536 0.042294383 -0.025402125 -0.05641006 -0.1650191 -0.093638815
0.07918 0.027973013 -0.016147869 -0.009352402 -0.074843876 0.031156914 0.098355345 -0.01796277
-0.37154046 -0.014754761 0.33818096 -0.07990447 0.034347672 -0.028083311 -0.042959478 0.041732833
0.007659951 0.042886782 -0.0137748625 0.087840416 0.045150157 0.014951868 0.036885627 0.037213087
-0.017024301 -0.059598733 0.060194343 -0.011862241 -0.028013289 -0.08185578 -0.13653722 -0.007532194
0.116010144 -0.003603904 0.10103378 -0.1880405 -0.07786331 0.06417052 -0.032919887 -0.035201356
-0.026671221 -0.043299835 -0.080785684 0.1348914 -0.13599558 -0.0907704 -0.08068757 -0.090757154
-0.02373844 0.031542633 0.021564152 -0.047589395 0.03225252 0.0028832727 0.047910824 -0.079031244
-0.065874994 0.023718895 0.0023735333 -0.033889186 -0.10140935 -0.10192313 0.02013002 0.14178109
-0.0046351813 -0.05361431 -0.08338332 -0.025891066 -0.06955619 0.02205797 0.045121174 -0.1273354
-0.1370339 0.051381286 -0.10139962 0.13993272 0.09081638 -0.038323034 -0.096197315 -0.03650984
0.20073456 -0.0063323337 0.04787243 0.01969794 -0.010649666 -0.011839816 0.08710896 0.017248891
0.071531 0.031157695 -0.0641283 -0.067557245 -0.0035860133 0.059958123 -0.06715088 0.078737594
0.011164951 -0.13562562 0.07136038 0.06423829 -0.101301275 -0.042402554 0.04917646 0.12526315
-0.0026059006 0.049524765 0.017705679 0.026439741 -0.017007494 -0.05316878 -0.08572398 -0.14175755
00000000: 4fcf 17bd 4c13 8dbd c267 003e c33b 19bd
00000010: 9641 e5bd cebc cf3d 928e 7a3c 0867 c73d
00000020: 1354 0e3e 0eed 753c eac3 27bd 3cc5 803b
00000030: 25b2 b3bd 3ef3 e03d ca3b 103d e561 843d
00000040: 5e01 183d 2a05 563e 9901 c23d 4031 92bd
00000050: 0ac3 84bd e397 56bd 65a2 3f3c c110 0abd
00000060: 7ef0 e8bd a80b 8ebc 6eb5 9d3d 049a 9ebd
00000070: b670 8c3d 7adc 4b3d 3b82 8e3d 19c4 6f3d
00000080: e77d 663d de6b f53c 3b13 b73c 03c6 4cbd
00000090: 0c26 83bc 372b e4bc 234b 87bc a69b 1b3d
000000a0: 8988 a8bd 5588 813e a578 d3bb 1dca 523d
000000b0: 2372 cc3d 63de bb3c d499 de3d 9f34 823d
000000c0: 2d76 973d 82ae 733d f051 24be dfad 91bc
000000d0: 9945 2c3d 4363 d63b 1402 05be be95 a43d
000000e0: 0c21 733d 7a0b 13bf f00f 153c 3b40 02bd
000000f0: bb16 95bd 7b82 4bbc 13e2 dd3d 1e0b 6ebd
00000100: 66f6 b9bd 5da4 08be 709d 0ebe e63a 0e3e
00000110: d85d 11be 6213 7cbe f353 afbd aee1 d6bd
00000120: fbd0 813d 8ff0 2f3d b3d8 ffbe 1050 2cbe
00000130: 75f5 a53b 10ed 4abe 86a0 c2bc 40d8 5bbd
00000140: ea54 c8bd d0cb 78bd 3b4b d3bd f065 a63d
00000150: 3dc4 9abc f991 cbbc 7184 3fbe 3b3e 1c3d
00000160: de15 0d3d 9b17 9cbd da2b eabd d14f 41bd
00000170: 3ce7 073c d8cf 2bbf ee05 cf3d a8f1 18be
00000180: 5980 523d b9a4 c03a ccd7 88bc 033a 0dbe
00000190: 5900 6dbd d5fe f03d 7017 12bd 1672 e3bb
000001a0: 94ae d9bd f15f 0bbe d984 593c d8dc 66be
000001b0: 1220 e9bc f9fb 93bd d615 3bbd b359 053e
000001c0: cd72 7dbd 4d7e 20bd 57d8 793c 48de dcbd
000001d0: f299 afbd f461 833d d259 c4bc fcf9 0bbe
000001e0: f95f d73c 82b8 113d 5917 193e 6fa0 c53d
000001f0: cc8a bebd 006a f9bc 1bdd bfbd e44f 9d3d
00000200: c291 7aba 675a 24be 4aef efbd 5c52 e53c
00000210: 9c4e ae3c d996 94bd dc6e 20bd 69c1 06be
00000220: c851 873e edca d43d f9e5 9fbd e03c 2d3d
00000230: 1e18 d0bc 3c0e 67bd c4fa 28be b5c5 bfbd
00000240: 2029 a23d a927 e53c 8948 84bc d13a 19bc
00000250: bf47 99bd c93c ff3c 876e c93d a926 93bc
00000260: 8d3a bebe f4bd 71bc 0e26 ad3e f4a4 a3bd
00000270: 25b0 0c3d f90e e6bc 47f6 2fbd 0cf0 2a3d
00000280: 5400 fb3b 0daa 2f3d f6af 61bc ade5 b33d
00000290: 5fef 383d aef8 743c 6215 173d c06c 183d
000002a0: 8c76 8bbc cd1d 74bd 588e 763d d859 42bc
000002b0: 207c e5bc 01a4 a7bd 6ad0 0bbe 9fd0 f6bb
000002c0: ba96 ed3d 7a2f 6cbb ccea ce3d b08d 40be
000002d0: cd76 9fbd d56b 833d 01d7 06bd 4c2f 10bd
000002e0: 9b7d dabc 2b5b 31bd f772 a5bd f920 0a3e
000002f0: 6d42 0bbe d5e5 b9bd 863f a5bd e3de b9bd
00000300: 1e77 c2bc d932 013d 4ea7 b03c 19ed 42bd
00000310: 381b 043d 4af5 3c3b 243e 443d 22db a1bd
00000320: 78e9 86bd 214e c23c 488d 1b3b 63cf 0abd
00000330: b5af cfbd 13bd d0bd b6e7 a43c 102f 113e
00000340: b8e2 97bb ae9a 5bbd e0c4 aabd 8019 d4bc
00000350: 7a73 8ebd eab2 b43c fbd0 383d 3664 02be
00000360: 9d52 0cbe 2f75 523d 9baa cfbd 864a 0f3e
00000370: f0fd b93d 9df8 1cbd 1903 c5bd 588b 15bd
00000380: 5c8d 4d3e 777f cfbb e215 443d 935d a13c
00000390: f07b 2ebc cafb 41bc 2f66 b23d 8c4d 8d3c
000003a0: d87e 923d 6c3e ff3c b355 83bd 745b 8abd
000003b0: 5203 6bbb a696 753d 6786 89bd 2d41 a13d
000003c0: 33ed 363c 71e1 0abe 6425 923d 5d8f 833d
000003d0: 0b77 cfbd 4dae 2dbd 416d 493d fc44 003e
000003e0: c2c7 2abb 7bda 4a3d 800b 913c 2898 d83c
000003f0: 4d53 8bbc 82c7 59bd 0e90 afbd e428 11be

fc2.bias f4 [7]
-0.4432926 -1.8731701 0.04177784 0.3656029 0.5195024 -0.5246719 0.67630213
00000000: 3ff7 e2be 0ac4 efbf 3e1f 2b3d 4e30 bb3e
00000010: 1cfe 043f e650 06bf 2322 2d3f

localization.0.weight f4 [8, 1, 7, 7]
0.09111919 -0.10782983 -0.013205247 0.073149234 -0.075389236 0.07038422 0.0016106769 0.07951248
0.048654724 0.111944616 -0.027973808 0.13121505 0.1380808 -0.07599371 0.122754805 -0.034454983
-0.028381778 -0.12305148 -0.019252194 0.027073584 0.14942019 -0.053027578 0.08812912 -0.116272844
-0.13282996 -0.11373454 0.00017817086 0.13154456 0.10809828 0.056201737 -0.017991938 -0.12002021
-0.00926033 -0.14431801 -0.07523977 0.048326924 -0.010228137 -0.11164249 0.07025532 0.06081995
0.021667441 0.012555126 -0.049816813 -0.06586777 -0.032746933 -0.06497417 0.05815465 0.029094856
0.11651272 0.057107337 0.10529746 -0.013028637 -0.0039810035 -0.07938757 0.14108323 0.090857685
0.08590271 0.14649796 -0.015061983 0.082243085 -0.08298691 0.10080065 -0.016335376 0.07580019
-0.050089616 -0.039132055 0.048684426 0.08440675 0.03538232 -0.041940425 0.10916823 -0.13786386
-0.17794845 -0.056950808 -0.103009455 -0.04064974 -0.0854835 0.029373812 0.028761748 0.057201184
-0.21791302 0.043999523 -0.086897634 0.08796534 -0.01866993 -0.18125829 0.038699396 -0.0019248595
0.06891189 0.044552527 0.15563959 0.08137654 -0.07857389 -0.055030685 0.034784783 0.016963637
-0.18233936 0.00014979663 0.06791566 0.030815907 0.043218482 0.07266833 0.10825696 -0.122945845
0.050782897 0.05025961 0.049536187 -0.120575815 0.057773694 0.09043692 0.13938127 -0.040296163
-0.0920782 0.11366672 0.076411456 -0.13768892 0.0015281559 0.04691588 -0.08716659 0.13196434
-0.066875115 -0.086613804 0.053973284 0.01030974 0.08503587 -0.08193385 -0.10230963 -0.120176874
0.05739132 0.05280298 -0.024340913 0.0951504 -0.027118606 0.012645514 -0.13628995 0.02676854
0.0105034 -0.068302155 -0.015467954 0.15242197 0.0075000604 0.10203366 -0.07678307 -0.09666796
0.01562957 -0.10132527 0.15313303 0.0984698 -0.044514198 0.06379065 -0.054196328 0.14631124
0.04525051 0.06540156 0.05155965 -0.00954351 0.07102614 -0.17843364 -0.09622474 0.08329762
0.16031432 0.12103617 0.10611296 0.049990326 -0.17464273 0.04807032 -0.059444137 -0.13373774
0.07496432 0.086943746 0.039946776 -0.0045626764 0.08273113 0.04637302 0.07572421 -0.14873157
0.034965582 -0.17175901 0.041919395 -0.031940322 -0.024806062 0.09294156 -0.0012379368 -0.022544561
-0.056585796 -0.12870616 -0.12177754 -0.033952504 0.14555362 0.0280514 0.14209172 0.0016594195
0.086132 -0.08428988 -0.0055493726 0.055548586 0.047701545 0.005738777 0.001121863 0.1428366
0.08646198 -0.048053265 0.03199298 0.16696714 0.14495988 -0.11670515 -0.038852654 -0.006789057
0.1137259 0.05759632 -0.07047124 0.056256827 0.13562872 -0.09376608 -0.0070506358 -0.010394303
-0.02792477 -0.025264923 0.03780487 0.10153191 -0.08019073 0.013458322 -0.107353926 0.09348884
-0.04154005 -0.027757157 0.09713806 -0.13217358 -0.038679946 0.007046689 0.09806711 0.035565473
-0.041172598 -0.083126925 -0.064726226 0.034002583 -0.007181744 0.07248744 0.04678939 -0.0034128928
0.08925617 -0.031143045 -0.093030386 0.064932965 0.13887303 0.21062419 0.12548338 0.15558626
0.043703355 0.23812921 0.18867078 -0.011577776 -0.007663934 -0.027499745 0.09730384 0.18286254
00000000: b39c ba3d e3d5 dcbd d25a 58bc 44cf 953d
00000010: ac65 9abd 9a25 903d 591d d33a 70d7 a23d
00000020: 2d4a 473d 3843 e53d 5429 e5bc 3d5d 063e
00000030: 0e65 0d3e 97a2 9bbd df66 fb3d ab20 0dbd
00000040: e780 e8bc 6a02 fcbd c7b6 9dbc 6cc9 dd3c
00000050: 9b01 193e 7233 59bd 0a7d b43d 7520 eebd
00000060: 9404 08be a8ed e8bd 60d3 3a39 9eb3 063e
00000070: a262 dd3d cb33 663d d463 93bc 28cd f5bd
00000080: a4b8 17bc 1ac8 13be 4f17 9abd 74f2 453d
00000090: ea93 27bc d1a4 e4bd 05e2 8f3d 571e 793d
000000a0: eb7f b13c 04b4 4d3c b70c 4cbd aee5 86bd
000000b0: a621 06bd 2d11 85bd 9233 6e3d 5658 ee3c
000000c0: 399e ee3d 62e9 693d 32a6 d73d 1076 55bc
000000d0: 1473 82bb f395 a2bd 1f78 103e 9813 ba3d
000000e0: c3ed af3d 9003 163e 89c6 76bc 106f a83d
000000f0: 0bf5 a9bd 9270 ce3d c4d1 85bc 213d 9b3d
00000100: c52a 4dbd ef48 20bd 5269 473d 72dd ac3d
00000110: 0ded 103d b9c9 2bbd 9893 df3d 2f2c 0dbe
00000120: 1e38 36be 4045 69bd 9ff6 d2bd 5780 26bd
00000130: f911 afbd 59a1 f03c c29d eb3c ca4b 6a3d
00000140: 9724 5fbe d838 343d 63f7 b1bd 2c27 b43d
00000150: aef1 98bc c69b 39be 4283 1e3d 914b fcba
00000160: ad21 8d3d b67c 363d fc5f 1f3e bea8 a63d
00000170: 59eb a0bd db67 61bd 7d7a 0e3d 53f7 8a3c
00000180: 2bb7 3abe ba12 1d39 5e17 8b3d a471 fc3c
00000190: dd05 313d 22d3 943d d3b5 dd3d 08cb fbbd
000001a0: ba01 503d 05dd 4d3d 75e6 4a3d 74f0 f6bd
000001b0: 1ca4 6c3d fe36 b93d f7b9 0e3e 970d 25bd
000001c0: 7f93 bcbd 19ca e83d 9c7d 9c3d 53fe 0cbe
000001d0: 674c c83a de2a 403d 6684 b2bd a921 073e
000001e0: d2f5 88bd 9462 b1bd 1713 5d3d 2fea 283c
000001f0: 4927 ae3d efcc a7bd b687 d1bd 4b1f f6bd
00000200: 2913 6b3d f047 583d 9866 c7bc 37de c23d
00000210: d727 debc 212f 4f3c 988f 0bbe b249 db3c
00000220: 7416 2c3c 00e2 8bbd 4d6d 7dbc 8114 1c3e
00000230: 11c3 f53b 06f7 d03d 7140 9dbd daf9 c5bd
00000240: 9609 803c a083 cfbd e8ce 1c3e 89aa c93d
00000250: 8554 36bd aca4 823d f8fc 5dbd 9dd2 153e
00000260: 9958 393d 41f1 853d 3630 533d 625c 1cbc
00000270: 2776 913d 4fb7 36be 7a11 c5bd f197 aa3d
00000280: 7029 243e d0e1 f73d c051 d93d a8c2 4c3d
00000290: 8bd5 32be 62e5 443d b27b 73bd 8cf2 08be
000002a0: e586 993d 900f b23d 3b9f 233d 8182 95bb
000002b0: f06e a93d a3f1 3d3d 4b15 9b3d 174d 18be
000002c0: 1238 0f3d 98e1 2fbe acb3 2b3d dbd3 02bd
000002d0: 1536 cbbc 2558 be3d 4442 a2ba 5faf b8bc
000002e0: 82c6 67bd 8ccb 03be 8166 f9bd c811 0bbd
000002f0: 020c 153e 0dcc e53c 7e80 113e e180 d93a
00000300: f965 b03d 2ca0 acbd 83d7 b5bb ea86 633d
00000310: b262 433d 5a0c bc3b 7a0b 933a c243 123e
00000320: fb12 b13d 80d3 44bd 120b 033d 6ff9 2a3e
00000330: 5d70 143e 1c03 efbd f623 1fbd bd76 debb
00000340: 20e9 e83d 1eea 6b3d 3a53 90bd 8f6d 663d
00000350: 41e2 0a3e 6e08 c0bd 0509 e7bb de4c 2abc
00000360: 7dc2 e4bc 62f8 cebc 48d9 1a3d f6ef cf3d
00000370: 0a3b a4bd 4b80 5c3c 60dc dbbd 1477 bf3d
00000380: e625 2abd fa62 e3bc 52f0 c63d 8358 07be
00000390: dd6e 1ebd e9e7 e63b 69d7 c83d 1aad 113d
000003a0: 99a4 28bd 733e aabd 2f8f 84bd 4b46 0b3d
000003b0: d654 ebbb 4c74 943d 3ba6 3f3d d7aa 5fbb
000003c0: f0cb b63d b31f ffbc b786 bebd 93fb 843d
000003d0: bb34 0e3e dead 573e b77e 003e 0152 1f3e
000003e0: 4a02 333d 25d8 733e ea32 413e b6b0 3dbc
000003f0: bd21 fbbb 2547 e1bc 3c47 c73d 5140 3b3e

localization.0.bias f4 [8]
-0.07110352 0.0054890634 -0.16757509 0.047154814 0.01490762 -0.040994857 -0.116975844 0.041089732
00000000: b99e 91bd 9add b33b ce98 2bbe 6825 413d
00000010: 173f 743c 39ea 27bd 0891 efbd b54d 283d

localization.3.weight f4 [10, 8, 5, 5]
-0.054923713 0.013607593 -0.031603068 -0.021838915 0.019716013 0.03915604 0.015697544 -0.028878542
0.030717669 -0.0178578 -0.08884064 -0.018241527 -0.01212909 0.067824975 0.0003046001 -0.0614029
-0.06356705 -0.06197768 -0.00055967254 0.06729588 0.01292636 0.07167858 0.060674194 -0.14965335
-0.0063849995 -0.09106088 0.008389249 0.023834448 -0.051779386 0.029951015 0.014386315 -0.007972964
-0.041183386 0.031055886 -0.02799765 -0.1140748 -0.09903876 -0.043176495 0.0027506072 -0.04137314
-0.03250867 0.018273382 0.060463827 -0.073192686 -0.043325197 -0.028183542 -0.06764213 -0.067710645
-0.0013089998 -0.07472384 -0.064942196 -0.029689698 -0.044839125 0.023830341 0.081166066 -0.014038774
-0.018325135 0.042385217 -0.0072699306 0.057999734 0.0030691295 -0.0420893 0.013314008 0.022685474
-0.04278292 -0.08780858 0.036718972 0.007576169 0.07128242 0.077134125 0.00610642 0.0027465834
-0.026827117 -0.018305963 0.037277523 -0.093734875 -0.0045795497 0.010061658 -0.07084877 -0.035363816
-0.014849915 -0.08786445 0.05611681 0.030725457 -0.03824556 0.0024429888 -0.057224013 0.010077843
0.06729345 -0.030792894 -0.028997026 -0.05522291 0.031397246 0.03138305 -0.069370516 -0.090806805
0.05222307 -0.026624613 -0.029973926 -0.05425581 -0.062408675 -0.1002153 -0.065891705 -0.015395506
-0.08199704 -0.047345687 -0.0029016116 0.009182233 0.029551787 -0.08057787 -0.07521684 -0.056805506
0.042655315 -0.0082439445 -0.03248233 0.021052297 -0.0854589 0.009792603 -0.07321576 -0.008943969
-0.028715346 -0.07327446 -0.038393185 -0.061930448 -0.12910882 -0.09859515 -0.089549504 0.03499522
-0.030919354 -0.13278627 -0.12317535 -0.034363836 0.003507351 -0.08468522 -0.09449631 -0.04218657
-0.074009314 -0.036687795 -0.05087291 -0.029375715 -0.11560128 -0.059957 -0.07997227 -0.027822766
0.01139427 -0.042111654 0.026472542 0.03532747 -0.009388881 -0.12225819 -0.049651388 -0.022387253
-0.025403235 0.0044129095 -0.03478123 -0.05294603 0.027095262 0.052067343 -0.073143 -0.0020600106
-0.02910745 0.024194445 -0.033160422 0.028409764 -0.055095006 -0.086685576 -0.06391717 0.08109135
0.07025691 -0.01769336 -0.12332456 0.012483693 -0.040000495 -0.079664476 -0.12765384 0.009935311
-0.03296448 -0.07245071 0.0077726105 -0.03229464 0.0032910963 -0.034238163 -0.056507234 -0.042358678
0.01503235 -0.039230485 -0.08777798 -0.010487377 -0.1148159 -0.09510337 -0.09727586 0.00011165593
0.04136899 -0.06374822 -0.07896186 -0.00019962726 0.025315104 -0.04107275 -0.05954754 -0.04659672
-0.02401487 -0.020481125 -0.0425636 0.0022455433 -0.006564427 -0.07967566 -0.024881652 -0.046468858
-0.012454305 -0.026971215 -0.014829597 0.062256668 -0.07569028 -0.101436585 -0.006354411 0.012786444
0.07344426 0.077315696 -0.011981757 -0.07690831 -0.0134066045 0.048477754 -0.007436234 -0.013542311
-0.09945298 -0.013300747 0.02865681 0.018463839 -0.1534132 -0.08988001 -0.012952065 0.002334133
0.011329382 -0.021363482 -0.15156284 0.007844921 0.037115514 0.03945329 -0.026372444 -0.01223258
0.021433773 0.040000647 0.05114196 -0.053697854 -0.12854104 -0.001850089 -0.03825622 -0.06122044
-0.03920091 -0.1399894 0.065025516 0.002228084 0.042945046 -0.0350502 -0.0059699076 0.0068608844
00000000: b0f7 60bd 62f2 5e3c 3872 01bd 86e7 b2bc
00000010: 7a83 a13c 1562 203d 2398 803c b192 ecbc
00000020: 9fa3 fb3c 854a 92bc 15f2 b5bd 416f 95bc
00000030: 17b9 46bc d2e7 8a3d bcb2 9f39 9b81 7bbd
00000040: 712f 82bd 4fdc 7dbd fdb6 12ba 6cd2 893d
00000050: 15c9 533c 38cc 923d 8185 783d ba3e 19be
00000060: 4239 d1bb 207e babd 1073 093c 7640 c33c
00000070: 9f16 54bd d55b f53c 94b4 6b3c 09a1 02bc
00000080: e9af 28bd ea68 fe3c 545b e5bc 0ca0 e9bd
00000090: d5d4 cabd d6d9 30bd 8843 343b e276 29bd
000000a0: d027 05bd 0fb2 953c eba8 773d 0ce6 95bd
000000b0: c375 31bd 2ce1 e6bc f587 8abd e1ab 8abd
000000c0: bf92 abba d008 99bd 6a00 85bd cf37 f3bc
000000d0: 3ba9 37bd d937 c33c 653a a63d e302 66bc
000000e0: 981e 96bc 1f9c 2d3d 9938 eebb 2191 6d3d
000000f0: 7323 493b d465 2cbd ff22 5a3c e3d6 b93c
00000100: 253d 2fbd fcd4 b3bd a266 163d 8341 f83b
00000110: 84fc 913d 7ff8 9d3d 5d18 c83b 0600 343b
00000120: 8bc4 dbbc 63f6 95bc 51b0 183d 12f8 bfbd
00000130: 0c10 96bb a7d9 243c 2919 91bd a6d9 10bd
00000140: 0f4d 73bc 47f2 b3bd bdda 653d f4b3 fb3c
00000150: 60a7 1cbd 8d1a 203b ba63 6abd 8a1d 253c
00000160: 26d1 893d 6141 fcbc 2c8b edbc 6b31 62bd
00000170: 669a 003d 838b 003d 2112 8ebd ebf8 b9bd
00000180: dce7 553d dc1b dabc e18b f5bc 573b 5ebd
00000190: 3da0 7fbd ae3d cdbd 3bf2 86bd 6f3d 7cbc
000001a0: 10ee a7bd 8ded 41bd f728 3ebb 1471 163c
000001b0: 9716 f23c 0306 a5bd 490b 9abd e4ac 68bd
000001c0: 57b7 2e3d 9c11 07bc 310c 05bd de75 ac3c
000001d0: 1305 afbd 2771 203c 25f2 95bd ba89 12bc
000001e0: 723c ebbc ec10 96bd 2c42 1dbd c8aa 7dbd
000001f0: 1a35 04be 41ec c9bd bb65 b7bd 2657 0f3d
00000200: 964a fdbc 20f9 07be 5c43 fcbd 18c1 0cbd
00000210: 96db 653b 726f adbd 4887 c1bd d3cb 2cbd
00000220: 3292 97bd f145 16bd 1d60 50bd 57a5 f0bc
00000230: 5dc0 ecbd 7995 75bd 80c8 a3bd 92ec e3bc
00000240: 08af 3a3c 457d 2cbd f2dc d83c 8ab3 103d
00000250: d2d3 19bc 8062 fabd 415f 4bbd 7965 b7bc
00000260: 721a d0bc 2b9a 903b c376 0ebd f0dd 58bd
00000270: e2f6 dd3c 9144 553d ffcb 95bd 3e01 07bb
00000280: bf72 eebc 6e33 c63c 39d3 07bd 98bb e83c
00000290: 4dab 61bd 3588 b1bd 01e7 82bd 3913 a63d
000002a0: dbe2 8f3d aaf1 90bc 9691 fcbd 6788 4c3c
000002b0: 8fd7 23bd 2127 a3bd b0b7 02be b7c7 223c
000002c0: c305 07bd 0a61 94bd 62b1 fe3b 6247 04bd
000002d0: 6faf 573b 513d 0cbd 2174 67bd 4b80 2dbd
000002e0: 3f4a 763c 25b0 20bd f1c4 b3bd 3fd3 2bbc
000002f0: 9924 ebbd 8ec5 c2bd 9138 c7bd d228 ea38
00000300: 8872 293d 6d8e 82bd c1b6 a1bd 0953 51b9
00000310: 9f61 cf3c e63b 28bd 1fe8 73bd 34dc 3ebd
00000320: d5ba c4bc 08c8 a7bc 2b57 2ebd f729 133b
00000330: 681a d7bb fe2c a3bd 9bd4 cbbc 2156 3ebd
00000340: 240d 4cbc bdf2 dcbc d7f7 72bc d900 7f3d
00000350: 8103 9bbd fcbd cfbd aa38 d0bb 3c7e 513c
00000360: f269 963d b157 9e3d 224f 44bc 1b82 9dbd
00000370: 60a7 5bbc 9c90 463d a7ab f3bb 92e0 5dbc
00000380: 01ae cbbd 60eb 59bc b0c1 ea3c 7a41 973c
00000390: 5a18 1dbe 0313 b8bd e634 54bc 41f8 183b
000003a0: df9e 393c 7802 afbc 4a33 1bbe fc87 003c
000003b0: 7006 183d c699 213d 060b d8bc 296b 48bc
000003c0: e195 af3c b8d7 233d 3b7a 513d 48f2 5bbd
000003d0: 43a0 03be af7e f2ba 8eb2 1cbd 49c2 7abd
000003e0: 2291 20bd 6259 0fbe 192c 853d 0c05 123b
000003f0: 25e7 2f3d cc90 0fbd 379f c3bb 45d1 e03b

localization.3.bias f4 [10]
0.063365415 -0.025542716 -0.05944772 -0.020559918 -0.06628446 0.060556103 -0.08954561 0.095433086
0.008759405 -0.030721758
00000000: bac5 813d f53e d1bc 747f 73bd 466d a8bc
00000010: 26c0 87bd ad09 783d b063 b7bd 6c72 c33d
00000020: 9c83 0f3c 32ac fbbc
