EmpathyBot/model_snapshots/deep_emotion-200-64-0.005-0.5459161557991207.pt (torch_old, 271009 bytes, 24 tensors)

conv1.weight f4 [10, 1, 3, 3]
00000000: ba7a a3be bb13 c3be 96e7 42c0 2922 013f
00000010: dc8b 553f 7ecb b33c cec7 b9bf 9a87 963f
00000020: d8a8 2b40 ecdf edbf a96a 0e3f 7869 0e40
00000030: ac9f 3ec0 13f3 23bf 70d8 1e40 26d3 2abf
00000040: bf14 123f f0e8 e43d 24b9 df3f 733b fbbe
00000050: c32f abbf 8c91 e53f a2ed 9dbe a3a9 b5bf
00000060: def2 0bbf 764e 26bf ee4d a6bf 397d eb3f
00000070: 5dea 2540 7d44 313f 9ab5 76bf 9950 9f3e
00000080: b036 43be 6c0e 04c0 9abe 8abf a4cf 8fbf
00000090: fcff d63d 84c8 99be f575 823e 60e8 48b8
000000a0: 6e3e 76bf 9ca3 79bf 2b38 1a40 4f0a 1d3f
000000b0: 960e 8cbf f5b6 a33f 5685 1740 0b0b aa3f
000000c0: 7f23 fb3f 19bf 8cbe ab60 76c0 07e1 c13d
000000d0: 9e5d 933e 237c e9bf bada d73d e44d a23c
000000e0: 2ed6 05c0 fbeb a23f f1d1 233f 1c71 03c0
000000f0: a672 0040 de74 5f3f dc35 30bf 3138 72be
00000100: fd99 a23e 4ff7 543f 82c5 44c0 3541 c1be
00000110: 6296 453f 0b19 c6be d966 f53f cfcb 493f
00000120: 7659 21c0 97bb 68bf 986e 10bf 6a0a 2c3e
00000130: 1dbb 343f 8afb 783e e61a 0a40 b37e 0c40
00000140: f6f6 b2bf 3602 b03f 722d 3abf d84a 2040
00000150: 1353 9abf 5c4b 27c0 c307 ccbf 0874 8a3e
00000160: 79a2 813f f724 ab3f
-0.3192957 -0.3810099 -3.045385 0.5044275 0.83416533 0.021947619 -1.45141 1.1760132
2.6821804 -1.858396 0.556315 2.2251873 -2.9784956 -0.64042777 2.4819603 -0.66728437
0.57062906 0.11177242 1.7478375 -0.49068794 -1.3373951 1.7935042 -0.30845362 -1.4192394
-0.5466746 -0.6496347 -1.2992532 1.839759 2.5924294 0.6924513 -0.9637085 0.3111618
-0.1906383 -2.0633802 -1.0839417 -1.1235242 0.10498044 -0.30035794 0.2548062 -4.7900132e-05
-0.9618901 -0.97515273 2.4096782 0.61343855 -1.0941951 1.2790209 2.3675132 1.328462
1.9620208 -0.27489546 -3.8496501 0.09466749 0.28782362 -1.8241009 0.10539766 0.019812532
-2.0911975 1.2728266 0.6399222 -2.0537786 2.0069976 0.872877 -0.6883218 -0.23654248
0.3175811 0.8318986 -3.074555 -0.37745062 0.7718259 -0.3869098 1.9172012 0.7882661
-2.5210853 -0.9091124 -0.5641875 0.16800848 0.7059801 0.24314705 2.1578918 2.195233
-1.3981616 1.3750675 -0.72725594 2.504568 -1.2056602 -2.6139746 -1.5939869 0.2704165
1.0127708 1.3370656

conv1.bias f4 [10]
00000000: 36d0 e53e 282f c4be e6f2 67bf 8768 0c3f
00000010: 467e 70be edbc 83bf 9048 533f 466f 8b3f
00000020: 43c0 253f 5ccc 213e
0.44885415 -0.38317227 -0.9060501 0.54846996 -0.2348567 -1.029203 0.82532597 1.0893333
0.64746493 0.15800613

conv2.weight f4 [10, 10, 3, 3]
00000000: 596c aabd 61a1 edbd 9192 c9bd 7e63 2cbe
00000010: 80d0 d4bd 3157 efbd 6dab c9bd 3d95 81be
00000020: 4adc ebbd f633 bbbd 884f eb3c 18de b1bc
00000030: ceee 8a3c 9443 093d a859 223c 05a5 e63c
00000040: 5722 10be 5680 48b9 1981 14bd 2803 153d
00000050: d99f 7d3d 0ac7 08be 35c0 183c 2928 223c
00000060: 4f7c 8d3c dede d4bd 77fe 07be a418 04be
00000070: cc68 f2bd 15e9 68bc 3fd6 8fbe c7a1 88be
00000080: 8e80 133d 0d46 e5bd 55f6 12be 73c4 41be
00000090: a417 35bd f1d3 bdbd 1149 6abe dda3 89bd
000000a0: 5be3 34be e500 d83d 0f73 9fbc 99db cfbd
000000b0: f42a 5bbe 17be cd3c b134 b1bd 5f67 27bd
000000c0: 8f76 fdbc 9f0a 963d e598 0a3c f5e5 cfba
000000d0: 6fe6 24bd d2f6 d6bd e56e 5cbe 0a40 d9bd
000000e0: b23f d0bd d25c 403d d16f 8dbe 2655 7cbe
000000f0: 33a6 96bd 44d7 cd3b 1cac 10be fdaf 71be
00000100: f230 4cbe 2c99 5cbd a092 f1bd f42b 17be
00000110: 3cf5 f23c 8d7c 63be a049 d1bd 6b65 b4bd
00000120: e721 6dbe 4cdc b8bd ed3c 46be 2584 4cbe
00000130: 4ce6 2fbe 872b 7ebe c19c c7bd 25c7 95bc
00000140: 5b7f 373d 174f d2bd c7e0 523d b3b6 84bd
00000150: e4cf 31be c064 fabc 0833 503c b510 3bbd
00000160: c193 64be c653 98bd b3ca 56bf 91c4 48bf
00000170: 5d1d 13bd 8348 9d3e 53a5 babe d9b3 75be
00000180: 6abf 61c0 a499 82bf 1ac8 ebbf 149e 0a3f
00000190: be77 3cbf 68bb eabe 7547 aabe fc45 adbf
000001a0: 45d5 73bf d8bb c7be c633 92bf a989 6fbf
000001b0: 7fc1 86bf af48 70bf 17ef d6bf 30d3 1d3e
000001c0: 3ec0 b23d 6d9b 693d 71fc bb3f 9798 d63e
000001d0: 830a 4f3f 7d0c 5abe 71b1 b3bf fd3f e3bf
000001e0: 268b 8e3f b235 493f 41d4 18be 91ce 0c40
000001f0: 96c9 ba3f 9ba2 b63f 5c3e ba3e 389e 103b
00000200: 1def 00be c616 2cc0 5d12 88be 43de 0340
00000210: 5770 e1bd 9d29 9f3f 147d 173e cf75 1640
00000220: 96e5 603f 6602 123f 8ae6 92bf 5ad3 ad3e
00000230: d168 7d3f da56 a1bf 6ac4 38bf cd23 933d
00000240: f22a b5be 868d 8ebe 0bf5 313f 0553 9fbf
00000250: 11f2 22bd e283 0b3f 15c5 5bbf f5fb 9c3d
00000260: 64f6 cbbf 2b10 6e3f 775d 1d3f b997 083f
00000270: 22b2 c9bf 1873 c23e 43af 4d40 ce9a e33e
00000280: c82b b13d 7ca3 9a3f 2880 df3f e6f1 6e3f
00000290: 6d1b 6d3f c0c6 61c0 7ca2 0ac0 0da0 843f
000002a0: 23bd 1ec0 7299 10c0 60c3 2bc0 4c46 b8be
000002b0: 7807 c1be e872 63bf 05f2 1cbf 0de3 903d
000002c0: 4495 f33f b1d2 4140 5202 1cbe e30d c3bf
000002d0: 6305 4bc0 30cc c63f 8ce7 adbf d43e 1f3f
000002e0: 7c35 2240 3dfb b2bf 5412 963f 7147 b1be
000002f0: 6c99 b6bf a966 28c0 f9a2 a23f 217b a33f
00000300: 3e2a 8fc0 7a85 76bf 25de 0fc0 f59d aac0
00000310: fe9b b9bd f349 2240 a08e d53e 57da d73e
00000320: 5804 cdbf dd19 ed3f 0aae 673f 64ff e5bf
00000330: 0f50 f93f 9bb7 c13f 48dc 47bf e226 a9bf
00000340: 515c 093f c4a9 fe3f f0ea 2a3f 96c6 7b3f
00000350: b675 063f e116 06bf f24d 683f de4b 823f
00000360: f7f8 80bf efbf b1bf 7ce7 833f 39f9 5dc0
00000370: 5670 37bf 9524 493f 8df5 eebc 330a b63f
00000380: 6ba2 24bf 98e8 5f3f ce22 18be f6eb 92bf
00000390: d0dc 893f 2423 53be d96b 97c0 59aa b53f
000003a0: a000 e93f b9e7 6ac0 feed 6fbf cb49 15c0
000003b0: 50c5 27bf 0311 bdbf bd99 a6bf 48e8 95bc
000003c0: ded8 133f 63cd 0640 8cf5 a6be 8be6 1040
000003d0: 4ab0 023f 07de 72c0 6de3 a53f 8e3c 213d
000003e0: 447c c6be 0d57 42c0 7874 7cbf a1f0 44be
000003f0: 871a d83e a7e0 053e 8f64 94bf 7c7a 29bf
-0.08321447 -0.11603046 -0.098424084 -0.16834828 -0.10391331 -0.11686552 -0.0984715 -0.25309172
-0.11516626 -0.0914077 0.028724447 -0.021712348 0.016959574 0.033511713 0.009909071 0.02815486
-0.140756 -0.00019121295 -0.03625593 0.036379963 0.06192002 -0.13357177 0.0093231695 0.00989727
0.017271189 -0.10394071 -0.13280664 -0.12900025 -0.11836395 -0.014215727 -0.28093144 -0.26685926
0.03601127 -0.11195002 -0.1435178 -0.18922596 -0.044212 -0.0926894 -0.22879435 -0.067207076
-0.17664854 0.105470456 -0.019464044 -0.10149307 -0.21403104 0.025115056 -0.08652628 -0.040870067
-0.030940322 0.073262446 0.008459304 -0.0015861379 -0.04025882 -0.10496296 -0.21526678 -0.106079176
-0.10168399 0.04696352 -0.27624372 -0.24641857 -0.07355919 0.006281765 -0.14128155 -0.2360229
-0.19940546 -0.053857014 -0.117955446 -0.1476286 0.029657952 -0.22215481 -0.10219121 -0.088084064
-0.23157464 -0.09026393 -0.19359179 -0.19972284 -0.17177695 -0.24821292 -0.09746695 -0.018283436
0.04479919 -0.102689914 0.051483896 -0.064801596 -0.1736446 -0.03056562 0.012707479 -0.04567023
-0.22321989 -0.074378535 -0.83903044 -0.78424937 -0.035916675 0.30719385 -0.36454257 -0.23994388
-3.527308 -1.0203137 -1.8420441 0.5414746 -0.7362021 -0.45846105 -0.33257642 -1.3536983
-0.952473 -0.390105 -1.142205 -0.9356943 -1.05278 -0.93860906 -1.6791714 0.15412593
0.087280735 0.05703299 1.4686414 0.41913292 0.80875415 -0.21293826 -1.4038526 -1.7753903
1.1136215 0.7859756 -0.14924718 2.2001078 1.4592769 1.4268373 0.363757 0.0022066962
-0.12591214 -2.68889 -0.2657651 2.0604408 -0.11007755 1.2434574 0.14793807 2.3509405
0.8785032 0.5703491 -1.1476605 0.3395031 0.9898806 -1.260463 -0.72174704 0.07184563
-0.35384327 -0.2784235 0.6951453 -1.244721 -0.039781634 0.5449811 -0.858476 0.076652445
-1.5934567 0.9299342 0.6147074 0.5335651 -1.5757487 0.37978435 3.2138221 0.44454044
0.08650929 1.2081141 1.7460985 0.9333786 0.92619973 -3.5277557 -2.1661673 1.0361344
-2.480294 -2.2593656 -2.6837997 -0.35991132 -0.3770101 -0.8884721 -0.6130679 0.070745565
1.9029927 3.0284846 -0.1523526 -1.5238613 -3.1722038 1.5531063 -1.3586287 0.62205243
2.5345144 -1.3982922 1.1724343 -0.34624818 -1.4265571 -2.6312659 1.2705985 1.2771951
-4.4739065 -0.9629742 -2.2479336 -5.331782 -0.09062956 2.5357635 0.41710377 0.42158768
-1.6016951 1.8523518 0.9049994 -1.7968564 1.9477557 1.5134157 -0.780705 -1.3214991
0.5365649 1.9895558 0.66764736 0.98349893 0.5252336 -0.5237866 0.90743935 1.0179403
-1.0075978 -1.3886698 1.0305018 -3.4683363 -0.71655786 0.78571445 -0.029169822 1.4221863
-0.6431033 0.87464285 -0.14857027 -1.147826 1.0770512 -0.20618874 -4.731915 1.4192611
1.8203316 -3.6703932 -0.9372252 -2.332629 -0.6553545 -1.4770817 -1.3015667 -0.018299237
0.5775279 2.1062858 -0.32609212 2.2640712 0.51050246 -3.7948015 1.296003 0.03936439
-0.38766682 -3.0365632 -0.9861522 -0.19232418 0.4220774 0.1307398 -1.1593188 -0.6620252

conv2.bias f4 [10]
00000000: 6bfa 81be f988 c33f eecc 73be 4d3f 9bbd
00000010: 5b67 4740 2271 b340 2746 9b3e d0cd 1a3f
00000020: 1b0e 3dbd 5ebf 0b40
-0.25386366 1.5276176 -0.23808643 -0.07580433 3.1156833 5.60756 0.3032696 0.60470295
-0.04615603 2.1835551

conv3.weight f4 [10, 10, 3, 3]
00000000: 03a7 adbc c1eb 023e bcd6 cdbd 84fb 0abd
00000010: b884 da3d 3a3d 2c3d b498 2a3e 2277 953d
00000020: 865e 8abc 9658 0fc0 b754 64bf 77c5 bb3d
00000030: 3b17 d4bf a572 c53e 0c68 033f 668f 8cbf
00000040: 5fa0 ae3f 19e9 fe3f a096 28be 94fb 63bf
00000050: 9fde 1e40 cc71 883f 8fa8 693f 01ec 3f40
00000060: 5ec3 d93e 9df9 7b3f 055f 7340 b231 fe3b
00000070: d7fd fd3c c688 d3bc 1d35 92bc 3884 d53d
00000080: 1f1d bfbd 4f38 113d eb63 cc3d aaee e73d
00000090: 0c1a 02c0 267e 52c0 fac4 8f3e 4025 663f
000000a0: 38cc 5140 3249 dc3f 570e 9d3f 3b98 ca3f
000000b0: 8b70 9e3f 5119 743e 6e9f 2b3f 3d85 0fbe
000000c0: b032 7d3f 4260 bbbe 1ef5 413f dac7 403f
000000d0: fe89 43bd 1df3 853f 8dcd ebbe fb72 fd3e
000000e0: 4e61 903f dd56 1c3d 314f dabe 6eca 0a40
000000f0: 6895 26bf c9be 8e3e a02b c33f 9614 2bc0
00000100: cfbb 2ec0 b5c5 a9bd 0c1b f9bf 5d3f a0bf
00000110: 5213 033f cc17 aa3e 648a b73f 736c 0e3f
00000120: df75 f6bc a505 17be 7aa5 dabd 8379 c53d
00000130: 7869 f63b a033 8cbd e352 4c3e 9b5a 843c
00000140: 8f05 3d3e ddd2 663f 51b1 9a3f 5292 843f
00000150: 0472 1b40 7f20 2f40 afc4 303f 4f2b 5c40
00000160: e2a2 f43f 0ccd b03f 1140 303d 733d 8f3d
00000170: 8ace 3cbd f399 7d3d ad81 38bd aec3 fd3d
00000180: ccbc 2cbd 3568 debb 7206 dabd ddf2 9d3c
00000190: 05ab c1bd a5ab 8fbc c613 99bd c06e cbbd
000001a0: 1d8d 4fbd 8f46 beba 3499 3cbd b4fb d73c
000001b0: 3043 283c 8656 09bd 0dd4 613c 29ed cbbd
000001c0: 03c8 d2bc 8347 d53d 53e2 a53d fb97 f5bc
000001d0: e8fe a7bb b494 fc3c 7d11 213c c17a e8bd
000001e0: 6434 053d 2926 e7bd 4c8f f3bd 2c57 c43d
000001f0: 8cde d4bd b1c2 803d f336 a9bc b9a8 2a3c
00000200: 00e5 1cbe a236 263d c124 dcbc d27c 583c
00000210: 4b8f 89bd 705e 23bc a0b0 9abd 7a30 833d
00000220: abd4 0dbe 345c 91bd 2b17 26bd 53b8 e2bd
00000230: c359 ecbb 5545 af3d dd6d f0bd 37bf d5bd
00000240: 571d 1cbd 80a2 5abd a016 57bb 8805 10bd
00000250: 4db1 a9bb 3f7b 193d 4381 77bd 776a 17bd
00000260: 8a35 873c d5e5 bebd f26c 81bd ba38 19bb
00000270: 374e 23bd 15da c9bd 7429 02be bf90 07bd
00000280: 0d41 efbd 3436 1bbe 2e44 103e fc70 c13c
00000290: d70e b23d c7b2 8b3c 72e3 053e 63c9 b63c
000002a0: 7af5 df3c efcd ea3d 242a 1a3d f174 24bd
000002b0: 30a0 febd 8304 4dbd cc49 093d f680 debd
000002c0: f79d 0ebd 7d28 4c3d c78d 06be 2c43 8ebd
000002d0: 5ef5 963d ef7c af3c 7751 9b3c 714c 3d3c
000002e0: 3ee5 863d c9c0 56bc 2904 a13d 183d f5bd
000002f0: 9490 a1bd 1c9d 4a3f edb4 dc3e 4b53 8b3f
00000300: ee8e 5cbf 00cb ddbe 01b8 53bf 2e91 c8be
00000310: 9140 0bbf 9971 aabf f0de d6bf a834 efbf
00000320: 161b 24c0 84cc 5fbf 4463 6fbf b338 0abf
00000330: 1cb4 23c0 8ac7 f5bf 1838 70bf aabb 3d3d
00000340: 089c e6bc bc0d cdbd 75a7 8b3c 7b9f 23bb
00000350: c878 b13d bf76 383d 0531 cb3c 25d8 b4bd
00000360: 3479 353f 5b1c cf3e 5beb 983f ff04 afbf
00000370: 6741 88bf 9b8f dcbe 5d4b 07c0 f9c4 06c0
00000380: ed61 d3bf e68f 7abe 41df 40bf 0c44 073f
00000390: 6e9c 3b3f 0b7a ae3f 2ef8 da3f 152e fe3f
000003a0: fb37 1140 0344 e83f c2cb 873e c692 323e
000003b0: 656f cf3f c94c 0d3f 07fa 923f 9855 1b40
000003c0: bb63 a33f a636 243f 464e ce3f a265 0e3f
000003d0: 6400 a43f 2c0d 303f 18a2 d23e 25fa 55bf
000003e0: a7f1 85bf 753b ddbf 5667 03c0 5d6d 08c0
000003f0: 592b 913d cba2 33bc b2a4 033d fe63 dd3c
-0.021197801 0.12785245 -0.10050723 -0.03393127 0.10669845 0.042050578 0.16659814 0.072981134
-0.016890775 -2.2397819 -0.89191765 0.09168523 -1.6569589 0.3856403 0.5133064 -1.0981262
1.3642691 1.9914886 -0.16463709 -0.8905575 2.4823377 1.0659728 0.91272825 2.9987795
0.42531866 0.98427755 3.8026745 0.007757389 0.03100483 -0.025822055 -0.017847592 0.10425609
-0.09331726 0.03545409 0.09979995 0.113248184 -2.0328398 -3.2889495 0.2807997 0.8990059
3.2780895 1.7209837 1.2270001 1.5827707 1.2378095 0.23837782 0.67040145 -0.1401567
0.9890547 -0.36596876 0.75764644 0.7530495 -0.04773902 1.0464817 -0.4605526 0.49501786
1.1279695 0.038168777 -0.42638543 2.1686053 -0.65071726 0.27879933 1.5247688 -2.6731315
-2.730213 -0.08289663 -1.9461379 -1.2519337 0.51201355 0.3322128 1.4339108 0.5563423
-0.030085502 -0.14748247 -0.106760934 0.09642317 0.007519897 -0.06845784 0.19953494 0.016156485
0.18459152 0.901655 1.2085363 1.0357153 2.428834 2.7363584 0.69050115 3.4401433
1.9112208 1.3812575 0.04302985 0.069941424 -0.04609541 0.061914396 -0.045045543 0.123908386
-0.04217224 -0.006787325 -0.106457606 0.019280845 -0.094564475 -0.017537901 -0.074744746 -0.09933233
-0.050671685 -0.0014516878 -0.046044543 0.026365139 0.010269925 -0.03352978 0.013783467 -0.09957344
-0.025730139 0.104140304 0.080998085 -0.029979696 -0.0051268227 0.030832626 0.00983083 -0.113515384
0.032520667 -0.11286575 -0.11892566 0.09586939 -0.1039401 0.062871344 -0.020656085 0.010416203
-0.15321732 0.040579446 -0.026872994 0.013213353 -0.06716784 -0.009971246 -0.0755322 0.064057305
-0.13850658 -0.070976645 -0.04054944 -0.11070313 -0.007212849 0.08558146 -0.11739705 -0.10436862
-0.03811392 -0.05337763 -0.0032819882 -0.035161525 -0.0051786066 0.037471052 -0.060426008 -0.036966767
0.016505022 -0.09321181 -0.06319608 -0.002337976 -0.039869513 -0.09856049 -0.12711126 -0.033097025
-0.11682329 -0.15157396 0.14088508 0.023613445 0.08694237 0.017053021 0.13075045 0.022312826
0.027338732 0.1146506 0.037637845 -0.040150587 -0.12432897 -0.05005313 0.033517644 -0.10864441
-0.034818616 0.0498433 -0.13140021 -0.06946406 0.07371019 0.021421878 0.018959744 0.01155387
0.06586693 -0.013107487 0.078621216 -0.11974543 -0.07888904 0.7914598 0.43106785 1.0884794
-0.86155593 -0.4331894 -0.8270264 -0.39173263 -0.54395396 -1.3315917 -1.6786785 -1.8687944
-2.5641532 -0.8742144 -0.9351084 -0.53992766 -2.557868 -1.920152 -0.9383559 0.04632155
-0.028150573 -0.10012385 0.017047623 -0.0024966884 0.08665615 0.04503512 0.024803648 -0.08830289
0.70888066 0.4045132 1.1946825 -1.36734 -1.0644959 -0.43078312 -2.1139748 -2.1057723
-1.651426 -0.24468955 -0.7534066 0.52838206 0.7328557 1.3630995 1.7106988 1.9857813
2.2690418 1.8145756 0.26522642 0.17438802 1.620587 0.5519529 1.1482552 2.4270992
1.276481 0.64145887 1.6117637 0.5562383 1.2812619 0.687701 0.41139293 -0.83584815
-1.0464371 -1.728377 -2.0531821 -2.131675 0.07088346 -0.010964106 0.032139488 0.027025219

conv3.bias f4 [10]
00000000: 9c86 ddbf aaab a3bd c75a 9a3f e1c4 c2bd
00000010: a690 acbb 859b 3f3c 8b24 bebd 7d91 d4bd
00000020: ffa7 75bd cc5e 1541
-1.7306705 -0.07991727 1.2058953 -0.09510208 -0.005266267 0.011694794 -0.09284314 -0.10379312
-0.059974667 9.335644

conv4.weight f4 [10, 10, 3, 3]
00000000: 91d5 59bf 1e3d 00bf f318 d53d e019 b1bf
00000010: adc3 e3bf 5f72 40bf b172 853f ea41 08c0
00000020: d01e 11c0 da4c afbd 646f 203d b072 56bd
00000030: 5811 743d 1a73 8a3d 455d ac3d 5d0e 91bc
00000040: f103 e43c 11da a53d 48b4 27bd 5f51 1ebd
00000050: 7abd 93bd aa0b e5bf 7e64 6a3e 522f 8c3f
00000060: ae5d 19c0 9fab 99bd 923c 3340 247d 65bc
00000070: bda0 02bd 7200 ccbd 70cc 103e 1ac5 90bd
00000080: 8bc1 a93c d661 b83d c5c5 c13d cdac 85bd
00000090: 2d73 e93c c7d6 743d 397b a03c cf31 d83d
000000a0: 821c 013c 59c4 9b3c 61ff e53d 60c5 3e3c
000000b0: ce40 fcbc cb78 563d 3782 02bd c06d 5bbd
000000c0: aa7d 2bbd dfa8 5a3d 9c63 013e 48af d1bd
000000d0: 86b9 1bbd 348d 98bd 687d 7c3d aae2 983b
000000e0: 8b47 81bc accf 74bd a0a2 fc3c 81de 003e
000000f0: 1844 4bbd 6378 49bd dfdb 16bd 8944 6b3c
00000100: 5308 2c3d 5949 6b3d 71bd f7bd 5d45 193d
00000110: cdbe ef3d 58a8 0e3e c2bd e5bc 1e17 efbd
00000120: 76bb b0bd 8357 283d 2980 e33c 361f 77bd
00000130: f8bb 28be 9f98 5e3d bb79 8cbc 7913 ae3c
00000140: b85a c1bd d719 84bf d381 d2bf 8e69 b6bf
00000150: 6e14 1340 9ec2 153e 13fc 0dc0 97d0 ff3f
00000160: a81d 333f 16c1 303f 59f5 ff3f cd05 b33e
00000170: 1309 0140 20b2 e2bd 17f4 703f 365b b1be
00000180: 81ed 68c0 c2f4 92bf ca45 86c0 2fa9 bd3d
00000190: 3e52 c4bc f0f6 8c3d d6f7 a4bc 9be1 123d
000001a0: 1445 a33c e4e8 6cbd b0c1 a53d eb04 debd
000001b0: 3b3f d43e b132 363e 4c7a cb3e 5daf 86bf
000001c0: 323a 0d3f b671 ba3e 36b9 73bf c8db 30bf
000001d0: 5c26 8e3f 2430 943d 70a0 383d acd1 61bd
000001e0: 603c cbbd 44ff 143e 82d3 5cbe e6ab 833d
000001f0: 186f 6d3d 79b0 dcbc 8e7e 27bd 17ba d6bd
00000200: 41fc a53d 1a9b fb3d e22e 99bd 4adf 2e3d
00000210: 35b6 483c d8ea 313b 21ee 3fbd aaed a0bd
00000220: d56b 0c3d 99cb d3bd 8888 65bd b3f7 89bd
00000230: 7c44 933d 8a0e 4a3c 0395 2d3c 4983 debb
00000240: a4a0 d53d 61dc a53c 5c10 b63c 768c 2e3d
00000250: fd3e 943c 945d eabc f7f1 d8bd 085a 193d
00000260: 17e0 d0bd 51f3 b7bd 4fd0 2abd b91c c43d
00000270: d272 4e3b 13d7 a0bd 5d28 7b3d 9828 a03d
00000280: 6d54 a4bd 999a e4bd 9dab c23c eebe 12bd
00000290: 04bb b73c 2b1a 88bc 836e 943c 36e2 76bd
000002a0: afa7 c43d 8397 15be 731f 63be 6b2a babf
000002b0: e0af c3bf 3c4e 48bf cdd2 763d cd47 df3e
000002c0: de92 d73f 4588 ac3f 5766 773f af15 0ebf
000002d0: c0c2 13bf 7d51 0640 f809 a13f 94ea 0f40
000002e0: 495d c93f 65cb 0240 a197 053f bf8f 38bf
000002f0: de2b a7bf cf1d 8abc ea70 babd be82 4abd
00000300: d516 14be 65ab b33d 9002 383d 17ba dfbd
00000310: e971 05bd c81c 823d 7302 e2bf e34a 44bf
00000320: 5fe6 88bf 2e05 15bc 4373 d3bf 6747 37be
00000330: a062 16c0 904f 8abf 8e15 ea3f 332e ec3d
00000340: 1db4 85bd 338e 05bd 0d20 a9bb 2679 723d
00000350: c565 563d b485 9fbc 8790 113e f815 d53d
00000360: b0bf 0c3d 2edc d13d b59d b73d 4a26 37bd
00000370: be50 f83d d406 1aba 583e a9bd 07a8 21bd
00000380: ff00 27bc 5949 80bd 9800 9dbd f5f2 ed3d
00000390: 143b 2c3a ea15 6f3b 6f5f ba3c 92cb b7bc
000003a0: 5eef 913d 60b2 fc3d 9476 783d f293 513d
000003b0: 848e f3bd 464c 23bd 8311 aebd 6fcc 6ebd
000003c0: 0801 b23d b64d 2cbd c290 f1bc e887 433b
000003d0: 766c 633c 5eb7 953d c540 4c3c 9af2 03bc
000003e0: 820d f2ba 9833 523b 3d27 2dbc c850 9bbd
000003f0: 74b1 31bc 6d56 b03b df25 e63d 4b66 503d
-0.850915 -0.5009326 0.10405149 -1.3836021 -1.779409 -0.75174516 1.0425626 -2.129023
-2.2675056 -0.0855958 0.03916873 -0.05235547 0.059586853 0.06760235 0.08416227 -0.017707044
0.02783391 0.080982335 -0.040943414 -0.03865182 -0.07213874 -1.7894185 0.22889897 1.0951941
-2.3963428 -0.07503437 2.800572 -0.014006887 -0.031891573 -0.099610224 0.14140487 -0.07068844
0.020722171 0.09003036 0.0946155 -0.065271 0.028497303 0.05977514 0.019590007 0.10556375
0.007880332 0.019014524 0.1123035 0.011643738 -0.03079262 0.05236129 -0.031862464 -0.053571463
-0.04186789 0.053383704 0.12635654 -0.1023851 -0.038018726 -0.07448807 0.061643034 0.0046656923
-0.015781185 -0.059768364 0.030839264 0.12584879 -0.049625486 -0.049187075 -0.03683078 0.014359602
0.042000126 0.057442997 -0.1209668 0.037419666 0.11706314 0.13931406 -0.028044585 -0.11674331
-0.08629505 0.041099083 0.027771072 -0.0603325 -0.16477954 0.05434477 -0.01714789 0.02124952
-0.09441131 -1.0320386 -1.6445869 -1.4250963 2.298122 0.14625022 -2.2185104 1.9985532
0.69967127 0.69044626 1.9996749 0.34965363 2.0161788 -0.11069131 0.9412245 -0.346399
-3.639496 -1.1480944 -4.196019 0.09260785 -0.023964997 0.06883037 -0.020137709 0.035859685
0.0199304 -0.05783929 0.080935836 -0.10840782 0.4145449 0.17792775 0.39741743 -1.0522267
0.55166924 0.3641488 -0.95204484 -0.6908536 1.1105456 0.072357446 0.04507488 -0.0551316
-0.09923625 0.14550501 -0.21565059 0.064292714 0.057967275 -0.026939617 -0.040892176 -0.104847126
0.08104754 0.12285443 -0.07479645 0.042693414 0.012250473 0.0027148034 -0.046857957 -0.07857831
0.034282524 -0.103415675 -0.05603841 -0.06736698 0.07190797 0.012332568 0.010594609 -0.0067905528
0.104310304 0.020246686 0.022224598 0.042614423 0.018096441 -0.028609075 -0.10593026 0.037439376
-0.10198992 -0.08981956 -0.041702565 0.09575791 0.0031501544 -0.07853522 0.06131779 0.07820243
-0.080239154 -0.111623 0.023763472 -0.035826616 0.022428043 -0.01661404 0.018119102 -0.060274325
0.096022956 -0.14608578 -0.22179966 -1.4544195 -1.5288048 -0.78244376 0.06025963 0.43609467
1.6841695 1.3479086 0.96640533 -0.55501837 -0.5771904 2.0987236 1.2581167 2.2486925
1.5731593 2.0436642 0.5218449 -0.7209434 -1.3060262 -0.016859917 -0.09103568 -0.04944109
-0.14461835 0.08772925 0.04492432 -0.10924166 -0.032579336 0.06353146 -1.7656997 -0.7667677
-1.0695304 -0.009095473 -1.651955 -0.17898332 -2.3497696 -1.080553 1.8287828 0.11532249
-0.065284945 -0.032606315 -0.0051612915 0.059197567 0.05234315 -0.019472934 0.14215289 0.10404581
0.034362495 0.10247074 0.08965627 -0.04471425 0.12124775 -0.0005875651 -0.08263844 -0.039466884
-0.010193109 -0.0626399 -0.07666129 0.11618606 0.00065700826 0.0036481568 0.022750584 -0.022435937
0.07125734 0.1233871 0.06065996 0.051166482 -0.11892417 -0.039867662 -0.08499434 -0.05830043
0.08691603 -0.0420663 -0.029487971 0.0029835645 0.01388084 0.07310365 0.012466614 -0.008053446
-0.001846716 0.003207421 -0.010568437 -0.07583767 -0.010845531 0.0053813965 0.11237692 0.050878804

conv4.bias f4 [10]
00000000: a493 5c3e 05e4 8d3e 958d 7dbd 700b 5bbd
00000010: c5d9 73be bb2c 24be 0264 01bf 761b 853e
00000020: 75b9 dcbe f632 383e
0.21540695 0.27713028 -0.0619026 -0.053477705 -0.23813541 -0.16032688 -0.50543225 0.25997514
-0.43110242 0.1798819

norm.weight f4 [10]
00000000: f151 a53e 7847 623e d219 523e 55a8 3d3e
00000010: 4986 043e 8f6e 4d3e 6771 c63e 0484 3d3e
00000020: 8151 8a3e 9de3 113e
0.3228908 0.22097576 0.20517662 0.18521245 0.1294185 0.20061706 0.38758394 0.18507391
0.27015308 0.14246984

norm.bias f4 [10]
00000000: 1886 adbe cf06 80be ff8e babe 32be 1dbe
00000010: 5a48 c5bd 016a 4bbe 4e8c bebe 3b2f 36be
00000020: 4bf5 8fbe e901 0abe
-0.33891368 -0.25005195 -0.36437222 -0.15404585 -0.096329406 -0.19864656 -0.3721642 -0.17791454
-0.2811683 -0.13477291

norm.running_mean f4 [10]
00000000: ce7e b0c4 c237 0ec4 49b1 e6c3 7cef 8ec4
00000010: fb9c 4b42 cbc8 7ec4 88cd 14c5 7090 c6c4
00000020: c426 bdc4 3090 9ac1
-1411.9626 -568.8712 -461.38504 -1143.4839 50.9033 -1019.1374 -2380.8457 -1588.5137
-1513.2114 -19.320404

norm.running_var f4 [10]
00000000: aa0b 1f49 b100 0649 6207 4c49 11bf 8249
00000010: 45ee df48 072d f848 e851 9749 3a85 1349
00000020: b2b3 9649 8a26 2449
651450.6 548875.06 835702.1 1.0710741e+06 458610.16 508264.22 1.239613e+06 604243.6
1.2345502e+06 672360.6

fc1.weight f4 [50, 810]
00000000: d204 423d cfaf 18bf 4141 e6bf 9dbc 0ac0
00000010: 2d32 5fbf 82e6 643f 5b55 e1be 2049 4bbe
00000020: 368b 813f 9506 16c0 9e46 32bf cd36 1c3c
00000030: bfa1 863e bd01 eb3f 34fb 15bf abdb da3f
00000040: 1a5e 3cbf 4aa5 a1bf 474d e03e 5e7e 3abf
00000050: 32c2 0dc0 3a5a dcbe 1402 073f d8c3 153d
00000060: 4252 49be 976e dbbe d7d2 213f 0753 473f
00000070: cc0b c93f e0f7 333d c620 2640 2424 eb3f
00000080: 2143 e63e c6fd 02c0 3288 c0bd 0fed a93e
00000090: 0f39 aebf 270c 0b3f 0bd7 54be fe02 c5bf
000000a0: c739 a7be b0fe 263f 8981 60bf 73f9 8bbe
000000b0: dd2d 6fbf c0f8 bcbf 8101 b6bf d008 163e
000000c0: 32ef 8ebf 584d 74c0 81d8 9ec0 3a7a 95c0
000000d0: 13a7 11c0 71c0 a13f 5b73 c8bf 53b5 9ac0
000000e0: 19ce 6bbe 712f 89bf e54f 09c0 dcdf 27bf
000000f0: bf76 ffbf 5fff da3f 17f9 5cbf a05d a7bf
00000100: a2dd ebbf 54e2 163f 2ef9 7fc0 7092 d1bf
00000110: eda7 843f a2c1 95c0 c908 99bf ee60 19c0
00000120: e684 223f 587f 94c0 6e87 9abf 861c 2dc0
00000130: cc0e f0be 96e7 c9bf 2255 053f d238 eabf
00000140: 750a b6be 824d be3f 5f7d 1840 f47a 47bf
00000150: ec26 dcbf 3f30 23c0 8436 7c3f d2bf cf3f
00000160: a5d5 2a3f 2d2e 813f 8b70 73bf 2de6 09bf
00000170: bfc3 a7bf af35 0ac0 5cd2 433f 65f8 2540
00000180: 6393 6d3f ace5 da3e 177f 693f 19f0 af3f
00000190: 1e13 123f 6c42 8cbe e97b 6abf 5ad9 6a3f
000001a0: c2af e33f f9ab 5cbf 45fb 35be 2f04 a33d
000001b0: 5179 7cbf 4d7f f13e 5c50 ccbd f166 6a3e
000001c0: eb85 eabd 026e b33f 449f bb3e 1253 d23e
000001d0: 256e 153f 8a7c 843d 733e a53f 5659 8c3e
000001e0: 92f2 933e dc46 14bf d34d 0e40 efd4 f5bd
000001f0: 4329 f43e 68f3 cf3f b063 e7be e886 e0be
00000200: 428d 40c0 e9a9 06c0 01ce 80bf c68c 1bc0
00000210: 61da 77bf 55f5 893f 04f2 a33e d20f 15c0
00000220: eef9 9cbe 829e 603f 274b 03c0 a8be f7bf
00000230: 46f3 83bf 0984 adbf 4bc7 823e 83bf f0be
00000240: 25d7 533f 2b96 d4bf 043e 19c0 0224 35be
00000250: e0eb 51bf 390a d3bf 131b 50c0 5f2d 28c0
00000260: f5c6 d33e 95fb b33f 517c 58c0 cc22 28c0
00000270: 879f e4bf 4d8b 82c0 f49a 2abf 33cc aa3e
00000280: 461d 67bf f19a ab3f 38ef 05bf 77c6 30c0
00000290: d805 10c0 d011 2b3f 9665 f93e d7b5 01c0
000002a0: 5348 a8be a040 393f 0f7a 733f f760 19be
000002b0: b2ca 4bbf e3e1 66bb b10e de3f 4a74 65bf
000002c0: 2713 84c0 2330 bcbf 4233 cdbd c791 a53e
000002d0: fe25 30bf d5bb 34bf 0e94 193f e99e 21bf
000002e0: 4e5e e7bf c469 f03f 7c5f 1ebe 7f7a 91bf
000002f0: cf65 813f 5353 6c3f 63b6 cb3c 6391 b63f
00000300: 7874 923f fb93 a73e 1913 eebe 3a47 aabf
00000310: 6b08 553e 7e08 033f 0caa ffbe c948 2f40
00000320: 15d0 da3e 1bfa 153e a821 32bf 47fa 20c0
00000330: 9e47 ce3e 956a dfbf 2ea9 a8c0 eabf 0bbf
00000340: 4dca 953f d549 48bf 7d74 31bf 9d4a 33c0
00000350: bd0a b4bf 2df0 8abf 1492 16c0 b178 99bf
00000360: 408f cc3f 1819 4f3f 54fe 26bf 3693 c2bf
00000370: 4a53 27c0 762a debf 742c 62bf 961e 39be
00000380: 3778 4dbe 3c78 43c0 d027 863f 7ad7 04bf
00000390: d340 73bf 8273 30bf 56ec 0fbf 0dd4 30bf
000003a0: 74c2 ad3f 03b6 173e 2f5d a6bf f16a e0bf
000003b0: 51bf 2b3f 1fb6 debe 975d 893e 3b8f b0bf
000003c0: c2a7 c0be 7bac 9cbe c1a1 4fbe 285f 1abf
000003d0: 84d7 15bf 0150 cabd c4e0 be3c 695e 193f
000003e0: be55 303f 1b15 5bbe 36e3 363e 68d6 8abe
000003f0: 2b67 c9bf 9329 1cbe c90a 7e3e 5449 8a3f
0.04736788 -0.5964326 -1.7988664 -2.167762 -0.8718594 0.89414227 -0.44010434 -0.19852114
1.0120609 -2.3441517 -0.69639003 0.00953455 0.26295277 1.8359905 -0.5858643 1.7098287
-0.7358109 -1.2628567 0.43808958 -0.7284907 -2.2149777 -0.43037587 0.52737546 0.036563724
-0.19660285 -0.4285781 0.6321234 0.77861065 1.5706725 0.043937564 2.5957503 1.8370404
0.4497309 -2.046739 -0.09400977 0.33188674 -1.3611163 0.5431542 -0.20785157 -1.5391538
-0.32661268 0.6523237 -0.87697655 -0.27338752 -0.93429357 -1.4763412 -1.4219209 0.14651799
-1.1166747 -3.8172207 -4.9639287 -4.67117 -2.2758224 1.2636853 -1.5660204 -4.8346343
-0.23027839 -1.0717603 -2.1455014 -0.6557596 -1.9958113 1.7109183 -0.8631758 -1.3075447
-1.8427012 0.589391 -3.9995837 -1.6372814 1.0363747 -4.679887 -1.1955806 -2.396541
0.63484037 -4.640545 -1.207258 -2.704866 -0.4688629 -1.57738 0.5208303 -1.829859
-0.35554853 1.4867404 2.382652 -0.77921987 -1.7199378 -2.5498197 0.98520684 1.6230414
0.66732246 1.0092217 -0.950936 -0.53866845 -1.3106612 -2.1595266 0.7649286 2.5932858
0.9280302 0.4275335 0.9120955 1.3745147 0.5706042 -0.27394426 -0.9159532 0.917379
1.7788012 -0.8619991 -0.17771633 0.07959782 -0.98622614 0.47167435 -0.09976265 0.22890832
-0.11451324 1.4017947 0.36644948 0.41079003 0.5837119 0.064690664 1.2909683 0.27411908
0.28896004 -0.5792062 2.2235 -0.120035045 0.4768773 1.6246157 -0.45193243 -0.43852925
-3.0086217 -2.1041205 -1.0062867 -2.4304671 -0.96817595 1.0777994 0.3202058 -2.3290906
-0.3065943 0.87741864 -2.051462 -1.9355059 -1.0308616 -1.3555919 0.25542673 -0.47021112
0.8275016 -1.6608328 -2.3944101 -0.17689517 -0.8200054 -1.6487495 -3.2516525 -2.6277692
0.4136273 1.4061152 -3.3825877 -2.6271238 -1.7861184 -4.0795045 -0.6664269 0.33358917
-0.9027904 1.3406659 -0.52318144 -2.7621133 -2.2503567 0.66824055 0.48710316 -2.0267236
-0.3286768 0.72364235 0.9510812 -0.14978395 -0.79606164 -0.0035229854 1.7348233 -0.8963057
-4.127338 -1.470219 -0.10019542 0.32337782 -0.6880797 -0.7059911 0.5999154 -0.631331
-1.8075655 1.8782277 -0.15466112 -1.1365508 1.0109195 0.9231464 0.024867242 1.4263119
1.1441793 0.32730088 -0.46498945 -1.3302987 0.20803992 0.51184833 -0.49934423 2.7388175
0.4273688 0.14646189 -0.69582605 -2.5152757 0.40289015 -1.7454401 -5.270652 -0.5458971
1.1702362 -0.7823766 -0.6931837 -2.801429 -1.4065777 -1.0854546 -2.352666 -1.1989957
1.5981216 0.80897665 -0.65231824 -1.5201175 -2.6144586 -1.7356708 -0.8834908 -0.18078074
-0.2006539 -3.0542135 1.04809 -0.5189129 -0.9502079 -0.6892625 -0.56219995 -0.69073564
1.3574967 0.14815526 -1.2997187 -1.7532636 0.670888 -0.43498322 0.26829216 -1.379371
-0.3762799 -0.30600342 -0.20276548 -0.60301447 -0.58531976 -0.09878541 0.023300536 0.59909683
0.6888083 -0.2139477 0.17860112 -0.27116704 -1.5734609 -0.15250234 0.24808802 1.0803628

fc1.bias f4 [50]
00000000: b451 c03f c501 0740 e720 54be 7566 243f
00000010: 67fc 76be cfc5 b73f c5ab c03f 6279 8fbe
00000020: 4434 b53f 02a3 48be 2958 47bf 82aa fb3e
00000030: cbad 09bf 10a3 0540 b5cf 34bd bd42 873f
00000040: 1629 a4bd 3605 73bd d524 4ebe 3b78 e2be
00000050: 7f3d c43f 99e6 6c40 2544 59be 3dec 7bbc
00000060: ef47 25be bfa7 50bf 1099 10bd c6db 413f
00000070: c414 0440 454a 11be 2146 67be 2a0a 48be
00000080: 865f 463e 2dcf 2340 be03 473e 122b d6be
00000090: cc5a 6ebe 396f b73f 1fb8 47be 89df efbd
000000a0: 47ae 87be 2d3c 4040 7076 f13e dfd1 21be
000000b0: a506 47bd d0e7 3f3f df28 4b36 7a57 e63f
000000c0: f0eb 773f 4f5f 0a40
1.5024934 2.109483 -0.20715676 0.6421884 -0.24119721 1.4357241 1.505242 -0.28022295
1.4156575 -0.19593433 -0.77868897 0.49153525 -0.5378081 2.0880775 -0.044143397 1.0567242
-0.08015649 -0.05933114 -0.20131238 -0.44232354 1.5331267 3.7015746 -0.21217401 -0.015376148
-0.16140722 -0.8150596 -0.03530222 0.7572597 2.0637674 -0.14188488 -0.22585346 -0.19535127
0.19372377 2.55952 0.19435021 -0.41829735 -0.23276824 1.4330817 -0.1950383 -0.11712558
-0.2650015 3.0036728 0.47160673 -0.15802716 -0.04859032 0.7496309 3.0273147e-06 1.7995446
0.9684439 2.1620672

fc2.weight f4 [7, 50]
00000000: b831 a9be 4c62 c93d 5327 9bbd 4f3d a7be
00000010: 1b00 79be 2016 41be 1f6d 58bf 8ae4 0abf
00000020: cedc 99bd 65d9 d83d 3cd0 aebf 5cd4 c4bd
00000030: 7c04 313e 9895 cdbd 9f6a d4bc b0db 073a
00000040: 0f7c a8bd 2f92 6f3a 66f3 66be 7a0b 30be
00000050: 0da7 35bd 6fbb 103e d159 0cbe a843 663d
00000060: d9e3 8dbd dc91 723e e981 c1bd 3cc0 50bd
00000070: 691e 59be 4978 1f3d a01c 91be c843 2c3e
00000080: fc93 0fbe 1717 0f3e 1535 fbbe 0d2c 80bf
00000090: e550 48be 9a5b 7a3e 8140 07be e971 62bd
000000a0: 191f f7bd a6ba b5bd cd31 44bf 05f7 4cbe
000000b0: f089 c0bd a159 1dbe 3ec3 9f3d 44d1 193e
000000c0: b13a b33c 4326 d3bd dff8 82be a597 f3be
000000d0: e6fc a7bd 079a 12bf dd11 6e3b 8fad bfbd
000000e0: 76f5 aabf 3552 47be 0bf0 953d 4552 1bbd
000000f0: 35ee b4c0 9781 1cbf 64ea 95bd 8247 6bbe
00000100: 35b2 d73c a26b e23d 6dea 28bd 0f54 18bd
00000110: f36c e7bd aef4 5bbd 400c 68be c0d8 f3bd
00000120: 7ffb 7abd fb12 a43c 197c 863c 9275 63be
00000130: 0201 f0bd 5f6d 8abe a7c7 93be 481d ce3d
00000140: 1031 75be c464 d13d f313 fe3c 3795 63be
00000150: e2d5 4fbf 1dd4 b6bf 0998 5dbc 0e28 96be
00000160: 9097 68be 7327 e03c 87b6 8fbd b172 babe
00000170: a3d6 3abf 5574 1ebd 3fe5 e13d 21b9 9dbd
00000180: d1d2 b73d d78e 1e3f acdc 3ebd 691e 47bd
00000190: 6429 7c3e 2742 1ebf bbe9 0abd 43f5 93be
000001a0: f83b 85bd 12d7 fabc 386a 5cbf 2507 2dbd
000001b0: 000b b2bc 74f8 d5bd 8d3a a9be 50a4 9dbe
000001c0: 4266 0c3c 69fb b2be f755 003d 972e 9d3e
000001d0: 304d c7bd 4d4b 413c 2400 90be 9c72 dcbc
000001e0: 9dac cbbd 3ac7 c7bb df67 813d d7f2 15bd
000001f0: 6b69 19be 7fcf 2b3e 23a0 5ebb 9f5a 52bd
00000200: 5b1f 0ebe 443a b33d d80b c5be 7be1 453c
00000210: 4503 77bd 6640 723d ebb5 d7bd 7fe8 753d
00000220: 7d78 263e 8096 d83c 2ef7 3ebe 2fef debb
00000230: 1cee 5fbe c0ee 09be c634 26bf c446 43be
00000240: d575 f9bd 3ddd 903e 0ab2 a63c 62f1 3fbd
00000250: 7b51 62bd cd78 debd da2c f5be 8cea e7be
00000260: 0169 753d 7086 dcbe eacd 9abd 7b97 05be
00000270: 7dc1 4fbf 0a7f 6fbf d82a 72bd 0f15 d6bc
00000280: 0005 c6bf a728 a33e d382 45ba 4c93 963e
00000290: 20d8 87bc cbb5 cdbd cbd1 893c 0272 94bc
000002a0: 8d40 a5bd 88e2 a6bd f490 a93e 710a 09bd
000002b0: 4a25 843c 4efb 5e3d 4145 0f3d 7cbc f439
000002c0: 8a9b 5abd db9f d03d 8962 973e bf6f e0bc
000002d0: 3b8a 25be b4a8 ed3d f623 d9bd 5f5e 6abd
000002e0: c6d9 bfbe 4bec 89bf 06e2 01bd a169 e1be
000002f0: 5606 3ebe c43e 79bd ed4f 3cbd efb0 903e
00000300: edb8 37be dd0a d33d 20f0 68bd 7bf6 7abd
00000310: 71b0 1cbd 24c2 dcbd 82a1 bdbe 0c10 b93d
00000320: f66c c1be e9a8 0dbf 663a bbbd e070 d4be
00000330: f74e b2bc 1bc6 f0bd fe67 32bf a594 97be
00000340: 3252 8bbd d3ce 31be ac9b 75bf 8341 a9bd
00000350: b3ee 71be 0cb0 41be ec94 eb3d c33a 683d
00000360: 8f23 2ebd fc4b 4fbd 353b 383d 92cb e9be
00000370: 5972 bebd aa01 7f3e 7a07 27bd 7faa 2bbd
00000380: 54b9 5c3b 9cb7 c0bd 2808 4dbd 5246 e43c
00000390: 908b 1dbe 5167 b8bd 0ac0 01be 1b23 efbc
000003a0: b205 893e 5fd9 ab3d 0500 50be 4535 7dbf
000003b0: d5a8 ca3c 7535 c63d a226 8c3d feaa ae3d
000003c0: 87fc 1dbe dd70 23be 734f 1dbf 1918 07be
000003d0: bc1c 8b3d e43b 44be e49c 5b3c 591b a7bd
000003e0: 74f0 093b 8600 13bd 3fc3 33be 53a6 a2be
000003f0: 5cf3 c2bd 8bb8 7b3e f631 8d3d 404d b03e
-0.33045745 0.09833202 -0.0757586 -0.32663962 -0.24316446 -0.18856096 -0.84541506 -0.5425497
-0.07512818 0.1058834 -1.3657298 -0.09610817 0.17286867 -0.10038298 -0.025929747 0.00051825773
-0.08226787 0.00091389095 -0.22553787 -0.17191878 -0.044348765 0.14134 -0.13706137 0.056216866
-0.06928224 0.23688453 -0.094486065 -0.05096458 -0.21203007 0.038933072 -0.28342152 0.16822731
-0.14021295 0.13973652 -0.49063936 -1.0013443 -0.19562109 0.24449006 -0.132082 -0.055284414
-0.12066478 -0.08873491 -0.7663849 -0.20016105 -0.094013095 -0.15366222 0.07800911 0.15021235
0.021878572 -0.10310032 -0.255805 -0.47576633 -0.082025334 -0.5726628 0.0036326565 -0.093592755
-1.3356159 -0.19464953 0.07321175 -0.037920255 -5.654078 -0.6113524 -0.07320097 -0.22976497
0.026330093 0.110556856 -0.04123919 -0.03718954 -0.11300077 -0.05370014 -0.22660923 -0.11906576
-0.061275 0.020028582 0.016416596 -0.22212818 -0.11718942 -0.2703657 -0.2886326 0.10064179
-0.23944497 0.10224298 0.031015372 -0.2222489 -0.81185734 -1.4283482 -0.013525018 -0.29327434
-0.22714067 0.02736256 -0.07017236 -0.36415628 -0.7298376 -0.03868516 0.11030053 -0.07701326
0.08975757 0.61936706 -0.046597168 -0.048612986 0.24625164 -0.6181969 -0.03391431 -0.28898057
-0.06505579 -0.030620132 -0.86099577 -0.04224314 -0.02173376 -0.10447779 -0.33052483 -0.30789423
0.008569302 -0.34957436 0.031331982 0.30699608 -0.09731519 0.011797738 -0.28125107 -0.026910119
-0.09945033 -0.0060967477 0.0631864 -0.036608543 -0.1498162 0.16778372 -0.003396996 -0.051355954
-0.13879149 0.08751348 -0.384856 0.0120776845 -0.060305852 0.059143446 -0.10532745 0.06003618
0.162569 0.026438951 -0.18648979 -0.0068034153 -0.21868175 -0.13469982 -0.64924276 -0.19069964
-0.12180678 0.2829379 0.020348568 -0.04686106 -0.055253487 -0.10862885 -0.47885782 -0.45296133
0.059914593 -0.43071318 -0.07558806 -0.13046066 -0.81154615 -0.9355322 -0.05912289 -0.026133088
-1.5470276 0.31866953 -0.0007534448 0.29409254 -0.016582549 -0.1004444 0.01682367 -0.01812077
-0.08068953 -0.08148676 0.33118403 -0.033457223 0.016131062 0.05443888 0.034978155 0.00046679738
-0.05337099 0.1018674 0.29567364 -0.027397035 -0.16166012 0.11604443 -0.10602562 -0.057218906
-0.37470835 -1.0775236 -0.031709693 -0.440259 -0.18557104 -0.060850874 -0.04597466 0.2825999
-0.17941637 0.103048064 -0.056869626 -0.06127022 -0.038254205 -0.10779217 -0.37037283 0.09036264
-0.37778443 -0.5533586 -0.09141998 -0.41492367 -0.021766169 -0.117565356 -0.6968993 -0.29605594
-0.06802787 -0.17364053 -0.9594066 -0.082644485 -0.23626213 -0.18914813 0.11503014 0.056696665
-0.04251438 -0.050609574 0.04497834 -0.45663124 -0.09299154 0.24902979 -0.040778615 -0.041910645
0.00336798 -0.09410021 -0.050056607 0.027865563 -0.1538527 -0.09004081 -0.12670913 -0.029191544
0.26762158 0.083910696 -0.20312507 -0.9890941 0.024738709 0.09678165 0.06843306 0.08528708
-0.15428363 -0.15961023 -0.61449355 -0.13192786 0.0679259 -0.19163471 0.013404105 -0.08159513
0.0021047862 -0.03588917 -0.17554949 -0.3176752 -0.09519073 0.24582116 0.06894295 0.34433937

fc2.bias f4 [7]
00000000: 3e9b a2be 983a cfbf 59f6 033e 20af 6d3d
00000010: 544b e53e 0f82 babe 8d80 a53e
-0.31759065 -1.6189756 0.12886943 0.05802834 0.44784033 -0.36427352 0.3232464

localization.0.weight f4 [8, 1, 7, 7]
00000000: 11ac 3b3d e054 aebc 7d0d a03d 22e9 063e
00000010: 51a3 503d 9889 de3d 7082 2d3e f0dd 3d3e
00000020: d8dd f43d f57f 7a3e 266e df3d ed88 2d3e
00000030: e435 6a3e cf5e 443c 009d 06bd 0807 af3d
00000040: 8ad4 523e 33e6 373b 8316 403e 6d63 193e
00000050: f66d 98bd d263 a73d d2cd 95bd 3aad 55bd
00000060: 16b2 413e 4983 463d 035f 613c 3d44 b63c
00000070: 3ef8 413d 2311 a4bd 9e82 3f3e a5eb e23b
00000080: b15f ea3d a5fa 143e acd7 29bc cfb1 f23d
00000090: edad a9bd 625c 423e 6d7f 093e f2f4 233d
000000a0: 638a 013e 24e8 81bd 1772 8bbc 33d3 023e
000000b0: d2fd 283d 9e6a 79bd 94c3 fd3c 7bc1 033e
000000c0: 2493 1cbc ab75 debd 8025 96bc 4d0a a43d
000000d0: e4a9 e0bd 8985 c0bc df56 423d d40a 8239
000000e0: 6215 0f3e 6f11 cb3d 60cd 07be 6ea5 4d3d
000000f0: fce7 cc3d b142 e3bd 8aca 86bc b6e1 cabc
00000100: 948a dbbd 998a a03d 1aaa c0bd 273c 7abd
00000110: f362 573d 0e7c 4dbe f3ea d3bd ea19 f8bd
00000120: ad59 263d b732 c93d 6299 e3bd 0db1 00bd
00000130: 0377 80bd ccf8 cd3d b96e d7bc 9f1c 3a3d
00000140: e94e a93c fdfe c3bd a35a 9fbd fa85 c0bd
00000150: 60c0 33be 5622 8b3d b611 13bc e4c5 993d
00000160: 68b5 c7bd c341 55bd 6907 853a 50d7 94bb
00000170: 0633 aebd de7a 49bd c706 0ebe 9f6b ad3d
00000180: 3c17 15bd f5bb 1ebe 21ea 4cbd aecc aabc
00000190: af0a 4f3d 6b15 aabd c135 c03d 36b7 f13d
000001a0: e3e2 3abc 6838 a03d 3ab4 1dbd 5281 d6bd
000001b0: 224c 053e bf16 843d dd44 37bd 8307 fabd
000001c0: a8c0 223b 00a4 14bd 9b69 f9bb c970 033e
000001d0: b7c9 cfbd c8d5 a53d 88d5 68bd 755a b2bd
000001e0: 320a 83bd 8ebc 9fbd 24d4 e2bb 7959 25be
000001f0: 0337 01be 930d 0c3d 6d17 003e e968 23bd
00000200: feba 383d a589 b1ba bfe6 b23d 041e 9cbc
00000210: 7342 6a3d 757c 133e 2800 cdbd 676b cdbd
00000220: 016e c33c be05 3ebd d5ad 843b 0adf 6d3c
00000230: 551b 0abe 387b 8c3d 30dd 263c d568 6a3d
00000240: c730 a6bd 2c15 37be b176 38be c730 c4bc
00000250: 3d9f c2bd e4d9 bdbd b708 1dbd e2d9 333c
00000260: 67e6 583d 76c7 97bd 39ba 883d 463d 8abc
00000270: fd17 8abd b3e9 013e 68d0 c13d 2120 90bd
00000280: 042d ac3d 309e 063e f938 f53d 2009 933d
00000290: ca8d 033e e972 313c 7be0 f0bd 2a97 f73d
000002a0: 9c7e 903d 80e0 433d a9b6 f93c a4ed 98bc
000002b0: af69 04bd a4ab fbbd 0beb 0c3e c798 c33d
000002c0: 2486 84bc d50c d43d 49eb 913d a7b0 a23d
000002d0: ffb3 a33d 53c2 11be f842 523d 3145 44be
000002e0: 4c73 9b3d efd6 0dbd b7ce 93bd cd7f 4a3c
000002f0: b9fb 92bd ff56 1dbe fb57 18be aa70 7e3c
00000300: 55c6 c7bd 2f4c 07bc b4b2 613c 2cc8 843d
00000310: f79a 9bbd cb86 18be b1b7 37bc 08d2 bf3d
00000320: 3de2 0a3e 926b 20bc 38b9 3fbd fafc ffbd
00000330: 1364 b0bd 2fd3 d83d 0033 bcbd 76d5 d13d
00000340: 92cf 113e 4705 ee3d c638 a1bd 93e1 9fbd
00000350: c642 6f3d 4641 b5bb 35b8 183e 5856 963d
00000360: 0127 a73d 4f9b 04ba 1fc1 683d 5091 64bb
00000370: 0f1f d03d e179 83bd 8d2d 49bd 4882 013e
00000380: c7a5 b2bd b5ea 05bd d99a 12bd 90a9 ab3d
00000390: 50e1 90bd c06f 633a 15be e6ba e7c4 2dbe
000003a0: f8f3 a4bb 61b0 8c3d 6efd e3bd b7c8 dc3d
000003b0: 033b f03d c47a 543d b4f9 1a3d 93c2 0ebe
000003c0: 45db 06bc 5987 dd3c 2582 4b3d b93f 21be
000003d0: 1f55 713d 5c7a 6bbc 3fd2 1c3e f0a7 e63d
000003e0: 8174 ee3d 4ac7 833b 7f18 de3c 7ade 703c
000003f0: 03a0 c73d 4356 ca3d 0f48 47bd b0ee a43d
0.045818392 -0.021280706 0.07815073 0.1317487 0.050937 0.10866088 0.16944289 0.18541694
0.11956376 0.24462874 0.10909681 0.16946764 0.2287212 0.011985495 -0.03286457 0.08546263
0.2058889 0.0028060793 0.18758588 0.14979334 -0.074428484 0.08173336 -0.07314648 -0.052167155
0.1891559 0.048465047 0.013755563 0.022249335 0.047355883 -0.08011081 0.1870217 0.0069250637
0.11444033 0.14548738 -0.010366362 0.118503205 -0.08285127 0.18980554 0.13427515 0.04002852
0.12650447 -0.063431054 -0.017022176 0.12775879 0.041257687 -0.060892694 0.030977048 0.12866776
-0.009556565 -0.10862287 -0.018328428 0.08009777 -0.10969904 -0.023501175 0.047446128 0.000248036
0.13973 0.099154346 -0.13261938 0.050206594 0.10005185 -0.11096705 -0.016454 -0.02476583
-0.10719791 0.078389354 -0.09407444 -0.061092522 0.0525846 -0.20066854 -0.103475474 -0.12114318
0.040612865 0.09824126 -0.1111324 -0.03141885 -0.062727 0.1005722 -0.026297914 0.04543745
0.02066751 -0.095701195 -0.077809595 -0.09400554 -0.17553854 0.067936584 -0.008976391 0.07508448
-0.09751397 -0.05206467 0.0010149303 -0.004542269 -0.08505826 -0.04918944 -0.13869773 0.08467793
-0.03639911 -0.15501387 -0.05002797 -0.020849552 0.050547298 -0.083048664 0.09385253 0.11802523
-0.011406633 0.07823259 -0.038501956 -0.10473885 0.13017324 0.06449651 -0.044743408 -0.12208464
0.002483407 -0.036289215 -0.007611466 0.12835993 -0.10145896 0.08097416 -0.056844264 -0.087086596
-0.06398429 -0.07799636 -0.006922262 -0.16147412 -0.12618642 0.034192633 0.12508936 -0.039894972
0.045100205 -0.001354505 0.087354176 -0.019057281 0.057192277 0.14402945 -0.100097954 -0.10030251
0.023856165 -0.046392195 0.0040490427 0.014518509 -0.13486989 0.068594396 0.010184571 0.057228882
-0.08114772 -0.1787917 -0.18014027 -0.02394904 -0.095030285 -0.09270075 -0.03833839 0.01097724
0.052954104 -0.07411091 0.06676144 -0.01687492 -0.06742857 0.12686805 0.094635785 -0.07037378
0.084070235 0.13146281 0.11973757 0.07179475 0.12847057 0.010830619 -0.11761566 0.12089379
0.07055399 0.04782152 0.030482607 -0.018668003 -0.03232735 -0.12288597 0.13761537 0.09550624
-0.016177244 0.1035401 0.07124955 0.0794385 0.07993316 -0.14234285 0.051333398 -0.1916702
0.075903505 -0.034628805 -0.07217162 0.012359572 -0.071769185 -0.15365218 -0.14877312 0.015529791
-0.09754626 -0.00825791 0.013775516 0.06483492 -0.075979166 -0.1489517 -0.011213229 0.09366232
0.13562866 -0.009791272 -0.046807498 -0.12499423 -0.08612838 0.10587155 -0.09189415 0.102457926
0.14239338 0.116221 -0.07872157 -0.07806697 0.05841329 -0.005531463 0.1491402 0.073406875
0.08161736 -0.0005058543 0.0568248 -0.0034876652 0.10162174 -0.06419731 -0.049115706 0.12647355
-0.08723026 -0.032694537 -0.035792205 0.08381951 -0.07074225 0.0008676015 -0.0017604256 -0.16969644
-0.005033966 0.06869579 -0.11132322 0.10780471 0.117300056 0.05187489 0.03783579 -0.13941412
-0.008230989 0.027042078 0.049684662 -0.15746965 0.05891907 -0.0143724345 0.15314578 0.112625
0.11643315 0.00402156 0.02711129 0.01470148 0.09747317 0.09879734 -0.048652705 0.080533385

localization.0.bias f4 [8]
00000000: c06d 363e ba79 8ebd 8fe4 9cbd 0310 5bbe
00000010: f138 30bd 6658 d9bd 3f2d 4cbe e02b 70be
0.17815304 -0.06956811 -0.076607816 -0.21392827 -0.043023054 -0.10612564 -0.19939135 -0.23454237

localization.3.weight f4 [10, 8, 5, 5]
00000000: 3cc6 47bd 6fbb 613d 69ee 91bd c526 11be
00000010: 669e 853c 6f4e a8ba cf35 6ebc 0536 5cbd
00000020: 6853 b9bc 35f4 2cbd 6ce4 893d b765 a6bd
00000030: 9d97 4dbd df96 86bd 72d6 1dbe 5478 1fbc
00000040: 8631 d8bc 6607 cfbd fca6 f6bd e5a1 72bd
00000050: 5a4d bfbd d512 36bd d88f ccbd 74cf 04be
00000060: 4071 99bd 156b 9d3d b656 263d 4c7a 6a3c
00000070: c41d 043d b08b 91bd 07c7 6a3c 183d 643d
00000080: 0d28 79bc 53a5 bdbd 7cb4 dabd ecaa b5bc
00000090: a1cd c23c 0a09 89bd 03f5 acbd 35f9 0abe
000000a0: 9bcd 18bd ea34 e83a 9ad2 dcbc 313d eebd
000000b0: 9e41 efbd 795f 07be f7a0 95bd 00a5 81bd
000000c0: 749a 34be e2ee 35be ba64 bf3c 6253 0fbc
000000d0: 7aef 1b39 4fb5 eb3c 5406 3dbd 3d6f a2bd
000000e0: b725 0f3c 0783 fdbd 4afc 973b 6a85 e43b
000000f0: 1c3d a33d 0b2a 1a3d de1a a6bd 29ad 093d
00000100: 5926 babc db9d 5ebd 473a 96bd 1e07 bcbc
00000110: 7145 903b 4843 93bd bedb 2abd 0d60 e7bd
00000120: c9df d3bd ee20 74bd 63e5 393b b6f7 253d
00000130: 8f25 ae3c df03 cbbc 3294 3fbd 4bca 663d
00000140: e0f1 293d 7f95 a63b 8178 6fbc ba4b 00be
00000150: 518c fc3c 6367 63bd 828a 69bc 4bc3 debd
00000160: d6cb 883c 5cfb a4bd a1b1 f93c 073f c1bd
00000170: 28df f1bc 1094 20bc 93a3 0dbd f379 5ebc
00000180: 2030 1dbe e30f 42ba 0559 69bd e870 05bd
00000190: ac38 86bd b767 9bbc e936 06be 8fa7 02be
000001a0: 10dc 87bd 524e c2bc 3abc bebd 1fd4 19be
000001b0: 744c ffbd 8c2e cdbd 83ad 9fbd da9d bfbd
000001c0: 1a1c 23bd 682b e8bd e8b7 b73c 84f7 14bd
000001d0: c3eb bcbd ad29 f6bc b448 e8bd 44bf 413d
000001e0: 0b18 88bd 16de 92bd f88a dcbd 24a9 91bd
000001f0: b9ad 04bd 6ad8 43bd 94e6 0dbe 7c7b e6bd
00000200: 1946 43be ddf8 1fbe 51e5 03be 2e3d 03bd
00000210: c57b d0bd 581b 29be d189 1fbe 56a4 e4bb
00000220: 852f c8bd da4d ccbd 6444 15bd 753f 42bd
00000230: 3ea4 debd 741e e0bd 489b e9bd 1a5b c63c
00000240: 6a63 f8bc 3efe 91bc 0a12 93bd 19eb 74bd
00000250: b1b7 aa3d 2baa efbc f2a2 2dbc a0d8 0c3c
00000260: 9402 a43b 0f9b f63c 33d3 353c c62a e23d
00000270: cb5c 9b3c 8240 a1bd 07e7 b8bd 6c16 24bd
00000280: 64f6 99bd b984 0bbd 987c 3fbd b7b2 9bbd
00000290: 77cf 10be 4731 22bd 81b8 efbd 6efc bebd
000002a0: a761 e03c bada d63b b41f 92bd a9e2 69bd
000002b0: 0e41 7bbd 1c87 58bc 0158 3fbd 7e1a 05bd
000002c0: a31d 51bd f14a 86bd bebd a13d 680d 3abd
000002d0: f02f 803d 4033 3bbc 72aa 823d d1a7 4b3d
000002e0: f268 ad3d 4448 783d 8d70 0abd 8b65 e7bc
000002f0: 56dc 893a 60ed 73bd 2597 2abc c13d 79bd
00000300: 271e 653d b9e4 8dbd d724 ae3c 4591 12bd
00000310: 827d 79bc 51d0 a3bd fe61 1bbd a0c7 58bd
00000320: 17b2 2a3d a6ef 90bd 7b43 a43c 7b90 733c
00000330: c4dc 83bd ea91 1dbd 0a13 21bc 8d0f 9bbb
00000340: 0e2b 20bd 9353 9f3b 2a93 15bc 1e59 063d
00000350: 6159 8dbd 0e5c aabd 09eb 68bc ad77 adbd
00000360: 99a7 a3bd afc8 f7bc 33f1 4fbd e668 4dbd
00000370: dbdc 2f3d 11cc 2b3d c27d 9cbd 3e5b e4bc
00000380: 5bdd acbd f37a bbbd 16dc 2e3d 2027 0b3d
00000390: 473c 64bc eb08 4fbb b0db 0fbd efb5 8fbd
000003a0: 3094 dcbc 8e41 9bbd ddfe 4f3b 9527 09bd
000003b0: a884 c53c 8a4d 93bd e6b7 aaba 5b4f 2ebc
000003c0: 5551 8bbd ed25 ea3c 1e18 15bd 0dac 7bbd
000003d0: dbf3 63bd ea4a a4bd 143d 8c3c ec03 c3bd
000003e0: 1542 fabc ca4d 003d 2db0 5dbd d342 a1bd
000003f0: 19a3 673a 73d2 abba 4013 b5bc d63f 8a3c
-0.048773035 0.05511039 -0.07125551 -0.14174946 0.016310882 -0.0012840758 -0.014539196 -0.053762455
-0.022622779 -0.04222508 0.06733021 -0.08124869 -0.050193418 -0.06571745 -0.15413836 -0.009733278
-0.026390802 -0.10108833 -0.120435685 -0.059236426 -0.093409255 -0.044451553 -0.099883735 -0.12969762
-0.07492304 0.0768644 0.040610038 0.014311384 0.03225495 -0.071067214 0.014329678 0.055722326
-0.015207303 -0.09260049 -0.10678956 -0.022176228 0.023779692 -0.06691177 -0.0844517 -0.13571627
-0.037305456 0.0017715965 -0.026955891 -0.11632765 -0.11682437 -0.13220014 -0.07306092 -0.063302994
-0.17637044 -0.17766908 0.02336346 -0.008747907 0.00014871164 0.028772978 -0.046148613 -0.07931373
0.008737019 -0.12378507 0.0046382295 0.006973912 0.0797064 0.03763775 -0.08110593 0.033612404
-0.022723364 -0.05434976 -0.07335334 -0.022952612 0.0044028093 -0.07190567 -0.04171347 -0.11297617
-0.10345418 -0.059601717 0.0028365485 0.04051944 0.021258144 -0.02478212 -0.04677219 0.056345265
0.041490436 0.0050837393 -0.014616133 -0.12528887 0.030828627 -0.05551852 -0.014254214 -0.10877093
0.016698759 -0.080557555 0.030480208 -0.0943585 -0.029525355 -0.009800926 -0.034579825 -0.01357888
-0.1535039 -0.000740288 -0.05696966 -0.03257838 -0.06553778 -0.018970354 -0.13106884 -0.12759231
-0.066337705 -0.023718987 -0.09313245 -0.15022324 -0.12465754 -0.10018644 -0.077967666 -0.0935628
-0.03982172 -0.11336404 0.02242656 -0.03636886 -0.092246555 -0.03004917 -0.11341992 0.047301546
-0.06645211 -0.07171266 -0.10768694 -0.07112339 -0.032392237 -0.04781381 -0.1385749 -0.112540215
-0.19069709 -0.15622278 -0.12880446 -0.032040767 -0.10179857 -0.16514337 -0.15579917 -0.006977598
-0.09774689 -0.099757865 -0.036442176 -0.0474238 -0.108711705 -0.109433085 -0.11406571 0.024213362
-0.030320842 -0.017821427 -0.07181175 -0.05979452 0.083358176 -0.029255947 -0.010597931 0.008596569
0.00500519 0.030103235 0.011097717 0.11043315 0.018965146 -0.07873632 -0.0902844 -0.040060446
-0.075176984 -0.03406212 -0.04674968 -0.076024465 -0.14141642 -0.039597776 -0.11705113 -0.09325491
0.027390314 0.006556836 -0.07134953 -0.057100926 -0.061341338 -0.013215806 -0.046714786 -0.032495968
-0.051053654 -0.06557263 0.078975186 -0.04542294 0.06259143 -0.011425793 0.06380166 0.04972059
0.08467282 0.060615793 -0.033798743 -0.028246662 0.0010517936 -0.05955255 -0.010412012 -0.06084991
0.05593696 -0.06928391 0.021257801 -0.03578307 -0.015227677 -0.079987176 -0.03793525 -0.052924752
0.041673746 -0.07076959 0.020051708 0.01486599 -0.06438592 -0.038469233 -0.009831199 -0.0047320784
-0.03910356 0.0048622577 -0.009129325 0.032799833 -0.06901813 -0.08318339 -0.014216193 -0.08470092
-0.07990951 -0.03024706 -0.050767135 -0.050148867 0.042935234 0.04194266 -0.07641174 -0.027875539
-0.08440658 -0.0915431 0.04269036 0.03397286 -0.013930387 -0.003159101 -0.03512162 -0.07017123
-0.02692613 -0.07580863 0.0031737604 -0.033485014 0.024111107 -0.07192524 -0.0013024777 -0.010639037
-0.06802622 0.028582538 -0.036399953 -0.061443377 -0.05565248 -0.08022101 0.017118968 -0.095222324
-0.030549088 0.031324185 -0.054123092 -0.07874074 0.0008836254 -0.0013108983 -0.022103906 0.016876142

localization.3.bias f4 [10]
00000000: cfa1 36be 642a 18bc 2851 213d ac8b a83c
00000010: 2526 bdbd 1a39 a7bd b526 4ebd 4141 013b
00000020: 3266 a3bc 92e1 f13c
-0.17835163 -0.00928745 0.039384037 0.020574413 -0.09235791 -0.08165188 -0.050329883 0.0019722732
-0.019946191 0.029526506
