EmpathyBot/model_snapshots/deep_emotion-200-64-0.005-0.546535389188185.pt (torch_old, 271007 bytes, 24 tensors)

conv1.weight f4 [10, 1, 3, 3]
00000000: c046 a6be ca3a bebe 9cc1 3cc0 f679 de3e
00000010: a739 4e3f 59f3 083d 87bf bfbf f179 933f
00000020: 01b9 2a40 1bee e7bf 9985 073f 4f02 0d40
00000030: a90b 34c0 d084 1ebf 45d3 2240 4946 1dbf
00000040: bc98 1f3f 7636 553e 58e8 d43f 37c0 11bf
00000050: a1f7 a8bf 7c9b db3f 4bc5 bcbe fc17 b2bf
00000060: 6910 09bf 075d 28bf befb aabf 750c eb3f
00000070: 26b0 2040 7100 1b3f 0b35 72bf bab2 803e
00000080: c3de 65be 1afc f8bf e387 83bf baf8 85bf
00000090: 6cc7 f7bc 7c35 adbe 360d 8c3e a0cb 80bb
000000a0: 1903 5dbf c2e2 52bf 28ef 1240 ef88 1e3f
000000b0: cb2e 82bf d058 9a3f b65e 0f40 49d1 993f
000000c0: 503d fa3f 6289 5ebe 3575 70c0 0e04 1e3e
000000d0: 83c5 583e aa59 dfbf d577 b2bc 4ca5 13bd
000000e0: 8ad2 00c0 cecd 953f 5421 1d3f 84a3 fdbf
000000f0: a2d5 0040 29f2 593f b707 1abf c45f 7fbe
00000100: 6c52 8f3e 2d1a 463f 5565 3dc0 ce4d b8be
00000110: 4d9d 4f3f 28e6 83be 4bb6 fe3f eef6 4c3f
00000120: 885d 1ac0 1ea5 5ebf 57cf 12bf f805 563e
00000130: 9fd7 2e3f 3ffe 593e 806c 0a40 b516 0d40
00000140: a728 a7bf 39e2 a33f 2f22 42bf aed7 1640
00000150: e0ad 91bf d254 26c0 a449 c8bf 468c 983e
00000160: 7e8e 7e3f adf4 a93f
-0.32475853 -0.37154227 -2.949317 0.43452424 0.8055672 0.0334352 -1.4980325 1.1521589
2.6675417 -1.8119539 0.5293823 2.203266 -2.8132117 -0.61921406 2.5441449 -0.6143537
0.6234243 0.20821556 1.6633406 -0.5693392 -1.320057 1.7156825 -0.36869273 -1.391357
-0.53540665 -0.6576695 -1.3358076 1.8363177 2.5107512 0.6054755 -0.9461219 0.25136358
-0.22448258 -1.9451935 -1.0275844 -1.046653 -0.030246459 -0.33829868 0.2735383 -0.003930524
-0.8633285 -0.82377255 2.295847 0.61927694 -1.017053 1.2058353 2.2401557 1.2016994
1.9549961 -0.21732095 -3.7571537 0.15431234 0.21169095 -1.7449238 -0.021785656 -0.03604631
-2.0128503 1.1703432 0.6137898 -1.9815526 2.013039 0.8513513 -0.6016802 -0.24938875
0.2799257 0.7738369 -2.9593098 -0.3599686 0.81099397 -0.25761533 1.9899381 0.80064285
-2.4119587 -0.869707 -0.57347625 0.20900714 0.6829776 0.21288393 2.1628723 2.204511
-1.3059281 1.2803413 -0.7583341 2.356914 -1.1381187 -2.598927 -1.5647473 0.2979452
0.99436176 1.3277794

conv1.bias f4 [10]
00000000: 8462 d33e 0518 debe 3761 50bf 356d 063f
00000010: 4b57 ecbd e9db 6ebf f606 583f 8632 843f
00000020: b8fa 243f 8529 9a3d
0.412861 -0.433777 -0.8139834 0.52510387 -0.11540087 -0.93304306 0.8438562 1.0327919
0.64445066 0.075274505

conv2.weight f4 [10, 10, 3, 3]
00000000: 596c aabd 61a1 edbd 9192 c9bd 7e63 2cbe
00000010: 80d0 d4bd 3157 efbd 6dab c9bd 3d95 81be
00000020: 4adc ebbd f633 bbbd 884f eb3c 18de b1bc
00000030: ceee 8a3c 9443 093d a859 223c 05a5 e63c
00000040: 5722 10be 5680 48b9 1981 14bd 2803 153d
00000050: d99f 7d3d 0ac7 08be 35c0 183c 2928 223c
00000060: 4f7c 8d3c dede d4bd 77fe 07be a418 04be
00000070: cc68 f2bd 15e9 68bc 3fd6 8fbe c7a1 88be
00000080: 8e80 133d 0d46 e5bd 55f6 12be 73c4 41be
00000090: a417 35bd f1d3 bdbd 1149 6abe dda3 89bd
000000a0: 5be3 34be e500 d83d 0f73 9fbc 99db cfbd
000000b0: f42a 5bbe 17be cd3c b134 b1bd 5f67 27bd
000000c0: 8f76 fdbc 9f0a 963d e598 0a3c f5e5 cfba
000000d0: 6fe6 24bd d2f6 d6bd e56e 5cbe 0a40 d9bd
000000e0: b23f d0bd d25c 403d d16f 8dbe 2655 7cbe
000000f0: 33a6 96bd 44d7 cd3b 1cac 10be fdaf 71be
00000100: f230 4cbe 2c99 5cbd a092 f1bd f42b 17be
00000110: 3cf5 f23c 8d7c 63be a049 d1bd 6b65 b4bd
00000120: e721 6dbe 4cdc b8bd ed3c 46be 2584 4cbe
00000130: 4ce6 2fbe 872b 7ebe c19c c7bd 25c7 95bc
00000140: 5b7f 373d 174f d2bd c7e0 523d b3b6 84bd
00000150: e4cf 31be c064 fabc 0833 503c b510 3bbd
00000160: c193 64be c653 98bd 4733 6fbf a080 6cbf
00000170: 3fce 1bbe 99d0 b63e fa0b 8ebe 3589 95be
00000180: e804 5ac0 f0e2 39bf d66c e5bf 8d5b fd3e
00000190: cfd4 37bf 6167 f3be f52d adbe 0367 b7bf
000001a0: 39e2 84bf db4f 90be 91f0 8dbf c2a7 89bf
000001b0: 83de 8fbf 4578 6fbf 6309 e4bf 73ef 3abc
000001c0: bd04 b4bd 93db debd fcc5 9a3f b784 813e
000001d0: 6678 3c3f f627 b0be 3725 bbbf db58 e6bf
000001e0: 8a04 8d3f d4ba 3c3f 3c2b 46be 8acc 0340
000001f0: f2d1 aa3f bf09 a43f d4da d13e 7907 c0bd
00000200: a419 09be def5 47c0 2a9a 24be d6f3 0440
00000210: b39e 3fbe 7729 7a3f 047b 69be 8aa7 1540
00000220: 7a6b 473f 6ec9 0f3f ae9b 8fbf 23d1 863e
00000230: 8673 733f 686a b5bf ae09 55bf cf95 d73c
00000240: 60df 60be 0adb 94be cdb7 1a3f ab16 9dbf
00000250: 8f0a a3bd 9bbf 163f d3a1 77bf dd7f 893c
00000260: e059 a5bf 5b61 4f3f 5490 0d3f 41da fd3e
00000270: 2530 c4bf ba72 bb3e 1fab 4440 c4bf 023f
00000280: 9bdd 183e 5220 8e3f 38a6 db3f 7d65 4d3f
00000290: 811a 3a3f 20f8 6bc0 50ef 06c0 f21b 813f
000002a0: 84e8 19c0 a461 0dc0 58a8 19c0 0251 0ebf
000002b0: d7dc debe 24e6 54bf 1e44 28bf 0c8f 073e
000002c0: 8455 f63f abb6 4140 b320 88be 2906 d6bf
000002d0: c54e 53c0 56f1 dd3f 99cc 6fbf 5bfc 353f
000002e0: 0d37 1740 0be0 6abf 3c38 933f 5f5b d3be
000002f0: a054 b5bf 2a87 2cc0 cbb5 a43f adfe 943f
00000300: cdc5 86c0 4873 3cbf 4f50 15c0 da62 9cc0
00000310: f666 513e 23e7 1d40 4e3b ad3e b06e c23e
00000320: 298f b8bf b181 e03f 6ed5 553f 1d13 dbbf
00000330: 454f ea3f 93ed b93f d12a 3fbf eb7c 9bbf
00000340: 5e83 133f 5b46 f83f 6c2f 273f 2576 7a3f
00000350: bb75 093f 50cc 1ebf a2a8 573f 5dcd 853f
00000360: a4fb 85bf 3876 97bf 7749 933f b678 5dc0
00000370: 7744 1dbf d444 5b3f 0b64 193e 30cb af3f
00000380: 377b 43bf d34e 433f ff8d 6cbd c7c5 77bf
00000390: 78c5 693f 93ce 46be b471 90c0 b3e9 a43f
000003a0: eab0 f63f a949 54c0 013f 82bf 234e 0ec0
000003b0: 1e5f debe ac09 c1bf 3e40 95bf e270 bfbb
000003c0: 2e84 2c3f 27e1 0d40 d2f2 9ebe 2c46 0c40
000003d0: 21bd fa3e 0125 75c0 6e2c b63f ceb7 153e
000003e0: f0c9 c4be cdad 39c0 ed78 5cbf 93b2 43be
000003f0: 1900 4f3e e5fe 173e 1528 9dbf 3798 2cbf
-0.08321447 -0.11603046 -0.098424084 -0.16834828 -0.10391331 -0.11686552 -0.0984715 -0.25309172
-0.11516626 -0.0914077 0.028724447 -0.021712348 0.016959574 0.033511713 0.009909071 0.02815486
-0.140756 -0.00019121295 -0.03625593 0.036379963 0.06192002 -0.13357177 0.0093231695 0.00989727
0.017271189 -0.10394071 -0.13280664 -0.12900025 -0.11836395 -0.014215727 -0.28093144 -0.26685926
0.03601127 -0.11195002 -0.1435178 -0.18922596 -0.044212 -0.0926894 -0.22879435 -0.067207076
-0.17664854 0.105470456 -0.019464044 -0.10149307 -0.21403104 0.025115056 -0.08652628 -0.040870067
-0.030940322 0.073262446 0.008459304 -0.0015861379 -0.04025882 -0.10496296 -0.21526678 -0.106079176
-0.10168399 0.04696352 -0.27624372 -0.24641857 -0.07355919 0.006281765 -0.14128155 -0.2360229
-0.19940546 -0.053857014 -0.117955446 -0.1476286 0.029657952 -0.22215481 -0.10219121 -0.088084064
-0.23157464 -0.09026393 -0.19359179 -0.19972284 -0.17177695 -0.24821292 -0.09746695 -0.018283436
0.04479919 -0.102689914 0.051483896 -0.064801596 -0.1736446 -0.03056562 0.012707479 -0.04567023
-0.22321989 -0.074378535 -0.9343762 -0.92383766 -0.15215395 0.35706022 -0.27743512 -0.29206243
-3.4065495 -0.72611904 -1.7923839 0.4948391 -0.71809095 -0.4753981 -0.33824125 -1.4328312
-1.0381538 -0.28185925 -1.108904 -1.0754321 -1.123978 -0.9354289 -1.7815365 -0.011409628
-0.08789966 -0.10881724 1.209167 0.25296566 0.73621213 -0.34405488 -1.4620732 -1.7995867
1.101701 0.7372258 -0.1935243 2.059359 1.334532 1.2815474 0.40987265 -0.09376425
-0.13388687 -3.1243815 -0.16074434 2.0773826 -0.18712883 0.9771952 -0.22800833 2.3383508
0.7789837 0.5616673 -1.1219385 0.26331434 0.9509815 -1.4173098 -0.83217895 0.026316551
-0.21960211 -0.29073364 0.6043671 -1.2272543 -0.07960998 0.58886117 -0.967313 0.016784603
-1.2918053 0.8100793 0.5529835 0.49580577 -1.5327193 0.36610967 3.0729444 0.5107386
0.14928286 1.1103613 1.7160101 0.80232984 0.7269669 -3.6870193 -2.1083565 1.0086653
-2.4048166 -2.2090845 -2.4009 -0.5559236 -0.43527862 -0.83163667 -0.6572894 0.13238162
1.9244847 3.0267742 -0.26587448 -1.672063 -3.3016827 1.7339275 -0.93671566 0.7108819
2.362735 -0.9174811 1.1501536 -0.41280648 -1.416645 -2.6957498 1.2867979 1.1640221
-4.2116456 -0.73613405 -2.3330266 -4.887067 0.20449433 2.4672325 0.33834308 0.37975073
-1.4418689 1.7539579 0.8352879 -1.7115208 1.8305441 1.4525627 -0.7467471 -1.2147497
0.57622325 1.9396471 0.65306735 0.97836524 0.5369527 -0.62030506 0.8424169 1.0453297
-1.046742 -1.1832952 1.1506795 -3.4604926 -0.61432594 0.856519 0.1497957 1.3733883
-0.76359886 0.7629215 -0.057752606 -0.9678616 0.9131694 -0.1941474 -4.51388 1.2883819
1.927274 -3.3169959 -1.0175477 -2.223519 -0.43431944 -1.5081077 -1.166023 -0.005842314
0.6738919 2.2168672 -0.31044632 2.191783 0.4897242 -3.8303835 1.4232309 0.14620897
-0.38435316 -2.901233 -0.8612202 -0.1911109 0.20214881 0.14843328 -1.2277857 -0.6741976

conv2.bias f4 [10]
00000000: 6bfa 81be c66f b93f c49a 1dbe 4d3f 9bbd
00000010: 3419 4240 be6a ac40 eb17 9a3e 25c8 153f
00000020: 1b0e 3dbd 0cf6 0a40
-0.25386366 1.4487236 -0.1539107 -0.07580433 3.0327883 5.38803 0.30096373 0.5850852
-0.04615603 2.1712675

conv3.weight f4 [10, 10, 3, 3]
00000000: 03a7 adbc c1eb 023e bcd6 cdbd 84fb 0abd
00000010: b884 da3d 3a3d 2c3d b498 2a3e 2277 953d
00000020: 865e 8abc d686 16c0 680f 6cbf 4279 1e3e
00000030: e5eb c7bf 2f38 da3e bfd1 f13e fea4 86bf
00000040: e68d af3f 2d7f f43f 8a5c ab3d 8e1b 18bf
00000050: 04a7 1f40 8d6f 653f 3289 533f 756f 3540
00000060: 7558 e93e 6713 5c3f 5ce9 5d40 b231 fe3b
00000070: d7fd fd3c c688 d3bc 1d35 92bc 3884 d53d
00000080: 1f1d bfbd 4f38 113d eb63 cc3d aaee e73d
00000090: 27c7 eabf ae03 45c0 0bd1 803e 3b04 4d3f
000000a0: 60c2 3b40 7598 e03f 5c00 9a3f 5f91 b23f
000000b0: c0c0 9f3f 87bf 9b3e 6375 f03e ed87 43be
000000c0: 287b 853f 932d b8be 5082 3c3f d08d 2b3f
000000d0: f168 a73b 8be5 7f3f c7d8 e7be 0475 b83e
000000e0: e3e4 883f bc89 d73d dfef b3be 2697 fc3f
000000f0: 3084 18bf e613 b13e 6dbe c53f e9c7 29c0
00000100: 90a4 24c0 bd29 23be 5c4e f7bf c1e7 82bf
00000110: eb48 1f3f fd52 b93e 12d2 b73f 6054 0f3f
00000120: df75 f6bc a505 17be 7aa5 dabd 8379 c53d
00000130: 7869 f63b a033 8cbd e352 4c3e 9b5a 843c
00000140: 8f05 3d3e 2669 433f 500f a73f 156a 803f
00000150: fe09 1a40 878a 2f40 69d4 323f 9880 5440
00000160: a1f3 e73f e0f4 943f 1140 303d 733d 8f3d
00000170: 8ace 3cbd f399 7d3d ad81 38bd aec3 fd3d
00000180: ccbc 2cbd 3568 debb 7206 dabd ddf2 9d3c
00000190: 05ab c1bd a5ab 8fbc c613 99bd c06e cbbd
000001a0: 1d8d 4fbd 8f46 beba 3499 3cbd b4fb d73c
000001b0: 3043 283c 8656 09bd 0dd4 613c 29ed cbbd
000001c0: 03c8 d2bc 8347 d53d 53e2 a53d fb97 f5bc
000001d0: e8fe a7bb b494 fc3c 7d11 213c c17a e8bd
000001e0: 6434 053d 2926 e7bd 4c8f f3bd 2c57 c43d
000001f0: 8cde d4bd b1c2 803d f336 a9bc b9a8 2a3c
00000200: 00e5 1cbe a236 263d c124 dcbc d27c 583c
00000210: 4b8f 89bd 705e 23bc a0b0 9abd 7a30 833d
00000220: abd4 0dbe 345c 91bd 2b17 26bd 53b8 e2bd
00000230: c359 ecbb 5545 af3d dd6d f0bd 37bf d5bd
00000240: 571d 1cbd 80a2 5abd a016 57bb 8805 10bd
00000250: 4db1 a9bb 3f7b 193d 4381 77bd 776a 17bd
00000260: 8a35 873c d5e5 bebd f26c 81bd ba38 19bb
00000270: 374e 23bd 15da c9bd 7429 02be bf90 07bd
00000280: 0d41 efbd 3436 1bbe 2e44 103e fc70 c13c
00000290: d70e b23d c7b2 8b3c 72e3 053e 63c9 b63c
000002a0: 7af5 df3c efcd ea3d 242a 1a3d f174 24bd
000002b0: 30a0 febd 8304 4dbd cc49 093d f680 debd
000002c0: f79d 0ebd 7d28 4c3d c78d 06be 2c43 8ebd
000002d0: 5ef5 963d ef7c af3c 7751 9b3c 714c 3d3c
000002e0: 3ee5 863d c9c0 56bc 2904 a13d 183d f5bd
000002f0: 9490 a1bd 4b25 2c3f 14fd b23e f4b1 8b3f
00000300: 576b 60bf 47c3 c2be 76e4 2fbf 3e67 bbbe
00000310: 3b02 ffbe 7eeb 95bf f799 c9bf e16a f0bf
00000320: 010f 14c0 1f01 91bf 1f9c 71bf 2790 10bf
00000330: 1245 16c0 8191 dabf 4f97 51bf aabb 3d3d
00000340: 089c e6bc bc0d cdbd 75a7 8b3c 7b9f 23bb
00000350: c878 b13d bf76 383d 0531 cb3c 25d8 b4bd
00000360: e2f9 613f 9ab9 283e c5fb 963f e632 8ebf
00000370: 0010 95bf 4628 e4be 6bfb 03c0 aec8 05c0
00000380: 24e0 c1bf 3209 cfbe 4c0c 2fbf 656c 003f
00000390: 736f 253f 780c a13f a24f d53f 373f e73f
000003a0: 0824 1940 8c31 cd3f 4cca 243e 2027 433e
000003b0: 80cf c23f ff10 063f 1589 8f3f 3903 1f40
000003c0: d249 9e3f 5943 393f 5418 a93f 8db3 d13e
000003d0: 1a01 993f e484 3f3f b8e1 183f fc41 48bf
000003e0: a6f0 7ebf 0ff0 e7bf 8d83 f0bf 9438 02c0
000003f0: 592b 913d cba2 33bc b2a4 033d fe63 dd3c
-0.021197801 0.12785245 -0.10050723 -0.03393127 0.10669845 0.042050578 0.16659814 0.072981134
-0.016890775 -2.3519797 -0.9221101 0.15475944 -1.5618864 0.4262099 0.47230336 -1.0519102
1.3715179 1.9101311 0.0836726 -0.59417045 2.4945688 0.8962334 0.8263122 2.8349278
0.455753 0.85967106 3.4673681 0.007757389 0.03100483 -0.025822055 -0.017847592 0.10425609
-0.09331726 0.03545409 0.09979995 0.113248184 -1.8342026 -3.0783496 0.25159487 0.8008458
2.9337387 1.7546526 1.203136 1.3950614 1.2480698 0.3041956 0.4696456 -0.1909482
1.0428209 -0.3597227 0.7363634 0.67013264 0.0051089455 0.9995963 -0.45282575 0.36026776
1.0694851 0.105243176 -0.35143945 1.9733627 -0.595767 0.34585494 1.5448738 -2.6528265
-2.572544 -0.1593389 -1.9320788 -1.0226976 0.6222064 0.36196128 1.4360983 0.5598812
-0.030085502 -0.14748247 -0.106760934 0.09642317 0.007519897 -0.06845784 0.19953494 0.016156485
0.18459152 0.7633232 1.3051548 1.0032374 2.4068599 2.74283 0.6985536 3.3203487
1.8121225 1.163723 0.04302985 0.069941424 -0.04609541 0.061914396 -0.045045543 0.123908386
-0.04217224 -0.006787325 -0.106457606 0.019280845 -0.094564475 -0.017537901 -0.074744746 -0.09933233
-0.050671685 -0.0014516878 -0.046044543 0.026365139 0.010269925 -0.03352978 0.013783467 -0.09957344
-0.025730139 0.104140304 0.080998085 -0.029979696 -0.0051268227 0.030832626 0.00983083 -0.113515384
0.032520667 -0.11286575 -0.11892566 0.09586939 -0.1039401 0.062871344 -0.020656085 0.010416203
-0.15321732 0.040579446 -0.026872994 0.013213353 -0.06716784 -0.009971246 -0.0755322 0.064057305
-0.13850658 -0.070976645 -0.04054944 -0.11070313 -0.007212849 0.08558146 -0.11739705 -0.10436862
-0.03811392 -0.05337763 -0.0032819882 -0.035161525 -0.0051786066 0.037471052 -0.060426008 -0.036966767
0.016505022 -0.09321181 -0.06319608 -0.002337976 -0.039869513 -0.09856049 -0.12711126 -0.033097025
-0.11682329 -0.15157396 0.14088508 0.023613445 0.08694237 0.017053021 0.13075045 0.022312826
0.027338732 0.1146506 0.037637845 -0.040150587 -0.12432897 -0.05005313 0.033517644 -0.10864441
-0.034818616 0.0498433 -0.13140021 -0.06946406 0.07371019 0.021421878 0.018959744 0.01155387
0.06586693 -0.013107487 0.078621216 -0.11974543 -0.07888904 0.67244405 0.34958708 1.0913682
-0.8766379 -0.3803961 -0.6870798 -0.36602205 -0.4980639 -1.1712492 -1.5750111 -1.8782617
-2.3134158 -1.1328467 -0.94378847 -0.5646996 -2.3479657 -1.7075654 -0.81871504 0.04632155
-0.028150573 -0.10012385 0.017047623 -0.0024966884 0.08665615 0.04503512 0.024803648 -0.08830289
0.88271916 0.16477051 1.1795584 -1.1109283 -1.1645508 -0.44561976 -2.0622203 -2.0903735
-1.5146527 -0.40436703 -0.6837814 0.50165397 0.64623183 1.258193 1.6664927 1.8066167
2.3928242 1.6030746 0.16092795 0.19057894 1.5219574 0.52369684 1.1213709 2.4845717
1.2366278 0.7236839 1.3210549 0.409573 1.1953461 0.7481215 0.5971942 -0.78225684
-0.9958595 -1.8120135 -1.8790146 -2.0347033 0.07088346 -0.010964106 0.032139488 0.027025219

conv3.bias f4 [10]
00000000: 20e8 f0bf aaab a3bd f8bf a53f e1c4 c2bd
00000010: a690 acbb 859b 3f3c 8b24 bebd 7d91 d4bd
00000020: ffa7 75bd 06a0 0e41
-1.8820839 -0.07991727 1.2949209 -0.09510208 -0.005266267 0.011694794 -0.09284314 -0.10379312
-0.059974667 8.914068

conv4.weight f4 [10, 10, 3, 3]
00000000: 350a 4fbf 1567 ddbe 7625 803d b2f3 a7bf
00000010: bbea e0bf 077f 4dbf 582f 8a3f a88b 0fc0
00000020: 2d58 10c0 da4c afbd 646f 203d b072 56bd
00000030: 5811 743d 1a73 8a3d 455d ac3d 5d0e 91bc
00000040: f103 e43c 11da a53d 0cb2 2bbe 15c8 1ebe
00000050: 952c 94bd 5ed3 dcbf a2d2 a43d e09d 753f
00000060: d8d4 12c0 0695 f2bd 2c16 2b40 247d 65bc
00000070: bda0 02bd 7200 ccbd 70cc 103e 1ac5 90bd
00000080: 8bc1 a93c d661 b83d c5c5 c13d cdac 85bd
00000090: 2d73 e93c c7d6 743d 397b a03c cf31 d83d
000000a0: 821c 013c 59c4 9b3c 61ff e53d 60c5 3e3c
000000b0: ce40 fcbc cb78 563d 3782 02bd c06d 5bbd
000000c0: aa7d 2bbd dfa8 5a3d 9c63 013e 48af d1bd
000000d0: 86b9 1bbd 348d 98bd 687d 7c3d aae2 983b
000000e0: 8b47 81bc accf 74bd a0a2 fc3c 81de 003e
000000f0: 1844 4bbd 6378 49bd dfdb 16bd 8944 6b3c
00000100: 5308 2c3d 5949 6b3d 71bd f7bd 5d45 193d
00000110: cdbe ef3d 58a8 0e3e c2bd e5bc 1e17 efbd
00000120: 76bb b0bd 8357 283d 2980 e33c 361f 77bd
00000130: f8bb 28be 9f98 5e3d bb79 8cbc 7913 ae3c
00000140: b85a c1bd 6ceb 7bbf b533 d0bf 5c41 b7bf
00000150: 7ff5 0940 07f7 fa3d ab37 06c0 11d5 fc3f
00000160: 6f56 503f 0e05 273f d626 f53f 2fae c63e
00000170: 0c6f ff3f f7c0 5a3d 573f 743f a530 ecbe
00000180: 2080 5fc0 5609 85bf 8c30 80c0 2fa9 bd3d
00000190: 3e52 c4bc f0f6 8c3d d6f7 a4bc 9be1 123d
000001a0: 1445 a33c e4e8 6cbd b0c1 a53d eb04 debd
000001b0: ebaf dc3e 3fbf 833d 70c7 a23e 9fe3 93bf
000001c0: 8cf0 093f 619f cb3e 232b 64bf 128c 32bf
000001d0: 4ade a53f 2430 943d 70a0 383d acd1 61bd
000001e0: 603c cbbd 44ff 143e 82d3 5cbe e6ab 833d
000001f0: 186f 6d3d 79b0 dcbc 8e7e 27bd 17ba d6bd
00000200: 41fc a53d 1a9b fb3d e22e 99bd 4adf 2e3d
00000210: 35b6 483c d8ea 313b 21ee 3fbd aaed a0bd
00000220: d56b 0c3d 99cb d3bd 8888 65bd b3f7 89bd
00000230: 7c44 933d 8a0e 4a3c 0395 2d3c 4983 debb
00000240: a4a0 d53d 61dc a53c 5c10 b63c 768c 2e3d
00000250: fd3e 943c 945d eabc f7f1 d8bd 085a 193d
00000260: 17e0 d0bd 51f3 b7bd 4fd0 2abd b91c c43d
00000270: d272 4e3b 13d7 a0bd 5d28 7b3d 9828 a03d
00000280: 6d54 a4bd 999a e4bd 9dab c23c eebe 12bd
00000290: 04bb b73c 2b1a 88bc 836e 943c 36e2 76bd
000002a0: afa7 c43d 8397 15be 731f 63be c0d1 b2bf
000002b0: b202 bfbf 1692 58bf a387 373e 5412 ec3e
000002c0: 49da c23f f366 a13f 5f94 6c3f 6987 1ebf
000002d0: f53c eebe 50e1 f33f a0aa 8b3f efd8 0540
000002e0: 43ae b93f 72ed 0040 f3ae 063f df48 18bf
000002f0: 588d 95bf cf1d 8abc ea70 babd be82 4abd
00000300: d516 14be 65ab b33d 9002 383d 17ba dfbd
00000310: e971 05bd c81c 823d 7b13 e7bf bda5 5bbf
00000320: 7a17 9ebf cb7f ddbc eb97 d3bf 2abf 18be
00000330: 962f 18c0 18ef 82bf d0b5 de3f 332e ec3d
00000340: 1db4 85bd 338e 05bd 0d20 a9bb 2679 723d
00000350: c565 563d b485 9fbc 8790 113e f815 d53d
00000360: b0bf 0c3d 2edc d13d b59d b73d 4a26 37bd
00000370: be50 f83d d406 1aba 583e a9bd 07a8 21bd
00000380: ff00 27bc 5949 80bd 9800 9dbd f5f2 ed3d
00000390: 143b 2c3a ea15 6f3b 6f5f ba3c 92cb b7bc
000003a0: 5eef 913d 60b2 fc3d 9476 783d f293 513d
000003b0: 848e f3bd 464c 23bd 8311 aebd 6fcc 6ebd
000003c0: 0801 b23d b64d 2cbd c290 f1bc e887 433b
000003d0: 766c 633c 5eb7 953d c540 4c3c 9af2 03bc
000003e0: 820d f2ba 9833 523b 3d27 2dbc c850 9bbd
000003f0: 74b1 31bc 6d56 b03b df25 e63d 4b66 503d
-0.8087495 -0.43242708 0.06257145 -1.3121245 -1.7571634 -0.80271953 1.0795698 -2.242899
-2.2553818 -0.0855958 0.03916873 -0.05235547 0.059586853 0.06760235 0.08416227 -0.017707044
0.02783391 0.080982335 -0.16767138 -0.15506013 -0.07235066 -1.7252004 0.080479875 0.95944023
-2.294241 -0.1184483 2.6732283 -0.014006887 -0.031891573 -0.099610224 0.14140487 -0.07068844
0.020722171 0.09003036 0.0946155 -0.065271 0.028497303 0.05977514 0.019590007 0.10556375
0.007880332 0.019014524 0.1123035 0.011643738 -0.03079262 0.05236129 -0.031862464 -0.053571463
-0.04186789 0.053383704 0.12635654 -0.1023851 -0.038018726 -0.07448807 0.061643034 0.0046656923
-0.015781185 -0.059768364 0.030839264 0.12584879 -0.049625486 -0.049187075 -0.03683078 0.014359602
0.042000126 0.057442997 -0.1209668 0.037419666 0.11706314 0.13931406 -0.028044585 -0.11674331
-0.08629505 0.041099083 0.027771072 -0.0603325 -0.16477954 0.05434477 -0.01714789 0.02124952
-0.09441131 -0.984061 -1.626578 -1.4316821 2.155609 0.12254148 -2.0971477 1.9752523
0.8138189 0.6524209 1.9152477 0.38804767 1.9955764 0.053406682 0.9540915 -0.46130863
-3.4921951 -1.0393474 -4.005926 0.09260785 -0.023964997 0.06883037 -0.020137709 0.035859685
0.0199304 -0.05783929 0.080935836 -0.10840782 0.43102965 0.06432962 0.31792784 -1.155384
0.5388267 0.39770034 -0.8912832 -0.6974498 1.2958462 0.072357446 0.04507488 -0.0551316
-0.09923625 0.14550501 -0.21565059 0.064292714 0.057967275 -0.026939617 -0.040892176 -0.104847126
0.08104754 0.12285443 -0.07479645 0.042693414 0.012250473 0.0027148034 -0.046857957 -0.07857831
0.034282524 -0.103415675 -0.05603841 -0.06736698 0.07190797 0.012332568 0.010594609 -0.0067905528
0.104310304 0.020246686 0.022224598 0.042614423 0.018096441 -0.028609075 -0.10593026 0.037439376
-0.10198992 -0.08981956 -0.041702565 0.09575791 0.0031501544 -0.07853522 0.06131779 0.07820243
-0.080239154 -0.111623 0.023763472 -0.035826616 0.022428043 -0.01661404 0.018119102 -0.060274325
0.096022956 -0.14608578 -0.22179966 -1.3970261 -1.4922698 -0.8459791 0.17922835 0.46107733
1.5222865 1.2609543 0.92413896 -0.6192537 -0.46530882 1.9053135 1.0911446 2.0913656
1.4506305 2.0144925 0.526107 -0.5948619 -1.168376 -0.016859917 -0.09103568 -0.04944109
-0.14461835 0.08772925 0.04492432 -0.10924166 -0.032579336 0.06353146 -1.805282 -0.8579977
-1.2350914 -0.027038475 -1.6530737 -0.14916673 -2.3779044 -1.0229216 1.7399235 0.11532249
-0.065284945 -0.032606315 -0.0051612915 0.059197567 0.05234315 -0.019472934 0.14215289 0.10404581
0.034362495 0.10247074 0.08965627 -0.04471425 0.12124775 -0.0005875651 -0.08263844 -0.039466884
-0.010193109 -0.0626399 -0.07666129 0.11618606 0.00065700826 0.0036481568 0.022750584 -0.022435937
0.07125734 0.1233871 0.06065996 0.051166482 -0.11892417 -0.039867662 -0.08499434 -0.05830043
0.08691603 -0.0420663 -0.029487971 0.0029835645 0.01388084 0.07310365 0.012466614 -0.008053446
-0.001846716 0.003207421 -0.010568437 -0.07583767 -0.010845531 0.0053813965 0.11237692 0.050878804

conv4.bias f4 [10]
00000000: 71c4 603e 8641 913e 9be2 83bd 8b11 59bd
00000010: fcf4 79be e9bf 1abe a67d 00bf 55fe 863e
00000020: e2d1 dfbe 6560 373e
0.21949936 0.28370303 -0.06439706 -0.052995246 -0.2440986 -0.1511227 -0.50191724 0.26365915
-0.43714815 0.17907865

norm.weight f4 [10]
00000000: bbe9 aa3e 961c 523e d3fa 5b3e d678 3c3e
00000010: b1c6 0b3e 3c8a 4f3e 9639 bd3e 438c 463e
00000020: 8d03 893e 1426 203e
0.33381447 0.20518717 0.214824 0.1840547 0.13650014 0.20267576 0.36957997 0.19389443
0.26760522 0.15639526

norm.bias f4 [10]
00000000: 8164 b1be 25f5 73be f6af adbe 83d4 11be
00000010: 8d06 efbd cf36 5abe 74a0 c0be 7595 49be
00000020: 222e 85be b1cf 27be
-0.3464699 -0.23823984 -0.3392331 -0.14241223 -0.11671171 -0.2130997 -0.37622416 -0.1968592
-0.2601176 -0.16387822

norm.running_mean f4 [10]
00000000: fefa b7c4 37fe 0bc4 4f35 02c4 e1a4 a7c4
00000010: 1d46 5342 c09c 77c4 6fda 13c5 96c1 b1c4
00000020: 378a b5c4 5d54 e3c1
-1471.8435 -559.9721 -520.83295 -1341.1525 52.81847 -990.4492 -2365.652 -1422.0496
-1452.3192 -28.416193

norm.running_var f4 [10]
00000000: 5d18 1849 40c3 ed48 1177 4049 abdb 7649
00000010: 3d27 ba48 1068 e548 3e38 9749 3925 db48
00000020: 0b33 8d49 2b35 2649
622981.8 486938.0 788337.06 1.0111307e+06 381241.9 469824.5 1.2387918e+06 448809.78
1.1567054e+06 680786.7

fc1.weight f4 [50, 810]
00000000: 2d54 45be 5283 3abf 1af0 eabf 3aca 1dc0
00000010: 35c7 7cbf 4848 2a3f 4e5e ebbe f025 7ebe
00000020: 7d68 a63f caa5 19c0 a444 54bf 16e5 c7be
00000030: d607 533e 7730 9a3f 824f 4ebf 265a c03f
00000040: a952 70bf 7c47 8cbf 87de c53e 25b6 24bf
00000050: 886a 1ec0 f7da 38bf 0b4a 9f3d cccf 9f3e
00000060: 9114 423e 3e9c e6bd 2340 063f 7b23 513f
00000070: 65d4 a83f 5d9c c63d a8f6 2940 11da ed3f
00000080: 4827 8f3f 6183 04c0 22dc 7f3d 46c8 df3d
00000090: 0397 6ebf 5921 e83e 0aa3 1abe d9e4 e4bf
000000a0: 1072 f23d 1bd6 983f bec8 49bf de8b 6abe
000000b0: 50e3 84bf 4896 b9bf 459a 84bf 313b cd3c
000000c0: 046e d0bf 257e 83c0 68f9 8cc0 357f a1c0
000000d0: 0127 09c0 17a5 823f b7ca b2bf ad0c 9bc0
000000e0: ab5a 73be ad59 e0bf 7635 00c0 f6ee 40bf
000000f0: 48bc eebf 2d86 ee3f f75b 5ebf 6666 9bbf
00000100: 1071 d0bf ec35 193f 010b 51c0 1335 d0bf
00000110: 3837 fd3e 933e a3c0 9562 bcbf 702c 06c0
00000120: 8fdb 503f 43d7 91c0 10c1 96bf cc91 2dc0
00000130: 2f18 88bd 3d09 e4bf 98e1 ac3e da8a d6bf
00000140: 6635 c4be e135 a83f 7506 0d40 fa59 65bf
00000150: bcfd 09c0 e1f0 29c0 cf25 a43f 51ff dd3f
00000160: c395 723e 27e5 863f fe38 47bf cf76 b0bb
00000170: 6c8c babf 0d5b fdbf 7e41 4b3f ddda 0f40
00000180: b389 563f 7097 093f 17b1 133f aba4 6a3f
00000190: 27b4 c23d 5d4c eebe dd51 4abf cbfb 133f
000001a0: 74a6 cd3f 55db 34bf a772 d8bd 566a 123f
000001b0: 6887 76bf ae31 2e3e 6927 c3bd 6bd6 46be
000001c0: 8e4a 36bd d9e0 803f 8ec4 f23e 9cc1 ca3e
000001d0: 70d8 db3e 21e2 f43d f38f 643f 542e 8e3b
000001e0: 397c 14bf c2f6 0abf 8589 1a40 280b 1fbe
000001f0: 83de 2d3f 8bcb a93f a4ed dabe 0b22 17bf
00000200: 4b1e 2ac0 4f01 12c0 b553 a5bf d9a9 e1bf
00000210: 740a 4abf be3b 8a3f fb74 0e3f 04ef 24c0
00000220: 7fd9 5b3b 8c18 d63e 26ef 10c0 1f23 d4bf
00000230: 40ac 94bf fc9a b6bf aacb 7a3e 55d3 263d
00000240: c68f 4e3f 791a b1bf 0610 18c0 e9cd 15bd
00000250: ec12 27bf 965a bfbf 1960 3cc0 20fc 1bc0
00000260: bdd6 173f d213 8a3f 3ada 39c0 85ea f0bf
00000270: f6e6 ffbf 0131 73c0 5ab5 c8be 2774 0b3d
00000280: f3fd 4cbf 174f 843f e5fd 5cbf 5b40 40c0
00000290: b948 09c0 973d 043f dcaa 1f3e 29d3 18c0
000002a0: 34e3 9e3e a75e 413f 8482 863f bcf1 99be
000002b0: cb40 6ebf bc23 9dbe b50d b33f 7839 9cbf
000002c0: 697f 91c0 2687 c7bf e4cf f2be 0574 6d3e
000002d0: 1402 d4be 1cc6 35bf c46c b73d eb85 26bf
000002e0: 59f7 e7bf 7ce3 e33f 553c b9be 75ca 84bf
000002f0: 2a25 623f 2dd4 863f 9171 8abe 4b5c b03f
00000300: c95d f73e ad41 863d 1514 7cbf aa5a a0bf
00000310: 150e f13d 5e8a 193f 773a 953e 2def 3e40
00000320: 0782 e23e 8b51 d6bd 394b 40bf fb45 1dc0
00000330: 97b8 c23e 3aaa eabf cfed 96c0 de4d 16be
00000340: b639 943f c0c7 8cbf c588 ffbe 79d4 37c0
00000350: ce38 c7bf aee7 a4bf 3cef 04c0 63dc 90bf
00000360: 021a b73f acbf 923c bbe4 16bf abc4 93bf
00000370: 3a18 20c0 83b2 d7bf 7fd3 3ebf 0fa3 25be
00000380: 003f 12bf aac0 34c0 ecfb be3f 56c1 f3be
00000390: 61ed 03bf 6537 b4be 737d f5be 89b1 85bf
000003a0: f731 d33f e7fd 11be 5a2e c2bf ae12 e6bf
000003b0: 0234 b23e 5edc ab3c b2a5 cd3e 4152 fcbf
000003c0: 2c62 98bf 251d 0dbe d067 9abe ac0b cfbe
000003d0: ca39 90bc c478 22bf 2c41 ec3d af32 1b3f
000003e0: a9ac 4a3f 71e6 2abe a4ff 843e e740 a3bd
000003f0: cb0d 9cbf 5392 77bd dfcc 913e 9e27 1c3f
-0.19270392 -0.7285663 -1.8354523 -2.465468 -0.98741466 0.6651654 -0.45970386 -0.2481916
1.3000637 -2.400744 -0.8291724 -0.39041966 0.20608458 1.204604 -0.8059007 1.5027511
-0.9387613 -1.0959315 0.38646337 -0.6434043 -2.4752522 -0.72209114 0.077777945 0.31213224
0.18953158 -0.112602696 0.52441615 0.81694764 1.3189818 0.09697793 2.6556797 1.8582174
1.1183863 -2.0705187 0.062465794 0.10926871 -0.93199176 0.45337942 -0.15101257 -1.7882339
0.11838162 1.194034 -0.78821933 -0.22904918 -1.038187 -1.4498987 -1.0359579 0.025052639
-1.6283574 -4.1091485 -4.405445 -5.046778 -2.1430056 1.0206631 -1.3968114 -4.8452973
-0.23765056 -1.7527367 -2.003263 -0.75364625 -1.8651209 1.8634697 -0.8685908 -1.2140625
-1.6284504 0.59847903 -3.2662966 -1.6266197 0.4945619 -5.1013885 -1.4717585 -2.0964622
0.8158502 -4.557527 -1.1777668 -2.7120237 -0.06645238 -1.7815319 0.33765864 -1.6761124
-0.3832199 1.3141443 2.203519 -0.8959042 -2.1561117 -2.655327 1.2824038 1.7343541
0.23689942 1.0538682 -0.7782134 -0.005385257 -1.4574103 -1.9793411 0.7939681 2.2477334
0.8380386 0.537467 0.5769209 0.91657513 0.095070176 -0.46542636 -0.79031163 0.5780608
1.6066422 -0.70647174 -0.10568743 0.57193506 -0.96300364 0.17011139 -0.09529001 -0.19417731
-0.044504695 1.0068618 0.47415584 0.39600837 0.42938566 0.11957193 0.8928215 0.004339019
-0.5800205 -0.5428277 2.4146435 -0.155316 0.6791765 1.3265241 -0.4275943 -0.5903632
-2.658099 -2.2813299 -1.291617 -1.7629958 -0.789222 1.0799482 0.5564725 -2.5770884
0.0033546386 0.41815603 -2.2645965 -1.6573218 -1.1615067 -1.4266047 0.24491754 0.040728886
0.8068813 -1.3836204 -2.375978 -0.036573324 -0.6526325 -1.494952 -2.9433653 -2.4372635
0.5931204 1.0787299 -2.9039445 -1.882157 -1.9992359 -3.799866 -0.3920086 0.03404632
-0.80074996 1.0336636 -0.8632491 -3.003928 -2.1450636 0.5165648 0.15592521 -2.3878882
0.31032717 0.75535053 1.050858 -0.3006724 -0.93067616 -0.30691326 1.3988558 -1.2205038
-4.546803 -1.5588119 -0.47424233 0.23188789 -0.41407835 -0.71005416 0.08956292 -0.6504809
-1.812236 1.7803798 -0.36178842 -1.0374285 0.8833796 1.0533501 -0.2703977 1.3778166
0.4831374 0.065554954 -0.9846814 -1.2527668 0.11770264 0.59976757 0.29146168 2.9833481
0.44239828 -0.10464772 -0.7511478 -2.4573963 0.38031456 -1.8333199 -4.7165294 -0.14678141
1.1580112 -1.0998459 -0.49909034 -2.8723433 -1.556421 -1.2883203 -2.0771017 -1.1317257
1.4304812 0.017913662 -0.58942765 -1.1544393 -2.5014787 -1.6851352 -0.7454147 -0.16175483
-0.5712738 -2.8242593 1.492063 -0.4760844 -0.51534086 -0.35198513 -0.47947273 -1.0444804
1.6499623 -0.14257012 -1.5170395 -1.797445 0.34805304 0.020979103 0.40165478 -1.9712602
-1.190496 -0.13780649 -0.30157328 -0.40438592 -0.017605681 -0.63465524 0.11535868 0.6062421
0.7916971 -0.16689469 0.25976288 -0.079713635 -1.2191709 -0.06044228 0.28476617 0.6099795

fc1.bias f4 [50]
00000000: 8b15 b33f cd6c 0340 e720 54be 7728 1c3f
00000010: 67fc 76be 16e8 b83f 1daf ab3f 33dc 6cbe
00000020: 97bb c13f 02a3 48be c160 49bf 9488 f63e
00000030: 6f5a 12bf b791 fd3f b5cf 34bd 49d9 753f
00000040: 1629 a4bd 3605 73bd d524 4ebe 3b78 e2be
00000050: b216 bb3f 0075 6d40 2544 59be 3dec 7bbc
00000060: ef47 25be 51f6 4fbf 1099 10bd f24b 4f3f
00000070: 85ab 0440 454a 11be 2146 67be 2a0a 48be
00000080: e00d 3d3e 3fa8 2540 a8d1 d03d 77e7 d0be
00000090: cc5a 6ebe a1d8 c53f 1fb8 47be 89df efbd
000000a0: 47ae 87be 826e 3b40 2bd4 aa3e dfd1 21be
000000b0: a506 47bd 5bd3 413f df28 4b36 ec02 db3f
000000c0: 0978 703f 1dc1 0b40
1.3990949 2.0535157 -0.20715676 0.60999244 -0.24119721 1.4445827 1.3412815 -0.23130874
1.5135373 -0.19593433 -0.7866326 0.48151076 -0.5716924 1.9810094 -0.044143397 0.96034676
-0.08015649 -0.05933114 -0.20131238 -0.44232354 1.4616301 3.710266 -0.21217401 -0.015376148
-0.16140722 -0.81235224 -0.03530222 0.8097526 2.0729687 -0.14188488 -0.22585346 -0.19535127
0.18462324 2.588394 0.10196239 -0.40801594 -0.23276824 1.5456735 -0.1950383 -0.11712558
-0.2650015 2.9286199 0.33364996 -0.15802716 -0.04859032 0.7571313 3.0273147e-06 1.7110267
0.9393316 2.1836617

fc2.weight f4 [7, 50]
00000000: 4d8d edbe b33c 003e 5327 9bbd 110d a2be
00000010: 1b00 79be 97d7 4cbe 9119 72bf 2a6c 1abf
00000020: 6ea8 cebd 65d9 d83d 76d8 afbf 5c8d 10be
00000030: ed98 533e 106a c8bd 9f6a d4bc a8bd 61bb
00000040: 0f7c a8bd 2f92 6f3a 66f3 66be 7a0b 30be
00000050: a3c4 bbbd 1879 023e d159 0cbe a843 663d
00000060: d9e3 8dbd 849e 8a3e e981 c1bd dd99 bdbd
00000070: 9deb 75be 4978 1f3d a01c 91be c843 2c3e
00000080: edcf 0ebe 0efd 5b3e 801a e2be adcb 68bf
00000090: e550 48be b790 633e 8140 07be e971 62bd
000000a0: 191f f7bd b851 b9bd 9bbc 37bf 05f7 4cbe
000000b0: f089 c0bd e574 03be 3ec3 9f3d 9ad6 183e
000000c0: 5747 943d 7b14 49be e7c9 21be b181 f2be
000000d0: e6fc a7bd e9bb 22bf dd11 6e3b ff66 82bd
000000e0: f985 91bf 2972 1cbe 4ad1 da3d 4552 1bbd
000000f0: 68f9 b5c0 98a3 5abf f652 c1bd 62a8 59be
00000100: 35b2 d73c 5f35 113e 6dea 28bd 0f54 18bd
00000110: f36c e7bd aef4 5bbd 9b34 26be 29ec 89bd
00000120: 7ffb 7abd fb12 a43c 197c 863c 5c6e 40be
00000130: 0201 f0bd 4f99 6ebe df83 97be 481d ce3d
00000140: 1031 75be c464 d13d a34d 4f3d 3670 d9be
00000150: a035 48bf a8ec fdbf 0998 5dbc 46da a5be
00000160: 9097 68be 7327 e03c 87b6 8fbd 0188 aabe
00000170: f1e4 56bf 5574 1ebd 3fe5 e13d a8ba ccbd
00000180: d1d2 b73d 6cdc 193f 9228 8bbd 7b08 e0bc
00000190: 1c7b 853e 23e3 eebe bbe9 0abd f234 4bbe
000001a0: f83b 85bd 1635 4ebd 08b3 57bf 7192 6d3d
000001b0: 70bf 5bbd 74f8 d5bd 297d 3abe f394 89be
000001c0: fe7c 083c aebd 8fbe f755 003d 6889 9d3e
000001d0: 304d c7bd 4d4b 413c 2400 90be 9c72 dcbc
000001e0: ee46 d1bd 74a1 9b3c df67 813d d7f2 15bd
000001f0: 6b69 19be 8d0b 1f3e 23a0 5ebb f26a 8cbd
00000200: 3674 20be 443a b33d d80b c5be 7be1 453c
00000210: 34c8 78bd c077 7d3b 20ce d3bd 5213 8f3e
00000220: 7d78 263e 5f4a 67bc 2ef7 3ebe 2fef debb
00000230: 1cee 5fbe dedc 2fbe e517 17bf c446 43be
00000240: d575 f9bd b5f7 813e 0ab2 a63c 5b17 b7bc
00000250: 2d22 8dbd d177 bebd ba07 b0be fc3c 0bbf
00000260: 0169 753d 842e ccbe eacd 9abd 65b9 b7bd
00000270: b9a3 42bf 340a 65bf e384 1ebd 0f15 d6bc
00000280: 08b8 bdbf 6042 a63e b157 04bd 7324 943e
00000290: 20d8 87bc daae 22be cbd1 893c 0272 94bc
000002a0: 8d40 a5bd 88e2 a6bd 4bbd 993e 3e48 a2bc
000002b0: 4a25 843c 4efb 5e3d 4145 0f3d 0f04 6fbd
000002c0: 8a9b 5abd c586 b93d 5e51 a63e bf6f e0bc
000002d0: 3b8a 25be b4a8 ed3d 6d7d 2fbe 03f7 74bd
000002e0: cbf1 b2be 689d 9bbf 06e2 01bd 9f06 cfbe
000002f0: 5606 3ebe c43e 79bd ed4f 3cbd 135a b23e
00000300: e9de 35be dd0a d33d 20f0 68bd faea aa3b
00000310: 71b0 1cbd 8d9c e3bd 1dcb b3be 9df9 033e
00000320: 4a68 b8be 6a8a 35bf 663a bbbd e8e0 b3be
00000330: f74e b2bc 2eec 12be 5064 2fbf b01c cebe
00000340: 8054 02be d3ce 31be 1c25 8dbf 9336 52bd
00000350: af71 5cbe 1c4e 52be ec94 eb3d a082 b23d
00000360: 8f23 2ebd fc4b 4fbd 353b 383d 92cb e9be
00000370: 5d6f b1bd 671a 6a3e 7a07 27bd 7faa 2bbd
00000380: 54b9 5c3b 24a2 9dbd 2808 4dbd cf29 953c
00000390: 0f58 2dbe 5167 b8bd 0ac0 01be 1b23 efbc
000003a0: e4b3 8a3e 0d8e 333d ee11 60be f4c0 75bf
000003b0: d5a8 ca3c 3529 f73d a226 8c3d feaa ae3d
000003c0: 87fc 1dbe 6bfd 43be b4ff 2ebf 1918 07be
000003d0: bc1c 8b3d 0f65 2ebe e49c 5b3c 6552 97bd
000003e0: 065d 003b 61a5 1ebd ef8e 34be 5bf7 8abe
000003f0: 5cf3 c2bd 2377 583e f631 8d3d ee41 b23e
-0.46396866 0.12523155 -0.0757586 -0.31650594 -0.24316446 -0.20004116 -0.9457026 -0.60321295
-0.10090719 0.1058834 -1.3737934 -0.14116424 0.20663805 -0.09785855 -0.025929747 -0.003444532
-0.08226787 0.00091389095 -0.22553787 -0.17191878 -0.09168365 0.12741506 -0.13706137 0.056216866
-0.06928224 0.27074063 -0.094486065 -0.09257863 -0.2401566 0.038933072 -0.28342152 0.16822731
-0.13946505 0.21483251 -0.44160843 -0.90935785 -0.19562109 0.22223173 -0.132082 -0.055284414
-0.12066478 -0.0904879 -0.71772164 -0.20016105 -0.094013095 -0.1283756 0.07800911 0.14925614
0.072401695 -0.19636719 -0.15799676 -0.47364572 -0.082025334 -0.6356798 0.0036326565 -0.06367301
-1.136901 -0.15277924 0.1068445 -0.037920255 -5.686695 -0.85405874 -0.09439652 -0.21255639
0.026330093 0.14180516 -0.04123919 -0.03718954 -0.11300077 -0.05370014 -0.16231005 -0.06734497
-0.061275 0.020028582 0.016416596 -0.18792099 -0.11718942 -0.2330067 -0.29592797 0.10064179
-0.23944497 0.10224298 0.05061115 -0.42468423 -0.78206825 -1.9837847 -0.013525018 -0.32393092
-0.22714067 0.02736256 -0.07017236 -0.33306888 -0.83943087 -0.03868516 0.11030053 -0.09996539
0.08975757 0.6010196 -0.067948475 -0.027347794 0.26070487 -0.46657667 -0.03391431 -0.19844416
-0.06505579 -0.050343595 -0.84257555 0.058000986 -0.053649366 -0.10447779 -0.18211807 -0.26871452
0.008330582 -0.28074402 0.031331982 0.30768895 -0.09731519 0.011797738 -0.28125107 -0.026910119
-0.10218607 0.018997885 0.0631864 -0.036608543 -0.1498162 0.1553175 -0.003396996 -0.06856336
-0.15669331 0.08751348 -0.384856 0.0120776845 -0.060737804 0.0038676113 -0.103420496 0.27944428
0.162569 -0.014116853 -0.18648979 -0.0068034153 -0.21868175 -0.17174098 -0.59020835 -0.19069964
-0.12180678 0.25384298 0.020348568 -0.022350004 -0.06891284 -0.09300197 -0.34380895 -0.5438993
0.059914593 -0.3987924 -0.07558806 -0.08970908 -0.7603107 -0.89468694 -0.03870095 -0.026133088
-1.4821787 0.32472515 -0.03231019 0.2893406 -0.016582549 -0.15887013 0.01682367 -0.01812077
-0.08068953 -0.08148676 0.30027232 -0.019809838 0.016131062 0.05443888 0.034978155 -0.05835348
-0.05337099 0.090589084 0.32483953 -0.027397035 -0.16166012 0.11604443 -0.1713769 -0.05980588
-0.34950098 -1.2157412 -0.031709693 -0.4043474 -0.18557104 -0.060850874 -0.04597466 0.34834346
-0.17760815 0.103048064 -0.056869626 0.0052159997 -0.038254205 -0.11113844 -0.351159 0.12888189
-0.36017066 -0.7091433 -0.09141998 -0.35132527 -0.021766169 -0.14347908 -0.6851244 -0.40256262
-0.12727547 -0.17364053 -1.102695 -0.051321577 -0.21527742 -0.20537609 0.11503014 0.08716321
-0.04251438 -0.050609574 0.04497834 -0.45663124 -0.08663819 0.22861634 -0.040778615 -0.041910645
0.00336798 -0.076969415 -0.050056607 0.018208412 -0.16928123 -0.09004081 -0.12670913 -0.029191544
0.2709037 0.043836642 -0.2188184 -0.9599755 0.024738709 0.120684065 0.06843306 0.08528708
-0.15428363 -0.1913964 -0.6835892 -0.13192786 0.0679259 -0.17030738 0.013404105 -0.073887624
0.0019586696 -0.038731936 -0.1763265 -0.27141842 -0.09519073 0.21139197 0.06894295 0.34815925

fc2.bias f4 [7]
00000000: 75c0 9abe 311b c8bf d398 c23d 5f5e bc3d
00000010: 85cb e53e 48c5 9cbe 5ecf 813e
-0.30224958 -1.5633298 0.09501805 0.09197687 0.44881836 -0.30619264 0.2535352

localization.0.weight f4 [8, 1, 7, 7]
00000000: 11ac 3b3d e054 aebc 7d0d a03d 22e9 063e
00000010: 51a3 503d 9889 de3d 7082 2d3e f0dd 3d3e
00000020: d8dd f43d f57f 7a3e 266e df3d ed88 2d3e
00000030: e435 6a3e cf5e 443c 009d 06bd 0807 af3d
00000040: 8ad4 523e 33e6 373b 8316 403e 6d63 193e
00000050: f66d 98bd d263 a73d d2cd 95bd 3aad 55bd
00000060: 16b2 413e 4983 463d 035f 613c 3d44 b63c
00000070: 3ef8 413d 2311 a4bd 9e82 3f3e a5eb e23b
00000080: b15f ea3d a5fa 143e acd7 29bc cfb1 f23d
00000090: edad a9bd 625c 423e 6d7f 093e f2f4 233d
000000a0: 638a 013e 24e8 81bd 1772 8bbc 33d3 023e
000000b0: d2fd 283d 9e6a 79bd 94c3 fd3c 7bc1 033e
000000c0: 2493 1cbc ab75 debd 8025 96bc 4d0a a43d
000000d0: e4a9 e0bd 8985 c0bc df56 423d d40a 8239
000000e0: 6215 0f3e 6f11 cb3d 60cd 07be 6ea5 4d3d
000000f0: fce7 cc3d b142 e3bd 8aca 86bc b6e1 cabc
00000100: 948a dbbd 998a a03d 1aaa c0bd 273c 7abd
00000110: f362 573d 0e7c 4dbe f3ea d3bd ea19 f8bd
00000120: ad59 263d b732 c93d 6299 e3bd 0db1 00bd
00000130: 0377 80bd ccf8 cd3d b96e d7bc 9f1c 3a3d
00000140: e94e a93c fdfe c3bd a35a 9fbd fa85 c0bd
00000150: 60c0 33be 5622 8b3d b611 13bc e4c5 993d
00000160: 68b5 c7bd c341 55bd 6907 853a 50d7 94bb
00000170: 0633 aebd de7a 49bd c706 0ebe 9f6b ad3d
00000180: 3c17 15bd f5bb 1ebe 21ea 4cbd aecc aabc
00000190: af0a 4f3d 6b15 aabd c135 c03d 36b7 f13d
000001a0: e3e2 3abc 6838 a03d 3ab4 1dbd 5281 d6bd
000001b0: 224c 053e bf16 843d dd44 37bd 8307 fabd
000001c0: a8c0 223b 00a4 14bd 9b69 f9bb c970 033e
000001d0: b7c9 cfbd c8d5 a53d 88d5 68bd 755a b2bd
000001e0: 320a 83bd 8ebc 9fbd 24d4 e2bb 7959 25be
000001f0: 0337 01be 930d 0c3d 6d17 003e e968 23bd
00000200: feba 383d a589 b1ba bfe6 b23d 041e 9cbc
00000210: 7342 6a3d 757c 133e 2800 cdbd 676b cdbd
00000220: 016e c33c be05 3ebd d5ad 843b 0adf 6d3c
00000230: 551b 0abe 387b 8c3d 30dd 263c d568 6a3d
00000240: c730 a6bd 2c15 37be b176 38be c730 c4bc
00000250: 3d9f c2bd e4d9 bdbd b708 1dbd e2d9 333c
00000260: 67e6 583d 76c7 97bd 39ba 883d 463d 8abc
00000270: fd17 8abd b3e9 013e 68d0 c13d 2120 90bd
00000280: 042d ac3d 309e 063e f938 f53d 2009 933d
00000290: ca8d 033e e972 313c 7be0 f0bd 2a97 f73d
000002a0: 9c7e 903d 80e0 433d a9b6 f93c a4ed 98bc
000002b0: af69 04bd a4ab fbbd 0beb 0c3e c798 c33d
000002c0: 2486 84bc d50c d43d 49eb 913d a7b0 a23d
000002d0: ffb3 a33d 53c2 11be f842 523d 3145 44be
000002e0: 4c73 9b3d efd6 0dbd b7ce 93bd cd7f 4a3c
000002f0: b9fb 92bd ff56 1dbe fb57 18be aa70 7e3c
00000300: 55c6 c7bd 2f4c 07bc b4b2 613c 2cc8 843d
00000310: f79a 9bbd cb86 18be b1b7 37bc 08d2 bf3d
00000320: 3de2 0a3e 926b 20bc 38b9 3fbd fafc ffbd
00000330: 1364 b0bd 2fd3 d83d 0033 bcbd 76d5 d13d
00000340: 92cf 113e 4705 ee3d c638 a1bd 93e1 9fbd
00000350: c642 6f3d 4641 b5bb 35b8 183e 5856 963d
00000360: 0127 a73d 4f9b 04ba 1fc1 683d 5091 64bb
00000370: 0f1f d03d e179 83bd 8d2d 49bd 4882 013e
00000380: c7a5 b2bd b5ea 05bd d99a 12bd 90a9 ab3d
00000390: 50e1 90bd c06f 633a 15be e6ba e7c4 2dbe
000003a0: f8f3 a4bb 61b0 8c3d 6efd e3bd b7c8 dc3d
000003b0: 033b f03d c47a 543d b4f9 1a3d 93c2 0ebe
000003c0: 45db 06bc 5987 dd3c 2582 4b3d b93f 21be
000003d0: 1f55 713d 5c7a 6bbc 3fd2 1c3e f0a7 e63d
000003e0: 8174 ee3d 4ac7 833b 7f18 de3c 7ade 703c
000003f0: 03a0 c73d 4356 ca3d 0f48 47bd b0ee a43d
0.045818392 -0.021280706 0.07815073 0.1317487 0.050937 0.10866088 0.16944289 0.18541694
0.11956376 0.24462874 0.10909681 0.16946764 0.2287212 0.011985495 -0.03286457 0.08546263
0.2058889 0.0028060793 0.18758588 0.14979334 -0.074428484 0.08173336 -0.07314648 -0.052167155
0.1891559 0.048465047 0.013755563 0.022249335 0.047355883 -0.08011081 0.1870217 0.0069250637
0.11444033 0.14548738 -0.010366362 0.118503205 -0.08285127 0.18980554 0.13427515 0.04002852
0.12650447 -0.063431054 -0.017022176 0.12775879 0.041257687 -0.060892694 0.030977048 0.12866776
-0.009556565 -0.10862287 -0.018328428 0.08009777 -0.10969904 -0.023501175 0.047446128 0.000248036
0.13973 0.099154346 -0.13261938 0.050206594 0.10005185 -0.11096705 -0.016454 -0.02476583
-0.10719791 0.078389354 -0.09407444 -0.061092522 0.0525846 -0.20066854 -0.103475474 -0.12114318
0.040612865 0.09824126 -0.1111324 -0.03141885 -0.062727 0.1005722 -0.026297914 0.04543745
0.02066751 -0.095701195 -0.077809595 -0.09400554 -0.17553854 0.067936584 -0.008976391 0.07508448
-0.09751397 -0.05206467 0.0010149303 -0.004542269 -0.08505826 -0.04918944 -0.13869773 0.08467793
-0.03639911 -0.15501387 -0.05002797 -0.020849552 0.050547298 -0.083048664 0.09385253 0.11802523
-0.011406633 0.07823259 -0.038501956 -0.10473885 0.13017324 0.06449651 -0.044743408 -0.12208464
0.002483407 -0.036289215 -0.007611466 0.12835993 -0.10145896 0.08097416 -0.056844264 -0.087086596
-0.06398429 -0.07799636 -0.006922262 -0.16147412 -0.12618642 0.034192633 0.12508936 -0.039894972
0.045100205 -0.001354505 0.087354176 -0.019057281 0.057192277 0.14402945 -0.100097954 -0.10030251
0.023856165 -0.046392195 0.0040490427 0.014518509 -0.13486989 0.068594396 0.010184571 0.057228882
-0.08114772 -0.1787917 -0.18014027 -0.02394904 -0.095030285 -0.09270075 -0.03833839 0.01097724
0.052954104 -0.07411091 0.06676144 -0.01687492 -0.06742857 0.12686805 0.094635785 -0.07037378
0.084070235 0.13146281 0.11973757 0.07179475 0.12847057 0.010830619 -0.11761566 0.12089379
0.07055399 0.04782152 0.030482607 -0.018668003 -0.03232735 -0.12288597 0.13761537 0.09550624
-0.016177244 0.1035401 0.07124955 0.0794385 0.07993316 -0.14234285 0.051333398 -0.1916702
0.075903505 -0.034628805 -0.07217162 0.012359572 -0.071769185 -0.15365218 -0.14877312 0.015529791
-0.09754626 -0.00825791 0.013775516 0.06483492 -0.075979166 -0.1489517 -0.011213229 0.09366232
0.13562866 -0.009791272 -0.046807498 -0.12499423 -0.08612838 0.10587155 -0.09189415 0.102457926
0.14239338 0.116221 -0.07872157 -0.07806697 0.05841329 -0.005531463 0.1491402 0.073406875
0.08161736 -0.0005058543 0.0568248 -0.0034876652 0.10162174 -0.06419731 -0.049115706 0.12647355
-0.08723026 -0.032694537 -0.035792205 0.08381951 -0.07074225 0.0008676015 -0.0017604256 -0.16969644
-0.005033966 0.06869579 -0.11132322 0.10780471 0.117300056 0.05187489 0.03783579 -0.13941412
-0.008230989 0.027042078 0.049684662 -0.15746965 0.05891907 -0.0143724345 0.15314578 0.112625
0.11643315 0.00402156 0.02711129 0.01470148 0.09747317 0.09879734 -0.048652705 0.080533385

localization.0.bias f4 [8]
00000000: c06d 363e ba79 8ebd 8fe4 9cbd 0310 5bbe
00000010: f138 30bd 6658 d9bd 3f2d 4cbe e02b 70be
0.17815304 -0.06956811 -0.076607816 -0.21392827 -0.043023054 -0.10612564 -0.19939135 -0.23454237

localization.3.weight f4 [10, 8, 5, 5]
00000000: 3cc6 47bd 6fbb 613d 69ee 91bd c526 11be
00000010: 669e 853c 6f4e a8ba cf35 6ebc 0536 5cbd
00000020: 6853 b9bc 35f4 2cbd 6ce4 893d b765 a6bd
00000030: 9d97 4dbd df96 86bd 72d6 1dbe 5478 1fbc
00000040: 8631 d8bc 6607 cfbd fca6 f6bd e5a1 72bd
00000050: 5a4d bfbd d512 36bd d88f ccbd 74cf 04be
00000060: 4071 99bd 156b 9d3d b656 263d 4c7a 6a3c
00000070: c41d 043d b08b 91bd 07c7 6a3c 183d 643d
00000080: 0d28 79bc 53a5 bdbd 7cb4 dabd ecaa b5bc
00000090: a1cd c23c 0a09 89bd 03f5 acbd 35f9 0abe
000000a0: 9bcd 18bd ea34 e83a 9ad2 dcbc 313d eebd
000000b0: 9e41 efbd 795f 07be f7a0 95bd 00a5 81bd
000000c0: 749a 34be e2ee 35be ba64 bf3c 6253 0fbc
000000d0: 7aef 1b39 4fb5 eb3c 5406 3dbd 3d6f a2bd
000000e0: b725 0f3c 0783 fdbd 4afc 973b 6a85 e43b
000000f0: 1c3d a33d 0b2a 1a3d de1a a6bd 29ad 093d
00000100: 5926 babc db9d 5ebd 473a 96bd 1e07 bcbc
00000110: 7145 903b 4843 93bd bedb 2abd 0d60 e7bd
00000120: c9df d3bd ee20 74bd 63e5 393b b6f7 253d
00000130: 8f25 ae3c df03 cbbc 3294 3fbd 4bca 663d
00000140: e0f1 293d 7f95 a63b 8178 6fbc ba4b 00be
00000150: 518c fc3c 6367 63bd 828a 69bc 4bc3 debd
00000160: d6cb 883c 5cfb a4bd a1b1 f93c 073f c1bd
00000170: 28df f1bc 1094 20bc 93a3 0dbd f379 5ebc
00000180: 2030 1dbe e30f 42ba 0559 69bd e870 05bd
00000190: ac38 86bd b767 9bbc e936 06be 8fa7 02be
000001a0: 10dc 87bd 524e c2bc 3abc bebd 1fd4 19be
000001b0: 744c ffbd 8c2e cdbd 83ad 9fbd da9d bfbd
000001c0: 1a1c 23bd 682b e8bd e8b7 b73c 84f7 14bd
000001d0: c3eb bcbd ad29 f6bc b448 e8bd 44bf 413d
000001e0: 0b18 88bd 16de 92bd f88a dcbd 24a9 91bd
000001f0: b9ad 04bd 6ad8 43bd 94e6 0dbe 7c7b e6bd
00000200: 1946 43be ddf8 1fbe 51e5 03be 2e3d 03bd
00000210: c57b d0bd 581b 29be d189 1fbe 56a4 e4bb
00000220: 852f c8bd da4d ccbd 6444 15bd 753f 42bd
00000230: 3ea4 debd 741e e0bd 489b e9bd 1a5b c63c
00000240: 6a63 f8bc 3efe 91bc 0a12 93bd 19eb 74bd
00000250: b1b7 aa3d 2baa efbc f2a2 2dbc a0d8 0c3c
00000260: 9402 a43b 0f9b f63c 33d3 353c c62a e23d
00000270: cb5c 9b3c 8240 a1bd 07e7 b8bd 6c16 24bd
00000280: 64f6 99bd b984 0bbd 987c 3fbd b7b2 9bbd
00000290: 77cf 10be 4731 22bd 81b8 efbd 6efc bebd
000002a0: a761 e03c bada d63b b41f 92bd a9e2 69bd
000002b0: 0e41 7bbd 1c87 58bc 0158 3fbd 7e1a 05bd
000002c0: a31d 51bd f14a 86bd bebd a13d 680d 3abd
000002d0: f02f 803d 4033 3bbc 72aa 823d d1a7 4b3d
000002e0: f268 ad3d 4448 783d 8d70 0abd 8b65 e7bc
000002f0: 56dc 893a 60ed 73bd 2597 2abc c13d 79bd
00000300: 271e 653d b9e4 8dbd d724 ae3c 4591 12bd
00000310: 827d 79bc 51d0 a3bd fe61 1bbd a0c7 58bd
00000320: 17b2 2a3d a6ef 90bd 7b43 a43c 7b90 733c
00000330: c4dc 83bd ea91 1dbd 0a13 21bc 8d0f 9bbb
00000340: 0e2b 20bd 9353 9f3b 2a93 15bc 1e59 063d
00000350: 6159 8dbd 0e5c aabd 09eb 68bc ad77 adbd
00000360: 99a7 a3bd afc8 f7bc 33f1 4fbd e668 4dbd
00000370: dbdc 2f3d 11cc 2b3d c27d 9cbd 3e5b e4bc
00000380: 5bdd acbd f37a bbbd 16dc 2e3d 2027 0b3d
00000390: 473c 64bc eb08 4fbb b0db 0fbd efb5 8fbd
000003a0: 3094 dcbc 8e41 9bbd ddfe 4f3b 9527 09bd
000003b0: a884 c53c 8a4d 93bd e6b7 aaba 5b4f 2ebc
000003c0: 5551 8bbd ed25 ea3c 1e18 15bd 0dac 7bbd
000003d0: dbf3 63bd ea4a a4bd 143d 8c3c ec03 c3bd
000003e0: 1542 fabc ca4d 003d 2db0 5dbd d342 a1bd
000003f0: 19a3 673a 73d2 abba 4013 b5bc d63f 8a3c
-0.048773035 0.05511039 -0.07125551 -0.14174946 0.016310882 -0.0012840758 -0.014539196 -0.053762455
-0.022622779 -0.04222508 0.06733021 -0.08124869 -0.050193418 -0.06571745 -0.15413836 -0.009733278
-0.026390802 -0.10108833 -0.120435685 -0.059236426 -0.093409255 -0.044451553 -0.099883735 -0.12969762
-0.07492304 0.0768644 0.040610038 0.014311384 0.03225495 -0.071067214 0.014329678 0.055722326
-0.015207303 -0.09260049 -0.10678956 -0.022176228 0.023779692 -0.06691177 -0.0844517 -0.13571627
-0.037305456 0.0017715965 -0.026955891 -0.11632765 -0.11682437 -0.13220014 -0.07306092 -0.063302994
-0.17637044 -0.17766908 0.02336346 -0.008747907 0.00014871164 0.028772978 -0.046148613 -0.07931373
0.008737019 -0.12378507 0.0046382295 0.006973912 0.0797064 0.03763775 -0.08110593 0.033612404
-0.022723364 -0.05434976 -0.07335334 -0.022952612 0.0044028093 -0.07190567 -0.04171347 -0.11297617
-0.10345418 -0.059601717 0.0028365485 0.04051944 0.021258144 -0.02478212 -0.04677219 0.056345265
0.041490436 0.0050837393 -0.014616133 -0.12528887 0.030828627 -0.05551852 -0.014254214 -0.10877093
0.016698759 -0.080557555 0.030480208 -0.0943585 -0.029525355 -0.009800926 -0.034579825 -0.01357888
-0.1535039 -0.000740288 -0.05696966 -0.03257838 -0.06553778 -0.018970354 -0.13106884 -0.12759231
-0.066337705 -0.023718987 -0.09313245 -0.15022324 -0.12465754 -0.10018644 -0.077967666 -0.0935628
-0.03982172 -0.11336404 0.02242656 -0.03636886 -0.092246555 -0.03004917 -0.11341992 0.047301546
-0.06645211 -0.07171266 -0.10768694 -0.07112339 -0.032392237 -0.04781381 -0.1385749 -0.112540215
-0.19069709 -0.15622278 -0.12880446 -0.032040767 -0.10179857 -0.16514337 -0.15579917 -0.006977598
-0.09774689 -0.099757865 -0.036442176 -0.0474238 -0.108711705 -0.109433085 -0.11406571 0.024213362
-0.030320842 -0.017821427 -0.07181175 -0.05979452 0.083358176 -0.029255947 -0.010597931 0.008596569
0.00500519 0.030103235 0.011097717 0.11043315 0.018965146 -0.07873632 -0.0902844 -0.040060446
-0.075176984 -0.03406212 -0.04674968 -0.076024465 -0.14141642 -0.039597776 -0.11705113 -0.09325491
0.027390314 0.006556836 -0.07134953 -0.057100926 -0.061341338 -0.013215806 -0.046714786 -0.032495968
-0.051053654 -0.06557263 0.078975186 -0.04542294 0.06259143 -0.011425793 0.06380166 0.04972059
0.08467282 0.060615793 -0.033798743 -0.028246662 0.0010517936 -0.05955255 -0.010412012 -0.06084991
0.05593696 -0.06928391 0.021257801 -0.03578307 -0.015227677 -0.079987176 -0.03793525 -0.052924752
0.041673746 -0.07076959 0.020051708 0.01486599 -0.06438592 -0.038469233 -0.009831199 -0.0047320784
-0.03910356 0.0048622577 -0.009129325 0.032799833 -0.06901813 -0.08318339 -0.014216193 -0.08470092
-0.07990951 -0.03024706 -0.050767135 -0.050148867 0.042935234 0.04194266 -0.07641174 -0.027875539
-0.08440658 -0.0915431 0.04269036 0.03397286 -0.013930387 -0.003159101 -0.03512162 -0.07017123
-0.02692613 -0.07580863 0.0031737604 -0.033485014 0.024111107 -0.07192524 -0.0013024777 -0.010639037
-0.06802622 0.028582538 -0.036399953 -0.061443377 -0.05565248 -0.08022101 0.017118968 -0.095222324
-0.030549088 0.031324185 -0.054123092 -0.07874074 0.0008836254 -0.0013108983 -0.022103906 0.016876142

localization.3.bias f4 [10]
00000000: cfa1 36be 642a 18bc 2851 213d ac8b a83c
00000010: 2526 bdbd 1a39 a7bd b526 4ebd 4141 013b
00000020: 3266 a3bc 92e1 f13c
-0.17835163 -0.00928745 0.039384037 0.020574413 -0.09235791 -0.08165188 -0.050329883 0.0019722732
-0.019946191 0.029526506
