EmpathyBot/model_snapshots/deep_emotion-200-64-0.005-0.49919499659421634.pt (torch_old, 271009 bytes, 24 tensors)

conv1.weight f4 [10, 1, 3, 3]
0	0x3dcd9751	0.10038627
1	0xbd6f619f	-0.058442708
2	0xbf9afaab	-1.2107748
3	0x3eb161ac	0.3464483
4	0x3e989eaa	0.2980855
5	0x3dd33024	0.103119165
6	0xbf408c0e	-0.75213706
7	0x3ef22fb7	0.4730203
8	0x3f3fa65d	0.74863225
9	0xbf44344e	-0.7664231
10	0x3ea30864	0.3184234
11	0x3f3eeb39	0.7457767
12	0xbf7489c5	-0.9552272
13	0xbf099da9	-0.53756195
14	0x3f7c1de0	0.98483086
15	0xbe453e3d	-0.19262023
16	0x3da5d827	0.080978684
17	0x3eb4a1d2	0.3527971
18	0x3f2cd2f3	0.6750938
19	0xbe2a5ff6	-0.16638169
20	0xbdf222f7	-0.11823075
21	0x3ef6a3a3	0.4817172
22	0xbeaa96a5	-0.33318058
23	0xbe3640b6	-0.17798123
24	0xbe8eb82d	-0.2787489
25	0xbe9cd42e	-0.3063063
26	0xbf1b4865	-0.6065734
27	0x3f3fb2c9	0.7488218
28	0x3f3d229d	0.7388094
29	0x3e87dada	0.26534158
30	0xbf4d9aaa	-0.80314124
31	0x3cd16d6f	0.025564877
32	0x3e13d695	0.14437325
33	0xbf19cb79	-0.600761
34	0xbecbbd32	-0.39792782
35	0x3d9a28d5	0.07527319
36	0xbf2c4952	-0.6729938
37	0xbea82a34	-0.32844698
38	0x3eb028f8	0.34406257
39	0x3e26c1e6	0.16284904
40	0xbeb42947	-0.35187742
41	0xbeab1942	-0.33417708
42	0x3f41dc5d	0.7572687
43	0x3ecbe992	0.39826638
44	0x3c6e0ce8	0.014529444
45	0x3f232425	0.6372703
46	0x3e7bf77e	0.2460613
47	0x3f102a88	0.563149
48	0x3ee9f570	0.45695066
49	0x3e87b1a3	0.26502714
50	0xbf74a095	-0.9555753
51	0x3ecb9f62	0.39770037
52	0xbeba27c3	-0.3635846
53	0xbf0e7dcb	-0.55660695
54	0xbe6e8037	-0.23291098
55	0x3d5e6570	0.054295957
56	0xbf450201	-0.7695618
57	0x3f1ba44a	0.6079756
58	0x3f0ea8a1	0.5572606
59	0xbf5bda06	-0.8587955
60	0x3f33077b	0.6993329
61	0x3e835d99	0.25657347
62	0xbdd2a0f9	-0.10284609
63	0xbeba98a9	-0.36444595
64	0xbee439b5	-0.44575277
65	0x3ecbbfd9	0.39794806
66	0xbf822226	-1.0166671
67	0xbd9c2462	-0.07624127
68	0x3e9af965	0.30268398
69	0x3cc7c25c	0.02438467
70	0x3f7927cd	0.97326356
71	0x3e9cd6b6	0.3063256
72	0xbf6d542a	-0.9270655
73	0xbeca4bf2	-0.39511067
74	0x3d77de8c	0.06051497
75	0x3d93cd9f	0.072169535
76	0x3e217249	0.15766253
77	0x3dce30d8	0.1006791
78	0x3f3b80a7	0.7324318
79	0x3f5cc958	0.86244726
80	0xbf088260	-0.53323936
81	0x3daedcd7	0.085382156
82	0xbed93477	-0.4242284
83	0x3f399ce8	0.72505045
84	0xbd512c64	-0.051067725
85	0xbf6ae85b	-0.91760796
86	0xbee44ce6	-0.4458992
87	0x3d7819f1	0.060571615
88	0x3e69d3c3	0.22834687
89	0x3f416abb	0.7555348

conv1.bias f4 [10]
0	0x3e1cd643	0.1531611
1	0xbe280cc8	-0.16411126
2	0xbe88df72	-0.26732975
3	0x3e8eaff6	0.27868623
4	0x3e34812a	0.17627397
5	0xbedbd8b2	-0.42938763
6	0x3eb1ecbd	0.3475093
7	0x3ec3e13f	0.38257787
8	0x3e65e6fe	0.22451398
9	0x3e8a32f1	0.2699199

conv2.weight f4 [10, 10, 3, 3]
0	0x3d758e29	0.059950028
1	0x3d224a27	0.0396215
2	0x3d6f34fb	0.058400135
3	0xbd02e511	-0.031956736
4	0x3d262089	0.04055837
5	0x3d20ccaa	0.039257683
6	0x3cab357f	0.020899532
7	0xbdf5ba49	-0.11998422
8	0x3cd8d96d	0.026470864
9	0xbdbb33f6	-0.0914077
10	0x3ceb4f88	0.028724447
11	0xbcb1de18	-0.021712348
12	0x3c8aeece	0.016959574
13	0x3d094394	0.033511713
14	0x3c2259a8	0.009909071
15	0x3ce6a505	0.02815486
16	0xbe102257	-0.140756
17	0xb9488056	-0.00019121295
18	0xbd148119	-0.03625593
19	0x3d150328	0.036379963
20	0x3d7d9fd9	0.06192002
21	0xbe08c70a	-0.13357177
22	0x3c18c035	0.0093231695
23	0x3c222829	0.00989727
24	0x3c8d7c4f	0.017271189
25	0xbdd4dede	-0.10394071
26	0xbe07fe77	-0.13280664
27	0xbc47b97b	-0.012190218
28	0xbdf268cc	-0.11836395
29	0xbc68e915	-0.014215727
30	0xbe0f327b	-0.139841
31	0xbe0c3915	-0.1369365
32	0x3d13808e	0.03601127
33	0x3d1916a6	0.037375115
34	0x3b815951	0.003947415
35	0xbd2b1cb7	-0.04177543
36	0x3dc23ff1	0.09484852
37	0xbd0dc4f6	-0.034611665
38	0xbda58ec0	-0.08083868
39	0x3d905bbf	0.07048749
40	0xbd27734a	-0.040881433
41	0x3dd800e5	0.105470456
42	0xbc9f730f	-0.019464044
43	0xbd18250b	-0.037144702
44	0xbdee08da	-0.11622782
45	0x3ccdbe17	0.025115056
46	0xbdb134b1	-0.08652628
47	0x3ca2cc2b	0.019872745
48	0xbcfd768f	-0.030940322
49	0x3d960a9f	0.073262446
50	0x3c0a98e5	0.008459304
51	0xbacfe5f5	-0.0015861379
52	0x3cbee80e	0.023304012
53	0xbdd6f6d2	-0.10496296
54	0xbe05376c	-0.13009423
55	0x3d3fb770	0.0468058
56	0x3d627590	0.055287898
57	0x3d405cd2	0.04696352
58	0xbe0db2fd	-0.1383781
59	0xbdbbcb4d	-0.09169636
60	0xbd96a633	-0.07355919
61	0x3bcdd744	0.006281765
62	0xbde1177c	-0.109908074
63	0xbdb5db83	-0.08879759
64	0xbd9909c7	-0.07472568
65	0xbd5c992c	-0.053857014
66	0x3d029322	0.031878598
67	0xb9c0877f	-0.00036722046
68	0x3cf2f53c	0.029657952
69	0xbda5212a	-0.08062966
70	0x3d064960	0.03278482
71	0x3d60686e	0.054787092
72	0xbdcbc13e	-0.099489674
73	0x3d5623eb	0.052280348
74	0xbd2891ca	-0.04115466
75	0xbda29dc3	-0.07940247
76	0xbcf6247e	-0.030046698
77	0xbdec16a9	-0.115277596
78	0xbdc79cc1	-0.09746695
79	0xbc95c725	-0.018283436
80	0x3d889778	0.06669515
81	0x3cb79956	0.022411983
82	0x3d52e0c7	0.051483896
83	0xbd84b6b3	-0.064801596
84	0xbd277afa	-0.040888764
85	0xbcfa64c0	-0.03056562
86	0x3c503308	0.012707479
87	0xbd3b10b5	-0.04567023
88	0xbdf034b1	-0.117288
89	0xbd9853c6	-0.074378535
90	0xbe7d6343	-0.24744897
91	0xbdd63057	-0.10458439
92	0xbe482561	-0.19545509
93	0xbb99ebc5	-0.0046972954
94	0x3e0f4b1e	0.13993499
95	0x3d2104e8	0.03931132
96	0xbf50b72f	-0.81529516
97	0xbe8f2914	-0.27961028
98	0xbea7b8bb	-0.32758126
99	0xbd8f5e89	-0.07000453
100	0xbe0a3ebe	-0.13500497
101	0xbccdc54a	-0.025118489
102	0xbf35a621	-0.7095662
103	0xbf316032	-0.6928741
104	0xbf13a693	-0.5767605
105	0x3d9eb7df	0.077499144
106	0xbdfc8834	-0.12330666
107	0xbf4698fd	-0.7757719
108	0xbe5574d9	-0.20845355
109	0xbd8aaf55	-0.06771723
110	0xbdf8ae0e	-0.12142573
111	0xbe2163f5	-0.15760787
112	0xbe486549	-0.19569887
113	0x3d46e447	0.048557546
114	0x3eb0c389	0.3452418
115	0xbdc4c15a	-0.096071914
116	0xbd3c03a0	-0.045901895
117	0xbe9d603d	-0.30737486
118	0xbee8a36a	-0.45437175
119	0xbf29dee3	-0.66355723
120	0x3f31a633	0.69394225
121	0x3f1ee72b	0.62071484
122	0x3ea5cb82	0.32381827
123	0x3f65f72b	0.89830273
124	0x3f297e9d	0.6620882
125	0x3f1f2888	0.6217122
126	0x3ecbd936	0.39814156
127	0x3e0da55d	0.13832612
128	0x3ea0fb1e	0.31441587
129	0xbf288048	-0.6582074
130	0xbf0a769b	-0.5408723
131	0x3df83e70	0.12121284
132	0x3e1da4f9	0.15394963
133	0xbf656e50	-0.8962145
134	0xbf805e6c	-1.0028815
135	0x3e4e59d0	0.20151448
136	0x3e18c411	0.14918543
137	0x3e863c53	0.262179
138	0xbdb56652	-0.08857407
139	0x3e92a09e	0.28638166
140	0x3ec63823	0.38714704
141	0xbf0e95c4	-0.55697274
142	0xbd98bfa6	-0.07458429
143	0x3e9aa025	0.30200306
144	0xbd7382c8	-0.059450895
145	0x3df2c824	0.1185458
146	0x3f03a285	0.5141986
147	0xbf318897	-0.69349045
148	0xbe30ee38	-0.17278373
149	0x3e426fcc	0.1898796
150	0xbf896d78	-1.0736532
151	0xbf4d02c5	-0.8008235
152	0xbe734667	-0.23757325
153	0x3e2ef3fa	0.17085257
154	0x3e2c600f	0.16833518
155	0x3e5d7c33	0.2162941
156	0xbefd1983	-0.49433526
157	0xbced3d2a	-0.02895983
158	0x3f14a63e	0.58066165
159	0xbdd96366	-0.10614662
160	0xbe5a16ef	-0.21297811
161	0xbdd8e3bd	-0.10590313
162	0x3e8d6864	0.27618706
163	0x3e0c7bc0	0.13719082
164	0x3eaeb6cf	0.34123847
165	0xbef6f2c8	-0.48232102
166	0xbf24682a	-0.6422144
167	0xbe0bd714	-0.13656265
168	0xbeeadc37	-0.45871136
169	0xbf4e5505	-0.8059848
170	0xbf2857af	-0.65758795
171	0xbe989f4d	-0.29809037
172	0xbe05c28d	-0.13062496
173	0x3e8f2f49	0.27965763
174	0xbf07aea3	-0.5300085
175	0x3e3bd32c	0.18342274
176	0x3f5a6ba5	0.853205
177	0x3eecf501	0.46280673
178	0xbea488f3	-0.32135734
179	0xbef54ebf	-0.4791164
180	0xbf257460	-0.646307
181	0xbf51b3bc	-0.8191488
182	0xbf434666	-0.76279294
183	0xbf0756ad	-0.5286663
184	0x3e0152b7	0.1262921
185	0x3ef628fe	0.4807815
186	0x3ef0a5f0	0.470016
187	0xbeda9d6e	-0.42698234
188	0xbf648585	-0.89266235
189	0xbfaac0da	-1.3340104
190	0xbe2cb0f9	-0.16864385
191	0x3e517bfe	0.20457456
192	0xbf8f64bf	-1.120262
193	0xbf253dc0	-0.6454735
194	0xbef03693	-0.46916637
195	0xbee82a39	-0.45344713
196	0x3d5ebcde	0.054379337
197	0x3eccfc0d	0.4003605
198	0x3df874f9	0.12131686
199	0xbc53e6e5	-0.0129334675
200	0xbe8d449c	-0.27591407
201	0x3f1f1756	0.6214498
202	0x3e860610	0.261765
203	0x3de3ab3f	0.11116647
204	0x3f300ab4	0.6876633
205	0x3f3555d8	0.7083411
206	0x3f0cea1b	0.55044717
207	0xbe407ff9	-0.18798818
208	0x3e2d0d57	0.1689962
209	0x3f25c5d7	0.64755005
210	0x3d0190c4	0.0316322
211	0x3dffa4c3	0.12482598
212	0x3eaff813	0.34368953
213	0xbe5d96ba	-0.21639529
214	0x3e2bb2c7	0.16767417
215	0x3ec57b32	0.38570553
216	0xbf0b4aca	-0.54410994
217	0xbd81e6a2	-0.06342818
218	0xbeed7e54	-0.46385443
219	0xbf45385d	-0.7703913
220	0xbcc47e9d	-0.023986155
221	0x3d6809a4	0.05664982
222	0xbf0f655a	-0.56014025
223	0xbb987cef	-0.004653565
224	0xbe442d8e	-0.19158003
225	0x3e760976	0.24027047
226	0x3d2e2f77	0.042525735
227	0xbede7f14	-0.43456328
228	0x3ca48324	0.020082064
229	0xbe4c8532	-0.19972685
230	0xbf618ca6	-0.8810524
231	0x3f117718	0.5682235
232	0x3f1633b5	0.5867265
233	0xbe99d6d0	-0.300467
234	0xbed16f8e	-0.40905422
235	0xbeed65e5	-0.46366802
236	0xbf1c9c48	-0.61175966
237	0xbf21d21b	-0.6321122
238	0xbf3d54bd	-0.73957425
239	0xbf946b6d	-1.1595284
240	0x3e91e947	0.2849829
241	0x3f062d19	0.52412564
242	0x3e0a6350	0.13514447
243	0x3dd21195	0.1025726
244	0xbf2ee9ca	-0.68325484
245	0xbfbdbb93	-1.4822868
246	0xbe3d6c14	-0.1849826
247	0xbef2f5d4	-0.47453177
248	0xbe0bde2d	-0.13658972
249	0xbf86130d	-1.0474564
250	0xbe233267	-0.15937196
251	0xbe30a55f	-0.17250584
252	0x3cb10a34	0.02161131
253	0x3e2bc05d	0.167726
254	0xbf62f21c	-0.8865068
255	0x3d5d7b9c	0.05407296

conv2.bias f4 [10]
0	0xbde5401b	-0.11193868
1	0x3f0eaa6c	0.55728793
2	0xbd058012	-0.03259284
3	0xbd9b3f4d	-0.07580433
4	0x3fa24d50	1.2679844
5	0x3f5c521b	0.86062783
6	0x3e290c00	0.16508484
7	0x3ef26e24	0.47349656
8	0xbd222fd3	-0.03959639
9	0x3f0495c0	0.51791

conv3.weight f4 [10, 10, 3, 3]
0	0xbd0d3fe6	-0.034484766
1	0x3dd4aa1b	0.103840075
2	0xbbb71800	-0.005587578
3	0xbd4f626a	-0.050630964
4	0x3da33f19	0.07971019
5	0xbdc7b790	-0.09751809
6	0x3d93bf7b	0.072142564
7	0x3d4192ae	0.047259025
8	0xbdb5baaa	-0.08873494
9	0xbf26d92c	-0.6517513
10	0xbed45957	-0.4147441
11	0xbe7e272e	-0.24819633
12	0xbf361999	-0.7113281
13	0xbd3cfe71	-0.04614109
14	0x3de0009e	0.10937618
15	0xbf089baa	-0.53362525
16	0x3e2e3485	0.17012222
17	0x3f651d20	0.89497566
18	0xbea743cb	-0.3266891
19	0x3ec7c720	0.39019108
20	0x3f01fadf	0.50773424
21	0x3e3355b9	0.1751317
22	0x3f3a9c9b	0.7289521
23	0x3f4de96e	0.8043431
24	0x3ea77246	0.3270437
25	0x3f5851b8	0.8449969
26	0x3ee75778	0.4518392
27	0x3bfe31b2	0.007757389
28	0x3cfdfdd7	0.03100483
29	0xbcd388c6	-0.025822055
30	0xbc92351d	-0.017847592
31	0x3dd58438	0.10425609
32	0xbdbf1d1f	-0.09331726
33	0x3d11384f	0.03545409
34	0x3dcc63eb	0.09979995
35	0x3de7eeaa	0.113248184
36	0xbead3f5b	-0.338374
37	0xbee4c732	-0.44683224
38	0xbe285918	-0.16440237
39	0x3e42b4b6	0.19014248
40	0x3ed774bd	0.42081252
41	0x3f0f900d	0.5607918
42	0xbd260f61	-0.04054201
43	0x3ee0d7eb	0.43914732
44	0x3f0e43ca	0.5557219
45	0x3dfec402	0.12439729
46	0x3ec49212	0.38392693
47	0x3e977af5	0.29585996
48	0x3e6035c4	0.2189551
49	0x3cbe54a4	0.02323372
50	0x3ddcbdc7	0.10778385
51	0x3ec92bae	0.39291137
52	0x3ceea660	0.029132068
53	0x3ea1d4a7	0.31607553
54	0xbe06f040	-0.13177586
55	0xbe3d09ba	-0.18460742
56	0x3e629da1	0.22130443
57	0xbdf4e0dc	-0.11956951
58	0xbcf08681	-0.029361011
59	0x3eb8031e	0.35939878
60	0xbe82d026	-0.2554943
61	0x3e620a68	0.22074282
62	0x3ec25463	0.37955007
63	0xbf5f5cc6	-0.87250936
64	0xbf4e8ac3	-0.80680484
65	0x3e37c7e9	0.17947353
66	0xbefc208e	-0.49243587
67	0xbe4f48ab	-0.20242564
68	0x3edda496	0.43289632
69	0x3ed8036c	0.4219011
70	0x3f53c99a	0.82729495
71	0x3e57f5a2	0.21089795
72	0xbd006526	-0.031346463
73	0xbe1911e2	-0.14948228
74	0xbddad6a8	-0.10685474
75	0x3dc5ccf3	0.096582316
76	0x3be9ac51	0.0071311374
77	0xbd8cdceb	-0.06878074
78	0x3e4d0261	0.20020439
79	0x3c869f45	0.016433368
80	0x3e3d1edd	0.18468805
81	0x3e939f62	0.28832537
82	0x3e9902a6	0.29884833
83	0x3e608cdf	0.21928738
84	0x3f4e5c52	0.8060962
85	0x3f752faa	0.95775855
86	0x3ec07006	0.37585467
87	0x3f94d280	1.162674
88	0x3f921987	1.141404
89	0x3f447931	0.76747423
90	0x3d304011	0.04302985
91	0x3d8f3d73	0.069941424
92	0xbd3cce8a	-0.04609541
93	0x3d7d99f3	0.061914396
94	0xbd3881ad	-0.045045543
95	0x3dfdc3ae	0.123908386
96	0xbd2cbccc	-0.04217224
97	0xbbde6835	-0.006787325
98	0xbdda0672	-0.106457606
99	0x3c9df2dd	0.019280845
100	0xbdc1ab05	-0.094564475
101	0xbc8faba5	-0.017537901
102	0xbd9913c6	-0.074744746
103	0xbdcb6ec0	-0.09933233
104	0xbd4f8d1d	-0.050671685
105	0xbabe468f	-0.0014516878
106	0xbd3c9934	-0.046044543
107	0x3cd7fbb4	0.026365139
108	0x3c284330	0.010269925
109	0xbd095686	-0.03352978
110	0x3c61d40d	0.013783467
111	0xbdcbed29	-0.09957344
112	0xbcd2c803	-0.025730139
113	0x3dd54783	0.104140304
114	0x3da5e253	0.080998085
115	0xbcf597fb	-0.029979696
116	0xbba7fee8	-0.0051268227
117	0x3cfc94b4	0.030832626
118	0x3c21117d	0.00983083
119	0xbde87ac1	-0.113515384
120	0x3d053464	0.032520667
121	0xbde72629	-0.11286575
122	0xbdf38f4c	-0.11892566
123	0x3dc4572c	0.09586939
124	0xbdd4de8c	-0.1039401
125	0x3d80c2b1	0.062871344
126	0xbca936f3	-0.020656085
127	0x3c2aa8b9	0.010416203
128	0xbe1ce500	-0.15321732
129	0x3d2636a2	0.040579446
130	0xbcdc24c1	-0.026872994
131	0x3c587cd2	0.013213353
132	0xbd898f4b	-0.06716784
133	0xbc235e70	-0.009971246
134	0xbd9ab0a0	-0.0755322
135	0x3d83307a	0.064057305
136	0xbe0dd4ab	-0.13850658
137	0xbd915c34	-0.070976645
138	0xbd26172b	-0.04054944
139	0xbde2b853	-0.11070313
140	0xbbec59c3	-0.007212849
141	0x3daf4555	0.08558146
142	0xbdf06ddd	-0.11739705
143	0xbdd5bf37	-0.10436862
144	0xbd1c1d57	-0.03811392
145	0xbd5aa280	-0.05337763
146	0xbb5716a0	-0.0032819882
147	0xbd100588	-0.035161525
148	0xbba9b14d	-0.0051786066
149	0x3d197b3f	0.037471052
150	0xbd778143	-0.060426008
151	0xbd176a77	-0.036966767
152	0x3c87358a	0.016505022
153	0xbdbee5d5	-0.09321181
154	0xbd816cf2	-0.06319608
155	0xbb1938ba	-0.002337976
156	0xbd234e37	-0.039869513
157	0xbdc9da15	-0.09856049
158	0xbe022974	-0.12711126
159	0xbd0790bf	-0.033097025
160	0xbdef410d	-0.11682329
161	0xbe1b3634	-0.15157396
162	0x3e10442e	0.14088508
163	0x3cc170fc	0.023613445
164	0x3db20ed7	0.08694237
165	0x3c8bb2c7	0.017053021
166	0x3e05e372	0.13075045
167	0x3cb6c963	0.022312826
168	0x3cdff57a	0.027338732
169	0x3deacdef	0.1146506
170	0x3d1a2a24	0.037637845
171	0xbd2474f1	-0.040150587
172	0xbdfea030	-0.12432897
173	0xbd4d0483	-0.05005313
174	0x3d0949cc	0.033517644
175	0xbdde80f6	-0.10864441
176	0xbd0e9df7	-0.034818616
177	0x3d4c287d	0.0498433
178	0xbe068dc7	-0.13140021
179	0xbd8e432c	-0.06946406
180	0x3d96f55e	0.07371019
181	0x3caf7cef	0.021421878
182	0xbd71b345	-0.059008855
183	0x3c2d24e2	0.010567876
184	0x3d84742a	0.06467469
185	0x3d8e5b39	0.06950993
186	0xbc6aa3bc	-0.014321264
187	0xbdf73b78	-0.1207189
188	0x3d4a7e07	0.049436595
189	0x3de65a3a	0.11247678
190	0x3d24a871	0.0401997
191	0x3efdffde	0.49609274
192	0xbeaa0e2b	-0.33213934
193	0xbec711f4	-0.38880885
194	0xbecd8996	-0.40144032
195	0xbd7c5102	-0.061600693
196	0xbe780488	-0.24220479
197	0xbee06401	-0.43826297
198	0x3dbdb2f7	0.092626505
199	0xbef54ab8	-0.47908568
200	0xbf146ee2	-0.57981694
201	0xbf4d29ca	-0.8014189
202	0xbef5e4cd	-0.48026124
203	0xbf4707b9	-0.7774616
204	0xbf3c6cb0	-0.73603344
205	0xbeefb739	-0.46819475
206	0xbec7e06c	-0.39038408
207	0x3d3dbbaa	0.04632155
208	0xbce69c08	-0.028150573
209	0xbdcd0dbc	-0.10012385
210	0x3c8ba775	0.017047623
211	0xbb239f7b	-0.0024966884
212	0x3db178c8	0.08665615
213	0x3d3876bf	0.04503512
214	0x3ccb3105	0.024803648
215	0xbdb4d825	-0.08830289
216	0x3df9f80f	0.122055165
217	0x3ddf69b5	0.10908834
218	0x3e872522	0.26395518
219	0xbcd04ef4	-0.025428273
220	0xbe27d49c	-0.16389698
221	0x3cf7c3ad	0.030244673
222	0xbe4f9af9	-0.20273961
223	0xbe15e4a2	-0.14637998
224	0x3e3cb596	0.18428645
225	0xbe61c4e7	-0.22047769
226	0xbd157b83	-0.036494743
227	0x3da22716	0.07917611
228	0x3d24826d	0.040163446
229	0x3e1d71aa	0.1537539
230	0x3f0a7453	0.54083747
231	0x3f2424fa	0.6411892
232	0x3f4cb87c	0.79969
233	0x3f1dec79	0.61688954
234	0xbda85c99	-0.082207866
235	0x3e5662ef	0.20936178
236	0x3edac913	0.42731532
237	0x3d22d139	0.03975031
238	0x3dfa978a	0.12235935
239	0x3f44e049	0.7690473
240	0xbc695804	-0.014242176
241	0x3e0dcfa9	0.13848747
242	0x3f0cb290	0.54959965
243	0x3efcbd5c	0.4936322
244	0x3f1ed2f9	0.6204067
245	0xbd76fe31	-0.06030101
246	0x3e356545	0.17714413
247	0xbe962776	-0.2932698
248	0xbe11ea81	-0.14249612
249	0xbf2d678a	-0.67736113
250	0xbf71451b	-0.9424607
251	0xbf30f3af	-0.6912183
252	0x3d901895	0.07035939
253	0xbc3b1c62	-0.011420341
254	0x3d022968	0.03177777
255	0x3cdeca15	0.02719597

conv3.bias f4 [10]
0	0xbf29e88a	-0.6637045
1	0xbda3abaa	-0.07991727
2	0x3f977c9b	1.1834902
3	0xbdc2c4e1	-0.09510208
4	0xbb62d9cb	-0.0034614678
5	0x3c3f9b85	0.011694794
6	0xbdbe248b	-0.09284314
7	0xbdd4917d	-0.10379312
8	0xbd75a7ff	-0.059974667
9	0x3fa95bc8	1.3231134

conv4.weight f4 [10, 10, 3, 3]
0	0xbf2b4305	-0.6689914
1	0xbed5c7f1	-0.41754106
2	0xbe5fa7a5	-0.21841295
3	0xbee07faf	-0.43847415
4	0xbeae8428	-0.34085202
5	0xbe336c8b	-0.17521875
6	0x3e4e2090	0.20129609
7	0xbfa62f1d	-1.2983128
8	0xbf56891a	-0.8380295
9	0xbdaf4cda	-0.0855958
10	0x3d206f64	0.03916873
11	0xbd5672b0	-0.05235547
12	0x3d741158	0.059586853
13	0x3d8a731a	0.06760235
14	0x3dac5d45	0.08416227
15	0xbc910e5d	-0.017707044
16	0x3ce403f1	0.02783391
17	0x3da5da11	0.080982335
18	0xbcf0ddd7	-0.029402656
19	0xbdefcccc	-0.11708984
20	0xbe8a0c52	-0.26962525
21	0xbea8ae65	-0.32945552
22	0xbe206cec	-0.1566655
23	0x3ed384f6	0.4131238
24	0xbf224e38	-0.634006
25	0x3ee477f5	0.4462277
26	0x3f6291c0	0.88503647
27	0xbc657d24	-0.014006887
28	0xbd02a0bd	-0.031891573
29	0xbdcc0072	-0.099610224
30	0x3e10cc70	0.14140487
31	0xbd90c51a	-0.07068844
32	0x3ca9c18b	0.020722171
33	0x3db861d6	0.09003036
34	0x3dc1c5c5	0.0946155
35	0xbd85accd	-0.065271
36	0x3ce97187	0.028496517
37	0x3d74e587	0.059789207
38	0x3ca0cabd	0.019627923
39	0x3dd837bc	0.105575055
40	0x3c01fb18	0.007933401
41	0x3c9463ec	0.018114053
42	0x3de60726	0.11231832
43	0x3c400989	0.011721023
44	0xbd0100ec	-0.03149502
45	0x3d5678cb	0.05236129
46	0xbd028237	-0.031862464
47	0xbd5b6dc0	-0.053571463
48	0xbd2b7daa	-0.04186789
49	0x3d5aa8df	0.053383704
50	0x3e01639c	0.12635654
51	0xbdd1af48	-0.1023851
52	0xbd1bb986	-0.038018726
53	0xbd988d34	-0.07448807
54	0x3d7c7d68	0.061643034
55	0x3b98e2aa	0.0046656923
56	0xbc81478b	-0.015781185
57	0xbd74cfac	-0.059768364
58	0x3cfca2a0	0.030839264
59	0x3e00de81	0.12584879
60	0xbd4b4418	-0.049625486
61	0xbd497863	-0.049187075
62	0xbd16dbdf	-0.03683078
63	0x3c6b4489	0.014359602
64	0x3d2c0853	0.042000126
65	0x3d6b4959	0.057442997
66	0xbdf7bd71	-0.1209668
67	0x3d19455d	0.037419666
68	0x3defbecd	0.11706314
69	0x3e0ea858	0.13931406
70	0xbce5bdc2	-0.028044585
71	0xbdef171e	-0.11674331
72	0xbdb0bb76	-0.08629505
73	0x3d285783	0.041099083
74	0x3ce38029	0.027771072
75	0xbd771f36	-0.0603325
76	0xbe28bbf8	-0.16477954
77	0x3d5e989f	0.05434477
78	0xbc8c79bb	-0.01714789
79	0x3cae1379	0.02124952
80	0xbdc15ab8	-0.09441131
81	0xbe228b75	-0.15873511
82	0xbf1c5313	-0.6106426
83	0xbf392035	-0.7231477
84	0x3eef0c4f	0.46689078
85	0xbcd80a07	-0.026371969
86	0xbde605bf	-0.11231565
87	0x3f277dab	0.6542613
88	0x3e5bb843	0.21457009
89	0x3dcd3b4d	0.10021076
90	0x3f013c7d	0.5048292
91	0x3ee7a123	0.45240125
92	0x3f2e4896	0.6807951
93	0xbde2540b	-0.11051186
94	0x3e6bf53c	0.23042768
95	0x3d874455	0.0660483
96	0xbf9ec235	-1.2403017
97	0xbf186d83	-0.595421
98	0xbf9ba044	-1.2158284
99	0x3dbda92f	0.09260785
100	0xbcc4523e	-0.023964997
101	0x3d8cf6f0	0.06883037
102	0xbca4f7d6	-0.020137709
103	0x3d12e19b	0.035859685
104	0x3ca34514	0.0199304
105	0xbd6ce8e4	-0.05783929
106	0x3da5c1b0	0.080935836
107	0xbdde04eb	-0.10840782
108	0xbdc8fe92	-0.098141804
109	0xbe132ae9	-0.14371838
110	0x3cccc59f	0.024996577
111	0xbeb1d298	-0.34730983
112	0xbcbca618	-0.023028418
113	0x3f051ee9	0.5200029
114	0x3dcae72c	0.09907374
115	0xbead2dfe	-0.33824152
116	0x3e9e0584	0.30863583
117	0x3d943024	0.072357446
118	0x3d38a070	0.04507488
119	0xbd61d1ac	-0.0551316
120	0xbdcb3c60	-0.09923625
121	0x3e14ff44	0.14550501
122	0xbe5cd382	-0.21565059
123	0x3d83abe6	0.064292714
124	0x3d6d6f18	0.057967275
125	0xbcdcb079	-0.026939617
126	0xbd27905f	-0.040909167
127	0xbdd6babf	-0.10484838
128	0x3da5e996	0.081011936
129	0x3dfb9baa	0.1228555
130	0xbd992f0b	-0.07479676
131	0x3d2ed384	0.042682186
132	0x3c48f450	0.01226528
133	0x3b31ca1d	0.0027128526
134	0xbd40214e	-0.04690676
135	0xbda0edaa	-0.07857831
136	0x3d0c6bd5	0.034282524
137	0xbdd3cb99	-0.103415675
138	0xbd658888	-0.05603841
139	0xbd89f7b3	-0.06736698
140	0x3d93447c	0.07190797
141	0x3c4a0e8a	0.012332568
142	0x3c2d9503	0.010594609
143	0xbbde8349	-0.0067905528
144	0x3dd5a0a4	0.104310304
145	0x3ca5dc61	0.020246686
146	0x3cb6105c	0.022224598
147	0x3d2e8c76	0.042614423
148	0x3c943efd	0.018096441
149	0xbcea5d94	-0.028609075
150	0xbdd8f1f7	-0.10593026
151	0x3d195a08	0.037439376
152	0xbdd0e017	-0.10198992
153	0xbdb7f351	-0.08981956
154	0xbd2ad04f	-0.041702565
155	0x3dc41cb9	0.09575791
156	0x3b4e72d2	0.0031501544
157	0xbda0d713	-0.07853522
158	0x3d7b285d	0.06131779
159	0x3da02898	0.07820243
160	0xbda4546d	-0.080239154
161	0xbde49a99	-0.111623
162	0x3cc2ab9d	0.023763472
163	0xbd12beee	-0.035826616
164	0x3cb7bb04	0.022428043
165	0xbc881a2b	-0.01661404
166	0x3c946e83	0.018119102
167	0xbd76e236	-0.060274325
168	0x3dc4a7af	0.096022956
169	0xbe159783	-0.14608578
170	0xbe631f73	-0.22179966
171	0xbf43d134	-0.76491094
172	0xbef34f8b	-0.47521624
173	0xbee057b3	-0.4381691
174	0x3d74e247	0.059786107
175	0x3e0ebf37	0.1394013
176	0x3e4df5b2	0.20113257
177	0x3efa9f0f	0.48949477
178	0x3eb2c672	0.34917027
179	0x3eb613b3	0.35561904
180	0xbe0de8f1	-0.13858391
181	0x3ee0ad90	0.43882418
182	0x3ea71b8a	0.32638198
183	0x3dbc72fa	0.092016175
184	0x3f306038	0.6889682
185	0x3f4a3802	0.7899171
186	0x3d5a2730	0.05326003
187	0x3d0a7c29	0.033809815
188	0xbe483196	-0.19550166
189	0xbc8a1dcf	-0.016859917
190	0xbdba70ea	-0.09103568
191	0xbd4a82be	-0.04944109
192	0xbe1416d5	-0.14461835
193	0x3db3ab65	0.08772925
194	0x3d380290	0.04492432
195	0xbddfba17	-0.10924166
196	0xbd0571e9	-0.032579336
197	0x3d821cc8	0.06353146
198	0xbed5129d	-0.41615763
199	0xbeb7ee27	-0.35923883
200	0xbf1300de	-0.574232
201	0xbec54f10	-0.38536882
202	0xbf379973	-0.7171852
203	0xbe7e81aa	-0.2485415
204	0xbf7c0b7b	-0.9845502
205	0xbead1e2c	-0.33812082
206	0x3f024fdc	0.50903106
207	0x3dec2e33	0.11532249
208	0xbd85b41d	-0.065284945
209	0xbd058e33	-0.032606315
210	0xbba9200d	-0.0051612915
211	0x3d727926	0.059197567
212	0x3d5665c5	0.05234315
213	0xbc9f85b4	-0.019472934
214	0x3e119087	0.14215289
215	0x3dd515f8	0.10404581
216	0x3d0cc585	0.034368057
217	0x3dd1e716	0.10249154
218	0x3db7a63e	0.08967255
219	0xbd372062	-0.044708617
220	0x3df86275	0.12128154
221	0xba0e47d4	-0.00054275733
222	0xbda93b30	-0.08263242
223	0xbd218636	-0.039434634
224	0xbc268338	-0.010163121
225	0xbd804959	-0.0626399
226	0xbd9d0098	-0.07666129
227	0x3dedf2f5	0.11618606
228	0x3a2c3b14	0.00065700826
229	0x3b6f15ea	0.0036481568
230	0x3cba5f6f	0.022750584
231	0xbcb7cb92	-0.022435937
232	0x3d91ef5e	0.07125734
233	0x3dfcb260	0.1233871
234	0x3d787694	0.06065996
235	0x3d5193f2	0.051166482
236	0xbdf38e84	-0.11892417
237	0xbd234c46	-0.039867662
238	0xbdae1183	-0.08499434
239	0xbd6ecc6f	-0.05830043
240	0x3db20108	0.08691603
241	0xbd2c4db6	-0.0420663
242	0xbcf190c2	-0.029487971
243	0x3b4387e8	0.0029835645
244	0x3c636c76	0.01388084
245	0x3d95b75e	0.07310365
246	0x3c4c40c5	0.012466614
247	0xbc03f29a	-0.008053446
248	0xbaf20d82	-0.001846716
249	0x3b523398	0.003207421
250	0xbc2d273d	-0.010568437
251	0xbd9b50c8	-0.07583767
252	0xbc31b174	-0.010845531
253	0x3bb0566d	0.0053813965
254	0x3de625df	0.11237692
255	0x3d50664b	0.050878804

conv4.bias f4 [10]
0	0x3dc0010f	0.09375202
1	0x3e8d0228	0.27540708
2	0x3e46e29d	0.19422384
3	0xbe2c7597	-0.16841732
4	0xbdf3cbca	-0.11904104
5	0xbd805b2d	-0.062673904
6	0xbe85ec35	-0.26156774
7	0x3e2b5d68	0.1673485
8	0xbec7f244	-0.39052022
9	0x3eb698ab	0.3566335

norm.weight f4 [10]
0	0x3f18f497	0.59748214
1	0x3ebdb71b	0.3705376
2	0x3ea39c4d	0.31955186
3	0x3e8a21d5	0.26978937
4	0x3e2a4f4f	0.16631816
5	0x3eb68251	0.356463
6	0x3f137042	0.57593167
7	0x3eafee00	0.34361267
8	0x3ee207af	0.44146487
9	0x3e891280	0.26771927

norm.bias f4 [10]
0	0xbf14cf84	-0.58129144
1	0xbed25d8e	-0.41087002
2	0xbef96fa0	-0.48717976
3	0xbe3ba969	-0.18326344
4	0xbe02e98d	-0.12784405
5	0xbeadee5a	-0.3397091
6	0xbf0be99a	-0.5465332
7	0xbea3ddbb	-0.32005104
8	0xbe9ebd9f	-0.31004044
9	0xbe667d9c	-0.22508854

norm.running_mean f4 [10]
0	0xc255cac5	-53.448017
1	0xc18795be	-16.948116
2	0xc1b8cf83	-23.101324
3	0xc23d8a24	-47.384903
4	0x4112aa0f	9.166518
5	0xc1e32266	-28.391796
6	0xc27fe894	-63.977127
7	0xc267cdf0	-57.95111
8	0xc211dd7d	-36.466297
9	0xc040821f	-3.007942

norm.running_var f4 [10]
0	0x441f7f0b	637.98505
1	0x43995f7b	306.74594
2	0x43f187cc	483.0609
3	0x4445462b	789.0964
4	0x4329dec3	169.87016
5	0x4388f39b	273.90317
6	0x445d3795	884.86847
7	0x43dc9feb	441.24936
8	0x44308e90	706.22754
9	0x4401c173	519.02264

fc1.weight f4 [50, 810]
0	0xbf0adcdf	-0.5424327
1	0xbe466108	-0.19372952
2	0x3da54120	0.08069062
3	0xbe216fdf	-0.15765332
4	0x3dc47d93	0.09594264
5	0x3ea4d549	0.32193974
6	0xbe4ab680	-0.1979618
7	0xbeb8bf34	-0.36083376
8	0xbaaea7f9	-0.0013325206
9	0xbe5f4ee1	-0.21807434
10	0xbf004d22	-0.50117695
11	0x3e1c64a8	0.15272772
12	0xbc1bc618	-0.009507678
13	0xbe8d8a9c	-0.27644813
14	0x3dfb36c1	0.12266303
15	0x3da85242	0.082188144
16	0xbe02e014	-0.12780792
17	0xbdb7b0f2	-0.089692965
18	0x3de0d4ea	0.1097811
19	0xbefaedb7	-0.49009487
20	0xbf284da0	-0.65743446
21	0x3d819ce4	0.06328753
22	0xbd3c0cc3	-0.045910608
23	0xbda1a12e	-0.07892071
24	0xbf14a165	-0.5805877
25	0x3c9ee6d8	0.019397184
26	0x3e94af2a	0.2903989
27	0x3e8e34fe	0.27774805
28	0xbef8e274	-0.4861027
29	0x3e4addaa	0.1981112
30	0xbe190862	-0.14944604
31	0xbd2ad886	-0.0417104
32	0xbd5ca514	-0.05386837
33	0xbebcdf41	-0.3688908
34	0xbf0bce90	-0.54612064
35	0xbed34a79	-0.41267756
36	0xbee2e071	-0.4431186
37	0xbf5f100f	-0.8713388
38	0xbe8d3c0b	-0.27584872
39	0xbe8eead1	-0.27913526
40	0xbe29ac13	-0.16569547
41	0xbeb1da16	-0.347367
42	0xbe66227c	-0.22474092
43	0xbf2a30ff	-0.6648101
44	0xbaa6de04	-0.0012730961
45	0xbe98d4c6	-0.29849833
46	0xbf0caa59	-0.5494743
47	0xbdd65b96	-0.104666874
48	0xbed30c46	-0.412203
49	0x3d0d79b2	0.034539886
50	0xbea53f66	-0.32274932
51	0xbe1a5c0a	-0.15074173
52	0xbd922471	-0.07135857
53	0xbe9706a6	-0.2949726
54	0xbe8b2b17	-0.27181312
55	0xbe1d35cb	-0.15352552
56	0xbd8ce208	-0.068790495
57	0xbf10f0a0	-0.56617165
58	0xbdf9465b	-0.12171622
59	0xbd801a1f	-0.06254982
60	0xbde06ff2	-0.10958852
61	0xbe8e8bed	-0.2784113
62	0xbdadd85e	-0.084885344
63	0xbe764384	-0.24049193
64	0x3b434683	0.0029796667
65	0xbed35f05	-0.41283432
66	0xbe969e17	-0.29417488
67	0xbeac84f5	-0.33695188
68	0xbc0ab3fb	-0.008465762
69	0xbe5c01b3	-0.21485023
70	0xbe148f3b	-0.14507763
71	0xbed4c91b	-0.4155968
72	0x3e119571	0.14217164
73	0xbe9c7bef	-0.30563304
74	0x3e569a11	0.20957209
75	0x3e82d19a	0.25550538
76	0x3d7722b8	0.060335845
77	0x3e894b86	0.26815432
78	0x3e473389	0.19453253
79	0xbec74adb	-0.38924298
80	0xbb77a566	-0.0037787794
81	0xbeee5145	-0.4654638
82	0xbc98eaed	-0.018666709
83	0xbe454ea2	-0.19268277
84	0xbe339947	-0.1753894
85	0x3e38d4f7	0.1804999
86	0x3e23cddc	0.15996498
87	0x3f2335be	0.6375388
88	0xbe4b5f73	-0.1986063
89	0xbdc5f83f	-0.0966649
90	0x3e9c3a1a	0.30513078
91	0xbddea23c	-0.108707875
92	0xbf02ad97	-0.5104613
93	0xbf1a83dd	-0.6035746
94	0xbefdc83e	-0.49566835
95	0x3e22224c	0.15833396
96	0xbe66bce0	-0.22532988
97	0x3ced2413	0.028947866
98	0xbd8194d8	-0.06327218
99	0x3e06e528	0.13173354
100	0xbe6b9de1	-0.23009445
101	0xbe01827b	-0.1264743
102	0xbf09b40a	-0.5379034
103	0xbeace012	-0.33764702
104	0x3e0e514e	0.13898203
105	0xbe819e4c	-0.25316083
106	0xbe988f2c	-0.2979673
107	0xbdff0ba4	-0.12453392
108	0xbd12bb02	-0.035822876
109	0xbd84d5b6	-0.064860746
110	0x3e8b41a9	0.27198532
111	0xbecb9ab2	-0.3976646
112	0xbeac164f	-0.3361077
113	0xbe5bbc6f	-0.214586
114	0xbec8b0c4	-0.3919736
115	0xbdfb60e2	-0.12274338
116	0xbc492685	-0.01227725
117	0xbd577d37	-0.05260965
118	0xbce01a6e	-0.027356353
119	0xbe60b46a	-0.21943823
120	0xbe8b6b3b	-0.27230248
121	0xbe0445e9	-0.12917294
122	0xbe9216e3	-0.28533086
123	0xbd744709	-0.059638057
124	0xbe63d231	-0.2224815
125	0xbce99972	-0.028515551
126	0xbdadbe64	-0.0848358
127	0xbddae2bb	-0.10687777
128	0xbee4b52a	-0.44669467
129	0xbeb8b855	-0.36078134
130	0xbe8f80da	-0.28027993
131	0xbf05ea9c	-0.5231111
132	0xbeb2846f	-0.34866664
133	0xbedb3ace	-0.42818302
134	0x3e508d71	0.20366456
135	0x3e185cee	0.148792
136	0xbe22c8f4	-0.1589697
137	0x3d14a098	0.036285967
138	0xbf3f1124	-0.7463553
139	0xbe983470	-0.29727507
140	0xbf303c48	-0.6884198
141	0xbdd2cdce	-0.102931604
142	0x3f08ea7d	0.534828
143	0xbdb77739	-0.08958287
144	0xbe8c3abf	-0.2738857
145	0x3d4744a3	0.04864944
146	0xbed81c22	-0.42208964
147	0xbebbd33e	-0.36684602
148	0xbe6e63ed	-0.23280306
149	0x3eef3a79	0.467243
150	0x3f205ae1	0.6263867
151	0x3cb3af18	0.021934077
152	0xbe068f13	-0.13140516
153	0xbf29d4b3	-0.6634018
154	0xbe80203d	-0.25024596
155	0xbdb2b156	-0.087252304
156	0x3e20204a	0.15637317
157	0xbe7dec26	-0.24797115
158	0x3dc7b24f	0.097508065
159	0x3e7f0850	0.24905515
160	0x3e85f55a	0.2616375
161	0x3eb76576	0.35819596
162	0xbec3aeb1	-0.38219216
163	0xbec42114	-0.38306487
164	0x3d0abc35	0.033870894
165	0xbe864a47	-0.26228544
166	0xbe876f0d	-0.26451913
167	0xbe4ea15c	-0.20178741
168	0x3e72e5c5	0.23720463
169	0x3da9c912	0.08290304
170	0x3eded4bc	0.43521678
171	0xbec96a08	-0.39338708
172	0xbe88291f	-0.26593873
173	0xbf27148c	-0.6526573
174	0xbf137969	-0.5760713
175	0xbe4d5201	-0.20050813
176	0xbed60f8f	-0.41808745
177	0x3dd07936	0.10179369
178	0xbeaedebc	-0.34154308
179	0xbeb97ce6	-0.36228102
180	0xbe45e0d7	-0.19324051
181	0xbe5e35bd	-0.21700187
182	0xbd890846	-0.06691031
183	0xbf0c87a5	-0.5489448
184	0xbe10e48a	-0.1414968
185	0xbe75a4f7	-0.2398871
186	0xbea84189	-0.328625
187	0xbef93197	-0.48670647
188	0xbf0c21bb	-0.5473897
189	0xbda250df	-0.07925581
190	0xbde8b93c	-0.11363456
191	0xbe0a412a	-0.1350142
192	0xbcbb5ae3	-0.022870487
193	0x3c579361	0.013157696
194	0xbefe9d2a	-0.49729282
195	0x3ef58337	0.4795167
196	0xbdfd53b8	-0.12369484
197	0x3ea56167	0.32300875
198	0x3f0aba57	0.5419058
199	0x3ea42f89	0.32067516
200	0xbec0248a	-0.37527877
201	0x3ee225ec	0.44169557
202	0x3ec83121	0.39099982
203	0xbf562c20	-0.8366108
204	0xbefe5a2e	-0.49678177
205	0xbe3dafc0	-0.18524075
206	0x3df93699	0.12168617
207	0x3e458687	0.192896
208	0xbf53ff97	-0.82811874
209	0x3dbcef10	0.09225285
210	0xbe3b7941	-0.18307973
211	0xbf42a212	-0.7602855
212	0xbe9f7b16	-0.31148595
213	0xbed53946	-0.4164526
214	0x3d1fc297	0.039003935
215	0x3d4af34c	0.049548432
216	0x3e112e72	0.14177874
217	0xbc3ca856	-0.011514744
218	0xbf00f6c8	-0.5037656
219	0xbf156d78	-0.5837016
220	0xbe4b7410	-0.19868493
221	0xbec89ae4	-0.39180672
222	0x3eb675b1	0.35636666
223	0xbdd7e9e4	-0.10542658
224	0x3e272f8c	0.16326731
225	0xbe8b970f	-0.27263686
226	0x3e3a77af	0.18209718
227	0xbe0b4127	-0.13599072
228	0x3e516d74	0.2045191
229	0xbe04d0ea	-0.1297032
230	0xbea892cc	-0.32924497
231	0xbea1f9c0	-0.31635857
232	0xbdbf2b6e	-0.093344554
233	0x3f0d48ed	0.551894
234	0xbe22fe7c	-0.1591739
235	0xbe3f9d1c	-0.18712276
236	0xbe83bbc8	-0.25729203
237	0xbe67e552	-0.22646073
238	0x3d8bd765	0.068281926
239	0xbe3d44aa	-0.18483225
240	0x3dfe12be	0.124059185
241	0x3eed54d4	0.4635378
242	0xbf048050	-0.5175829
243	0x3eb7e1a7	0.35914347
244	0x3f17e50e	0.59333885
245	0xbee9076a	-0.4551347
246	0xbecfaa75	-0.40559736
247	0xbecfec9e	-0.40610212
248	0xbd0b03ba	-0.0339391
249	0x3dfa01e9	0.122073956
250	0xbe54aac3	-0.20768265
251	0xbe374ed5	-0.17901166
252	0x3dcfdc4b	0.101494394
253	0xbf0036dd	-0.50083715
254	0x3ebf0780	0.3731041
255	0x3ef62983	0.48078546

fc1.bias f4 [50]
0	0xbeab92f0	-0.33510542
1	0xbe643046	-0.2228404
2	0xbd46468c	-0.048407122
3	0xbdec139c	-0.11527178
4	0xbda987fc	-0.0827789
5	0x3df31a5b	0.11870261
6	0xbc2f2485	-0.010689859
7	0xbcd2abfe	-0.025716778
8	0x3ef08547	0.46976683
9	0xbd185458	-0.03718981
10	0xbe64e188	-0.22351658
11	0xbcdd4a38	-0.02701293
12	0x3cd6b5b3	0.026209688
13	0xbe6d5c81	-0.23179819
14	0xbd34cfb5	-0.044143397
15	0x3f40c43c	0.7529943
16	0xbda42916	-0.08015649
17	0xbd730536	-0.05933114
18	0xbd2e3896	-0.042534433
19	0xbe913569	-0.2836106
20	0x3f8e584c	1.1120696
21	0x3f80b42c	1.0054984
22	0xbe594425	-0.21217401
23	0xbc7bec3d	-0.015376148
24	0xbe2547ef	-0.16140722
25	0xbe52a94b	-0.20572393
26	0xbd109910	-0.03530222
27	0x3e0940de	0.13403651
28	0x3f7fb27a	0.9988171
29	0xbe114a45	-0.14188488
30	0xbd8e6539	-0.069529004
31	0xbe480a2a	-0.19535127
32	0xbe81d963	-0.25361165
33	0x3fca4def	1.5805033
34	0xbd885bf3	-0.06658163
35	0xbd383ecd	-0.044981766
36	0xbd9a9dbe	-0.07549618
37	0x3f583064	0.8444884
38	0xbd147ca7	-0.03625169
39	0xbdefdf89	-0.11712558
40	0xbdd9beba	-0.10632081
41	0x3fb1996a	1.3874943
42	0xbe138a25	-0.14408167
43	0x3a2d3629	0.0006607497
44	0xbd4706a5	-0.04859032
45	0x3f4d8f2d	0.80296594
46	0x364b28df	3.0273147e-06
47	0xbd936fbb	-0.07199045
48	0xbea0652a	-0.31327182
49	0x3f9b7f69	1.2148257

fc2.weight f4 [7, 50]
0	0x3b81c816	0.0039606197
1	0x3e9025ad	0.28153744
2	0xbc1b93a3	-0.009495649
3	0xbeb0c12d	-0.3452238
4	0xbdaffd1a	-0.08593197
5	0xbe4683ea	-0.19386259
6	0xbd12982c	-0.035789654
7	0xbd2728f5	-0.040810544
8	0xbdbb950f	-0.0915929
9	0xbd557f64	-0.052123442
10	0x3d5b2af1	0.05350775
11	0x3ccc61cc	0.024948977
12	0x3e4c26ed	0.19936724
13	0x3d6ab5a1	0.05730212
14	0xbcd46a9f	-0.025929747
15	0xbd6cbc4a	-0.057796754
16	0xbda87c0f	-0.08226787
17	0x3a6f922f	0.00091389095
18	0xbd8e9388	-0.06961733
19	0xbd07d297	-0.03315982
20	0xbd7ec8ca	-0.062203206
21	0x3e10a2eb	0.14124648
22	0xbe0c59d1	-0.13706137
23	0x3d6643a8	0.056216866
24	0xbd8de3d9	-0.06928224
25	0x3e4f68ce	0.20254824
26	0xbdc181e9	-0.094486065
27	0xbd9885b5	-0.074473776
28	0xbe5058ba	-0.20346346
29	0x3d1f7849	0.038933072
30	0xbba54a37	-0.0050442475
31	0x3e2c43c8	0.16822731
32	0xbe1924df	-0.14955471
33	0x3e7efee3	0.24901919
34	0xbd75be55	-0.059995968
35	0xbddeb6b7	-0.10874694
36	0xbd29c5df	-0.04144847
37	0x3e5c3bf7	0.2150725
38	0x3cd751a4	0.026284046
39	0xbd6271e9	-0.055284414
40	0x3a29bcf1	0.0006474993
41	0xbdefc43a	-0.11707349
42	0xbe1e640d	-0.15467854
43	0xbd2e5c73	-0.042568635
44	0xbdc089f0	-0.094013095
45	0xbe80bc8c	-0.2514385
46	0x3d9fc33e	0.07800911
47	0x3e7d5dfa	0.2474288
48	0x3e3a21a2	0.18176892
49	0xbdf933de	-0.12168096
50	0xbf26fecd	-0.65232545
51	0xbe774d23	-0.24150519
52	0xbda72e61	-0.08163143
53	0xbe869edd	-0.26293078
54	0x3b838d27	0.0040146294
55	0x3d18c9c2	0.037301786
56	0x3d22ff77	0.03979441
57	0x3d99b7b1	0.075057395
58	0x3dd8842a	0.10572083
59	0x3c9883f9	0.018617617
60	0x3d094ed0	0.033522427
61	0x3d8542d0	0.06506884
62	0xbe272844	-0.16323954
63	0xbf3866b7	-0.7203173
64	0x3cd7b235	0.026330093
65	0x3dd19b37	0.10234683
66	0xbd28ea6d	-0.04123919
67	0xbd18540f	-0.03718954
68	0xbbb672b0	-0.005567871
69	0x3db1ebdc	0.08687565
70	0xbea7b208	-0.32753015
71	0xbe50e82c	-0.20401067
72	0xbd7afb7f	-0.061275
73	0x3ca412fb	0.020028582
74	0x3c867c19	0.016416596
75	0xbdbf04f5	-0.09327117
76	0xbdf00102	-0.11718942
77	0xbe23a743	-0.15981774
78	0xbe8c47f7	-0.27398655
79	0x3dce1d48	0.10064179
80	0xbd82719f	-0.06369328
81	0x3dd164c4	0.10224298
82	0xbd1b083c	-0.03784965
83	0xbf0213e7	-0.5081162
84	0xbdf2ac5d	-0.11849282
85	0x3dc08850	0.094009995
86	0xbb880d4c	-0.0041519757
87	0xbe8ba03e	-0.27270693
88	0xbdcdfa68	-0.10057527
89	0x3ce02773	0.02736256
90	0xbd87024b	-0.06592234
91	0xbeba2d88	-0.36362863
92	0xbdd8344f	-0.10556852
93	0x3d95b873	0.073105715
94	0x3de1e53f	0.11030053
95	0xbe424f1b	-0.18975489
96	0x3db7d2d1	0.08975757
97	0x3f0dfdad	0.55465204
98	0xbd6f3782	-0.058402546
99	0x3ca93603	0.020655638
100	0x3ebb7e07	0.3661959
101	0xbccc88f2	-0.024967644
102	0x3d73d74a	0.059531488
103	0xbe8a530c	-0.27016485
104	0x3d3a2af0	0.045451105
105	0xbb4927c0	-0.003069386
106	0xbd1e9211	-0.03871352
107	0x3dba9d51	0.09112037
108	0x3a35e926	0.0006939344
109	0x3d5868d4	0.052834347
110	0x3d7ae563	0.061253916
111	0xbe03e7d4	-0.12881404
112	0xbde35583	-0.111002944
113	0xbe145942	-0.14487174
114	0x3d0055f7	0.031331982
115	0x3e69a7ff	0.22817992
116	0xbdc74d30	-0.09731519
117	0x3c414b4d	0.011797738
118	0xbe004675	-0.12526877
119	0xbe3ddead	-0.18541975
120	0xbdad9da4	-0.08477333
121	0x3c42ab1b	0.011881615
122	0x3d8167df	0.0631864
123	0xbd15f2d7	-0.036608543
124	0xbe19696b	-0.1498162
125	0x3e5d82bc	0.21631902
126	0xbb5ea023	-0.003396996
127	0xbd1a043a	-0.037601687
128	0xbe097679	-0.134241
129	0x3db33a44	0.08751348
130	0xbe0f7da1	-0.14012767
131	0x3c45e17b	0.0120776845
132	0xbd2f3534	-0.042775348
133	0x3d12edd9	0.03587136
134	0xbd152eca	-0.036421575
135	0xbc83f581	-0.016108276
136	0x3b81e52b	0.0039640865
137	0x3bf3bfc0	0.00743863
138	0xbceb6dc2	-0.02873886
139	0xbbdeef2f	-0.0068034153
140	0xbd8dc36c	-0.069220394
141	0xbdd6affd	-0.10482786
142	0xbe454029	-0.19262756
143	0xbd0c96bc	-0.03432344
144	0xbdf975d5	-0.12180678
145	0x3e656fc5	0.22405918
146	0x3ca6b20a	0.020348568
147	0x3d05ff2a	0.032714047
148	0xbb9686f7	-0.004593726
149	0xbe1b12e6	-0.15143928
150	0xbd0546d8	-0.032538265
151	0xbdd79fff	-0.10528564
152	0xbdb1e573	-0.08686342
153	0xbea65421	-0.3248606
154	0x3da70541	0.08155299
155	0xbe2cac05	-0.16862495
156	0xbd897a9d	-0.0671284
157	0xbbfcf416	-0.007719527
158	0xbe0525e7	-0.1300274
159	0x3dd7a162	0.10528828
160	0xbd7ee387	-0.062228706
161	0x3d9c63fb	0.07636257
162	0x3d2028e1	0.039101485
163	0x3dd07875	0.10179225
164	0xbc87d820	-0.016582549
165	0xbdc15d9c	-0.09441683
166	0x3c89d1cb	0.01682367
167	0xbc947202	-0.01812077
168	0x3d8ee6e0	0.0697763
169	0x3d64b813	0.05583961
170	0x3ebce247	0.36891386
171	0x3d729d50	0.059232056
172	0x3c84254a	0.016131062
173	0x3d5efb4e	0.05443888
174	0x3d0f4541	0.034978155
175	0xbd7ec185	-0.062196273
176	0xbd5a9b8a	-0.05337099
177	0x3e0f593c	0.13998884
178	0x3eb63ca2	0.35593134
179	0xbce06fbf	-0.027397035
180	0x3d8db67f	0.06919574
181	0x3deda8b4	0.11604443
182	0xbaa46167	-0.0012541235
183	0x3d267b16	0.040644728
184	0x3d53286e	0.05155223
185	0x3cf2f008	0.029655471
186	0x3df07364	0.11740759
187	0xbf0928f4	-0.53578115
188	0xbce6cebf	-0.028174756
189	0xbd793ec4	-0.060850874
190	0x3de6da6a	0.11272128
191	0x3ed43f07	0.41454336
192	0x3d9df22f	0.077122085
193	0xbd638109	-0.05554298
194	0xbd68f020	-0.056869626
195	0xbc8a43f0	-0.016878098
196	0xbd1cb071	-0.038254205
197	0xbe13a512	-0.14418438
198	0xbeefb35e	-0.46816534
199	0x3e7cb3e3	0.24677996
200	0xbd86056b	-0.06544002
201	0xbda06226	-0.0783122
202	0xbdaf4162	-0.08557393
203	0x3d05b9ac	0.032647774
204	0x3e0a43f6	0.13502488
205	0xbd6b1fa1	-0.05740321
206	0xbd10d95b	-0.035363536
207	0xbb3847c8	-0.0028118957
208	0xbdf9f30e	-0.12204562
209	0xbc94d59d	-0.018168265
210	0x3b9ac339	0.0047229794
211	0x3cd18555	0.025576273
212	0xbe623444	-0.2209025
213	0xbd242f78	-0.040084332
214	0x3deb94ec	0.11503014
215	0x3e21d2b3	0.15803032
216	0xbd2e238f	-0.04251438
217	0xbd4f4bfc	-0.050609574
218	0xbde82df8	-0.11336893
219	0xbe9a6af0	-0.30159712
220	0xbd94d890	-0.072678685
221	0x3e72cd02	0.23711017
222	0xbd27077a	-0.040778615
223	0xbd2baa7f	-0.041910645
224	0x3b5cb954	0.00336798
225	0xbddf9451	-0.10916961
226	0xbd4d0828	-0.050056607
227	0x3cfdb1ab	0.030968508
228	0xbe4f04d0	-0.2021668
229	0xbdb86751	-0.09004081
230	0xbd1b4be7	-0.037914183
231	0xbcef231b	-0.029191544
232	0x3db839b3	0.0899538
233	0x3dd015b2	0.10160388
234	0x3d011400	0.031513214
235	0x3d96629a	0.073430255
236	0x3d9c3596	0.07627408
237	0x3da968ce	0.08271943
238	0xbdb8a4ba	-0.09015794
239	0x3daeaafe	0.08528708
240	0xbb7733b9	-0.0037720038
241	0xbe6a51d2	-0.22882774
242	0x3da9584a	0.08268793
243	0x3cd5b9ed	0.026089633
244	0x3d8b1cbc	0.0679259
245	0xbe2b1cb7	-0.16710173
246	0x3c5b9ce4	0.013404105
247	0xbda32031	-0.079651244
248	0xbe0fa22c	-0.14026707
249	0xbdab0b02	-0.08351709
250	0xbe72e895	-0.23721536
251	0xbccd9517	-0.025095506
252	0xbd99b799	-0.075057216
253	0x3d22b2d2	0.039721318
254	0x3dd080b8	0.10180801
255	0x3eab80bb	0.3349665

fc2.bias f4 [7]
0	0xbe434082	-0.19067577
1	0xbfbde881	-1.483658
2	0xbdb9bfde	-0.09069799
3	0x3e1258e9	0.14291729
4	0x3eef60ff	0.4675369
5	0xbea65ebf	-0.3249416
6	0x3e821b98	0.25411677

localization.0.weight f4 [8, 1, 7, 7]
0	0x3d3bac11	0.045818392
1	0xbcae54e0	-0.021280706
2	0x3da00d7d	0.07815073
3	0x3e06e922	0.1317487
4	0x3d50a351	0.050937
5	0x3dde8998	0.10866088
6	0x3e2d8270	0.16944289
7	0x3e3dddf0	0.18541694
8	0x3df4ddd8	0.11956376
9	0x3e7a7ff5	0.24462874
10	0x3ddf6e26	0.10909681
11	0x3e2d88ed	0.16946764
12	0x3e6a35e4	0.2287212
13	0x3c445ecf	0.011985495
14	0xbd069d00	-0.03286457
15	0x3daf0708	0.08546263
16	0x3e52d48a	0.2058889
17	0x3b37e633	0.0028060793
18	0x3e401683	0.18758588
19	0x3e19636d	0.14979334
20	0xbd986df6	-0.074428484
21	0x3da763d2	0.08173336
22	0xbd95cdd2	-0.07314648
23	0xbd55ad3a	-0.052167155
24	0x3e41b216	0.1891559
25	0x3d468349	0.048465047
26	0x3c615f03	0.013755563
27	0x3cb6443d	0.022249335
28	0x3d41f83e	0.047355883
29	0xbda41123	-0.08011081
30	0x3e3f829e	0.1870217
31	0x3be2eba5	0.0069250637
32	0x3dea5fb1	0.11444033
33	0x3e14faa5	0.14548738
34	0xbc29d7ac	-0.010366362
35	0x3df2b1cf	0.118503205
36	0xbda9aded	-0.08285127
37	0x3e425c62	0.18980554
38	0x3e097f6d	0.13427515
39	0x3d23f4f2	0.04002852
40	0x3e018a63	0.12650447
41	0xbd81e824	-0.063431054
42	0xbc8b7217	-0.017022176
43	0x3e02d333	0.12775879
44	0x3d28fdd2	0.041257687
45	0xbd796a9e	-0.060892694
46	0x3cfdc394	0.030977048
47	0x3e03c17b	0.12866776
48	0xbc1c9324	-0.009556565
49	0xbdde75ab	-0.10862287
50	0xbc962580	-0.018328428
51	0x3da40a4d	0.08009777
52	0xbde0a9e4	-0.10969904
53	0xbcc08589	-0.023501175
54	0x3d4256df	0.047446128
55	0x39820ad4	0.000248036
56	0x3e0f1562	0.13973
57	0x3dcb116f	0.099154346
58	0xbe07cd60	-0.13261938
59	0x3d4da56e	0.050206594
60	0x3dcce7fc	0.10005185
61	0xbde342b1	-0.11096705
62	0xbc86ca8a	-0.016454
63	0xbccae1b6	-0.02476583
64	0xbddb8a94	-0.10719791
65	0x3da08a99	0.078389354
66	0xbdc0aa1a	-0.09407444
67	0xbd7a3c27	-0.061092522
68	0x3d5762f3	0.0525846
69	0xbe4d7c0e	-0.20066854
70	0xbdd3eaf3	-0.103475474
71	0xbdf819ea	-0.12114318
72	0x3d2659ad	0.040612865
73	0x3dc932b7	0.09824126
74	0xbde39962	-0.1111324
75	0xbd00b10d	-0.03141885
76	0xbd807703	-0.062727
77	0x3dcdf8cc	0.1005722
78	0xbcd76eb9	-0.026297914
79	0x3d3a1c9f	0.04543745
80	0x3ca94ee9	0.02066751
81	0xbdc3fefd	-0.095701195
82	0xbd9f5aa3	-0.077809595
83	0xbdc085fa	-0.09400554
84	0xbe33c060	-0.17553854
85	0x3d8b2256	0.067936584
86	0xbc1311b6	-0.008976391
87	0x3d99c5e4	0.07508448
88	0xbdc7b568	-0.09751397
89	0xbd5541c3	-0.05206467
90	0x3a850769	0.0010149303
91	0xbb94d750	-0.004542269
92	0xbdae3306	-0.08505826
93	0xbd497ade	-0.04918944
94	0xbe0e06c7	-0.13869773
95	0x3dad6b9f	0.08467793
96	0xbd15173c	-0.03639911
97	0xbe1ebbf5	-0.15501387
98	0xbd4cea21	-0.05002797
99	0xbcaaccae	-0.020849552
100	0x3d4f0aaf	0.050547298
101	0xbdaa156b	-0.083048664
102	0x3dc035c1	0.09385253
103	0x3df1b736	0.11802523
104	0xbc3ae2e3	-0.011406633
105	0x3da03868	0.07823259
106	0xbd1db43a	-0.038501956
107	0xbdd68152	-0.10473885
108	0x3e054c22	0.13017324
109	0x3d8416bf	0.06449651
110	0xbd3744dd	-0.044743408
111	0xbdfa0783	-0.12208464
112	0x3b22c0a8	0.002483407
113	0xbd14a400	-0.036289215
114	0xbbf9699b	-0.007611466
115	0x3e0370c9	0.12835993
116	0xbdcfc9b7	-0.10145896
117	0x3da5d5c8	0.08097416
118	0xbd68d588	-0.056844264
119	0xbdb25a75	-0.087086596
120	0xbd830a32	-0.06398429
121	0xbd9fbc8e	-0.07799636
122	0xbbe2d424	-0.006922262
123	0xbe255979	-0.16147412
124	0xbe013703	-0.12618642
125	0x3d0c0d93	0.034192633
126	0x3e00176d	0.12508936
127	0xbd2368e9	-0.039894972
128	0x3d38bafe	0.045100205
129	0xbab189a5	-0.001354505
130	0x3db2e6bf	0.087354176
131	0xbc9c1e04	-0.019057281
132	0x3d6a4273	0.057192277
133	0x3e137c75	0.14402945
134	0xbdcd0028	-0.100097954
135	0xbdcd6b67	-0.10030251
136	0x3cc36e01	0.023856165
137	0xbd3e05be	-0.046392195
138	0x3b84add5	0.0040490427
139	0x3c6ddf0a	0.014518509
140	0xbe0a1b55	-0.13486989
141	0x3d8c7b38	0.068594396
142	0x3c26dd30	0.010184571
143	0x3d6a68d5	0.057228882
144	0xbda630c7	-0.08114772
145	0xbe37152c	-0.1787917
146	0xbe3876b1	-0.18014027
147	0xbcc430c7	-0.02394904
148	0xbdc29f3d	-0.095030285
149	0xbdbdd9e4	-0.09270075
150	0xbd1d08b7	-0.03833839
151	0x3c33d9e2	0.01097724
152	0x3d58e667	0.052954104
153	0xbd97c776	-0.07411091
154	0x3d88ba39	0.06676144
155	0xbc8a3d46	-0.01687492
156	0xbd8a17fd	-0.06742857
157	0x3e01e9b3	0.12686805
158	0x3dc1d068	0.094635785
159	0xbd902021	-0.07037378
160	0x3dac2d04	0.084070235
161	0x3e069e30	0.13146281
162	0x3df538f9	0.11973757
163	0x3d930920	0.07179475
164	0x3e038dca	0.12847057
165	0x3c3172e9	0.010830619
166	0xbdf0e07b	-0.11761566
167	0x3df7972a	0.12089379
168	0x3d907e9c	0.07055399
169	0x3d43e080	0.04782152
170	0x3cf9b6a9	0.030482607
171	0xbc98eda4	-0.018668003
172	0xbd0469af	-0.03232735
173	0xbdfbaba4	-0.12288597
174	0x3e0ceb0b	0.13761537
175	0x3dc398c7	0.09550624
176	0xbc848624	-0.016177244
177	0x3dd40cd5	0.1035401
178	0x3d91eb49	0.07124955
179	0x3da2b0a7	0.0794385
180	0x3da3b3ff	0.07993316
181	0xbe11c253	-0.14234285
182	0x3d5242f8	0.051333398
183	0xbe444531	-0.1916702
184	0x3d9b734c	0.075903505
185	0xbd0dd6ef	-0.034628805
186	0xbd93ceb7	-0.07217162
187	0x3c4a7fcd	0.012359572
188	0xbd92fbb9	-0.071769185
189	0xbe1d56ff	-0.15365218
190	0xbe1857fb	-0.14877312
191	0x3c7e70aa	0.015529791
192	0xbdc7c655	-0.09754626
193	0xbc074c2f	-0.00825791
194	0x3c61b2b4	0.013775516
195	0x3d84c82c	0.06483492
196	0xbd9b9af7	-0.075979166
197	0xbe1886cb	-0.1489517
198	0xbc37b7b1	-0.011213229
199	0x3dbfd208	0.09366232
200	0x3e0ae23d	0.13562866
201	0xbc206b92	-0.009791272
202	0xbd3fb938	-0.046807498
203	0xbdfffcfa	-0.12499423
204	0xbdb06413	-0.08612838
205	0x3dd8d32f	0.10587155
206	0xbdbc3300	-0.09189415
207	0x3dd1d576	0.102457926
208	0x3e11cf92	0.14239338
209	0x3dee0547	0.116221
210	0xbda138c6	-0.07872157
211	0xbd9fe193	-0.07806697
212	0x3d6f42c6	0.05841329
213	0xbbb54146	-0.005531463
214	0x3e18b835	0.1491402
215	0x3d965658	0.073406875
216	0x3da72701	0.08161736
217	0xba049b4f	-0.0005058543
218	0x3d68c11f	0.0568248
219	0xbb649150	-0.0034876652
220	0x3dd01f0f	0.10162174
221	0xbd8379e1	-0.06419731
222	0xbd492d8d	-0.049115706
223	0x3e018248	0.12647355
224	0xbdb2a5c7	-0.08723026
225	0xbd05eab5	-0.032694537
226	0xbd129ad9	-0.035792205
227	0x3daba990	0.08381951
228	0xbd90e150	-0.07074225
229	0x3a636fc0	0.0008676015
230	0xbae6be15	-0.0017604256
231	0xbe2dc4e7	-0.16969644
232	0xbba4f3f8	-0.005033966
233	0x3d8cb061	0.06869579
234	0xbde3fd6e	-0.11132322
235	0x3ddcc8b7	0.10780471
236	0x3df03b03	0.117300056
237	0x3d547ac4	0.05187489
238	0x3d1af9b4	0.03783579
239	0xbe0ec293	-0.13941412
240	0xbc06db45	-0.008230989
241	0x3cdd8759	0.027042078
242	0x3d4b8225	0.049684662
243	0xbe213fb9	-0.15746965
244	0x3d71551f	0.05891907
245	0xbc6b7a5c	-0.0143724345
246	0x3e1cd23f	0.15314578
247	0x3de6a7f0	0.112625
248	0x3dee7481	0.11643315
249	0x3b83c74a	0.00402156
250	0x3cde187f	0.02711129
251	0x3c70de7a	0.01470148
252	0x3dc7a003	0.09747317
253	0x3dca5643	0.09879734
254	0xbd47480f	-0.048652705
255	0x3da4eeb0	0.080533385

localization.0.bias f4 [8]
0	0x3e366dc0	0.17815304
1	0xbd8e79ba	-0.06956811
2	0xbd9ce48f	-0.076607816
3	0xbe5b1003	-0.21392827
4	0xbd3038f1	-0.043023054
5	0xbdd95866	-0.10612564
6	0xbe4c2d3f	-0.19939135
7	0xbe702be0	-0.23454237
