EmpathyBot/model_snapshots/deep_emotion-200-64-0.005-0.5354820731933866.pt (torch_old, 271009 bytes, 24 tensors)

conv1.weight f4 [10, 1, 3, 3]
0	0x3d57c94d	0.05268221
1	0xbe1401b4	-0.14453775
2	0xc0090e11	-2.1414835
3	0x3ec3521a	0.38148576
4	0x3f0d2b5c	0.55144286
5	0x3d460385	0.0483432
6	0xbf92eded	-1.1478859
7	0x3f5c98bf	0.8617057
8	0x3fdb2b9b	1.7122682
9	0xbf88ab9b	-1.067737
10	0x3eba63d9	0.36404303
11	0x3fbff41d	1.4996372
12	0xc0045000	-2.0673828
13	0xbf3d897c	-0.7403791
14	0x3ff4b3b5	1.9117342
15	0xbf3ca5fd	-0.7369078
16	0x3e9ba8ce	0.30402225
17	0x3ea26448	0.31717134
18	0x3fa1549b	1.2603945
19	0xbed04a16	-0.40681523
20	0xbf4d6087	-0.80225414
21	0x3f822bb9	1.0169593
22	0xbeeacedd	-0.4586095
23	0xbf41d710	-0.75718784
24	0xbed8aa6c	-0.42317522
25	0xbf01c8df	-0.5069713
26	0xbf6ddf8e	-0.9291924
27	0x3fbeba07	1.4900521
28	0x3fdbb3af	1.716421
29	0x3ef8559d	0.48502818
30	0xbf71ac6a	-0.9440371
31	0x3d03eeed	0.03221028
32	0xbd603430	-0.05473727
33	0xbf9b686f	-1.2141246
34	0xbf3c986e	-0.7367009
35	0xbf203b59	-0.6259056
36	0xbf0b4486	-0.54401433
37	0xbec69fc7	-0.38793775
38	0x3e8199ae	0.2531256
39	0xbdf5d2fa	-0.12003131
40	0xbed9e62f	-0.4255843
41	0xbeb22a3e	-0.34797853
42	0x3fc0f6db	1.5075334
43	0x3f2dacc3	0.6784174
44	0xbeba4a62	-0.36384875
45	0x3f53b53c	0.82698417
46	0x3fb46287	1.4092568
47	0x3f841541	1.0318986
48	0x3fabf97f	1.3435515
49	0x3e2d8bb0	0.16947818
50	0xc020033b	-2.5001972
51	0x3e71a31c	0.23597378
52	0xbef2f059	-0.47448996
53	0xbfa556b7	-1.2917088
54	0xbd8966d5	-0.06709067
55	0x3d256e3d	0.040388335
56	0xbfb83de7	-1.4393891
57	0x3f6f8e10	0.93576145
58	0x3f37e315	0.71830875
59	0xbfb0eac5	-1.3821646
60	0x3fa28ba3	1.2698864
61	0x3ece3ace	0.4027924
62	0xbecd60d4	-0.40112936
63	0xbedd7f8f	-0.43261382
64	0xbe1f0b65	-0.1553169
65	0x3f3403c4	0.70318246
66	0xbffec768	-1.9904604
67	0xbead9169	-0.33900002
68	0x3f25dec6	0.6479305
69	0xbe225f87	-0.15856753
70	0x3fb5aee5	1.4193999
71	0x3edcb41f	0.4310617
72	0xbfd37e57	-1.6522931
73	0xbf1d9dd9	-0.6156898
74	0xbe957e92	-0.29198128
75	0x3cf0d92a	0.029400427
76	0x3eeb8e33	0.46006927
77	0x3e481c8a	0.19542137
78	0x3fb10891	1.3830739
79	0x3fc5b95a	1.544719
80	0xbf691181	-0.91042334
81	0x3f1fefa8	0.6247506
82	0xbf18d923	-0.59706324
83	0x3fb83c44	1.4393392
84	0xbeef4cc2	-0.4673825
85	0xbfea7a62	-1.8318598
86	0xbf6e22ca	-0.93021834
87	0x3e89c385	0.26906982
88	0x3f1b263d	0.6060522
89	0x3f91be02	1.1386111

conv1.bias f4 [10]
0	0x3e9e0d66	0.30869597
1	0xbe905153	-0.28187045
2	0xbf11d633	-0.5696747
3	0x3ea6bdd6	0.32566708
4	0x3e739e1c	0.23790783
5	0xbf3cd4de	-0.7376231
6	0x3f2798c7	0.65467495
7	0x3f407683	0.75180835
8	0x3ece1a20	0.40254307
9	0x3d92e979	0.071734376

conv2.weight f4 [10, 10, 3, 3]
0	0xbdaa6c59	-0.08321447
1	0xbdeda161	-0.11603046
2	0xbdc99291	-0.098424084
3	0xbe2c637e	-0.16834828
4	0xbdd4d080	-0.10391331
5	0xbdef5731	-0.11686552
6	0xbdc9ab6d	-0.0984715
7	0xbe81953d	-0.25309172
8	0xbdebdc4a	-0.11516626
9	0xbdbb33f6	-0.0914077
10	0x3ceb4f88	0.028724447
11	0xbcb1de18	-0.021712348
12	0x3c8aeece	0.016959574
13	0x3d094394	0.033511713
14	0x3c2259a8	0.009909071
15	0x3ce6a505	0.02815486
16	0xbe102257	-0.140756
17	0xb9488056	-0.00019121295
18	0xbd148119	-0.03625593
19	0x3d150328	0.036379963
20	0x3d7d9fd9	0.06192002
21	0xbe08c70a	-0.13357177
22	0x3c18c035	0.0093231695
23	0x3c222829	0.00989727
24	0x3c8d7c4f	0.017271189
25	0xbdd4dede	-0.10394071
26	0xbe07fe77	-0.13280664
27	0xbe0418a4	-0.12900025
28	0xbdf268cc	-0.11836395
29	0xbc68e915	-0.014215727
30	0xbe8fd63f	-0.28093144
31	0xbe88a1c7	-0.26685926
32	0x3d13808e	0.03601127
33	0xbde5460d	-0.11195002
34	0xbe12f655	-0.1435178
35	0xbe41c473	-0.18922596
36	0xbd3517a4	-0.044212
37	0xbdbdd3f1	-0.0926894
38	0xbe6a4911	-0.22879435
39	0xbd89a3dd	-0.067207076
40	0xbe34e35b	-0.17664854
41	0x3dd800e5	0.105470456
42	0xbc9f730f	-0.019464044
43	0xbdcfdb99	-0.10149307
44	0xbe5b2af4	-0.21403104
45	0x3ccdbe17	0.025115056
46	0xbdb134b1	-0.08652628
47	0xbd27675f	-0.040870067
48	0xbcfd768f	-0.030940322
49	0x3d960a9f	0.073262446
50	0x3c0a98e5	0.008459304
51	0xbacfe5f5	-0.0015861379
52	0xbd24e66f	-0.04025882
53	0xbdd6f6d2	-0.10496296
54	0xbe5c6ee5	-0.21526678
55	0xbdd9400a	-0.106079176
56	0xbdd03fb2	-0.10168399
57	0x3d405cd2	0.04696352
58	0xbe8d6fd1	-0.27624372
59	0xbe7c5526	-0.24641857
60	0xbd96a633	-0.07355919
61	0x3bcdd744	0.006281765
62	0xbe10ac1c	-0.14128155
63	0xbe71affd	-0.2360229
64	0xbe4c30f2	-0.19940546
65	0xbd5c992c	-0.053857014
66	0xbdf192a0	-0.117955446
67	0xbe172bf4	-0.1476286
68	0x3cf2f53c	0.029657952
69	0xbe637c8d	-0.22215481
70	0xbdd149a0	-0.10219121
71	0xbdb4656b	-0.088084064
72	0xbe6d21e7	-0.23157464
73	0xbdb8dc4c	-0.09026393
74	0xbe463ced	-0.19359179
75	0xbe4c8425	-0.19972284
76	0xbe2fe64c	-0.17177695
77	0xbe7e2b87	-0.24821292
78	0xbdc79cc1	-0.09746695
79	0xbc95c725	-0.018283436
80	0x3d377f5b	0.04479919
81	0xbdd24f17	-0.102689914
82	0x3d52e0c7	0.051483896
83	0xbd84b6b3	-0.064801596
84	0xbe31cfe4	-0.1736446
85	0xbcfa64c0	-0.03056562
86	0x3c503308	0.012707479
87	0xbd3b10b5	-0.04567023
88	0xbe6493c1	-0.22321989
89	0xbd9853c6	-0.074378535
90	0xbf06df77	-0.5268473
91	0xbeba6118	-0.36402202
92	0x3d61d7c0	0.055137396
93	0x3e8f73ee	0.28018135
94	0xbe01e46e	-0.12684795
95	0xbe277017	-0.16351353
96	0xbffc7bf6	-1.972533
97	0xbec9d03a	-0.39416677
98	0xbf8aa508	-1.0831614
99	0x3def5313	0.11685767
100	0xbf1d81a6	-0.6152595
101	0xbf3b8923	-0.7325613
102	0xbf1df6b4	-0.61704564
103	0xbfbe0b8d	-1.4847275
104	0xbf02cbce	-0.5109223
105	0x3c99d0c8	0.018776312
106	0xbf1df71a	-0.6170517
107	0xbf1a530b	-0.60282964
108	0xbf082383	-0.53179187
109	0xbeac9357	-0.3370616
110	0xbf223ae3	-0.63371104
111	0x3dbc113e	0.09182976
112	0xbe411b9a	-0.18858185
113	0xbd2ce778	-0.042212933
114	0x3f32c1fc	0.69827247
115	0xbe1ed09e	-0.15509269
116	0x3e53bd2d	0.20677634
117	0xbe43adbd	-0.19109245
118	0xbf8d256a	-1.1027043
119	0xbfc780de	-1.5586202
120	0x3f9310cf	1.1489505
121	0x3f46e1cf	0.77688307
122	0x3dfeda0a	0.124439314
123	0x3fcb921f	1.5903968
124	0x3f8f731a	1.1207001
125	0x3f88967f	1.0670928
126	0x3f328e23	0.69748133
127	0x3e5e36d3	0.21700601
128	0x3e75c04d	0.23999138
129	0xc0192034	-2.3925905
130	0xbf066207	-0.5249333
131	0x3f82bb50	1.0213413
132	0x3f0be12b	0.54640454
133	0xbf3063e2	-0.6890241
134	0xbfcc1071	-1.5942518
135	0x3f794cd2	0.97382843
136	0x3f091076	0.5354074
137	0x3ea9eb7d	0.33187476
138	0xbf102a2f	-0.5631437
139	0x3e57e40e	0.2108309
140	0x3f2dfa49	0.6796003
141	0xbfa96d2a	-1.3236439
142	0xbf4f512b	-0.8098323
143	0x3eb58e44	0.35460103
144	0xbde16692	-0.11005892
145	0x3e296999	0.16544189
146	0x3f1a9b48	0.6039319
147	0xbf8bb2fa	-1.0913994
148	0xbd8eee15	-0.06979004
149	0x3eba8d7d	0.36436072
150	0xbf896a2a	-1.0735524
151	0xbf0d3606	-0.5516056
152	0xbed487d4	-0.4150988
153	0x3ee4c9c9	0.446852
154	0x3eb97001	0.36218265
155	0x3eb35e16	0.3503272
156	0xbf7d1ab5	-0.98868877
157	0x3c97b7b5	0.018520216
158	0x3fec1662	1.8444331
159	0x3eb9dffa	0.36303693
160	0xbd9a0cf9	-0.075220056
161	0x3f196d1f	0.5993213
162	0x3f6f887b	0.9356763
163	0x3f183520	0.5945606
164	0x3f08a737	0.5338015
165	0xc001c98f	-2.0279272
166	0xbfb7f495	-1.4371516
167	0x3e0be333	0.13660888
168	0xbfd05b15	-1.6277796
169	0xbfff3472	-1.993788
170	0xbfc23037	-1.5170964
171	0xbedf2c72	-0.43588597
172	0xbf0476b2	-0.51743615
173	0x3da5e72c	0.08100733
174	0xbf878a1a	-1.058902
175	0x3f03b787	0.51451916
176	0x3fe6896f	1.8010691
177	0x3fe6d335	1.8033205
178	0xbee04a20	-0.43806553
179	0xbfbdf7c4	-1.4841237
180	0xbfc9f802	-1.5778811
181	0xbbe88654	-0.0070960913
182	0xbf8202dc	-1.0157123
183	0xbf23d353	-0.6399433
184	0x3f87722b	1.0581716
185	0xbdd5e0be	-0.10443257
186	0x3f69ddde	0.9135417
187	0xbe7cfc0e	-0.24705526
188	0xbfbb3521	-1.4625589
189	0xc00eb472	-2.2297635
190	0x3f3ed73e	0.74547184
191	0x3f3be152	0.73390687
192	0xc0483f1f	-3.1288526
193	0xbf42fff6	-0.76171815
194	0xbf9ae87a	-1.2102196
195	0xc006eb53	-2.108113
196	0x3f036e73	0.5134041
197	0x3fcbff13	1.5937217
198	0xbd3f6d6b	-0.04673521
199	0xbcb6d349	-0.022317545
200	0xbf75c827	-0.96008533
201	0x3f89741d	1.073856
202	0x3eb06e06	0.3445894
203	0xbf88d786	-1.0690773
204	0x3fa9c522	1.3263285
205	0x3f7df8a0	0.99207497
206	0xbdedfac2	-0.11620094
207	0xbf06678a	-0.5250174
208	0x3f0be8ca	0.5465208
209	0x3fb61126	1.4223983
210	0x3e86751e	0.26261228
211	0x3ee83465	0.45352474
212	0x3ed2de63	0.41185293
213	0xbe797831	-0.24362256
214	0x3f1fb950	0.6239214
215	0x3f918a26	1.1370285
216	0xbf90cba2	-1.1312144
217	0xbe2a8301	-0.16651537
218	0x3e9786c3	0.29595003
219	0xc029e601	-2.6546633
220	0xbf974cf5	-1.182036
221	0x3dc7b16e	0.09750639
222	0x3e0fc891	0.14041354
223	0x3ef14a96	0.47127217
224	0xbdf44827	-0.119278245
225	0x3f122507	0.5708775
226	0x3e3071d9	0.1723093
227	0xbf572ceb	-0.84052914
228	0x3ebf7625	0.37394825
229	0xbe6875bf	-0.22701167
230	0xc042da5d	-3.0445778
231	0x3f6a9d1b	0.91645974
232	0x3fc5285e	1.5402944
233	0xbfb67f4d	-1.4257599
234	0xbf3a31aa	-0.7273203
235	0xbfa2463b	-1.2677683
236	0xbee0a7af	-0.43877932
237	0xbf923ae7	-1.1424226
238	0xbf8e6e62	-1.1127436
239	0xbf46d0cc	-0.7766235
240	0x3f5239b9	0.8211933
241	0x3fdbed52	1.71818
242	0x3dd51581	0.10404492
243	0x3f8b045a	1.0860703
244	0xbe98f3b1	-0.29873422
245	0xc02afbd7	-2.671621
246	0x3ed2ccb2	0.41171795
247	0xbe37f49b	-0.17964403
248	0xbd79a5ed	-0.060949255
249	0xc008c338	-2.1369152
250	0xbe9e6acf	-0.30940863
251	0xbc15be95	-0.009139677
252	0xbe702001	-0.23449709
253	0x3e704f58	0.23467767
254	0xbfcb63d8	-1.5889845
255	0xbf8a0bc8	-1.0784845

conv2.bias f4 [10]
0	0xbe81fa6b	-0.25386366
1	0x3f90cb16	1.1311977
2	0x3cead297	0.02866487
3	0xbd9b3f4d	-0.07580433
4	0x3ff06395	1.878039
5	0x403452a4	2.817544
6	0x3ed29c36	0.41134804
7	0x3ee62349	0.44948795
8	0xbd3d0e1b	-0.04615603
9	0x3f8f3804	1.118897

conv3.weight f4 [10, 10, 3, 3]
0	0xbcada703	-0.021197801
1	0x3e02ebc1	0.12785245
2	0xbdcdd6bc	-0.10050723
3	0xbd0afb84	-0.03393127
4	0x3dda84b8	0.10669845
5	0x3d2c3d3a	0.042050578
6	0x3e2a98b4	0.16659814
7	0x3d957722	0.072981134
8	0xbc8a5e86	-0.016890775
9	0xbfce98b2	-1.6140349
10	0xbefa2ccc	-0.48862302
11	0xbe2333e0	-0.15937757
12	0xbfa31447	-1.2740563
13	0x3ed00b05	0.40633407
14	0xbd2eedd4	-0.04270728
15	0xbf50d050	-0.8156786
16	0x3f166c86	0.58759344
17	0x3fd592d0	1.6685429
18	0xbe03c216	-0.12867007
19	0xbef00637	-0.46879742
20	0x3fbea64d	1.4894501
21	0x3ea42f79	0.3206747
22	0x3dfaf1a4	0.122531205
23	0x4009a384	2.1506052
24	0x3ec91e4f	0.39280936
25	0x3f42e2e9	0.7612749
26	0x3fec4d69	1.8461124
27	0x3bfe31b2	0.007757389
28	0x3cfdfdd7	0.03100483
29	0xbcd388c6	-0.025822055
30	0xbc92351d	-0.017847592
31	0x3dd58438	0.10425609
32	0xbdbf1d1f	-0.09331726
33	0x3d11384f	0.03545409
34	0x3dcc63eb	0.09979995
35	0x3de7eeaa	0.113248184
36	0xbf59b309	-0.8503881
37	0xbff7c4e8	-1.9356966
38	0x3dd471e2	0.10373284
39	0x3f06d9b2	0.52675927
40	0x3fd0e3d8	1.6319532
41	0x3fa870eb	1.315946
42	0x3eab8ea5	0.33507267
43	0x3f8434de	1.0328634
44	0x3fad82bd	1.3555523
45	0x3e852734	0.26006472
46	0x3ef2e65f	0.47441384
47	0x3e212f7c	0.1574077
48	0x3f577886	0.8416828
49	0xbe61328b	-0.21991937
50	0x3e920c19	0.28524855
51	0x3f219206	0.6311344
52	0xbd808e50	-0.06277144
53	0x3f12ca85	0.5734027
54	0xbe5f9e92	-0.21837834
55	0xbdef2e87	-0.11678796
56	0x3f340d62	0.7033292
57	0xbb73913c	-0.0037165424
58	0xbee48643	-0.44633684
59	0x3f96f7df	1.1794394
60	0xbf257f71	-0.64647585
61	0x3e5fe07f	0.21862982
62	0x3f995e5c	1.1981921
63	0xbfc60b76	-1.5472248
64	0xbfe3c253	-1.7793678
65	0xbe981931	-0.2970672
66	0xbf955361	-1.166607
67	0xbf215f40	-0.63035965
68	0x3f208311	0.6269999
69	0x3f0e8da6	0.5568489
70	0x3fb8675a	1.440654
71	0xbd2684f5	-0.04065414
72	0xbcf675df	-0.030085502
73	0xbe1705a5	-0.14748247
74	0xbddaa57a	-0.106760934
75	0x3dc57983	0.09642317
76	0x3bf66978	0.007519897
77	0xbd8c33a0	-0.06845784
78	0x3e4c52e3	0.19953494
79	0x3c845a9b	0.016156485
80	0x3e3d058f	0.18459152
81	0x3e9d127e	0.3067817
82	0x3f48f21d	0.78494436
83	0x3f2fcf4e	0.68675697
84	0x3fd33af6	1.6502368
85	0x3ffadcfe	1.9598691
86	0x3f31e41f	0.6948871
87	0x400418f8	2.064024
88	0x3fa79f93	1.3095573
89	0x3f96f6cf	1.179407
90	0x3d304011	0.04302985
91	0x3d8f3d73	0.069941424
92	0xbd3cce8a	-0.04609541
93	0x3d7d99f3	0.061914396
94	0xbd3881ad	-0.045045543
95	0x3dfdc3ae	0.123908386
96	0xbd2cbccc	-0.04217224
97	0xbbde6835	-0.006787325
98	0xbdda0672	-0.106457606
99	0x3c9df2dd	0.019280845
100	0xbdc1ab05	-0.094564475
101	0xbc8faba5	-0.017537901
102	0xbd9913c6	-0.074744746
103	0xbdcb6ec0	-0.09933233
104	0xbd4f8d1d	-0.050671685
105	0xbabe468f	-0.0014516878
106	0xbd3c9934	-0.046044543
107	0x3cd7fbb4	0.026365139
108	0x3c284330	0.010269925
109	0xbd095686	-0.03352978
110	0x3c61d40d	0.013783467
111	0xbdcbed29	-0.09957344
112	0xbcd2c803	-0.025730139
113	0x3dd54783	0.104140304
114	0x3da5e253	0.080998085
115	0xbcf597fb	-0.029979696
116	0xbba7fee8	-0.0051268227
117	0x3cfc94b4	0.030832626
118	0x3c21117d	0.00983083
119	0xbde87ac1	-0.113515384
120	0x3d053464	0.032520667
121	0xbde72629	-0.11286575
122	0xbdf38f4c	-0.11892566
123	0x3dc4572c	0.09586939
124	0xbdd4de8c	-0.1039401
125	0x3d80c2b1	0.062871344
126	0xbca936f3	-0.020656085
127	0x3c2aa8b9	0.010416203
128	0xbe1ce500	-0.15321732
129	0x3d2636a2	0.040579446
130	0xbcdc24c1	-0.026872994
131	0x3c587cd2	0.013213353
132	0xbd898f4b	-0.06716784
133	0xbc235e70	-0.009971246
134	0xbd9ab0a0	-0.0755322
135	0x3d83307a	0.064057305
136	0xbe0dd4ab	-0.13850658
137	0xbd915c34	-0.070976645
138	0xbd26172b	-0.04054944
139	0xbde2b853	-0.11070313
140	0xbbec59c3	-0.007212849
141	0x3daf4555	0.08558146
142	0xbdf06ddd	-0.11739705
143	0xbdd5bf37	-0.10436862
144	0xbd1c1d57	-0.03811392
145	0xbd5aa280	-0.05337763
146	0xbb5716a0	-0.0032819882
147	0xbd100588	-0.035161525
148	0xbba9b14d	-0.0051786066
149	0x3d197b3f	0.037471052
150	0xbd778143	-0.060426008
151	0xbd176a77	-0.036966767
152	0x3c87358a	0.016505022
153	0xbdbee5d5	-0.09321181
154	0xbd816cf2	-0.06319608
155	0xbb1938ba	-0.002337976
156	0xbd234e37	-0.039869513
157	0xbdc9da15	-0.09856049
158	0xbe022974	-0.12711126
159	0xbd0790bf	-0.033097025
160	0xbdef410d	-0.11682329
161	0xbe1b3634	-0.15157396
162	0x3e10442e	0.14088508
163	0x3cc170fc	0.023613445
164	0x3db20ed7	0.08694237
165	0x3c8bb2c7	0.017053021
166	0x3e05e372	0.13075045
167	0x3cb6c963	0.022312826
168	0x3cdff57a	0.027338732
169	0x3deacdef	0.1146506
170	0x3d1a2a24	0.037637845
171	0xbd2474f1	-0.040150587
172	0xbdfea030	-0.12432897
173	0xbd4d0483	-0.05005313
174	0x3d0949cc	0.033517644
175	0xbdde80f6	-0.10864441
176	0xbd0e9df7	-0.034818616
177	0x3d4c287d	0.0498433
178	0xbe068dc7	-0.13140021
179	0xbd8e432c	-0.06946406
180	0x3d96f55e	0.07371019
181	0x3caf7cef	0.021421878
182	0x3c9b5177	0.018959744
183	0x3c3d4c71	0.01155387
184	0x3d86e53e	0.06586693
185	0xbc56c0c9	-0.013107487
186	0x3da10429	0.078621216
187	0xbdf53d18	-0.11974543
188	0xbda19094	-0.07888904
189	0x3f05b8ac	0.5223491
190	0x3b4e5faf	0.0031490137
191	0x3f7d00c7	0.9882931
192	0xbf2c570e	-0.67320335
193	0xbf0dec36	-0.55438554
194	0xbf24d744	-0.6439097
195	0xbd8bc515	-0.068247
196	0xbeae5431	-0.34048608
197	0xbf258268	-0.6465211
198	0xbf2e0b08	-0.6798558
199	0xbfb7163d	-1.4303662
200	0xbfb6851d	-1.4259373
201	0xbf4a82c5	-0.7910579
202	0xbf3c1d25	-0.7348197
203	0xbf953c95	-1.1659113
204	0xc00f4759	-2.2387297
205	0xbf0c98c7	-0.5492062
206	0xbf0494b1	-0.51789385
207	0x3d3dbbaa	0.04632155
208	0xbce69c08	-0.028150573
209	0xbdcd0dbc	-0.10012385
210	0x3c8ba775	0.017047623
211	0xbb239f7b	-0.0024966884
212	0x3db178c8	0.08665615
213	0x3d3876bf	0.04503512
214	0x3ccb3105	0.024803648
215	0xbdb4d825	-0.08830289
216	0x3eb44638	0.35209823
217	0x3efa5e20	0.48899937
218	0x3f6a813f	0.91603464
219	0xbeae4f0c	-0.34044683
220	0xbf2d24c2	-0.6763421
221	0xbed7f32e	-0.4217772
222	0xbfab47ad	-1.3381249
223	0xbf8974d2	-1.0738776
224	0xbf532868	-0.8248353
225	0xbec7ece7	-0.3904793
226	0xbe07b0c7	-0.13251029
227	0x3f0240df	0.50880235
228	0x3ea133e2	0.31484896
229	0x3f041958	0.5160117
230	0x3f7ea4ae	0.9947003
231	0x3fadd14b	1.3579496
232	0x3fd8fdf3	1.6952499
233	0x3f54dc25	0.83148414
234	0x3e0794bd	0.13240333
235	0x3ddbb025	0.10726956
236	0x3f8f1838	1.1179266
237	0x3db27a8f	0.087147824
238	0x3ee441ae	0.4458136
239	0x3fd25d3e	1.6434705
240	0x3f2afe2a	0.66794074
241	0x3f061674	0.5237801
242	0x3f778da6	0.96700513
243	0x3ef1247c	0.47098148
244	0x3f6eb3c1	0.9324303
245	0x3e6c1b7f	0.23057364
246	0x3eb0e5d7	0.34550354
247	0xbf1d505e	-0.61450756
248	0xbf011b97	-0.50432724
249	0xbfa41f17	-1.2821988
250	0xbfce1275	-1.6099383
251	0xbfa4638c	-1.2842879
252	0x3d912b59	0.07088346
253	0xbc33a2cb	-0.010964106
254	0x3d03a4b2	0.032139488
255	0x3cdd63fe	0.027025219

conv3.bias f4 [10]
0	0xbfcfbe14	-1.6229882
1	0xbda3abaa	-0.07991727
2	0x3faf648c	1.370256
3	0xbdc2c4e1	-0.09510208
4	0xbbac90a6	-0.005266267
5	0x3c3f9b85	0.011694794
6	0xbdbe248b	-0.09284314
7	0xbdd4917d	-0.10379312
8	0xbd75a7ff	-0.059974667
9	0x409d0350	4.9066544

conv4.weight f4 [10, 10, 3, 3]
0	0xbf3156d9	-0.69273144
1	0xbed4b6d5	-0.4154574
2	0xbe922f9c	-0.28551948
3	0xbf44ecea	-0.76924
4	0xbf70e291	-0.9409571
5	0xbf152d54	-0.5827229
6	0x3f2abf3f	0.6669807
7	0xbfe112cc	-1.7583861
8	0xbfdea4bc	-1.7394023
9	0xbdaf4cda	-0.0855958
10	0x3d206f64	0.03916873
11	0xbd5672b0	-0.05235547
12	0x3d741158	0.059586853
13	0x3d8a731a	0.06760235
14	0x3dac5d45	0.08416227
15	0xbc910e5d	-0.017707044
16	0x3ce403f1	0.02783391
17	0x3da5da11	0.080982335
18	0xbd68e3d0	-0.056857884
19	0xbe5131e9	-0.20429195
20	0xbe429a0b	-0.19004075
21	0xbf71fd8b	-0.945275
22	0xbe364c08	-0.17802441
23	0x3f5386ee	0.8262776
24	0xbfda0c96	-1.7035091
25	0x3e765099	0.24054183
26	0x3fd7b1ac	1.6851096
27	0xbc657d24	-0.014006887
28	0xbd02a0bd	-0.031891573
29	0xbdcc0072	-0.099610224
30	0x3e10cc70	0.14140487
31	0xbd90c51a	-0.07068844
32	0x3ca9c18b	0.020722171
33	0x3db861d6	0.09003036
34	0x3dc1c5c5	0.0946155
35	0xbd85accd	-0.065271
36	0x3ce9732d	0.028497303
37	0x3d74d6c7	0.05977514
38	0x3ca07b39	0.019590007
39	0x3dd831cf	0.10556375
40	0x3c011c82	0.007880332
41	0x3c9bc459	0.019014524
42	0x3de5ff61	0.1123035
43	0x3c3ec560	0.011643738
44	0xbcfc40ce	-0.03079262
45	0x3d5678cb	0.05236129
46	0xbd028237	-0.031862464
47	0xbd5b6dc0	-0.053571463
48	0xbd2b7daa	-0.04186789
49	0x3d5aa8df	0.053383704
50	0x3e01639c	0.12635654
51	0xbdd1af48	-0.1023851
52	0xbd1bb986	-0.038018726
53	0xbd988d34	-0.07448807
54	0x3d7c7d68	0.061643034
55	0x3b98e2aa	0.0046656923
56	0xbc81478b	-0.015781185
57	0xbd74cfac	-0.059768364
58	0x3cfca2a0	0.030839264
59	0x3e00de81	0.12584879
60	0xbd4b4418	-0.049625486
61	0xbd497863	-0.049187075
62	0xbd16dbdf	-0.03683078
63	0x3c6b4489	0.014359602
64	0x3d2c0853	0.042000126
65	0x3d6b4959	0.057442997
66	0xbdf7bd71	-0.1209668
67	0x3d19455d	0.037419666
68	0x3defbecd	0.11706314
69	0x3e0ea858	0.13931406
70	0xbce5bdc2	-0.028044585
71	0xbdef171e	-0.11674331
72	0xbdb0bb76	-0.08629505
73	0x3d285783	0.041099083
74	0x3ce38029	0.027771072
75	0xbd771f36	-0.0603325
76	0xbe28bbf8	-0.16477954
77	0x3d5e989f	0.05434477
78	0xbc8c79bb	-0.01714789
79	0x3cae1379	0.02124952
80	0xbdc15ab8	-0.09441131
81	0xbf08a103	-0.53370684
82	0xbf624aa6	-0.88395154
83	0xbf9684d2	-1.1759284
84	0x3faaeca3	1.3353466
85	0xbe0233dc	-0.12715095
86	0xbf9df2a4	-1.2339673
87	0x3fbf3e6e	1.4940927
88	0x3f65df14	0.89793515
89	0x3eba7107	0.36414358
90	0x3f905f9c	1.1279178
91	0x3ed5716f	0.41688105
92	0x3fbc6d74	1.4720902
93	0xbe4b57a4	-0.19857651
94	0x3f16bcfa	0.58882105
95	0xbe39a8e2	-0.1813083
96	0xc015d654	-2.3412066
97	0xbf4016e8	-0.7503495
98	0xc0297083	-2.6474922
99	0x3dbda92f	0.09260785
100	0xbcc4523e	-0.023964997
101	0x3d8cf6f0	0.06883037
102	0xbca4f7d6	-0.020137709
103	0x3d12e19b	0.035859685
104	0x3ca34514	0.0199304
105	0xbd6ce8e4	-0.05783929
106	0x3da5c1b0	0.080935836
107	0xbdde04eb	-0.10840782
108	0x3e6ed555	0.23323567
109	0x3e0cc532	0.13747099
110	0x3e84361b	0.2582253
111	0xbf6a6a35	-0.9156831
112	0x3e2f3d52	0.17113236
113	0x3f08c8f9	0.5343166
114	0xbe8e79ef	-0.27827403
115	0xbf256c00	-0.6461792
116	0x3f2a30f7	0.66480964
117	0x3d943024	0.072357446
118	0x3d38a070	0.04507488
119	0xbd61d1ac	-0.0551316
120	0xbdcb3c60	-0.09923625
121	0x3e14ff44	0.14550501
122	0xbe5cd382	-0.21565059
123	0x3d83abe6	0.064292714
124	0x3d6d6f18	0.057967275
125	0xbcdcb079	-0.026939617
126	0xbd277e8e	-0.040892176
127	0xbdd6ba17	-0.104847126
128	0x3da5fc41	0.08104754
129	0x3dfb9b1a	0.12285443
130	0xbd992ee2	-0.07479645
131	0x3d2edf4a	0.042693414
132	0x3c48b635	0.012250473
133	0x3b31ead8	0.0027148034
134	0xbd3fee21	-0.046857957
135	0xbda0edaa	-0.07857831
136	0x3d0c6bd5	0.034282524
137	0xbdd3cb99	-0.103415675
138	0xbd658888	-0.05603841
139	0xbd89f7b3	-0.06736698
140	0x3d93447c	0.07190797
141	0x3c4a0e8a	0.012332568
142	0x3c2d9503	0.010594609
143	0xbbde8349	-0.0067905528
144	0x3dd5a0a4	0.104310304
145	0x3ca5dc61	0.020246686
146	0x3cb6105c	0.022224598
147	0x3d2e8c76	0.042614423
148	0x3c943efd	0.018096441
149	0xbcea5d94	-0.028609075
150	0xbdd8f1f7	-0.10593026
151	0x3d195a08	0.037439376
152	0xbdd0e017	-0.10198992
153	0xbdb7f351	-0.08981956
154	0xbd2ad04f	-0.041702565
155	0x3dc41cb9	0.09575791
156	0x3b4e72d2	0.0031501544
157	0xbda0d713	-0.07853522
158	0x3d7b285d	0.06131779
159	0x3da02898	0.07820243
160	0xbda4546d	-0.080239154
161	0xbde49a99	-0.111623
162	0x3cc2ab9d	0.023763472
163	0xbd12beee	-0.035826616
164	0x3cb7bb04	0.022428043
165	0xbc881a2b	-0.01661404
166	0x3c946e83	0.018119102
167	0xbd76e236	-0.060274325
168	0x3dc4a7af	0.096022956
169	0xbe159783	-0.14608578
170	0xbe631f73	-0.22179966
171	0xbfad410b	-1.3535475
172	0xbf620cb6	-0.88300645
173	0xbf205b69	-0.6263948
174	0xbcd081a4	-0.025452442
175	0x3e16dd11	0.14732768
176	0x3f779cd0	0.9672365
177	0x3f9a70e5	1.2065703
178	0x3f22af6a	0.6354891
179	0xbc74e06e	-0.014946086
180	0xbdaa0259	-0.08301229
181	0x3fa636bc	1.2985454
182	0x3f3d3b91	0.73919016
183	0x3f849863	1.0359005
184	0x3f944ba1	1.158558
185	0x3fe05f20	1.752903
186	0x3e67e197	0.2264465
187	0xbed4940b	-0.41519198
188	0xbf11a822	-0.56897175
189	0xbc8a1dcf	-0.016859917
190	0xbdba70ea	-0.09103568
191	0xbd4a82be	-0.04944109
192	0xbe1416d5	-0.14461835
193	0x3db3ab65	0.08772925
194	0x3d380290	0.04492432
195	0xbddfba17	-0.10924166
196	0xbd0571e9	-0.032579336
197	0x3d821cc8	0.06353146
198	0xbf933306	-1.1499946
199	0xbf231ea2	-0.63718617
200	0xbf32ee1d	-0.6989458
201	0xbe32b2ee	-0.17451069
202	0xbfa543bb	-1.2911295
203	0xbd5926cc	-0.053015515
204	0xbfd99e89	-1.7001506
205	0xbf146511	-0.57966715
206	0x3f9f47bd	1.2443768
207	0x3dec2e33	0.11532249
208	0xbd85b41d	-0.065284945
209	0xbd058e33	-0.032606315
210	0xbba9200d	-0.0051612915
211	0x3d727926	0.059197567
212	0x3d5665c5	0.05234315
213	0xbc9f85b4	-0.019472934
214	0x3e119087	0.14215289
215	0x3dd515f8	0.10404581
216	0x3d0cbfb0	0.034362495
217	0x3dd1dc2e	0.10247074
218	0x3db79db5	0.08965627
219	0xbd37264a	-0.04471425
220	0x3df850be	0.12124775
221	0xba1a06d4	-0.0005875651
222	0xbda93e58	-0.08263844
223	0xbd21a807	-0.039466884
224	0xbc2700ff	-0.010193109
225	0xbd804959	-0.0626399
226	0xbd9d0098	-0.07666129
227	0x3dedf2f5	0.11618606
228	0x3a2c3b14	0.00065700826
229	0x3b6f15ea	0.0036481568
230	0x3cba5f6f	0.022750584
231	0xbcb7cb92	-0.022435937
232	0x3d91ef5e	0.07125734
233	0x3dfcb260	0.1233871
234	0x3d787694	0.06065996
235	0x3d5193f2	0.051166482
236	0xbdf38e84	-0.11892417
237	0xbd234c46	-0.039867662
238	0xbdae1183	-0.08499434
239	0xbd6ecc6f	-0.05830043
240	0x3db20108	0.08691603
241	0xbd2c4db6	-0.0420663
242	0xbcf190c2	-0.029487971
243	0x3b4387e8	0.0029835645
244	0x3c636c76	0.01388084
245	0x3d95b75e	0.07310365
246	0x3c4c40c5	0.012466614
247	0xbc03f29a	-0.008053446
248	0xbaf20d82	-0.001846716
249	0x3b523398	0.003207421
250	0xbc2d273d	-0.010568437
251	0xbd9b50c8	-0.07583767
252	0xbc31b174	-0.010845531
253	0x3bb0566d	0.0053813965
254	0x3de625df	0.11237692
255	0x3d50664b	0.050878804

conv4.bias f4 [10]
0	0x3e37c9ba	0.17948046
1	0x3e93296a	0.28742534
2	0xbd7c636c	-0.061618254
3	0xbda06f54	-0.07833734
4	0xbe833e80	-0.2563362
5	0xbde24421	-0.11048151
6	0xbefcb544	-0.49357045
7	0x3e83e926	0.25763816
8	0xbed1f12f	-0.4100432
9	0x3e4cf157	0.20013939

norm.weight f4 [10]
0	0x3ec02424	0.37527573
1	0x3e603856	0.2189649
2	0x3e6d91ac	0.232001
3	0x3e4aa736	0.19790348
4	0x3de7609d	0.112977244
5	0x3e6ec7c8	0.23318398
6	0x3ed05a73	0.40694007
7	0x3e63f340	0.22260761
8	0x3e97f055	0.29675546
9	0x3e3937cf	0.18087696

norm.bias f4 [10]
0	0xbed28f49	-0.41124943
1	0xbe8c50e1	-0.27405456
2	0xbe99f1ce	-0.30067295
3	0xbe16bab5	-0.1471966
4	0xbdda8270	-0.1066941
5	0xbe56fae2	-0.20994142
6	0xbec8aae8	-0.3919289
7	0xbe4c6d9a	-0.19963685
8	0xbe87a5d9	-0.2649372
9	0xbe1ba742	-0.15200523

norm.running_mean f4 [10]
0	0xc3bcb5a3	-377.41904
1	0xc30a701c	-138.43793
2	0xc2fb096d	-125.51841
3	0xc392ae09	-293.35965
4	0x42b99dc8	92.80817
5	0xc3692a8d	-233.16621
6	0xc40a93cc	-554.3093
7	0xc3d950e2	-434.6319
8	0xc3b8571c	-368.68054
9	0xc16dccc8	-14.862495

norm.running_var f4 [10]
0	0x473073e2	45171.883
1	0x46e95413	29866.037
2	0x4741b578	49589.47
3	0x476e7836	61048.21
4	0x46a430eb	21016.459
5	0x46cfde5e	26607.184
6	0x478861b6	69827.42
7	0x4720bb11	41147.066
8	0x479655f0	76971.875
9	0x471a4569	39493.41

fc1.weight f4 [50, 810]
0	0xbead471e	-0.3384332
1	0x3d086f78	0.03330943
2	0xbf930082	-1.148453
3	0xc00cf510	-2.2024574
4	0xbf47273e	-0.77794254
5	0xbe9b9442	-0.3038655
6	0xbe5b1194	-0.21393424
7	0xbdeb6071	-0.11493004
8	0x3c10058b	0.008790384
9	0xbf9c0ed0	-1.219202
10	0xbede293b	-0.4339083
11	0xbf6e2471	-0.93024355
12	0xbf322b57	-0.6959738
13	0x3f56a48a	0.83844817
14	0xbf223307	-0.6335911
15	0x3faef736	1.3669193
16	0xbed6d7bd	-0.4196147
17	0xbf7b52a8	-0.98173
18	0x3ce49491	0.027902873
19	0xbe90b429	-0.2826245
20	0xbfce1599	-1.6100341
21	0xbf37ea93	-0.71842307
22	0xbeedeba8	-0.46468854
23	0x3ec5e9f5	0.38655058
24	0x3dc5e3aa	0.09662564
25	0xbf06d810	-0.52673435
26	0xbf719695	-0.94370395
27	0x3f51345b	0.81720513
28	0x3f8627a7	1.0480851
29	0x3e0c7ba2	0.13719037
30	0x3fc972e7	1.573819
31	0x3f3caae5	0.73698264
32	0x3f5c2b66	0.8600372
33	0xbf8fcc21	-1.123417
34	0xbed8c505	-0.42337814
35	0xbe875cd2	-0.26438004
36	0xbed593c7	-0.41714308
37	0x3a18dfed	0.00058317074
38	0x3f09927a	0.5373913
39	0xbeb637bc	-0.35589397
40	0x3dfde1b5	0.12396566
41	0xbe70e777	-0.23525797
42	0xbf73d892	-0.95252335
43	0xbce30d34	-0.027716257
44	0xbee0f856	-0.43939465
45	0xbe56b9c1	-0.20969297
46	0xbf6d2a66	-0.9264282
47	0xbdb94e5e	-0.090481505
48	0xbf219747	-0.63121456
49	0xbfc9b151	-1.5757238
50	0xc04587ee	-3.0864215
51	0xc002dac6	-2.0446029
52	0xbf98ca20	-1.1936684
53	0x3de73414	0.1128923
54	0xbea3187e	-0.31854624
55	0xbfe67998	-1.8005857
56	0x3ee55974	0.4479481
57	0xbfd15be3	-1.6356167
58	0xbf841c87	-1.0321206
59	0xbf6a655f	-0.9156093
60	0xbfdc95d7	-1.7233227
61	0x3f151f55	0.58250934
62	0xbf07d8b5	-0.53065044
63	0xbf36d225	-0.71414405
64	0xbfa4e5a5	-1.2882582
65	0xbe995e9c	-0.29954994
66	0xc0351714	-2.8295336
67	0xbfa13e8f	-1.2597216
68	0xc012bc9b	-2.2927616
69	0xc062df86	-3.5448928
70	0x3f4d6c47	0.80243343
71	0xbf423522	-0.75862324
72	0x3e4446f2	0.19167688
73	0xc056bbaf	-3.3552053
74	0xbd92c275	-0.07165996
75	0xbfba76f0	-1.4567547
76	0x3ec6515e	0.38733953
77	0xbfa8ed01	-1.3197328
78	0xbfaf56f0	-1.3698406
79	0xbce9a31b	-0.028520158
80	0xbf253259	-0.6452995
81	0x3aee36eb	0.0018174326
82	0x3fae0980	1.3596649
83	0xbf388bac	-0.7208812
84	0xbea055e3	-0.31315526
85	0xbfb8e41b	-1.4444612
86	0x3e852e62	0.2601195
87	0x3f547a20	0.8299885
88	0x3d865780	0.06559658
89	0x3f7573a9	0.9587961
90	0xbf07c74a	-0.53038466
91	0x3f0a2b2e	0.53972137
92	0xbf24ba97	-0.64347214
93	0xbcf35470	-0.029703349
94	0x3f0cccfd	0.5500029
95	0x3d5699fe	0.052392952
96	0x3efb6335	0.49099126
97	0x3c21408d	0.00984205
98	0x3f0ee341	0.5581551
99	0x3f386882	0.72034466
100	0x3ea38eed	0.3194498
101	0xbeabc597	-0.33549187
102	0x3e39e015	0.18151887
103	0x3f75b1e3	0.9597456
104	0x3f8dd408	1.1080332
105	0xbe9c0693	-0.30473766
106	0xbddff2f2	-0.1093501
107	0x3d5f9f81	0.054595474
108	0xbe885e10	-0.26634264
109	0x3e61fa39	0.22068109
110	0xbe5550ee	-0.20831653
111	0x3e7e6675	0.24843772
112	0x3c82ca99	0.015965747
113	0xbef3bfa2	-0.47607142
114	0x3e05e589	0.13075842
115	0x3e16f05e	0.1474013
116	0x3eeec759	0.46636465
117	0xbf9264c1	-1.1436998
118	0x3f38d4a6	0.72199476
119	0x3dc01a61	0.093800314
120	0xbf915f90	-1.1357288
121	0xbfc4037f	-1.5313567
122	0x3f25cc93	0.6476528
123	0x3ef84c54	0.48495734
124	0x3f57f738	0.843616
125	0x3da8b795	0.082381405
126	0x3f48d547	0.78450435
127	0xbe161dd6	-0.14659819
128	0xc022262b	-2.5335796
129	0xc01470cb	-2.3193843
130	0xbf629aa6	-0.88517225
131	0xbf3f1b9f	-0.7465152
132	0xbf3d65f3	-0.7398369
133	0x3ee070cc	0.43836057
134	0x3f631714	0.8870709
135	0xbf5fd9c6	-0.8744167
136	0x3ed54022	0.41650492
137	0x3f474dae	0.77852905
138	0xbfed8f6e	-1.8559396
139	0xbee3f2a4	-0.44521058
140	0xbf590066	-0.8476623
141	0x3db68ef9	0.089139886
142	0x3f96b36c	1.1773505
143	0x3fb2a87f	1.3957671
144	0xbe40c970	-0.18826842
145	0xbf54b0e7	-0.8308243
146	0xbf64645a	-0.89215624
147	0xbfb1b08b	-1.3882002
148	0xbf85ff17	-1.0468472
149	0xbf82d878	-1.0222311
150	0xbfbb7e99	-1.464801
151	0xc003150b	-2.0481594
152	0xbea0741c	-0.31338584
153	0xbea3494b	-0.31891856
154	0xbfb06c7c	-1.3783107
155	0xbf260c9a	-0.6486298
156	0xbff86385	-1.9405371
157	0xc010a6a9	-2.2601721
158	0xbeefcb11	-0.46834615
159	0xbeca9d7a	-0.3957327
160	0xbee8cb7f	-0.45467755
161	0x3f516f41	0.81810385
162	0xbfdd4ef3	-1.7289718
163	0xbf910817	-1.1330594
164	0xbf715fe7	-0.9428696
165	0x3df667e3	0.120315336
166	0xbd28f5a2	-0.04124988
167	0xbfb09b64	-1.3797421
168	0xbdc987b0	-0.098403335
169	0x3f02f61c	0.51156783
170	0x3f89b8b3	1.0759491
171	0x3e90c75d	0.28277102
172	0xbe5dcc81	-0.21660043
173	0xbef1c9ad	-0.4722418
174	0x3e0b7ce6	0.13621864
175	0xc024397f	-2.5660093
176	0xc02bdf91	-2.6855204
177	0xbea64da9	-0.32481125
178	0x3de50155	0.11181895
179	0xbd184056	-0.03717073
180	0x3d47a53b	0.04874156
181	0xbeba4476	-0.36380357
182	0xbc1c50ce	-0.00954075
183	0xbfd5deaf	-1.6708583
184	0xbed07528	-0.40714383
185	0x3f54d7e2	0.8314191
186	0x3ed43678	0.41447806
187	0x3c866b3d	0.016408557
188	0x3f18497f	0.59487146
189	0xbe5ff955	-0.21872456
190	0xbe0149c3	-0.12625794
191	0xbe8afcf0	-0.271461
192	0x3fd791e6	1.68414
193	0x3f74a36f	0.9556188
194	0x3edbb9bc	0.42915142
195	0xbe91d42f	-0.28482196
196	0xbd1e8cd7	-0.038708534
197	0x3f02e1b8	0.5112567
198	0xbefb4ca1	-0.490819
199	0x3f74e41a	0.95660555
200	0xbe81f671	-0.25383332
201	0x3f182be9	0.59442
202	0xbdd24b2c	-0.10268244
203	0xbfdc4b04	-1.7210393
204	0x3ec64dd6	0.3873126
205	0xbf914bcc	-1.1351256
206	0xbff29629	-1.8952075
207	0xbf61f7a1	-0.88268477
208	0x3f581505	0.84407073
209	0xbdc7748e	-0.09739028
210	0xbeecb416	-0.46231145
211	0xc011ed97	-2.2801263
212	0xbf16c85a	-0.5889946
213	0xbc33bc02	-0.0109701175
214	0xbfb53ce4	-1.4159207
215	0x3e8dce9d	0.27696696
216	0xbe0685d4	-0.13136989
217	0xbfc4b421	-1.5367471
218	0x3a6020db	0.0008549818
219	0xbd414596	-0.047185503
220	0xbfb24129	-1.3926135
221	0xbfa1c5ab	-1.2638448
222	0xbf070c94	-0.5275357
223	0xbf0e24a5	-0.55524665
224	0xbf7e9d07	-0.99458355
225	0xbe893607	-0.26799032
226	0x3eacf034	0.3377701
227	0x3efe7042	0.4969502
228	0xbe3603e0	-0.17774916
229	0xbf1461e5	-0.57961875
230	0xbb3d9156	-0.0028925738
231	0xbecce71c	-0.40020072
232	0x3f1b11a0	0.6057377
233	0xbf3aa43b	-0.72906846
234	0xbf2381a6	-0.638697
235	0xbfd4bd58	-1.6620283
236	0xbe472410	-0.1944735
237	0xbf11cd74	-0.5695412
238	0x3ee76cce	0.452002
239	0xbf7b0868	-0.980597
240	0xbf53806b	-0.82617825
241	0x3e63737b	0.22212021
242	0xbe625a2c	-0.2210471
243	0x3e19734a	0.14985386
244	0x3f31701f	0.6931171
245	0xbc78c8f0	-0.015184626
246	0xbd09209a	-0.033478357
247	0xbed9aed6	-0.42516202
248	0xbe2036c3	-0.1564589
249	0x3e7152e7	0.23566781
250	0x3eeac4ba	0.45853215
251	0x3e652c3a	0.22380152
252	0xbe73721d	-0.23774
253	0x3f10869f	0.56455415
254	0x3eb46a0c	0.35237157
255	0x3f72e7da	0.9488503

fc1.bias f4 [50]
0	0x3eb7c653	0.35893497
1	0x3f9dd003	1.2329105
2	0xbe5420e7	-0.20715676
3	0x3e882e93	0.26598033
4	0xbda987fc	-0.0827789
5	0x3f70bb83	0.9403612
6	0x3ec74850	0.38922358
7	0xbcd2abfe	-0.025716778
8	0x3f913f79	1.1347495
9	0xbd185458	-0.03718981
10	0xbeb07772	-0.3446613
11	0xbe8d1579	-0.27555445
12	0xbecd4369	-0.40090492
13	0x3f9699b1	1.1765653
14	0xbd34cfb5	-0.044143397
15	0x3f6909f6	0.91030824
16	0xbda42916	-0.08015649
17	0xbd730536	-0.05933114
18	0xbd2e3896	-0.042534433
19	0xbe913569	-0.2836106
20	0x3fa6294c	1.2981353
21	0x40308c86	2.7585769
22	0xbe594425	-0.21217401
23	0xbc7bec3d	-0.015376148
24	0xbe2547ef	-0.16140722
25	0xbf49192b	-0.7855403
26	0xbd109910	-0.03530222
27	0x3e91b2d6	0.28456753
28	0x3fdb6f7a	1.7143395
29	0xbe114a45	-0.14188488
30	0xbd8e6539	-0.069529004
31	0xbe480a2a	-0.19535127
32	0x3e5f88ca	0.21829525
33	0x4020d65b	2.5130832
34	0xbdd3bbea	-0.10338576
35	0xbe62e15a	-0.22156277
36	0xbe6e5acc	-0.23276824
37	0x3fb10b7a	1.3831627
38	0xbe47b81f	-0.1950383
39	0xbdefdf89	-0.11712558
40	0xbdd9beba	-0.10632081
41	0x4020b737	2.5111825
42	0xbe9b91f5	-0.30384794
43	0x3a2d3629	0.0006607497
44	0xbd4706a5	-0.04859032
45	0x3f79f959	0.976461
46	0x364b28df	3.0273147e-06
47	0x3f943ee7	1.1581696
48	0x3e9a170a	0.30095702
49	0x3ff59533	1.9186157

fc2.weight f4 [7, 50]
0	0xbef771c6	-0.4832899
1	0x3e13a378	0.14417827
2	0xbd9b2753	-0.0757586
3	0xbebfb3be	-0.3744182
4	0xbdaffd1a	-0.08593197
5	0xbe6168d3	-0.22012644
6	0xbf3b5cf5	-0.73188716
7	0xbd2728f5	-0.040810544
8	0xbddb15af	-0.10697495
9	0xbd557f64	-0.052123442
10	0xbfaa94dc	-1.3326678
11	0xbe79a346	-0.2437869
12	0x3e4de2d6	0.20106062
13	0xbdac8dc2	-0.08425476
14	0xbcd46a9f	-0.025929747
15	0xbced5719	-0.028972195
16	0xbda87c0f	-0.08226787
17	0x3a6f922f	0.00091389095
18	0xbd8e9388	-0.06961733
19	0xbd07d297	-0.03315982
20	0xbce592b2	-0.028024051
21	0x3e235090	0.15948701
22	0xbe0c59d1	-0.13706137
23	0x3d6643a8	0.056216866
24	0xbd8de3d9	-0.06928224
25	0x3e82d367	0.25551912
26	0xbdc181e9	-0.094486065
27	0xbdbc387c	-0.09190461
28	0xbe368302	-0.17823413
29	0x3d1f7849	0.038933072
30	0xbba54a37	-0.0050442475
31	0x3e2c43c8	0.16822731
32	0xbe262a2c	-0.16227025
33	0x3e5e0c15	0.21684296
34	0xbedaa512	-0.42704064
35	0xbe447a9c	-0.19187397
36	0xbe4850e5	-0.19562109
37	0x3e60806b	0.21923988
38	0xbe074081	-0.132082
39	0xbd6271e9	-0.055284414
40	0x3a29bcf1	0.0006474993
41	0xbe02be1a	-0.1276783
42	0xbf429aad	-0.76017267
43	0xbd2e5c73	-0.042568635
44	0xbdc089f0	-0.094013095
45	0xbe4beac6	-0.19913778
46	0x3d9fc33e	0.07800911
47	0x3e55e28d	0.20887204
48	0x3d997cc7	0.074945025
49	0xbe2e7a69	-0.17038883
50	0xbe917af5	-0.2841412
51	0xbec9bb74	-0.39400828
52	0xbda7fce6	-0.082025334
53	0xbf142b1b	-0.57878274
54	0x3b838d27	0.0040146294
55	0xbcd05159	-0.025429415
56	0xbfc843d5	-1.5645701
57	0x3d99b7b1	0.075057395
58	0x3df80d15	0.1211187
59	0x3c9883f9	0.018617617
60	0xc0777bbd	-3.8669274
61	0xbec5f0eb	-0.38660368
62	0xbe0ac799	-0.13552703
63	0xbe3cca7c	-0.18436617
64	0x3cd7b235	0.026330093
65	0x3d39bc0e	0.04534536
66	0xbd28ea6d	-0.04123919
67	0xbd18540f	-0.03718954
68	0xbbb672b0	-0.005567871
69	0x3db1ebdc	0.08687565
70	0xbe3b3548	-0.18282044
71	0xbcf0d540	-0.02939856
72	0xbd7afb7f	-0.061275
73	0x3ca412fb	0.020028582
74	0x3c867c19	0.016416596
75	0xbe51050b	-0.2041208
76	0xbdf00102	-0.11718942
77	0xbeafa5c8	-0.3430617
78	0xbea493ae	-0.3214392
79	0x3dce1d48	0.10064179
80	0xbd82719f	-0.06369328
81	0x3dd164c4	0.10224298
82	0x3e39ff27	0.18163739
83	0xbedb812d	-0.4287199
84	0xbf5ed43f	-0.8704261
85	0xbc72c69a	-0.014817858
86	0xbc5d9809	-0.013525018
87	0xbe985e1c	-0.297593
88	0xbe689790	-0.22714067
89	0x3ce02773	0.02736256
90	0xbd87024b	-0.06592234
91	0xbecf29ee	-0.40461677
92	0xbfa4c07a	-1.2871239
93	0x3d95b873	0.073105715
94	0x3de1e53f	0.11030053
95	0xbce9b664	-0.028529353
96	0x3db7d2d1	0.08975757
97	0x3f282248	0.6567731
98	0xbac1ceb4	-0.0014786334
99	0x3d37ccc7	0.044873025
100	0x3f0d81ad	0.55275995
101	0xbf22f60a	-0.63656676
102	0xbd0ae9bb	-0.03391431
103	0xbe83bc1f	-0.25729463
104	0x3d3a2af0	0.045451105
105	0xbc2747ce	-0.010209991
106	0xbf84ecbc	-1.0384746
107	0x3dba9d51	0.09112037
108	0xbd9749c4	-0.073871166
109	0x3d5868d4	0.052834347
110	0x3f493369	0.7859407
111	0xbe40181d	-0.18759198
112	0x3c30797c	0.010771152
113	0xbe927b6e	-0.28609794
114	0x3d0055f7	0.031331982
115	0x3e99f280	0.30067825
116	0xbdc74d30	-0.09731519
117	0x3c414b4d	0.011797738
118	0xbe004675	-0.12526877
119	0xbe3ddead	-0.18541975
120	0xbddb3756	-0.10703914
121	0x3ccc3377	0.024926884
122	0x3d8167df	0.0631864
123	0xbd15f2d7	-0.036608543
124	0xbe19696b	-0.1498162
125	0x3e54ff8c	0.20800608
126	0xbb5ea023	-0.003396996
127	0xbdc62740	-0.09675455
128	0xbe2b417d	-0.167242
129	0x3db33a44	0.08751348
130	0xbe0f7da1	-0.14012767
131	0x3c45e17b	0.0120776845
132	0xbd1bc140	-0.038026094
133	0x3d5fc11f	0.054627534
134	0xbc08dda9	-0.008353629
135	0x3c6b2c27	0.014353788
136	0x3e26787d	0.162569
137	0x3ce8f0cc	0.028435133
138	0xbe3ef72e	-0.18648979
139	0xbbdeef2f	-0.0068034153
140	0xbd8dc36c	-0.069220394
141	0xbe01c1f8	-0.1267165
142	0xbf0da9da	-0.553373
143	0xbd0c96bc	-0.03432344
144	0xbdf975d5	-0.12180678
145	0x3e887de0	0.26658535
146	0x3ca6b20a	0.020348568
147	0xbbe55df7	-0.006999727
148	0xbd40cadb	-0.047068458
149	0xbe0681a3	-0.1313539
150	0xbf1164f9	-0.567947
151	0xbf1da149	-0.61574227
152	0x3d756901	0.059914593
153	0xbef5bfa6	-0.4799778
154	0x3da70541	0.08155299
155	0xbe394783	-0.18093686
156	0xbf2d292c	-0.6764095
157	0xbbfcf416	-0.007719527
158	0xbdab46d6	-0.0836312
159	0x3dd7a162	0.10528828
160	0xbfaf91b5	-1.3716341
161	0x3eb121a8	0.3459599
162	0x3cfdaf32	0.030967329
163	0x3e917aef	0.28414103
164	0xbc87d820	-0.016582549
165	0xbe2aa098	-0.16662824
166	0x3c89d1cb	0.01682367
167	0xbc947202	-0.01812077
168	0x3d8ee6e0	0.0697763
169	0x3d64b813	0.05583961
170	0x3eadf847	0.33978483
171	0xbd5acbaa	-0.053416885
172	0x3c84254a	0.016131062
173	0x3d5efb4e	0.05443888
174	0x3d0f4541	0.034978155
175	0xbd2e58f4	-0.0425653
176	0xbd5a9b8a	-0.05337099
177	0x3dd4a4fc	0.10383031
178	0x3eaa42df	0.33254144
179	0xbce06fbf	-0.027397035
180	0x3d8db67f	0.06919574
181	0x3deda8b4	0.11604443
182	0xbddea863	-0.10871961
183	0xbd829644	-0.06376317
184	0xbf110485	-0.5664752
185	0x3ca1f5dd	0.019770557
186	0xbd01e206	-0.031709693
187	0xbee53edf	-0.4477453
188	0xbe3e0656	-0.18557104
189	0xbd793ec4	-0.060850874
190	0x3de6da6a	0.11272128
191	0x3ecb0fad	0.39660397
192	0xbd475894	-0.04866846
193	0xbd638109	-0.05554298
194	0xbd68f020	-0.056869626
195	0xbd50aad2	-0.050944157
196	0xbd1cb071	-0.038254205
197	0xbdf625b7	-0.12018912
198	0xbed2d14e	-0.41175312
199	0x3e0f89cf	0.14017414
200	0xbea2ab69	-0.317714
201	0xbf1408a9	-0.57825714
202	0xbdbb3a66	-0.09141998
203	0xbea352ad	-0.31899014
204	0x3e0a43f6	0.13502488
205	0xbda08b45	-0.078390636
206	0xbf15c938	-0.5851016
207	0xbb3847c8	-0.0028118957
208	0xbdff52e4	-0.12466982
209	0xbc94d59d	-0.018168265
210	0xbeea454c	-0.45755994
211	0x3e1d0675	0.15334494
212	0xbe9dec14	-0.30844176
213	0xbe1c26c5	-0.15249164
214	0x3deb94ec	0.11503014
215	0x3df2adf9	0.11849589
216	0xbd2e238f	-0.04251438
217	0xbd4f4bfc	-0.050609574
218	0xbde82df8	-0.11336893
219	0xbe9a6af0	-0.30159712
220	0xbd998afa	-0.07497211
221	0x3e87ddc2	0.26536375
222	0xbd27077a	-0.040778615
223	0xbd2baa7f	-0.041910645
224	0x3b5cb954	0.00336798
225	0xbde4a4dc	-0.11164257
226	0xbd4d0828	-0.050056607
227	0x3d722ba3	0.059123646
228	0xbe4e8d49	-0.20171084
229	0xbdb86751	-0.09004081
230	0xbd1b4be7	-0.037914183
231	0xbcef231b	-0.029191544
232	0x3e5c8cb2	0.21538046
233	0x3e1240ac	0.14282483
234	0xbd019bf3	-0.031642865
235	0x3e41f3e3	0.18940692
236	0x3ccaa8d5	0.024738709
237	0x3dba57fa	0.090988114
238	0x3d8c26a2	0.06843306
239	0x3daeaafe	0.08528708
240	0xbb7733b9	-0.0037720038
241	0xbe542ab4	-0.20719415
242	0xbf057ffa	-0.521484
243	0x3cd5b9ed	0.026089633
244	0x3d8b1cbc	0.0679259
245	0xbe4411e1	-0.19147445
246	0x3c5b9ce4	0.013404105
247	0xbde44787	-0.11146455
248	0x3c9222d4	0.017838873
249	0xbdab8a21	-0.083759554
250	0xbd18bf3c	-0.03729175
251	0x3e64d302	0.22346118
252	0xbdc2f35c	-0.09519073
253	0x3ec10ab3	0.37703475
254	0x3dd080b8	0.10180801
255	0x3eb6c346	0.35695857

fc2.bias f4 [7]
0	0xbe956c33	-0.29184112
1	0xbfda9725	-1.7077376
2	0x3dace059	0.084412284
3	0x3e14d5ff	0.14534758
4	0x3f020fec	0.50805545
5	0xbedb0000	-0.42773438
6	0x3e8f78ac	0.28021753

localization.0.weight f4 [8, 1, 7, 7]
0	0x3d3bac11	0.045818392
1	0xbcae54e0	-0.021280706
2	0x3da00d7d	0.07815073
3	0x3e06e922	0.1317487
4	0x3d50a351	0.050937
5	0x3dde8998	0.10866088
6	0x3e2d8270	0.16944289
7	0x3e3dddf0	0.18541694
8	0x3df4ddd8	0.11956376
9	0x3e7a7ff5	0.24462874
10	0x3ddf6e26	0.10909681
11	0x3e2d88ed	0.16946764
12	0x3e6a35e4	0.2287212
13	0x3c445ecf	0.011985495
14	0xbd069d00	-0.03286457
15	0x3daf0708	0.08546263
16	0x3e52d48a	0.2058889
17	0x3b37e633	0.0028060793
18	0x3e401683	0.18758588
19	0x3e19636d	0.14979334
20	0xbd986df6	-0.074428484
21	0x3da763d2	0.08173336
22	0xbd95cdd2	-0.07314648
23	0xbd55ad3a	-0.052167155
24	0x3e41b216	0.1891559
25	0x3d468349	0.048465047
26	0x3c615f03	0.013755563
27	0x3cb6443d	0.022249335
28	0x3d41f83e	0.047355883
29	0xbda41123	-0.08011081
30	0x3e3f829e	0.1870217
31	0x3be2eba5	0.0069250637
32	0x3dea5fb1	0.11444033
33	0x3e14faa5	0.14548738
34	0xbc29d7ac	-0.010366362
35	0x3df2b1cf	0.118503205
36	0xbda9aded	-0.08285127
37	0x3e425c62	0.18980554
38	0x3e097f6d	0.13427515
39	0x3d23f4f2	0.04002852
40	0x3e018a63	0.12650447
41	0xbd81e824	-0.063431054
42	0xbc8b7217	-0.017022176
43	0x3e02d333	0.12775879
44	0x3d28fdd2	0.041257687
45	0xbd796a9e	-0.060892694
46	0x3cfdc394	0.030977048
47	0x3e03c17b	0.12866776
48	0xbc1c9324	-0.009556565
49	0xbdde75ab	-0.10862287
50	0xbc962580	-0.018328428
51	0x3da40a4d	0.08009777
52	0xbde0a9e4	-0.10969904
53	0xbcc08589	-0.023501175
54	0x3d4256df	0.047446128
55	0x39820ad4	0.000248036
56	0x3e0f1562	0.13973
57	0x3dcb116f	0.099154346
58	0xbe07cd60	-0.13261938
59	0x3d4da56e	0.050206594
60	0x3dcce7fc	0.10005185
61	0xbde342b1	-0.11096705
62	0xbc86ca8a	-0.016454
63	0xbccae1b6	-0.02476583
64	0xbddb8a94	-0.10719791
65	0x3da08a99	0.078389354
66	0xbdc0aa1a	-0.09407444
67	0xbd7a3c27	-0.061092522
68	0x3d5762f3	0.0525846
69	0xbe4d7c0e	-0.20066854
70	0xbdd3eaf3	-0.103475474
71	0xbdf819ea	-0.12114318
72	0x3d2659ad	0.040612865
73	0x3dc932b7	0.09824126
74	0xbde39962	-0.1111324
75	0xbd00b10d	-0.03141885
76	0xbd807703	-0.062727
77	0x3dcdf8cc	0.1005722
78	0xbcd76eb9	-0.026297914
79	0x3d3a1c9f	0.04543745
80	0x3ca94ee9	0.02066751
81	0xbdc3fefd	-0.095701195
82	0xbd9f5aa3	-0.077809595
83	0xbdc085fa	-0.09400554
84	0xbe33c060	-0.17553854
85	0x3d8b2256	0.067936584
86	0xbc1311b6	-0.008976391
87	0x3d99c5e4	0.07508448
88	0xbdc7b568	-0.09751397
89	0xbd5541c3	-0.05206467
90	0x3a850769	0.0010149303
91	0xbb94d750	-0.004542269
92	0xbdae3306	-0.08505826
93	0xbd497ade	-0.04918944
94	0xbe0e06c7	-0.13869773
95	0x3dad6b9f	0.08467793
96	0xbd15173c	-0.03639911
97	0xbe1ebbf5	-0.15501387
98	0xbd4cea21	-0.05002797
99	0xbcaaccae	-0.020849552
100	0x3d4f0aaf	0.050547298
101	0xbdaa156b	-0.083048664
102	0x3dc035c1	0.09385253
103	0x3df1b736	0.11802523
104	0xbc3ae2e3	-0.011406633
105	0x3da03868	0.07823259
106	0xbd1db43a	-0.038501956
107	0xbdd68152	-0.10473885
108	0x3e054c22	0.13017324
109	0x3d8416bf	0.06449651
110	0xbd3744dd	-0.044743408
111	0xbdfa0783	-0.12208464
112	0x3b22c0a8	0.002483407
113	0xbd14a400	-0.036289215
114	0xbbf9699b	-0.007611466
115	0x3e0370c9	0.12835993
116	0xbdcfc9b7	-0.10145896
117	0x3da5d5c8	0.08097416
118	0xbd68d588	-0.056844264
119	0xbdb25a75	-0.087086596
120	0xbd830a32	-0.06398429
121	0xbd9fbc8e	-0.07799636
122	0xbbe2d424	-0.006922262
123	0xbe255979	-0.16147412
124	0xbe013703	-0.12618642
125	0x3d0c0d93	0.034192633
126	0x3e00176d	0.12508936
127	0xbd2368e9	-0.039894972
128	0x3d38bafe	0.045100205
129	0xbab189a5	-0.001354505
130	0x3db2e6bf	0.087354176
131	0xbc9c1e04	-0.019057281
132	0x3d6a4273	0.057192277
133	0x3e137c75	0.14402945
134	0xbdcd0028	-0.100097954
135	0xbdcd6b67	-0.10030251
136	0x3cc36e01	0.023856165
137	0xbd3e05be	-0.046392195
138	0x3b84add5	0.0040490427
139	0x3c6ddf0a	0.014518509
140	0xbe0a1b55	-0.13486989
141	0x3d8c7b38	0.068594396
142	0x3c26dd30	0.010184571
143	0x3d6a68d5	0.057228882
144	0xbda630c7	-0.08114772
145	0xbe37152c	-0.1787917
146	0xbe3876b1	-0.18014027
147	0xbcc430c7	-0.02394904
148	0xbdc29f3d	-0.095030285
149	0xbdbdd9e4	-0.09270075
150	0xbd1d08b7	-0.03833839
151	0x3c33d9e2	0.01097724
152	0x3d58e667	0.052954104
153	0xbd97c776	-0.07411091
154	0x3d88ba39	0.06676144
155	0xbc8a3d46	-0.01687492
156	0xbd8a17fd	-0.06742857
157	0x3e01e9b3	0.12686805
158	0x3dc1d068	0.094635785
159	0xbd902021	-0.07037378
160	0x3dac2d04	0.084070235
161	0x3e069e30	0.13146281
162	0x3df538f9	0.11973757
163	0x3d930920	0.07179475
164	0x3e038dca	0.12847057
165	0x3c3172e9	0.010830619
166	0xbdf0e07b	-0.11761566
167	0x3df7972a	0.12089379
168	0x3d907e9c	0.07055399
169	0x3d43e080	0.04782152
170	0x3cf9b6a9	0.030482607
171	0xbc98eda4	-0.018668003
172	0xbd0469af	-0.03232735
173	0xbdfbaba4	-0.12288597
174	0x3e0ceb0b	0.13761537
175	0x3dc398c7	0.09550624
176	0xbc848624	-0.016177244
177	0x3dd40cd5	0.1035401
178	0x3d91eb49	0.07124955
179	0x3da2b0a7	0.0794385
180	0x3da3b3ff	0.07993316
181	0xbe11c253	-0.14234285
182	0x3d5242f8	0.051333398
183	0xbe444531	-0.1916702
184	0x3d9b734c	0.075903505
185	0xbd0dd6ef	-0.034628805
186	0xbd93ceb7	-0.07217162
187	0x3c4a7fcd	0.012359572
188	0xbd92fbb9	-0.071769185
189	0xbe1d56ff	-0.15365218
190	0xbe1857fb	-0.14877312
191	0x3c7e70aa	0.015529791
192	0xbdc7c655	-0.09754626
193	0xbc074c2f	-0.00825791
194	0x3c61b2b4	0.013775516
195	0x3d84c82c	0.06483492
196	0xbd9b9af7	-0.075979166
197	0xbe1886cb	-0.1489517
198	0xbc37b7b1	-0.011213229
199	0x3dbfd208	0.09366232
200	0x3e0ae23d	0.13562866
201	0xbc206b92	-0.009791272
202	0xbd3fb938	-0.046807498
203	0xbdfffcfa	-0.12499423
204	0xbdb06413	-0.08612838
205	0x3dd8d32f	0.10587155
206	0xbdbc3300	-0.09189415
207	0x3dd1d576	0.102457926
208	0x3e11cf92	0.14239338
209	0x3dee0547	0.116221
210	0xbda138c6	-0.07872157
211	0xbd9fe193	-0.07806697
212	0x3d6f42c6	0.05841329
213	0xbbb54146	-0.005531463
214	0x3e18b835	0.1491402
215	0x3d965658	0.073406875
216	0x3da72701	0.08161736
217	0xba049b4f	-0.0005058543
218	0x3d68c11f	0.0568248
219	0xbb649150	-0.0034876652
220	0x3dd01f0f	0.10162174
221	0xbd8379e1	-0.06419731
222	0xbd492d8d	-0.049115706
223	0x3e018248	0.12647355
224	0xbdb2a5c7	-0.08723026
225	0xbd05eab5	-0.032694537
226	0xbd129ad9	-0.035792205
227	0x3daba990	0.08381951
228	0xbd90e150	-0.07074225
229	0x3a636fc0	0.0008676015
230	0xbae6be15	-0.0017604256
231	0xbe2dc4e7	-0.16969644
232	0xbba4f3f8	-0.005033966
233	0x3d8cb061	0.06869579
234	0xbde3fd6e	-0.11132322
235	0x3ddcc8b7	0.10780471
236	0x3df03b03	0.117300056
237	0x3d547ac4	0.05187489
238	0x3d1af9b4	0.03783579
239	0xbe0ec293	-0.13941412
240	0xbc06db45	-0.008230989
241	0x3cdd8759	0.027042078
242	0x3d4b8225	0.049684662
243	0xbe213fb9	-0.15746965
244	0x3d71551f	0.05891907
245	0xbc6b7a5c	-0.0143724345
246	0x3e1cd23f	0.15314578
247	0x3de6a7f0	0.112625
248	0x3dee7481	0.11643315
249	0x3b83c74a	0.00402156
250	0x3cde187f	0.02711129
251	0x3c70de7a	0.01470148
252	0x3dc7a003	0.09747317
253	0x3dca5643	0.09879734
254	0xbd47480f	-0.048652705
255	0x3da4eeb0	0.080533385

localization.0.bias f4 [8]
0	0x3e366dc0	0.17815304
1	0xbd8e79ba	-0.06956811
2	0xbd9ce48f	-0.076607816
3	0xbe5b1003	-0.21392827
4	0xbd3038f1	-0.043023054
5	0xbdd95866	-0.10612564
6	0xbe4c2d3f	-0.19939135
7	0xbe702be0	-0.23454237
