EmpathyBot/model_snapshots/deep_emotion-200-64-0.005-0.5063471422379094.pt (torch_old, 271009 bytes, 24 tensors)

conv1.weight f4 [10, 1, 3, 3]
0.066302955 -0.0622624 -1.4795938 0.32560605 0.38515463 0.055123676 -0.82646734 0.62509805
0.95132357 -0.8531404 0.27951032 0.90770406 -1.2604764 -0.6405511 1.2372986 -0.2761843
0.12271932 0.48559126 0.68420184 -0.1842057 -0.11541653 0.5552437 -0.36836475 -0.23281041
-0.29994044 -0.37420687 -0.704199 0.8997941 0.96279955 0.333088 -0.8506126 0.032672647
0.13368817 -0.8141446 -0.52917045 -0.09995997 -0.56835824 -0.31505784 0.29509878 0.1496776
-0.35751033 -0.35892466 0.94832414 0.48541486 -0.05608188 0.5796239 0.39291617 0.614971
0.6226872 0.22605222 -1.3370136 0.35968015 -0.44264176 -0.7044681 -0.18879169 0.084501944
-0.9389662 0.66682965 0.6196504 -1.0537423 0.72882426 0.28473973 -0.22010629 -0.3479922
-0.41873127 0.42658627 -1.2171229 -0.14050609 0.39564842 0.013335094 1.1065177 0.38185513
-1.0194683 -0.46699852 -0.06485647 0.10604197 0.2205594 0.110350005 0.91764283 1.0218844
-0.6075708 0.1886564 -0.50620943 0.82401 -0.08420953 -1.1214148 -0.5615586 0.19379486
0.34024042 0.8618391
00000000: d8c9 873d dc06 7fbd 5463 bdbf d6b5 a63e
00000010: fd32 c53e 5dc9 613d 5d93 53bf 6d06 203f
00000020: f189 733f 6967 5abf fa1b 8f3e 4b5f 683f
00000030: 4a57 a1bf 28fb 23bf cd5f 9e3f 0768 8dbe
00000040: 4454 fb3d 6b9f f83e da27 2f3f 6ba0 3cbe
00000050: 805f ecbd 7324 0e3f 4e9a bcbe da65 6ebe
00000060: cb91 99be 0b98 bfbe 6346 34bf e858 663f
00000070: 087a 763f 838a aa3e bfc1 59bf c1d3 053d
00000080: 8de5 083e c86b 50bf b777 07bf d0b7 ccbd
00000090: ed7f 11bf 434f a1be 3017 973e 1645 193e
000000a0: 980b b7be f9c4 b7be 5fc5 723f 4c88 f83e
000000b0: 1db6 65bd 3b62 143f 4f2c c93e bd6e 1d3f
000000c0: 6e68 1f3f 3c7a 673e 4323 abbf ff27 b83e
000000d0: f1a1 e2be 0558 34bf 9c52 41be 5b0f ad3d
000000e0: 1760 70bf 59b5 2a3f 69a1 1e3f 07e1 86bf
000000f0: 3a94 3a3f 68c9 913e 8b63 61be 092c b2be
00000100: f263 d6be 8469 da3e afca 9bbf d4e0 0fbe
00000110: 6e92 ca3e 707b 5a3c 5fa2 8d3f 8482 c33e
00000120: f07d 82bf 6e1a efbe 78d3 84bd 882c d93d
00000130: 53da 613e 2fff e13d a4ea 6a3f 1ccd 823f
00000140: c389 1bbf 252f 413e f196 01bf 52f2 523f
00000150: 0c76 acbd 858a 8fbf 4ec2 0fbf 2972 463e
00000160: fe33 ae3e 7da1 5c3f

conv1.bias f4 [10]
0.22283553 -0.18261638 -0.3350322 0.27823487 0.17906027 -0.46740508 0.36266974 0.5032726
0.23220536 0.2276244
00000000: ff2e 643e caff 3abe 5789 abbe cd74 8e3e
00000010: 935b 373e b84f efbe d9af b93e 79d6 003f
00000020: 3ec7 6d3e 5f16 693e

conv2.weight f4 [10, 10, 3, 3]
0.059950028 0.0396215 0.058400135 -0.031956736 0.04055837 0.039257683 0.020899532 -0.11998422
0.026470864 -0.0914077 0.028724447 -0.021712348 0.016959574 0.033511713 0.009909071 0.02815486
-0.140756 -0.00019121295 -0.03625593 0.036379963 0.06192002 -0.13357177 0.0093231695 0.00989727
0.017271189 -0.10394071 -0.13280664 -0.012190218 -0.11836395 -0.014215727 -0.139841 -0.1369365
0.03601127 0.037375115 0.003947415 -0.04177543 0.09484852 -0.034611665 -0.08083868 0.07048749
-0.040881433 0.105470456 -0.019464044 -0.037144702 -0.11622782 0.025115056 -0.08652628 0.019872745
-0.030940322 0.073262446 0.008459304 -0.0015861379 0.023304012 -0.10496296 -0.13009423 0.0468058
0.055287898 0.04696352 -0.1383781 -0.09169636 -0.07355919 0.006281765 -0.109908074 -0.08879759
-0.07472568 -0.053857014 0.031878598 -0.00036722046 0.029657952 -0.08062966 0.03278482 0.054787092
-0.099489674 0.052280348 -0.04115466 -0.07940247 -0.030046698 -0.115277596 -0.09746695 -0.018283436
0.06669515 0.022411983 0.051483896 -0.064801596 -0.040888764 -0.03056562 0.012707479 -0.04567023
-0.117288 -0.074378535 -0.29975894 -0.11378093 -0.14186963 -0.06758867 -0.03154201 0.0017086361
-1.0351248 -0.101247944 -0.49827752 0.022859763 -0.25696754 0.070579246 -0.660985 -0.85885566
-0.6769651 0.0589454 -0.16117144 -0.96097517 -0.016352328 -0.13447586 -0.33809805 -0.10428113
-0.34161362 -0.1295241 0.47995692 -0.14419141 -0.076567814 -0.2634801 -0.5952028 -0.8452577
0.8290455 0.71109945 0.35998124 1.076805 0.7963005 0.76462716 0.52420086 0.18187962
0.28520784 -0.79998666 -0.41807732 0.15595326 0.3050746 -0.89755183 -1.0540574 0.3278632
0.16618122 0.31301287 -0.37478465 0.09316957 0.2951341 -0.74287015 -0.2580273 0.26179078
-0.03912871 0.106738545 0.5981464 -0.8178949 -0.14246382 0.25513634 -1.1533192 -0.71430016
-0.2124295 0.22125016 0.24494942 0.29249007 -0.6210873 -0.041241575 0.8184856 0.063623175
-0.14608568 0.06920497 0.34773138 0.23595259 0.36657676 -0.7243184 -0.81820023 -0.21973574
-0.683694 -1.071848 -0.7451294 -0.2753156 -0.22324143 0.24249141 -0.74493235 0.2583587
1.1472868 0.8784384 -0.21603358 -0.5822725 -0.9215429 -0.8338812 -0.5839325 -0.8067813
0.41274673 0.619246 0.40018567 -0.5779113 -1.2144581 -1.2723898 0.32568473 0.3019323
-1.5302191 -0.76238924 -0.63164276 -0.9673807 0.07934086 0.7436539 -0.080749735 -0.15197209
-0.55324376 0.5633956 0.19409426 -0.16159186 0.7942153 0.7591467 0.42195147 -0.19054754
0.32076862 0.8688411 0.053010665 0.22928938 0.4603901 -0.23111425 0.2815826 0.6616615
-0.61938196 -0.10711015 -0.7670354 -1.1005074 -0.055228297 0.32656324 -0.62010986 -0.17872956
-0.30994725 0.22641997 -0.07109213 -0.66495305 -0.031307243 -0.27722642 -1.341316 0.49999133
0.5842349 -0.7007143 -0.5561607 -0.69130516 -0.6392943 -0.7497967 -0.81001747 -1.0100951
0.4334834 0.7994003 0.27051565 0.6056663 -0.59050596 -1.951548 -0.06960921 -0.46076062
-0.08295894 -1.4486052 -0.11399987 0.011537454 0.10027744 0.2824413 -1.425103 -0.025201889
00000000: 298e 753d 274a 223d fb34 6f3d 11e5 02bd
00000010: 8920 263d aacc 203d 7f35 ab3c 49ba f5bd
00000020: 6dd9 d83c f633 bbbd 884f eb3c 18de b1bc
00000030: ceee 8a3c 9443 093d a859 223c 05a5 e63c
00000040: 5722 10be 5680 48b9 1981 14bd 2803 153d
00000050: d99f 7d3d 0ac7 08be 35c0 183c 2928 223c
00000060: 4f7c 8d3c dede d4bd 77fe 07be 7bb9 47bc
00000070: cc68 f2bd 15e9 68bc 7b32 0fbe 1539 0cbe
00000080: 8e80 133d a616 193d 5159 813b b71c 2bbd
00000090: f13f c23d f6c4 0dbd c08e a5bd bf5b 903d
000000a0: 4a73 27bd e500 d83d 0f73 9fbc 0b25 18bd
000000b0: da08 eebd 17be cd3c b134 b1bd 2bcc a23c
000000c0: 8f76 fdbc 9f0a 963d e598 0a3c f5e5 cfba
000000d0: 0ee8 be3c d2f6 d6bd 6c37 05be 70b7 3f3d
000000e0: 9075 623d d25c 403d fdb2 0dbe 4dcb bbbd
000000f0: 33a6 96bd 44d7 cd3b 7c17 e1bd 83db b5bd
00000100: c709 99bd 2c99 5cbd 2293 023d 7f87 c0b9
00000110: 3cf5 f23c 2a21 a5bd 6049 063d 6e68 603d
00000120: 3ec1 cbbd eb23 563d ca91 28bd c39d a2bd
00000130: 7e24 f6bc a916 ecbd c19c c7bd 25c7 95bc
00000140: 7897 883d 5699 b73c c7e0 523d b3b6 84bd
00000150: fa7a 27bd c064 fabc 0833 503c b510 3bbd
00000160: b134 f0bd c653 98bd 017a 99be fa05 e9bd
00000170: 4646 11be ee6b 8abd 3232 01bd 50f4 df3a
00000180: f87e 84bf 155b cfbd 3b1e ffbe 6644 bb3c
00000190: 4091 83be da8b 903d 5036 29bf f7dd 5bbf
000001a0: 964d 2dbf bb70 713d 200a 25be 7802 76bf
000001b0: 51f5 85bc 0ab4 09be 301b adbe 5891 d5bd
000001c0: fbe7 aebe f7a1 04be eabc f53e eaa6 13be
000001d0: 96cf 9cbd dde6 86be 365f 18bf cf62 58bf
000001e0: 533c 543f 9d0a 363f 764f b83e bfd4 893f
000001f0: 59da 4b3f 9bbe 433f 0732 063f a73e 3a3e
00000200: c306 923e edcb 4cbf 3b0e d6be 36b2 1f3e
00000210: bd32 9c3e f5c5 65bf 5aeb 86bf afdd a73e
00000220: 692b 2a3e 3943 a03e c6e3 bfbe b0cf be3d
00000230: d11b 973e bd2c 3ebf 271c 84be 7109 863e
00000240: 6d45 20bd bd99 da3d 1f20 193f 8f61 51bf
00000250: 09e2 11be 3ba1 823e f79f 93bf 60dc 36bf
00000260: 1e87 59be 678f 623e 05d4 7a3e 42c1 953e
00000270: 94ff 1ebf edec 28bd 4688 513f de4c 823d
00000280: 7c97 15be 56bb 8d3d d909 b23e 8e9d 713e
00000290: f3af bb3e ee6c 39bf 9275 51bf 6802 61be
000002a0: 9206 2fbf 5132 89bf cdc0 3ebf 2bf6 8cbe
000002b0: 6799 64be ab4f 783e e3b3 3ebf 9747 843e
000002c0: 4bda 923f 57e1 603f e837 5dbe d00f 15bf
000002d0: 3cea 6bbf 3d79 55bf 9a7c 15bf 3889 4ebf
000002e0: 8a53 d33e e886 1e3f 23e5 cc3e fff1 13bf
000002f0: 5d73 9bbf abdd a2bf 26c0 a63e df96 9a3e
00000300: 38de c3bf f12b 43bf 57b3 21bf 43a6 77bf
00000310: 767d a23d 1a60 3e3f 1e60 a5bd 929e 1bbe
00000320: 62a1 0dbf b23a 103f a5c0 463e 5678 25be
00000330: b251 4b3f 7057 423f 060a d83e e51e 43be
00000340: c93b a43e 5f6c 5e3f b621 593d d6ca 6a3e
00000350: 40b8 eb3e 37a9 6cbe 982b 903e a662 293f
00000360: d18f 1ebf 915c dbbd 6f5c 44bf 6ddd 8cbf
00000370: 1137 62bd 4c33 a73e 85bf 1ebf e204 37be
00000380: 68b1 9ebe a3da 673e c098 91bd 5d3a 2abf
00000390: 063c 00bd 9ff0 8dbe 3eb0 abbf ddfe ff3e
000003a0: 6b90 153f 0362 33bf 8c60 0ebf 60f9 30bf
000003b0: cba8 23bf adf2 3fbf 4e5d 4fbf cc4a 81bf
000003c0: 89f1 dd3e 80a5 4c3f 0781 8a3e f20c 1b3f
000003d0: 662b 17bf 53cc f9bf 468f 8ebd d1e8 ebbe
000003e0: 60e6 a9bd e56b b9bf c478 e9bd 9707 3d3c
000003f0: 425e cd3d 259c 903e c669 b6bf 3174 cebc

conv2.bias f4 [10]
-0.11193868 0.74702996 0.060573515 -0.07580433 1.5045038 1.1742646 0.2208549 0.4921796
-0.04615603 0.6296278
00000000: 1b40 e5bd 5b3d 3f3f ef1b 783d 4d3f 9bbd
00000010: 9593 c03f 4d4e 963f c927 623e f7fe fb3e
00000020: 1b0e 3dbd 4a2f 213f

conv3.weight f4 [10, 10, 3, 3]
-0.034484766 0.103840075 -0.005587578 -0.050630964 0.07971019 -0.09751809 0.072142564 0.047259025
-0.08873494 -0.8647184 -0.45608702 -0.20739694 -0.81287944 -0.04077411 -0.03989065 -0.5626538
0.21589866 1.0609049 -0.31222898 0.31385767 0.70138097 0.109349295 0.48021403 0.9097907
0.43093243 0.9353412 0.83279645 0.007757389 0.03100483 -0.025822055 -0.017847592 0.10425609
-0.09331726 0.03545409 0.09979995 0.113248184 -0.385241 -0.5712382 -0.1316414 0.16904905
0.54970837 0.67523515 -0.13321973 0.4664986 0.8814298 0.08575696 0.22271095 0.2634882
0.2683531 -0.103110984 0.2625169 0.46975282 -0.07958729 0.32827306 -0.21455108 -0.3316913
0.32069978 -0.13187155 -0.1134628 0.58305687 -0.28893438 0.07000689 0.6076058 -0.9651977
-0.9794477 0.047214538 -0.8265402 -0.17850053 0.5628096 0.4072625 0.9405975 0.29292598
-0.030085502 -0.14748247 -0.106760934 0.09642317 0.007519897 -0.06845784 0.19953494 0.016156485
0.18459152 0.25076655 0.48970667 0.437145 0.94562006 1.1378548 0.48038858 1.3309488
1.2659254 1.1565303 0.04302985 0.069941424 -0.04609541 0.061914396 -0.045045543 0.123908386
-0.04217224 -0.006787325 -0.106457606 0.019280845 -0.094564475 -0.017537901 -0.074744746 -0.09933233
-0.050671685 -0.0014516878 -0.046044543 0.026365139 0.010269925 -0.03352978 0.013783467 -0.09957344
-0.025730139 0.104140304 0.080998085 -0.029979696 -0.0051268227 0.030832626 0.00983083 -0.113515384
0.032520667 -0.11286575 -0.11892566 0.09586939 -0.1039401 0.062871344 -0.020656085 0.010416203
-0.15321732 0.040579446 -0.026872994 0.013213353 -0.06716784 -0.009971246 -0.0755322 0.064057305
-0.13850658 -0.070976645 -0.04054944 -0.11070313 -0.007212849 0.08558146 -0.11739705 -0.10436862
-0.03811392 -0.05337763 -0.0032819882 -0.035161525 -0.0051786066 0.037471052 -0.060426008 -0.036966767
0.016505022 -0.09321181 -0.06319608 -0.002337976 -0.039869513 -0.09856049 -0.12711126 -0.033097025
-0.11682329 -0.15157396 0.14088508 0.023613445 0.08694237 0.017053021 0.13075045 0.022312826
0.027338732 0.1146506 0.037637845 -0.040150587 -0.12432897 -0.05005313 0.033517644 -0.10864441
-0.034818616 0.0498433 -0.13140021 -0.06946406 0.07371019 0.021421878 -0.059008855 0.010567876
0.06467469 0.06950993 -0.014321264 -0.1207189 0.049436595 0.26361796 0.11448706 0.70872086
-0.48188084 -0.5950808 -0.4774618 0.06939326 -0.21142225 -0.42231166 -0.012030255 -0.6994146
-0.7496246 -0.972211 -0.52856725 -0.79995936 -1.012495 -0.5608008 -0.204001 0.04632155
-0.028150573 -0.10012385 0.017047623 -0.0024966884 0.08665615 0.04503512 0.024803648 -0.08830289
0.15723218 0.28776404 0.40833774 -0.15858391 -0.279534 -0.06272382 -0.3954779 -0.3003827
0.24497958 -0.21136923 -0.13502923 0.28219622 -0.05418882 0.17445904 0.65668106 0.8538508
1.0475097 0.88900846 -0.030214686 0.1709953 0.5660592 -0.041459154 0.23092169 0.96830314
0.009112617 0.21563971 0.6355537 0.57406735 0.7480936 0.12010907 0.23898514 -0.21163234
-0.2791832 -0.76919943 -1.0526578 -0.83448714 0.07088346 -0.010964106 0.032139488 0.027025219
00000000: e63f 0dbd 1baa d43d 0018 b7bb 6a62 4fbd
00000010: 193f a33d 90b7 c7bd 7bbf 933d ae92 413d
00000020: aaba b5bd 2f5e 5dbf 3d84 e9be dd5f 54be
00000030: de18 50bf c102 27bd 6164 23bd 140a 10bf
00000040: 8a14 5d3e bbcb 873f 7adc 9fbe f4b1 a03e
00000050: b48d 333f 86f2 df3d 9dde f53e 0be8 683f
00000060: 2da3 dc3e 8572 6f3f 2632 553f b231 fe3b
00000070: d7fd fd3c c688 d3bc 1d35 92bc 3884 d53d
00000080: 1f1d bfbd 4f38 113d eb63 cc3d aaee e73d
00000090: 4f3e c5be ab3c 12bf 01cd 06be 321b 2d3e
000000a0: b0b9 0c3f 36dc 2c3f c16a 08be e8d8 ee3e
000000b0: 62a5 613f 58a1 af3d 570e 643e ede7 863e
000000c0: 9465 893e da2b d3bd 9d68 863e 7183 f03e
000000d0: a9fe a2bd 6813 a83e 47b3 5bbe 71d3 a9be
000000e0: c332 a43e 5609 07be 2f5f e8bd 3743 153f
000000f0: 35ef 93be c65f 8f3d 0e8c 1b3f 3217 77bf
00000100: 16bd 7abf 0864 413d 2398 53bf d8c8 36be
00000110: 4a14 103f b684 d03e ffca 703f 65fa 953e
00000120: df75 f6bc a505 17be 7aa5 dabd 8379 c53d
00000130: 7869 f63b a033 8cbd e352 4c3e 9b5a 843c
00000140: 8f05 3d3e 7964 803e d5ba fa3e 78d1 df3e
00000150: 2814 723f 3aa5 913f 7ef5 f53e 885c aa3f
00000160: d809 a23f 2f09 943f 1140 303d 733d 8f3d
00000170: 8ace 3cbd f399 7d3d ad81 38bd aec3 fd3d
00000180: ccbc 2cbd 3568 debb 7206 dabd ddf2 9d3c
00000190: 05ab c1bd a5ab 8fbc c613 99bd c06e cbbd
000001a0: 1d8d 4fbd 8f46 beba 3499 3cbd b4fb d73c
000001b0: 3043 283c 8656 09bd 0dd4 613c 29ed cbbd
000001c0: 03c8 d2bc 8347 d53d 53e2 a53d fb97 f5bc
000001d0: e8fe a7bb b494 fc3c 7d11 213c c17a e8bd
000001e0: 6434 053d 2926 e7bd 4c8f f3bd 2c57 c43d
000001f0: 8cde d4bd b1c2 803d f336 a9bc b9a8 2a3c
00000200: 00e5 1cbe a236 263d c124 dcbc d27c 583c
00000210: 4b8f 89bd 705e 23bc a0b0 9abd 7a30 833d
00000220: abd4 0dbe 345c 91bd 2b17 26bd 53b8 e2bd
00000230: c359 ecbb 5545 af3d dd6d f0bd 37bf d5bd
00000240: 571d 1cbd 80a2 5abd a016 57bb 8805 10bd
00000250: 4db1 a9bb 3f7b 193d 4381 77bd 776a 17bd
00000260: 8a35 873c d5e5 bebd f26c 81bd ba38 19bb
00000270: 374e 23bd 15da c9bd 7429 02be bf90 07bd
00000280: 0d41 efbd 3436 1bbe 2e44 103e fc70 c13c
00000290: d70e b23d c7b2 8b3c 72e3 053e 63c9 b63c
000002a0: 7af5 df3c efcd ea3d 242a 1a3d f174 24bd
000002b0: 30a0 febd 8304 4dbd cc49 093d f680 debd
000002c0: f79d 0ebd 7d28 4c3d c78d 06be 2c43 8ebd
000002d0: 5ef5 963d ef7c af3c 45b3 71bd e224 2d3c
000002e0: 2a74 843d 395b 8e3d bca3 6abc 783b f7bd
000002f0: 077e 4a3d eff8 863e 3178 ea3d bb6e 353f
00000300: 16b9 f6be 3757 18bf e075 f4be 0e1e 8e3d
00000310: 137f 58be 3c39 d8be 8c1a 45bc d60c 33bf
00000320: 66e7 3fbf d2e2 78bf 2f50 07bf 23ca 4cbf
00000330: 7099 81bf a490 0fbf a3e5 50be aabb 3d3d
00000340: 089c e6bc bc0d cdbd 75a7 8b3c 7b9f 23bb
00000350: c878 b13d bf76 383d 0531 cb3c 25d8 b4bd
00000360: 7901 213e cf55 933e a511 d13e d263 22be
00000370: 151f 8fbe 5975 80bd 147c cabe c3cb 99be
00000380: eddb 7a3e 2d71 58be 1a45 0abe 067c 903e
00000390: 19f5 5dbd 64a5 323e 401c 283f f795 5a3f
000003a0: cc14 863f 0f96 633f ca84 f7bc 6419 2f3e
000003b0: 41e9 103f 13d1 29bd bc76 6c3e b7e2 773f
000003c0: 164d 153c a8d0 5c3e a6b3 223f 14f6 123f
000003d0: 1083 3f3f befb f53d 85b8 743e 26b6 58be
000003e0: 1af1 8ebe 41ea 44bf 7ebd 86bf f3a0 55bf
000003f0: 592b 913d cba2 33bc b2a4 033d fe63 dd3c

conv3.bias f4 [10]
-0.7998079 -0.07991727 1.342719 -0.09510208 -0.0041990266 0.011694794 -0.09284314 -0.10379312
-0.059974667 1.9437715
00000000: 36c0 4cbf aaab a3bd 37de ab3f e1c4 c2bd
00000010: fd97 89bb 859b 3f3c 8b24 bebd 7d91 d4bd
00000020: ffa7 75bd 81cd f83f

conv4.weight f4 [10, 10, 3, 3]
-0.6001396 -0.5088592 -0.41560888 -0.43675897 -0.44258016 -0.38308698 0.3765306 -1.3782189
-1.088031 -0.0855958 0.03916873 -0.05235547 0.059586853 0.06760235 0.08416227 -0.017707044
0.02783391 0.080982335 -0.13496442 -0.21702206 -0.39869016 -0.4013617 -0.21938169 0.5337561
-0.86545116 0.36312455 1.0315287 -0.014006887 -0.031891573 -0.099610224 0.14140487 -0.07068844
0.020722171 0.09003036 0.0946155 -0.065271 0.028497303 0.05977514 0.01960973 0.10556375
0.007880332 0.019037483 0.1123035 0.011643738 -0.030748006 0.05236129 -0.031862464 -0.053571463
-0.04186789 0.053383704 0.12635654 -0.1023851 -0.038018726 -0.07448807 0.061643034 0.0046656923
-0.015781185 -0.059768364 0.030839264 0.12584879 -0.049625486 -0.049187075 -0.03683078 0.014359602
0.042000126 0.057442997 -0.1209668 0.037419666 0.11706314 0.13931406 -0.028044585 -0.11674331
-0.08629505 0.041099083 0.027771072 -0.0603325 -0.16477954 0.05434477 -0.01714789 0.02124952
-0.09441131 -0.14345813 -0.6950311 -0.7967466 0.64748037 0.0045990194 -0.32138368 0.93285966
0.3440528 0.114500605 0.4830055 0.3277349 0.8591558 -0.043951496 0.26517442 0.05219495
-1.450577 -0.66214144 -1.6191467 0.09260785 -0.023964997 0.06883037 -0.020137709 0.035859685
0.0199304 -0.05783929 0.080935836 -0.10840782 0.028145194 0.007805719 0.13162412 -0.52826315
-0.032793514 0.49944493 0.08034297 -0.41041374 0.35349077 0.072357446 0.04507488 -0.0551316
-0.09923625 0.14550501 -0.21565059 0.064292714 0.057967275 -0.026939617 -0.040892176 -0.104847126
0.081009775 0.12285443 -0.07479645 0.042690106 0.012250473 0.0027148034 -0.046892736 -0.07857831
0.034282524 -0.103415675 -0.05603841 -0.06736698 0.07190797 0.012332568 0.010594609 -0.0067905528
0.104310304 0.020246686 0.022224598 0.042614423 0.018096441 -0.028609075 -0.10593026 0.037439376
-0.10198992 -0.08981956 -0.041702565 0.09575791 0.0031501544 -0.07853522 0.06131779 0.07820243
-0.080239154 -0.111623 0.023763472 -0.035826616 0.022428043 -0.01661404 0.018119102 -0.060274325
0.096022956 -0.14608578 -0.22179966 -0.823636 -0.5837278 -0.504766 0.047247656 0.13194093
0.49565578 0.6612539 0.51811373 0.5237206 0.06253682 0.5527608 0.405624 0.27042395
0.84970313 1.0364581 0.11927326 -0.050561912 -0.38183603 -0.016859917 -0.09103568 -0.04944109
-0.14461835 0.08772925 0.04492432 -0.10924166 -0.032579336 0.06353146 -0.6237595 -0.36439627
-0.5031765 -0.26549524 -0.8877203 -0.2901884 -1.1830814 -0.5499177 0.6194286 0.11532249
-0.065284945 -0.032606315 -0.0051612915 0.059197567 0.05234315 -0.019472934 0.14215289 0.10404581
0.034362495 0.10247074 0.08966823 -0.04471425 0.12124775 -0.000573402 -0.08263844 -0.039466884
-0.010184653 -0.0626399 -0.07666129 0.11618606 0.00065700826 0.0036481568 0.022750584 -0.022435937
0.07125734 0.1233871 0.06065996 0.051166482 -0.11892417 -0.039867662 -0.08499434 -0.05830043
0.08691603 -0.0420663 -0.029487971 0.0029835645 0.01388084 0.07310365 0.012466614 -0.008053446
-0.001846716 0.003207421 -0.010568437 -0.07583767 -0.010845531 0.0053813965 0.11237692 0.050878804
00000000: c0a2 19bf 9944 02bf b0ca d4be df9e dfbe
00000010: de99 e2be fa23 c4be 9ec8 c03e 7a69 b0bf
00000020: 9a44 8bbf da4c afbd 646f 203d b072 56bd
00000030: 5811 743d 1a73 8a3d 455d ac3d 5d0e 91bc
00000040: f103 e43c 11da a53d 1d34 0abe 083b 5ebe
00000050: 1e21 ccbe 487f cdbe 98a5 60be 3da4 083f
00000060: 358e 5dbf 76eb b93e 2209 843f 247d 65bc
00000070: bda0 02bd 7200 ccbd 70cc 103e 1ac5 90bd
00000080: 8bc1 a93c d661 b83d c5c5 c13d cdac 85bd
00000090: 2d73 e93c c7d6 743d 96a4 a03c cf31 d83d
000000a0: 821c 013c 7ff4 9b3c 61ff e53d 60c5 3e3c
000000b0: 3ee3 fbbc cb78 563d 3782 02bd c06d 5bbd
000000c0: aa7d 2bbd dfa8 5a3d 9c63 013e 48af d1bd
000000d0: 86b9 1bbd 348d 98bd 687d 7c3d aae2 983b
000000e0: 8b47 81bc accf 74bd a0a2 fc3c 81de 003e
000000f0: 1844 4bbd 6378 49bd dfdb 16bd 8944 6b3c
00000100: 5308 2c3d 5949 6b3d 71bd f7bd 5d45 193d
00000110: cdbe ef3d 58a8 0e3e c2bd e5bc 1e17 efbd
00000120: 76bb b0bd 8357 283d 2980 e33c 361f 77bd
00000130: f8bb 28be 9f98 5e3d bb79 8cbc 7913 ae3c
00000140: b85a c1bd b0e6 12be 8fed 31bf 96f7 4bbf
00000150: 46c1 253f 5fb3 963b 678c a4be e4cf 6e3f
00000160: b027 b03e 4b7f ea3d 7f4c f73e decc a73e
00000170: a2f1 5b3f 7c06 34bd f1c4 873e 5fca 553d
00000180: 82ac b9bf 1a82 29bf 3340 cfbf 2fa9 bd3d
00000190: 3e52 c4bc f0f6 8c3d d6f7 a4bc 9be1 123d
000001a0: 1445 a33c e4e8 6cbd b0c1 a53d eb04 debd
000001b0: c090 e63c 1ec7 ff3b 79c8 063e 413c 07bf
000001c0: 7e52 06bd 3fb7 ff3e db8a a43d c021 d2be
000001d0: befc b43e 2430 943d 70a0 383d acd1 61bd
000001e0: 603c cbbd 44ff 143e 82d3 5cbe e6ab 833d
000001f0: 186f 6d3d 79b0 dcbc 8e7e 27bd 17ba d6bd
00000200: 74e8 a53d 1a9b fb3d e22e 99bd d2db 2e3d
00000210: 35b6 483c d8ea 313b 9912 40bd aaed a0bd
00000220: d56b 0c3d 99cb d3bd 8888 65bd b3f7 89bd
00000230: 7c44 933d 8a0e 4a3c 0395 2d3c 4983 debb
00000240: a4a0 d53d 61dc a53c 5c10 b63c 768c 2e3d
00000250: fd3e 943c 945d eabc f7f1 d8bd 085a 193d
00000260: 17e0 d0bd 51f3 b7bd 4fd0 2abd b91c c43d
00000270: d272 4e3b 13d7 a0bd 5d28 7b3d 9828 a03d
00000280: 6d54 a4bd 999a e4bd 9dab c23c eebe 12bd
00000290: 04bb b73c 2b1a 88bc 836e 943c 36e2 76bd
000002a0: afa7 c43d 8397 15be 731f 63be cfd9 52bf
000002b0: 2f6f 15bf 5838 01bf c286 413d 861b 073e
000002c0: 98c6 fd3e f047 293f 1aa3 043f 8e12 063f
000002d0: 4e13 803d bb81 0d3f f3ad cf3e 0275 8a3e
000002e0: 2586 593f a9aa 843f 8a45 f43d 021a 4fbd
000002f0: 0380 c3be cf1d 8abc ea70 babd be82 4abd
00000300: d516 14be 65ab b33d 9002 383d 17ba dfbd
00000310: e971 05bd c81c 823d b4ae 1fbf 2692 babe
00000320: 2dd0 00bf feee 87be a341 63bf 9393 94be
00000330: 366f 97bf 68c7 0cbf df92 1e3f 332e ec3d
00000340: 1db4 85bd 338e 05bd 0d20 a9bb 2679 723d
00000350: c565 563d b485 9fbc 8790 113e f815 d53d
00000360: b0bf 0c3d 2edc d13d faa3 b73d 4a26 37bd
00000370: be50 f83d 5b50 16ba 583e a9bd 07a8 21bd
00000380: 88dd 26bc 5949 80bd 9800 9dbd f5f2 ed3d
00000390: 143b 2c3a ea15 6f3b 6f5f ba3c 92cb b7bc
000003a0: 5eef 913d 60b2 fc3d 9476 783d f293 513d
000003b0: 848e f3bd 464c 23bd 8311 aebd 6fcc 6ebd
000003c0: 0801 b23d b64d 2cbd c290 f1bc e887 433b
000003d0: 766c 633c 5eb7 953d c540 4c3c 9af2 03bc
000003e0: 820d f2ba 9833 523b 3d27 2dbc c850 9bbd
000003f0: 74b1 31bc 6d56 b03b df25 e63d 4b66 503d

conv4.bias f4 [10]
0.16251783 0.24774982 0.10751376 -0.0813892 -0.2225749 -0.054898854 -0.33619556 0.112451695
-0.38194993 0.28169385
00000000: 136b 263e 21b2 7d3e 2d30 dc3d 62af a6bd
00000010: adea 63be 9fdd 60bd d321 acbe 134d e63d
00000020: f18e c3be 2d3a 903e

norm.weight f4 [10]
0.51973796 0.30723676 0.3201468 0.24217235 0.14847367 0.2814241 0.5329129 0.270476
0.3505182 0.2530107
00000000: 8c0d 053f 234e 9d3e 48ea a33e 07fc 773e
00000010: 7b09 183e d216 903e fb6c 083f d57b 8a3e
00000020: 1f77 b33e 9e8a 813e

norm.bias f4 [10]
-0.54717606 -0.31793076 -0.38424233 -0.19348185 -0.11239924 -0.29996914 -0.457178 -0.2924829
-0.30652466 -0.18205316
00000000: bb13 0cbf d2c7 a2be 69bb c4be 1b20 46be
00000010: 9331 e6bd 8e95 99be 3c13 eabe 52c0 95be
00000020: cdf0 9cbe 256c 3abe

norm.running_mean f4 [10]
-81.06654 -20.978275 -44.433723 -83.19568 16.193546 -39.72804 -107.55698 -102.45053
-58.816124 15.632528
00000000: 1222 a2c2 82d3 a7c1 22bc 31c2 3064 a6c2
00000010: 628c 8141 83e9 1ec2 2c1d d7c2 ace6 ccc2
00000020: b643 6bc2 d61e 7a41

norm.running_var f4 [10]
1879.093 1109.0477 1592.4918 2603.2012 562.9822 879.8992 2611.0305 1565.6603
2313.955 1599.0981
00000000: fae2 ea44 87a1 8a44 bd0f c744 38b3 2245
00000010: dcbe 0c44 8cf9 5b44 7d30 2345 21b5 c344
00000020: 489f 1045 24e3 c744

fc1.weight f4 [50, 810]
-0.11904807 -0.25224626 -0.50637746 -0.62515557 -0.3125322 0.33938187 0.21499363 -0.28566337
-0.4627118 -0.1610156 -0.95555884 -0.4539088 0.5877788 0.26249015 -0.5968827 0.090547964
0.059972215 0.04431122 0.64301896 -0.12345993 -0.84465206 -0.16957794 0.34277114 -0.080257766
-0.036507744 -0.31248543 -0.47287586 0.63465565 -0.4986815 0.3541798 -0.46805334 0.21981874
-0.41988012 -0.709516 -0.6764103 -0.32541183 -0.47868204 -1.2643547 -0.32127446 -0.18461157
-0.14765395 -0.3942393 -0.04404557 -0.6842923 -0.3875263 -0.4964221 -1.2065504 -0.03509928
-0.770318 -0.42670894 -0.77360433 -0.29091796 -0.9434527 -0.6028072 -0.88392097 -0.44561633
0.123191446 -1.0131195 -0.5988725 -0.4679999 -0.5243009 -0.20157485 -0.14900337 -0.81630564
-0.07094498 -0.34938732 -1.2069973 -0.4649873 -0.5304388 -0.637873 0.48490983 0.078323826
-0.39843112 -1.3172026 0.17569123 -0.017387742 0.1556232 -0.42529213 -0.14066727 -0.39564067
-0.32161143 -0.58833575 -0.3890617 -0.1678158 -0.41806528 -0.13738896 -0.16707572 0.76741314
-0.30224812 -0.18080328 0.23769855 0.020762714 -0.778292 -0.7639997 -0.5584309 -0.4749205
-0.38216 0.5110181 0.32745528 0.48527512 -0.09345484 0.21916841 -0.018868053 0.20357886
0.3521096 0.07271289 0.18104908 -0.074889876 -0.13192917 -0.08983307 0.07370788 -0.37733784
0.46681347 -0.16465098 -0.49672094 0.14552103 -0.15690677 -0.39058158 -0.4763858 -0.46313035
-1.1188849 -0.4903901 -0.359143 -0.2381297 -0.04010483 0.01703225 0.25693563 0.07294622
-1.1089463 -1.0029308 -0.17530203 -0.6687021 -0.027433205 -0.5146241 0.37104273 0.10552617
-0.28443238 0.69128543 -1.1630334 -0.9657541 -0.71419656 -0.14072524 0.62599915 -0.0012570993
-0.5254522 -0.28949162 -0.24346025 -1.1962801 -1.0708607 -0.33081618 -0.33067477 -0.1931328
-0.12742445 -0.33501583 -0.815475 -0.53160876 0.04209742 -0.6951402 0.06652925 0.04943263
0.2562903 0.19072632 -0.37418768 -0.91470116 -0.21082412 -0.3514326 -0.4662809 -0.7217118
0.047474362 0.5063826 0.58341277 0.14370902 -0.31622592 -0.6343015 -0.85817766 -0.75103915
-1.2318622 0.07361311 0.18908957 -0.059656933 -0.07362441 -0.5186504 -0.36811534 -1.4061488
0.02797675 -0.003062668 0.35237825 -0.35810116 -0.46392572 -0.11556004 -0.056041025 -1.0233879
-0.2150593 0.63669586 0.17594054 0.6834709 0.04942096 0.5132795 -0.02948372 0.4785649
-0.3002547 0.26469597 0.18981051 -0.9927903 -0.256253 -0.059568882 -0.63772887 -0.09312329
-1.20657 -0.43392083 -0.54547346 -1.4600651 -1.1576115 -0.7456687 -0.30630556 -0.11994545
0.2571961 -0.25363633 -0.61191064 -0.18413055 0.11496245 -0.64316624 0.17591752 -0.086315975
0.3186914 -0.27557778 0.124405 -0.113167696 0.3105769 0.022422122 -0.50685763 -0.4527101
0.4013869 0.5242419 -0.9368162 -0.71686506 0.4404423 -0.20422798 0.10230633 -0.40434796
-0.465498 0.6421306 -0.37472695 0.76868564 0.42457226 -0.20898032 -0.54261315 -0.44572046
0.49614316 0.52221817 0.093098275 -0.21201311 -0.13020088 -0.44433638 0.319655 0.8213987
00000000: 79cf f3bd 6c26 81be f4a1 01bf 320a 20bf
00000010: 3804 a0be 76c3 ad3e 4a27 5c3e 7842 92be
00000020: 90e8 ecbe 46e1 24be 819f 74bf bc66 e8be
00000030: ac78 163f 1c65 863e 4ecd 18bf 3671 b93d
00000040: 6da5 753d af7f 353d e49c 243f 8fd8 fcbd
00000050: 1e3b 58bf d7a5 2dbe b37f af3e 2f5e a4bd
00000060: 2589 15bd 17fe 9fbe c91c f2be cb78 223f
00000070: 2e53 ffbe 0e57 b53e b0a4 efbe 2a18 613e
00000080: 87fa d6be d7a2 35bf 3a29 2dbf 619c a6be
00000090: d015 f5be 60d6 a1bf 167e a4be d10a 3dbe
000000a0: 9932 17be bcd9 c9be 2169 34bd c82d 2fbf
000000b0: d969 c6be 0a2b febe 3e70 9abf 43c4 0fbd
000000c0: 8f33 45bf 9879 dabe ef0a 46bf 33f3 94be
000000d0: 1e86 71bf 9351 1abf a548 62bf d327 e4be
000000e0: cc4b fc3d e6ad 81bf b54f 19bf af9d efbe
000000f0: 9538 06bf a369 4ebe 5794 18be 68f9 50bf
00000100: 9a4b 91bd e5e2 b2be e37e 9abf d112 eebe
00000110: d6ca 07bf a54b 23bf 1a46 f83e 3e68 a03d
00000120: 2aff cbbe 189a a8bf 67e8 333e bd70 8ebc
00000130: b05b 1f3e e4bf d9be 150b 10be 6a91 cabe
00000140: 41aa a4be 2c9d 16bf 1833 c7be e8d7 2bbe
00000150: a70c d6be b1af 0cbe e615 2bbe 3075 443f
00000160: 44c0 9abe 7f24 39be 4067 733e 9116 aa3c
00000170: 253e 47bf 7c95 43bf 54f5 0ebf c828 f3be
00000180: 7aaa c3be 15d2 023f 38a8 a73e fb75 f83e
00000190: 4065 bfbd af6d 603e 2d91 9abc fa76 503e
000001a0: b647 b43e 7fea 943d ee64 393e dd5f 99bd
000001b0: 7118 07be 67fa b7bd 28f4 963d 6d32 c1be
000001c0: 2d02 ef3e 449a 28be 3552 febe 7703 153e
000001d0: 2bac 20be 4ffa c7be d7e8 f3be 6c1f edbe
000001e0: 9f37 8fbf 6914 fbbe 97e1 b7be 46d8 73be
000001f0: f644 24bd 3887 8b3c 118d 833e d464 953d
00000200: f4f1 8dbf 0960 80bf 6082 33be 1030 2bbf
00000210: 9abb e0bc 68be 03bf 50f9 bd3e 1b1e d83d
00000220: 1fa1 91be 15f8 303f 47de 94bf a93b 77bf
00000230: 96d5 36bf 471a 10be 7b41 203f 41c5 a4ba
00000240: 0984 06bf 3f38 94be a54d 79be b51f 99bf
00000250: f711 89bf bd60 a9be 344e a9be 9bc4 45be
00000260: 8e7b 02be 3287 abbe f8c2 50bf 8317 08bf
00000270: 586e 2c3d b5f4 31bf 7d40 883d df79 4a3d
00000280: 7b38 833e c34d 433e 8795 bfbe db29 6abf
00000290: 47e2 57be f9ee b3be 5fbc eebe 1bc2 38bf
000002a0: 7a74 423d 4aa2 013f 8a5a 153f 7528 133e
000002b0: 5de8 a1be 9561 22bf 88b1 5bbf 1a44 40bf
000002c0: a9ad 9dbf 78c2 963d b2a0 413e d45a 74bd
000002d0: 65c8 96bd 46c6 04bf 9d79 bcbe affc b3bf
000002e0: 7f2f e53c 0bb7 48bb ec6a b43e 0959 b7be
000002f0: ac87 edbe beaa ecbd 468b 65bd 60fe 82bf
00000300: 8138 5cbe 80fe 223f c229 343e f3f7 2e3f
00000310: a26d 4a3d 4966 033f d887 f1bc 7506 f53e
00000320: fcba 99be 3b86 873e b05d 423e 8127 7ebf
00000330: 9833 83be 80fe 73bd 3342 23bf 6cb7 bebd
00000340: e370 9abf df2a debe 26a4 0bbf 6ae3 babf
00000350: 9d2c 94bf 25e4 3ebf 15d4 9cbe f6a5 f5bd
00000360: 35af 833e 9fdc 81be 2da6 1cbf b88c 3cbe
00000370: 6f71 eb3d 8ba6 24bf b923 343e 6ec6 b0bd
00000380: 852b a33e 8818 8dbe 0cc8 fe3d 77c4 e7bd
00000390: ef03 9f3e 99ae b73c 6cc1 01bf 9ec9 e7be
000003a0: 9582 cd3e b834 063f 30d3 6fbf 7884 37bf
000003b0: a781 e13e 2421 51be fb85 d13d b206 cfbe
000003c0: c155 eebe ac62 243f 36dc bfbe 95c8 443f
000003d0: 8961 d93e f0fe 55be b2e8 0abf 7935 e4be
000003e0: 7a06 fe3e 17b0 053f 4faa be3d f719 59be
000003f0: 6153 05be 0f80 e3be d2a9 a33e 2f47 523f

fc1.bias f4 [50]
-0.19936217 0.014127194 -0.20715676 -0.15087959 -0.0827789 0.33216053 0.14695598 -0.025716778
0.6280266 -0.03718981 -0.25865835 -0.02701293 -0.024488837 0.1284223 -0.044143397 0.7959776
-0.08015649 -0.05933114 -0.042534433 -0.2836106 1.1807156 1.4314611 -0.21217401 -0.015376148
-0.16140722 -0.40835166 -0.03530222 0.18180113 1.1807852 -0.14188488 -0.069529004 -0.19535127
0.050934218 1.8556643 -0.06658163 -0.044981766 -0.07549618 1.1050922 -0.03625169 -0.11712558
-0.10632081 1.7681239 -0.14408167 0.0006607497 -0.04859032 0.8812584 3.0273147e-06 0.1266228
-0.30408892 1.4589384
00000000: 9925 4cbe bf75 673c e720 54be 2e80 1abe
00000010: fc87 a9bd f210 aa3e a17b 163e feab d2bc
00000020: 5ac6 203f 5854 18bd de6e 84be 384a ddbc
00000030: d09c c8bc 2381 033e b5cf 34bd 30c5 4b3f
00000040: 1629 a4bd 3605 73bd 9638 2ebd 6935 91be
00000050: b021 973f 1e3a b73f 2544 59be 3dec 7bbc
00000060: ef47 25be 7813 d1be 1099 10bd 132a 3a3e
00000070: f823 973f 454a 11be 3965 8ebd 2a0a 48be
00000080: 66a0 503d 6886 ed3f f35b 88bd cd3e 38bd
00000090: be9d 9abd a973 8d3f a77c 14bd 89df efbd
000000a0: babe d9bd e251 e23f 258a 13be 2936 2d3a
000000b0: a506 47bd 279a 613f df28 4b36 68a9 013e
000000c0: 8bb1 9bbe 7ebe ba3f

fc2.weight f4 [7, 50]
-0.200991 0.58810776 -0.0757586 -0.18368456 -0.08593197 -0.2306358 -0.6245274 -0.040810544
-0.06351897 -0.052123442 -0.09131973 0.024948977 0.15163955 -0.056920294 -0.025929747 -0.061569054
-0.08226787 0.00091389095 -0.06961733 -0.03315982 -0.112044215 0.1798266 -0.13706137 0.056216866
-0.06928224 0.23581982 -0.094486065 -0.04696863 -0.25780198 0.038933072 -0.0050442475 0.16822731
-0.24207628 0.24087234 -0.059995968 -0.10874694 -0.04144847 0.252368 0.026284046 -0.055284414
0.0006474993 -0.13019092 -0.15467854 -0.042568635 -0.094013095 -0.23228237 0.07800911 0.25514618
0.09768182 -0.16957262 -0.61014444 -0.3654367 -0.082025334 -0.0689642 0.0040146294 0.025949094
-0.59508675 0.075057395 0.17269942 0.018617617 0.032630768 0.06506884 -0.17992742 -0.26789433
0.026330093 0.09832442 -0.04123919 -0.03718954 -0.005567871 0.08687565 -0.1873905 -0.20674874
-0.061275 0.020028582 0.016416596 -0.13469864 -0.11718942 -0.31920063 -0.34061363 0.10064179
-0.06369328 0.10224298 0.3943027 -0.51484776 -0.11849282 0.094009995 -0.0041519757 -0.31985864
-0.10057527 0.02736256 -0.06592234 -0.29981816 -0.10556852 0.073105715 0.11030053 -0.21758027
0.08975757 0.58703667 0.02068176 -0.027049432 0.5160911 -0.8969757 -0.03391431 -0.09177781
0.045451105 -0.014035293 -0.83465207 0.09112037 -0.025728535 0.052834347 0.00748528 -0.12881404
-0.044762354 -0.20748423 0.031331982 0.19311303 -0.09731519 0.011797738 -0.12526877 -0.18541975
-0.053118814 0.0066550905 0.0631864 -0.036608543 -0.1498162 0.22823392 -0.003396996 -0.080614
-0.18702601 0.08751348 -0.14012767 0.0120776845 -0.036359906 0.005979124 -0.036421575 -0.016108276
0.0039640865 0.0037373353 -0.02873886 -0.0068034153 -0.069220394 -0.17293748 -0.19262756 -0.03432344
-0.12180678 0.26487035 0.020348568 0.02703166 -0.06455813 -0.17632318 -0.2108184 -0.30731952
0.059914593 -0.66425335 0.08155299 -0.14225191 -0.44757688 -0.007719527 -0.15923539 0.10528828
-0.20166327 0.07636257 0.07099653 0.1785687 -0.016582549 -0.11378365 0.01682367 -0.01812077
0.0697763 0.05583961 0.35197943 0.05973805 0.016131062 0.05443888 0.034978155 -0.0481366
-0.05337099 0.13871971 0.35152522 -0.027397035 0.06919574 0.11604443 -0.26725248 0.006634131
0.05155223 0.029655471 0.11740759 -0.45539233 -0.028174756 -0.060850874 0.11272128 0.41314203
0.077122085 -0.05554298 -0.056869626 -0.038571402 -0.038254205 -0.1608984 -0.4600302 0.26902992
-0.1377554 -0.33223134 -0.09141998 -0.2221463 0.13502488 -0.07660129 -0.9144974 -0.0028118957
-0.1145604 -0.018168265 -0.08033273 0.025576273 -0.19064352 -0.11523746 0.11503014 0.17681648
-0.04251438 -0.050609574 -0.11336893 -0.30159712 -0.030473676 0.19218417 -0.040778615 -0.041910645
0.00336798 -0.13619679 -0.050056607 0.10666247 -0.13809477 -0.09004081 -0.037914183 -0.029191544
0.22183278 0.0661221 0.031513214 0.073430255 0.07627408 0.053083055 -0.09015794 0.08528708
-0.0037720038 -0.16289106 0.08268793 0.026089633 0.0679259 -0.18736514 0.013404105 -0.08519186
-0.018258426 -0.11130693 -0.12433179 -0.05196636 -0.09519073 0.21571685 0.10180801 0.37335107
00000000: 96d0 4dbe 3b8e 163f 5327 9bbd ce17 3cbe
00000010: 1afd afbd cb2b 6cbe 07e1 1fbf f528 27bd
00000020: 3c16 82bd 647f 55bd d705 bbbd cc61 cc3c
00000030: 6647 1b3e 4125 69bd 9f6a d4bc d52f 7cbd
00000040: 0f7c a8bd 2f92 6f3a 8893 8ebd 97d2 07bd
00000050: 7077 e5bd 7724 383e d159 0cbe a843 663d
00000060: d9e3 8dbd c07a 713e e981 c1bd 2e62 40bd
00000070: 9ffe 83be 4978 1f3d 374a a5bb c843 2c3e
00000080: d8e2 77be 3da7 763e 55be 75bd b7b6 debd
00000090: dfc5 29bd 6136 813e a451 d73c e971 62bd
000000a0: f1bc 293a c550 05be 0d64 1ebe 735c 2ebd
000000b0: f089 c0bd 6edb 6dbe 3ec3 9f3d 85a2 823e
000000c0: 680d c83d 72a4 2dbe 6d32 1cbf 851a bbbe
000000d0: e6fc a7bd 1a3d 8dbd 278d 833b 3293 d43c
000000e0: 9b57 18bf b1b7 993d 1ed8 303e f983 983c
000000f0: d7a7 053d d042 853d e53e 38be 7229 89be
00000100: 35b2 d73c 505e c93d 6dea 28bd 0f54 18bd
00000110: b072 b6bb dceb b13d 4ce3 3fbe f1b5 53be
00000120: 7ffb 7abd fb12 a43c 197c 863c 71ee 09be
00000130: 0201 f0bd 446e a3be e964 aebe 481d ce3d
00000140: 9f71 82bd c464 d13d 0be2 c93e 10cd 03bf
00000150: 5dac f2bd 5088 c03d 4c0d 88bb 83c4 a3be
00000160: 68fa cdbd 7327 e03c 4b02 87bd c481 99be
00000170: 4f34 d8bd 73b8 953d 3fe5 e13d 5dcd 5ebe
00000180: d1d2 b73d 0948 163f cb6c a93c c596 ddbc
00000190: 8c1e 043f 33a0 65bf bbe9 0abd 01f6 bbbd
000001a0: f02a 3a3d 49f4 65bc c2ab 55bf 519d ba3d
000001b0: a6c4 d2bc d468 583d 1447 f53b d4e7 03be
000001c0: bb58 37bd bf76 54be f755 003d 6cbf 453e
000001d0: 304d c7bd 4d4b 413c 7546 00be adde 3dbe
000001e0: 1d93 59bd f212 da3b df67 813d d7f2 15bd
000001f0: 6b69 19be 27b6 693e 23a0 5ebb f418 a5bd
00000200: bf83 3fbe 443a b33d a17d 0fbe 7be1 453c
00000210: 20ee 14bd 87ec c33b ca2e 15bd 81f5 83bc
00000220: 2be5 813b 15ee 743b c26d ebbc 2fef debb
00000230: 6cc3 8dbd 8616 31be 2940 45be bc96 0cbd
00000240: d575 f9bd 169d 873e 0ab2 a63c 8071 dd3c
00000250: 0e37 84bd 108e 34be c7e0 57be fc58 9dbe
00000260: 0169 753d 820c 2abf 4105 a73d 7caa 11be
00000270: cc28 e5be 16f4 fcbb 9a0e 23be 62a1 d73d
00000280: d180 4ebe fb63 9c3d a166 913d b7da 363e
00000290: 20d8 87bc 6707 e9bd cbd1 893c 0272 94bc
000002a0: e0e6 8e3d 13b8 643d a636 b43e e3af 743d
000002b0: 4a25 843c 4efb 5e3d 4145 0f3d e22a 45bd
000002c0: 8a9b 5abd 8a0c 0e3e 1dfb b33e bf6f e0bc
000002d0: 7fb6 8d3d b4a8 ed3d 51d5 88be 2063 d93b
000002e0: 6e28 533d 08f0 f23c 6473 f03d 2f29 e9be
000002f0: bfce e6bc c43e 79bd 6ada e63d 5a87 d33e
00000300: 2ff2 9d3d 0981 63bd 20f0 68bd 0cfd 1dbd
00000310: 71b0 1cbd 8dc2 24be 1489 ebbe 4abe 893e
00000320: c00f 0dbe 3a1a aabe 663a bbbd 527a 63be
00000330: f643 0a3e 23e1 9cbd 801c 6abf c847 38bb
00000340: a59e eabd 9dd5 94bc 7d85 a4bd 5585 d13c
00000350: 0e38 43be 9e01 ecbd ec94 eb3d 610f 353e
00000360: 8f23 2ebd fc4b 4fbd f82d e8bd f06a 9abe
00000370: eea3 f9bc edcb 443e 7a07 27bd 7faa 2bbd
00000380: 54b9 5c3b 2c77 0bbe 2808 4dbd da71 da3d
00000390: b768 0dbe 5167 b8bd e74b 1bbd 1b23 efbc
000003a0: 2228 633e 066b 873d 0014 013d 9a62 963d
000003b0: 9635 9c3d 9e6d 593d baa4 b8bd feaa ae3d
000003c0: b933 77bb eacc 26be 4a58 a93d edb9 d53c
000003d0: bc1c 8b3d a6dc 3fbe e49c 5b3c 1279 aebd
000003e0: b292 95bc e3f4 e3bd aaa1 febd aeda 54bd
000003f0: 5cf3 c2bd e1e4 5c3e b880 d03d df27 bf3e

fc2.bias f4 [7]
-0.27134258 -1.4716796 -0.074159585 0.11833628 0.51342237 -0.33396852 0.2944429
00000000: 6aed 8abe ff5f bcbf fbe0 97bd 4b5a f23d
00000010: a66f 033f ecfd aabe 38c1 963e

localization.0.weight f4 [8, 1, 7, 7]
0.045818392 -0.021280706 0.07815073 0.1317487 0.050937 0.10866088 0.16944289 0.18541694
0.11956376 0.24462874 0.10909681 0.16946764 0.2287212 0.011985495 -0.03286457 0.08546263
0.2058889 0.0028060793 0.18758588 0.14979334 -0.074428484 0.08173336 -0.07314648 -0.052167155
0.1891559 0.048465047 0.013755563 0.022249335 0.047355883 -0.08011081 0.1870217 0.0069250637
0.11444033 0.14548738 -0.010366362 0.118503205 -0.08285127 0.18980554 0.13427515 0.04002852
0.12650447 -0.063431054 -0.017022176 0.12775879 0.041257687 -0.060892694 0.030977048 0.12866776
-0.009556565 -0.10862287 -0.018328428 0.08009777 -0.10969904 -0.023501175 0.047446128 0.000248036
0.13973 0.099154346 -0.13261938 0.050206594 0.10005185 -0.11096705 -0.016454 -0.02476583
-0.10719791 0.078389354 -0.09407444 -0.061092522 0.0525846 -0.20066854 -0.103475474 -0.12114318
0.040612865 0.09824126 -0.1111324 -0.03141885 -0.062727 0.1005722 -0.026297914 0.04543745
0.02066751 -0.095701195 -0.077809595 -0.09400554 -0.17553854 0.067936584 -0.008976391 0.07508448
-0.09751397 -0.05206467 0.0010149303 -0.004542269 -0.08505826 -0.04918944 -0.13869773 0.08467793
-0.03639911 -0.15501387 -0.05002797 -0.020849552 0.050547298 -0.083048664 0.09385253 0.11802523
-0.011406633 0.07823259 -0.038501956 -0.10473885 0.13017324 0.06449651 -0.044743408 -0.12208464
0.002483407 -0.036289215 -0.007611466 0.12835993 -0.10145896 0.08097416 -0.056844264 -0.087086596
-0.06398429 -0.07799636 -0.006922262 -0.16147412 -0.12618642 0.034192633 0.12508936 -0.039894972
0.045100205 -0.001354505 0.087354176 -0.019057281 0.057192277 0.14402945 -0.100097954 -0.10030251
0.023856165 -0.046392195 0.0040490427 0.014518509 -0.13486989 0.068594396 0.010184571 0.057228882
-0.08114772 -0.1787917 -0.18014027 -0.02394904 -0.095030285 -0.09270075 -0.03833839 0.01097724
0.052954104 -0.07411091 0.06676144 -0.01687492 -0.06742857 0.12686805 0.094635785 -0.07037378
0.084070235 0.13146281 0.11973757 0.07179475 0.12847057 0.010830619 -0.11761566 0.12089379
0.07055399 0.04782152 0.030482607 -0.018668003 -0.03232735 -0.12288597 0.13761537 0.09550624
-0.016177244 0.1035401 0.07124955 0.0794385 0.07993316 -0.14234285 0.051333398 -0.1916702
0.075903505 -0.034628805 -0.07217162 0.012359572 -0.071769185 -0.15365218 -0.14877312 0.015529791
-0.09754626 -0.00825791 0.013775516 0.06483492 -0.075979166 -0.1489517 -0.011213229 0.09366232
0.13562866 -0.009791272 -0.046807498 -0.12499423 -0.08612838 0.10587155 -0.09189415 0.102457926
0.14239338 0.116221 -0.07872157 -0.07806697 0.05841329 -0.005531463 0.1491402 0.073406875
0.08161736 -0.0005058543 0.0568248 -0.0034876652 0.10162174 -0.06419731 -0.049115706 0.12647355
-0.08723026 -0.032694537 -0.035792205 0.08381951 -0.07074225 0.0008676015 -0.0017604256 -0.16969644
-0.005033966 0.06869579 -0.11132322 0.10780471 0.117300056 0.05187489 0.03783579 -0.13941412
-0.008230989 0.027042078 0.049684662 -0.15746965 0.05891907 -0.0143724345 0.15314578 0.112625
0.11643315 0.00402156 0.02711129 0.01470148 0.09747317 0.09879734 -0.048652705 0.080533385
00000000: 11ac 3b3d e054 aebc 7d0d a03d 22e9 063e
00000010: 51a3 503d 9889 de3d 7082 2d3e f0dd 3d3e
00000020: d8dd f43d f57f 7a3e 266e df3d ed88 2d3e
00000030: e435 6a3e cf5e 443c 009d 06bd 0807 af3d
00000040: 8ad4 523e 33e6 373b 8316 403e 6d63 193e
00000050: f66d 98bd d263 a73d d2cd 95bd 3aad 55bd
00000060: 16b2 413e 4983 463d 035f 613c 3d44 b63c
00000070: 3ef8 413d 2311 a4bd 9e82 3f3e a5eb e23b
00000080: b15f ea3d a5fa 143e acd7 29bc cfb1 f23d
00000090: edad a9bd 625c 423e 6d7f 093e f2f4 233d
000000a0: 638a 013e 24e8 81bd 1772 8bbc 33d3 023e
000000b0: d2fd 283d 9e6a 79bd 94c3 fd3c 7bc1 033e
000000c0: 2493 1cbc ab75 debd 8025 96bc 4d0a a43d
000000d0: e4a9 e0bd 8985 c0bc df56 423d d40a 8239
000000e0: 6215 0f3e 6f11 cb3d 60cd 07be 6ea5 4d3d
000000f0: fce7 cc3d b142 e3bd 8aca 86bc b6e1 cabc
00000100: 948a dbbd 998a a03d 1aaa c0bd 273c 7abd
00000110: f362 573d 0e7c 4dbe f3ea d3bd ea19 f8bd
00000120: ad59 263d b732 c93d 6299 e3bd 0db1 00bd
00000130: 0377 80bd ccf8 cd3d b96e d7bc 9f1c 3a3d
00000140: e94e a93c fdfe c3bd a35a 9fbd fa85 c0bd
00000150: 60c0 33be 5622 8b3d b611 13bc e4c5 993d
00000160: 68b5 c7bd c341 55bd 6907 853a 50d7 94bb
00000170: 0633 aebd de7a 49bd c706 0ebe 9f6b ad3d
00000180: 3c17 15bd f5bb 1ebe 21ea 4cbd aecc aabc
00000190: af0a 4f3d 6b15 aabd c135 c03d 36b7 f13d
000001a0: e3e2 3abc 6838 a03d 3ab4 1dbd 5281 d6bd
000001b0: 224c 053e bf16 843d dd44 37bd 8307 fabd
000001c0: a8c0 223b 00a4 14bd 9b69 f9bb c970 033e
000001d0: b7c9 cfbd c8d5 a53d 88d5 68bd 755a b2bd
000001e0: 320a 83bd 8ebc 9fbd 24d4 e2bb 7959 25be
000001f0: 0337 01be 930d 0c3d 6d17 003e e968 23bd
00000200: feba 383d a589 b1ba bfe6 b23d 041e 9cbc
00000210: 7342 6a3d 757c 133e 2800 cdbd 676b cdbd
00000220: 016e c33c be05 3ebd d5ad 843b 0adf 6d3c
00000230: 551b 0abe 387b 8c3d 30dd 263c d568 6a3d
00000240: c730 a6bd 2c15 37be b176 38be c730 c4bc
00000250: 3d9f c2bd e4d9 bdbd b708 1dbd e2d9 333c
00000260: 67e6 583d 76c7 97bd 39ba 883d 463d 8abc
00000270: fd17 8abd b3e9 013e 68d0 c13d 2120 90bd
00000280: 042d ac3d 309e 063e f938 f53d 2009 933d
00000290: ca8d 033e e972 313c 7be0 f0bd 2a97 f73d
000002a0: 9c7e 903d 80e0 433d a9b6 f93c a4ed 98bc
000002b0: af69 04bd a4ab fbbd 0beb 0c3e c798 c33d
000002c0: 2486 84bc d50c d43d 49eb 913d a7b0 a23d
000002d0: ffb3 a33d 53c2 11be f842 523d 3145 44be
000002e0: 4c73 9b3d efd6 0dbd b7ce 93bd cd7f 4a3c
000002f0: b9fb 92bd ff56 1dbe fb57 18be aa70 7e3c
00000300: 55c6 c7bd 2f4c 07bc b4b2 613c 2cc8 843d
00000310: f79a 9bbd cb86 18be b1b7 37bc 08d2 bf3d
00000320: 3de2 0a3e 926b 20bc 38b9 3fbd fafc ffbd
00000330: 1364 b0bd 2fd3 d83d 0033 bcbd 76d5 d13d
00000340: 92cf 113e 4705 ee3d c638 a1bd 93e1 9fbd
00000350: c642 6f3d 4641 b5bb 35b8 183e 5856 963d
00000360: 0127 a73d 4f9b 04ba 1fc1 683d 5091 64bb
00000370: 0f1f d03d e179 83bd 8d2d 49bd 4882 013e
00000380: c7a5 b2bd b5ea 05bd d99a 12bd 90a9 ab3d
00000390: 50e1 90bd c06f 633a 15be e6ba e7c4 2dbe
000003a0: f8f3 a4bb 61b0 8c3d 6efd e3bd b7c8 dc3d
000003b0: 033b f03d c47a 543d b4f9 1a3d 93c2 0ebe
000003c0: 45db 06bc 5987 dd3c 2582 4b3d b93f 21be
000003d0: 1f55 713d 5c7a 6bbc 3fd2 1c3e f0a7 e63d
000003e0: 8174 ee3d 4ac7 833b 7f18 de3c 7ade 703c
000003f0: 03a0 c73d 4356 ca3d 0f48 47bd b0ee a43d

localization.0.bias f4 [8]
0.17815304 -0.06956811 -0.076607816 -0.21392827 -0.043023054 -0.10612564 -0.19939135 -0.23454237
00000000: c06d 363e ba79 8ebd 8fe4 9cbd 0310 5bbe
00000010: f138 30bd 6658 d9bd 3f2d 4cbe e02b 70be

localization.3.weight f4 [10, 8, 5, 5]
-0.048773035 0.05511039 -0.07125551 -0.14174946 0.016310882 -0.0012840758 -0.014539196 -0.053762455
-0.022622779 -0.04222508 0.06733021 -0.08124869 -0.050193418 -0.06571745 -0.15413836 -0.009733278
-0.026390802 -0.10108833 -0.120435685 -0.059236426 -0.093409255 -0.044451553 -0.099883735 -0.12969762
-0.07492304 0.0768644 0.040610038 0.014311384 0.03225495 -0.071067214 0.014329678 0.055722326
-0.015207303 -0.09260049 -0.10678956 -0.022176228 0.023779692 -0.06691177 -0.0844517 -0.13571627
-0.037305456 0.0017715965 -0.026955891 -0.11632765 -0.11682437 -0.13220014 -0.07306092 -0.063302994
-0.17637044 -0.17766908 0.02336346 -0.008747907 0.00014871164 0.028772978 -0.046148613 -0.07931373
0.008737019 -0.12378507 0.0046382295 0.006973912 0.0797064 0.03763775 -0.08110593 0.033612404
-0.022723364 -0.05434976 -0.07335334 -0.022952612 0.0044028093 -0.07190567 -0.04171347 -0.11297617
-0.10345418 -0.059601717 0.0028365485 0.04051944 0.021258144 -0.02478212 -0.04677219 0.056345265
0.041490436 0.0050837393 -0.014616133 -0.12528887 0.030828627 -0.05551852 -0.014254214 -0.10877093
0.016698759 -0.080557555 0.030480208 -0.0943585 -0.029525355 -0.009800926 -0.034579825 -0.01357888
-0.1535039 -0.000740288 -0.05696966 -0.03257838 -0.06553778 -0.018970354 -0.13106884 -0.12759231
-0.066337705 -0.023718987 -0.09313245 -0.15022324 -0.12465754 -0.10018644 -0.077967666 -0.0935628
-0.03982172 -0.11336404 0.02242656 -0.03636886 -0.092246555 -0.03004917 -0.11341992 0.047301546
-0.06645211 -0.07171266 -0.10768694 -0.07112339 -0.032392237 -0.04781381 -0.1385749 -0.112540215
-0.19069709 -0.15622278 -0.12880446 -0.032040767 -0.10179857 -0.16514337 -0.15579917 -0.006977598
-0.09774689 -0.099757865 -0.036442176 -0.0474238 -0.108711705 -0.109433085 -0.11406571 0.024213362
-0.030320842 -0.017821427 -0.07181175 -0.05979452 0.083358176 -0.029255947 -0.010597931 0.008596569
0.00500519 0.030103235 0.011097717 0.11043315 0.018965146 -0.07873632 -0.0902844 -0.040060446
-0.075176984 -0.03406212 -0.04674968 -0.076024465 -0.14141642 -0.039597776 -0.11705113 -0.09325491
0.027390314 0.006556836 -0.07134953 -0.057100926 -0.061341338 -0.013215806 -0.046714786 -0.032495968
-0.051053654 -0.06557263 0.078975186 -0.04542294 0.06259143 -0.011425793 0.06380166 0.04972059
0.08467282 0.060615793 -0.033798743 -0.028246662 0.0010517936 -0.05955255 -0.010412012 -0.06084991
0.05593696 -0.06928391 0.021257801 -0.03578307 -0.015227677 -0.079987176 -0.03793525 -0.052924752
0.041673746 -0.07076959 0.020051708 0.01486599 -0.06438592 -0.038469233 -0.009831199 -0.0047320784
-0.03910356 0.0048622577 -0.009129325 0.032799833 -0.06901813 -0.08318339 -0.014216193 -0.08470092
-0.07990951 -0.03024706 -0.050767135 -0.050148867 0.042935234 0.04194266 -0.07641174 -0.027875539
-0.08440658 -0.0915431 0.04269036 0.03397286 -0.013930387 -0.003159101 -0.03512162 -0.07017123
-0.02692613 -0.07580863 0.0031737604 -0.033485014 0.024111107 -0.07192524 -0.0013024777 -0.010639037
-0.06802622 0.028582538 -0.036399953 -0.061443377 -0.05565248 -0.08022101 0.017118968 -0.095222324
-0.030549088 0.031324185 -0.054123092 -0.07874074 0.0008836254 -0.0013108983 -0.022103906 0.016876142
00000000: 3cc6 47bd 6fbb 613d 69ee 91bd c526 11be
00000010: 669e 853c 6f4e a8ba cf35 6ebc 0536 5cbd
00000020: 6853 b9bc 35f4 2cbd 6ce4 893d b765 a6bd
00000030: 9d97 4dbd df96 86bd 72d6 1dbe 5478 1fbc
00000040: 8631 d8bc 6607 cfbd fca6 f6bd e5a1 72bd
00000050: 5a4d bfbd d512 36bd d88f ccbd 74cf 04be
00000060: 4071 99bd 156b 9d3d b656 263d 4c7a 6a3c
00000070: c41d 043d b08b 91bd 07c7 6a3c 183d 643d
00000080: 0d28 79bc 53a5 bdbd 7cb4 dabd ecaa b5bc
00000090: a1cd c23c 0a09 89bd 03f5 acbd 35f9 0abe
000000a0: 9bcd 18bd ea34 e83a 9ad2 dcbc 313d eebd
000000b0: 9e41 efbd 795f 07be f7a0 95bd 00a5 81bd
000000c0: 749a 34be e2ee 35be ba64 bf3c 6253 0fbc
000000d0: 7aef 1b39 4fb5 eb3c 5406 3dbd 3d6f a2bd
000000e0: b725 0f3c 0783 fdbd 4afc 973b 6a85 e43b
000000f0: 1c3d a33d 0b2a 1a3d de1a a6bd 29ad 093d
00000100: 5926 babc db9d 5ebd 473a 96bd 1e07 bcbc
00000110: 7145 903b 4843 93bd bedb 2abd 0d60 e7bd
00000120: c9df d3bd ee20 74bd 63e5 393b b6f7 253d
00000130: 8f25 ae3c df03 cbbc 3294 3fbd 4bca 663d
00000140: e0f1 293d 7f95 a63b 8178 6fbc ba4b 00be
00000150: 518c fc3c 6367 63bd 828a 69bc 4bc3 debd
00000160: d6cb 883c 5cfb a4bd a1b1 f93c 073f c1bd
00000170: 28df f1bc 1094 20bc 93a3 0dbd f379 5ebc
00000180: 2030 1dbe e30f 42ba 0559 69bd e870 05bd
00000190: ac38 86bd b767 9bbc e936 06be 8fa7 02be
000001a0: 10dc 87bd 524e c2bc 3abc bebd 1fd4 19be
000001b0: 744c ffbd 8c2e cdbd 83ad 9fbd da9d bfbd
000001c0: 1a1c 23bd 682b e8bd e8b7 b73c 84f7 14bd
000001d0: c3eb bcbd ad29 f6bc b448 e8bd 44bf 413d
000001e0: 0b18 88bd 16de 92bd f88a dcbd 24a9 91bd
000001f0: b9ad 04bd 6ad8 43bd 94e6 0dbe 7c7b e6bd
00000200: 1946 43be ddf8 1fbe 51e5 03be 2e3d 03bd
00000210: c57b d0bd 581b 29be d189 1fbe 56a4 e4bb
00000220: 852f c8bd da4d ccbd 6444 15bd 753f 42bd
00000230: 3ea4 debd 741e e0bd 489b e9bd 1a5b c63c
00000240: 6a63 f8bc 3efe 91bc 0a12 93bd 19eb 74bd
00000250: b1b7 aa3d 2baa efbc f2a2 2dbc a0d8 0c3c
00000260: 9402 a43b 0f9b f63c 33d3 353c c62a e23d
00000270: cb5c 9b3c 8240 a1bd 07e7 b8bd 6c16 24bd
00000280: 64f6 99bd b984 0bbd 987c 3fbd b7b2 9bbd
00000290: 77cf 10be 4731 22bd 81b8 efbd 6efc bebd
000002a0: a761 e03c bada d63b b41f 92bd a9e2 69bd
000002b0: 0e41 7bbd 1c87 58bc 0158 3fbd 7e1a 05bd
000002c0: a31d 51bd f14a 86bd bebd a13d 680d 3abd
000002d0: f02f 803d 4033 3bbc 72aa 823d d1a7 4b3d
000002e0: f268 ad3d 4448 783d 8d70 0abd 8b65 e7bc
000002f0: 56dc 893a 60ed 73bd 2597 2abc c13d 79bd
00000300: 271e 653d b9e4 8dbd d724 ae3c 4591 12bd
00000310: 827d 79bc 51d0 a3bd fe61 1bbd a0c7 58bd
00000320: 17b2 2a3d a6ef 90bd 7b43 a43c 7b90 733c
00000330: c4dc 83bd ea91 1dbd 0a13 21bc 8d0f 9bbb
00000340: 0e2b 20bd 9353 9f3b 2a93 15bc 1e59 063d
00000350: 6159 8dbd 0e5c aabd 09eb 68bc ad77 adbd
00000360: 99a7 a3bd afc8 f7bc 33f1 4fbd e668 4dbd
00000370: dbdc 2f3d 11cc 2b3d c27d 9cbd 3e5b e4bc
00000380: 5bdd acbd f37a bbbd 16dc 2e3d 2027 0b3d
00000390: 473c 64bc eb08 4fbb b0db 0fbd efb5 8fbd
000003a0: 3094 dcbc 8e41 9bbd ddfe 4f3b 9527 09bd
000003b0: a884 c53c 8a4d 93bd e6b7 aaba 5b4f 2ebc
000003c0: 5551 8bbd ed25 ea3c 1e18 15bd 0dac 7bbd
000003d0: dbf3 63bd ea4a a4bd 143d 8c3c ec03 c3bd
000003e0: 1542 fabc ca4d 003d 2db0 5dbd d342 a1bd
000003f0: 19a3 673a 73d2 abba 4013 b5bc d63f 8a3c

localization.3.bias f4 [10]
-0.17835163 -0.00928745 0.039384037 0.020574413 -0.09235791 -0.08165188 -0.050329883 0.0019722732
-0.019946191 0.029526506
00000000: cfa1 36be 642a 18bc 2851 213d ac8b a83c
00000010: 2526 bdbd 1a39 a7bd b526 4ebd 4141 013b
00000020: 3266 a3bc 92e1 f13c
