EmpathyBot/model_snapshots/deep_emotion-200-64-0.005-0.5488265527277231.pt (torch_old, 271009 bytes, 24 tensors)

conv1.weight f4 [10, 1, 3, 3]
-0.10318732 -0.24489039 -2.580182 0.49107444 0.7262707 0.043167863 -1.4315 1.0195428
2.3425882 -1.4257109 0.49427232 1.9357916 -2.5634966 -0.6414369 2.3809307 -0.76122975
0.46162906 0.13160658 1.6210289 -0.47388718 -1.0268857 1.4343567 -0.37903854 -1.0511216
-0.62081474 -0.6645945 -1.1783348 1.6681396 2.1852708 0.5498608 -0.8891653 0.23522781
-0.15448426 -1.6365265 -0.9034727 -0.91404253 -0.15872721 -0.2430537 0.16912438 -0.13916594
-0.7689038 -0.5092928 1.7826731 0.5126051 -0.69076735 0.97498316 1.8639688 1.2546808
1.6968956 -0.044794478 -3.3064322 0.15640418 0.012191547 -1.5473012 -0.020944484 -0.00036437498
-1.735199 1.0133663 0.5094109 -1.7668821 1.7152783 0.62442875 -0.51830184 -0.263861
0.13556509 0.6653945 -2.6415856 -0.39675313 0.76217896 -0.26034427 1.76086 0.6187033
-2.1333988 -0.71044016 -0.42300063 0.060703658 0.6187331 0.28072286 1.7315018 1.9089922
-1.1537205 1.0875903 -0.57546735 2.0643022 -0.8263682 -2.3597836 -1.363 0.23329805
0.8371536 1.2697133
00000000: e053 d3bd 8cc4 7abe b421 25c0 1c6e fb3e
00000010: e0ec 393f c9d0 303d 643b b7bf 6180 823f
00000020: f7ec 1540 b27d b6bf 4311 fd3e 05c8 f73f
00000030: 5410 24c0 3535 24bf 2b61 1840 f4df 42bf
00000040: a55a ec3e e0c3 063e e07d cf3f 57a1 f2be
00000050: fe70 83bf 0099 b73f 5711 c2be 278b 86bf
00000060: b7ed 1ebf dd22 2abf add3 96bf 9985 d53f
00000070: 7adb 0b40 adc3 0c3f 56a0 63bf 8fdf 703e
00000080: 1f31 1ebe b379 d1bf fd49 67bf b1fe 69bf
00000090: 6389 22be 12e3 78be f12e 2d3e 8481 0ebe
000000a0: e1d6 44bf 0361 02bf a22e e43f 163a 033f
000000b0: 21d6 30bf 7f98 793f 8896 ee3f 6199 a03f
000000c0: e033 d93f 6a7a 37bd 969c 53c0 6b28 203e
000000d0: 0ebf 473c f70d c6bf c493 abbc 9509 bfb9
000000e0: 001b debf fdb5 813f c168 023f 3129 e2bf
000000f0: 3d8e db3f 90da 1f3f 6eaf 04bf ca18 87be
00000100: 93d1 0a3e 4b57 2a3f bd0f 29c0 3a23 cbbe
00000110: 291e 433f d84b 85be dc63 e13f 5763 1e3f
00000120: 9b89 08c0 68df 35bf 8a93 d8be 66a4 783d
00000130: 4b65 1e3f e8ba 8f3e daa1 dd3f db59 f43f
00000140: 1dad 93bf 2936 8b3f d451 13bf 871d 0440
00000150: de8c 53bf b206 17c0 c976 aebf afe5 6e3e
00000160: b34f 563f f785 a23f

conv1.bias f4 [10]
0.40558693 -0.3701886 -0.7446145 0.42510897 0.07902797 -0.92727846 0.7781483 0.93215334
0.567566 0.16757087
00000000: 17a9 cf3e 5c89 bdbe 0e9f 3ebf e2a7 d93e
00000010: 6bd9 a13d 1f62 6dbf ba34 473f 9aa1 6e3f
00000020: 014c 113f b397 2b3e

conv2.weight f4 [10, 10, 3, 3]
-0.08321447 -0.11603046 -0.098424084 -0.16834828 -0.10391331 -0.11686552 -0.0984715 -0.25309172
-0.11516626 -0.0914077 0.028724447 -0.021712348 0.016959574 0.033511713 0.009909071 0.02815486
-0.140756 -0.00019121295 -0.03625593 0.036379963 0.06192002 -0.13357177 0.0093231695 0.00989727
0.017271189 -0.10394071 -0.13280664 -0.12900025 -0.11836395 -0.014215727 -0.28093144 -0.26685926
0.03601127 -0.11195002 -0.1435178 -0.18922596 -0.044212 -0.0926894 -0.22879435 -0.067207076
-0.17664854 0.105470456 -0.019464044 -0.10149307 -0.21403104 0.025115056 -0.08652628 -0.040870067
-0.030940322 0.073262446 0.008459304 -0.0015861379 -0.04025882 -0.10496296 -0.21526678 -0.106079176
-0.10168399 0.04696352 -0.27624372 -0.24641857 -0.07355919 0.006281765 -0.14128155 -0.2360229
-0.19940546 -0.053857014 -0.117955446 -0.1476286 0.029657952 -0.22215481 -0.10219121 -0.088084064
-0.23157464 -0.09026393 -0.19359179 -0.19972284 -0.17177695 -0.24821292 -0.09746695 -0.018283436
0.04479919 -0.102689914 0.051483896 -0.064801596 -0.1736446 -0.03056562 0.012707479 -0.04567023
-0.22321989 -0.074378535 -0.8047263 -0.7774817 -0.10657503 0.27996075 -0.21033509 -0.0809881
-3.0480084 -0.9266694 -1.5735041 0.17883007 -0.49649194 -0.60200477 -0.36907852 -1.4608496
-0.89811933 -0.08587009 -0.9222079 -0.780063 -0.7490965 -0.60121053 -1.1792191 -0.011762715
-0.15197805 0.020663032 1.1617057 0.05764132 0.501477 -0.2910635 -1.3081177 -1.6343753
1.1447815 0.8277803 -0.0018976346 1.906584 1.3356702 1.2313517 0.66932124 -0.1246042
-0.13175942 -2.7782667 -0.49535736 1.5396929 0.40011662 0.26115108 -1.0882725 1.2766198
0.5183245 0.49817714 -0.882341 0.2699746 0.84838533 -1.4050467 -1.1129662 0.15583241
-0.12032003 -0.032596264 0.62336975 -0.9117838 -0.17845312 0.42977235 -0.9050873 -0.48944566
-1.0343595 0.62603766 0.5376388 0.3900979 -1.2353998 0.27701935 2.6671298 0.39871514
0.059073906 0.9135924 1.4463029 0.7497612 0.69014895 -2.7874336 -1.7848829 0.6306525
-2.231393 -2.097085 -2.3306735 -0.7384525 -0.8386229 -0.66558677 -0.52768934 0.33479014
1.9214406 2.5685732 -0.359075 -1.5067222 -2.4012222 1.219816 -1.3076171 0.7788624
1.9020216 -0.68936527 1.2502555 -0.25988474 -1.4984995 -2.258599 0.8403179 1.0389892
-3.5622084 -0.65765154 -1.8239526 -4.1599116 0.34474194 2.0452037 0.22067533 0.14916894
-1.4588956 1.5683539 0.58240414 -1.4897729 1.718402 1.1628207 -0.58571553 -0.88336426
0.6027509 1.7093252 0.38774616 0.7117861 0.43685833 -0.37221715 0.79614747 1.161878
-1.0268291 -1.0302553 1.1494895 -3.0602822 -0.703985 0.46940532 0.07799786 1.3412855
-0.26757407 0.79600257 0.010178104 -0.9670375 0.62619895 -0.3004721 -4.149013 1.1685996
1.7958685 -2.7220674 -0.7696686 -1.7687901 -0.4039526 -1.3245926 -1.1583742 -0.5557439
0.7180035 2.133951 -0.37658483 1.9977368 0.16846369 -3.3685718 1.1918317 -0.07557858
-0.27342775 -2.650497 -0.7016006 -0.12755425 0.08165568 0.38848835 -1.3406515 -0.5251525
00000000: 596c aabd 61a1 edbd 9192 c9bd 7e63 2cbe
00000010: 80d0 d4bd 3157 efbd 6dab c9bd 3d95 81be
00000020: 4adc ebbd f633 bbbd 884f eb3c 18de b1bc
00000030: ceee 8a3c 9443 093d a859 223c 05a5 e63c
00000040: 5722 10be 5680 48b9 1981 14bd 2803 153d
00000050: d99f 7d3d 0ac7 08be 35c0 183c 2928 223c
00000060: 4f7c 8d3c dede d4bd 77fe 07be a418 04be
00000070: cc68 f2bd 15e9 68bc 3fd6 8fbe c7a1 88be
00000080: 8e80 133d 0d46 e5bd 55f6 12be 73c4 41be
00000090: a417 35bd f1d3 bdbd 1149 6abe dda3 89bd
000000a0: 5be3 34be e500 d83d 0f73 9fbc 99db cfbd
000000b0: f42a 5bbe 17be cd3c b134 b1bd 5f67 27bd
000000c0: 8f76 fdbc 9f0a 963d e598 0a3c f5e5 cfba
000000d0: 6fe6 24bd d2f6 d6bd e56e 5cbe 0a40 d9bd
000000e0: b23f d0bd d25c 403d d16f 8dbe 2655 7cbe
000000f0: 33a6 96bd 44d7 cd3b 1cac 10be fdaf 71be
00000100: f230 4cbe 2c99 5cbd a092 f1bd f42b 17be
00000110: 3cf5 f23c 8d7c 63be a049 d1bd 6b65 b4bd
00000120: e721 6dbe 4cdc b8bd ed3c 46be 2584 4cbe
00000130: 4ce6 2fbe 872b 7ebe c19c c7bd 25c7 95bc
00000140: 5b7f 373d 174f d2bd c7e0 523d b3b6 84bd
00000150: e4cf 31be c064 fabc 0833 503c b510 3bbd
00000160: c193 64be c653 98bd 8b02 4ebf 0a09 47bf
00000170: 0244 dabd 0457 8f3e 1562 57be 17dd a5bd
00000180: 9212 43c0 353a 6dbf 9568 c9bf 3b1f 373e
00000190: 3134 febe fc1c 1abf dcf7 bcbe 1ffd babf
000001a0: 26eb 65bf a8dc afbd d115 6cbf 35b2 47bf
000001b0: cac4 3fbf efe8 19bf a7f0 96bf 67b8 40bc
000001c0: 22a0 1bbe 8545 a93c c6b2 943f 4e19 6c3d
000001d0: cc60 003f 4606 95be 6770 a7bf 3633 d1bf
000001e0: 3388 923f 69e9 533f 0dba f8ba f20a f43f
000001f0: 3ef7 aa3f ef9c 9d3f a358 2b3f 7d30 ffbd
00000200: f1eb 06be 1fcf 31c0 7b9f fdbe a814 c53f
00000210: 16dc cc3e 98b5 853e 834c 8bbf 4768 a33f
00000220: eab0 043f 1311 ff3e 1ae1 61bf 1c3a 8a3e
00000230: c82f 593f 92d8 b3bf ad75 8ebf 8892 1f3e
00000240: 596a f6bd a983 05bd 2995 1f3f aa6a 69bf
00000250: 6abc 36be 1f0b dc3e cdb3 67bf 9f98 fabe
00000260: e465 84bf 0144 203f b2a2 093f e9ba c73e
00000270: 9521 9ebf 7bd5 8d3e 41b2 2a40 6424 cc3e
00000280: 7bf7 713d 31e1 693f 7420 b93f 5af0 3f3f
00000290: 9aad 303f 5065 32c0 0b77 e4bf 7172 213f
000002a0: 25cf 0ec0 a436 06c0 c129 15c0 390b 3dbf
000002b0: feaf 56bf e563 2abf a616 07bf 9d69 ab3e
000002c0: c4f1 f53f 8163 2440 aed8 b7be 46dc c0bf
000002d0: a0ad 19c0 ee22 9c3f ff5f a7bf 8763 473f
000002e0: 7275 f33f 3e7a 30bf 5f08 a03f 9d0f 85be
000002f0: d5ce bfbf e38c 10c0 131f 573f 99fd 843f
00000300: 39fb 63c0 da5b 28bf 4777 e9bf ff1d 85c0
00000310: 0482 b03e 9ee4 0240 b7f8 613e bebf 183e
00000320: 17bd babf d2bf c83f 7018 153f e1b0 bebf
00000330: 99f4 db3f 4fd7 943f 74f1 15bf 2924 62bf
00000340: e24d 1a3f 2bcb da3f aa86 c63e 9d37 363f
00000350: e5ab df3e 3f93 bebe 52d0 4b3f 6bb8 943f
00000360: 236f 83bf 68df 83bf 7922 933f aadb 43c0
00000370: 5c38 34bf e555 f03e 58bd 9f3d 3eaf ab3f
00000380: 78ff 88be d3c6 4b3f 10c2 263c c58f 77bf
00000390: 934e 203f 7bd7 99be b7c4 84c0 ac94 953f
000003a0: 05df e53f 5a36 2ec0 0009 45bf b767 e2bf
000003b0: e0d2 cebe 408c a9bf 9b45 94bf 3b45 0ebf
000003c0: 14cf 373f a792 0840 bacf c0be d7b5 ff3f
000003d0: bf81 2c3e ae96 57c0 f18d 983f f1c8 9abd
000003e0: b9fe 8bbe bea1 29c0 199c 33bf 959d 02be
000003f0: 183b a73d f2e7 c63e 789a abbf 6570 06bf

conv2.bias f4 [10]
-0.25386366 1.4064493 -0.0072292844 -0.07580433 2.5516498 4.2428994 0.324857 0.5771509
-0.04615603 1.7683206
00000000: 6bfa 81be 8806 b43f a2e3 ecbb 4d3f 9bbd
00000010: 3b4e 2340 d5c5 8740 a853 a63e 29c0 133f
00000020: 1b0e 3dbd 5458 e23f

conv3.weight f4 [10, 10, 3, 3]
-0.021197801 0.12785245 -0.10050723 -0.03393127 0.10669845 0.042050578 0.16659814 0.072981134
-0.016890775 -2.0588052 -0.6807324 -0.11486416 -1.5964338 0.33047658 0.20963824 -0.8969392
0.9905189 1.8366848 -0.26535013 -0.63770705 2.3185248 0.4436643 0.7448838 2.628212
0.22842129 0.9507584 3.0148575 0.007757389 0.03100483 -0.025822055 -0.017847592 0.10425609
-0.09331726 0.03545409 0.09979995 0.113248184 -1.2324091 -2.7007947 0.34916395 0.493691
2.4302528 1.5059106 0.72912145 1.160365 1.4290053 0.19648479 0.41724747 0.26934403
0.91078144 -0.21773145 0.7316575 0.65005404 -0.15209368 0.8793693 -0.4448664 0.10322594
0.9060958 0.17022122 -0.3715449 1.6104926 -0.64460117 0.24802312 1.221293 -2.18192
-2.4193006 -0.20522498 -1.525456 -0.92278016 0.5500165 0.30661798 1.3574305 0.27226663
-0.030085502 -0.14748247 -0.106760934 0.09642317 0.007519897 -0.06845784 0.19953494 0.016156485
0.18459152 0.5621573 1.1084551 0.95135057 2.1211548 2.266285 0.7473498 2.645504
1.6820637 1.3941702 0.04302985 0.069941424 -0.04609541 0.061914396 -0.045045543 0.123908386
-0.04217224 -0.006787325 -0.106457606 0.019280845 -0.094564475 -0.017537901 -0.074744746 -0.09933233
-0.050671685 -0.0014516878 -0.046044543 0.026365139 0.010269925 -0.03352978 0.013783467 -0.09957344
-0.025730139 0.104140304 0.080998085 -0.029979696 -0.0051268227 0.030832626 0.00983083 -0.113515384
0.032520667 -0.11286575 -0.11892566 0.09586939 -0.1039401 0.062871344 -0.020656085 0.010416203
-0.15321732 0.040579446 -0.026872994 0.013213353 -0.06716784 -0.009971246 -0.0755322 0.064057305
-0.13850658 -0.070976645 -0.04054944 -0.11070313 -0.007212849 0.08558146 -0.11739705 -0.10436862
-0.03811392 -0.05337763 -0.0032819882 -0.035161525 -0.0051786066 0.037471052 -0.060426008 -0.036966767
0.016505022 -0.09321181 -0.06319608 -0.002337976 -0.039869513 -0.09856049 -0.12711126 -0.033097025
-0.11682329 -0.15157396 0.14088508 0.023613445 0.08694237 0.017053021 0.13075045 0.022312826
0.027338732 0.1146506 0.037637845 -0.040150587 -0.12432897 -0.05005313 0.033517644 -0.10864441
-0.034818616 0.0498433 -0.13140021 -0.06946406 0.07371019 0.021421878 0.018959744 0.01155387
0.06586693 -0.013107487 0.078621216 -0.11974543 -0.07888904 0.50442344 0.15061392 1.0269665
-0.7561024 -0.3809341 -0.8874611 -0.3387913 -0.4064137 -1.0265939 -1.4478852 -1.6808453
-1.8010087 -1.1599348 -1.1603343 -0.60282147 -2.3610754 -1.3142878 -0.6715798 0.04632155
-0.028150573 -0.10012385 0.017047623 -0.0024966884 0.08665615 0.04503512 0.024803648 -0.08830289
0.68879217 0.33202872 1.1469353 -0.78966624 -0.97737557 -0.44641712 -1.8431816 -1.7076622
-1.2196769 -0.42954865 -0.38709322 0.6313946 0.57161176 1.0111806 1.3086762 1.643057
2.084086 1.3187717 0.18675114 -0.023029452 1.4143753 0.2977982 0.9411276 2.2813964
0.87777376 0.5437214 1.1589516 0.5539787 1.1065496 0.7562931 0.5502746 -0.6412207
-0.761866 -1.5436509 -1.8322964 -1.7200813 0.07088346 -0.010964106 0.032139488 0.027025219
00000000: 03a7 adbc c1eb 023e bcd6 cdbd 84fb 0abd
00000010: b884 da3d 3a3d 2c3d b498 2a3e 2277 953d
00000020: 865e 8abc 77c3 03c0 7b44 2ebf e73d ebbd
00000030: f157 ccbf 3a34 a93e 68ab 563e cf9d 65bf
00000040: a692 7d3f 7d18 eb3f f9db 87be c540 23bf
00000050: b662 1440 f827 e33e b4b0 3e3f a034 2840
00000060: 45e7 693e e764 733f 6df3 4040 b231 fe3b
00000070: d7fd fd3c c688 d3bc 1d35 92bc 3884 d53d
00000080: 1f1d bfbd 4f38 113d eb63 cc3d aaee e73d
00000090: 95bf 9dbf d2d9 2cc0 9ec5 b23e 11c5 fc3e
000000a0: 4389 1b40 aec1 c03f b4a7 3a3f d786 943f
000000b0: a5e9 b63f 4f33 493e 76a1 d53e 76e7 893e
000000c0: f928 693f fef4 5ebe e84d 3b3f f169 263f
000000d0: 72be 1bbe 591e 613f 87c5 e3be 1f68 d33d
000000e0: e5f5 673f 794e 2e3e 223b bebe 9f24 ce3f
000000f0: 9504 25bf c6f9 7d3e 5453 9c3f 94a4 0bc0
00000100: d2d5 1ac0 7f26 52be 2442 c3bf 523b 6cbf
00000110: e2cd 0c3f 08fd 9c3e 48c0 ad3f 8866 8b3e
00000120: df75 f6bc a505 17be 7aa5 dabd 8379 c53d
00000130: 7869 f63b a033 8cbd e352 4c3e 9b5a 843c
00000140: 8f05 3d3e 8ae9 0f3f dbe1 8d3f b68b 733f
00000150: 00c1 0740 d00a 1140 5152 3f3f f04f 2940
00000160: dd4d d73f 2b74 b23f 1140 303d 733d 8f3d
00000170: 8ace 3cbd f399 7d3d ad81 38bd aec3 fd3d
00000180: ccbc 2cbd 3568 debb 7206 dabd ddf2 9d3c
00000190: 05ab c1bd a5ab 8fbc c613 99bd c06e cbbd
000001a0: 1d8d 4fbd 8f46 beba 3499 3cbd b4fb d73c
000001b0: 3043 283c 8656 09bd 0dd4 613c 29ed cbbd
000001c0: 03c8 d2bc 8347 d53d 53e2 a53d fb97 f5bc
000001d0: e8fe a7bb b494 fc3c 7d11 213c c17a e8bd
000001e0: 6434 053d 2926 e7bd 4c8f f3bd 2c57 c43d
000001f0: 8cde d4bd b1c2 803d f336 a9bc b9a8 2a3c
00000200: 00e5 1cbe a236 263d c124 dcbc d27c 583c
00000210: 4b8f 89bd 705e 23bc a0b0 9abd 7a30 833d
00000220: abd4 0dbe 345c 91bd 2b17 26bd 53b8 e2bd
00000230: c359 ecbb 5545 af3d dd6d f0bd 37bf d5bd
00000240: 571d 1cbd 80a2 5abd a016 57bb 8805 10bd
00000250: 4db1 a9bb 3f7b 193d 4381 77bd 776a 17bd
00000260: 8a35 873c d5e5 bebd f26c 81bd ba38 19bb
00000270: 374e 23bd 15da c9bd 7429 02be bf90 07bd
00000280: 0d41 efbd 3436 1bbe 2e44 103e fc70 c13c
00000290: d70e b23d c7b2 8b3c 72e3 053e 63c9 b63c
000002a0: 7af5 df3c efcd ea3d 242a 1a3d f174 24bd
000002b0: 30a0 febd 8304 4dbd cc49 093d f680 debd
000002c0: f79d 0ebd 7d28 4c3d c78d 06be 2c43 8ebd
000002d0: 5ef5 963d ef7c af3c 7751 9b3c 714c 3d3c
000002e0: 3ee5 863d c9c0 56bc 2904 a13d 183d f5bd
000002f0: 9490 a1bd e521 013f 893a 1a3e a373 833f
00000300: ed8f 41bf cb09 c3be a730 63bf 0e76 adbe
00000310: 7515 d0be 6e67 83bf 4d54 b9bf f025 d7bf
00000320: 7487 e6bf be78 94bf d685 94bf 8252 1abf
00000330: dc1b 17c0 953a a8bf a7ec 2bbf aabb 3d3d
00000340: 089c e6bc bc0d cdbd 75a7 8b3c 7b9f 23bb
00000350: c878 b13d bf76 383d 0531 cb3c 25d8 b4bd
00000360: af54 303f abff a93e c7ce 923f 9127 4abf
00000370: 4935 7abf c990 e4be 60ed ebbf ad94 dabf
00000380: 5f1e 9cbf cded dbbe 1531 c6be 14a3 213f
00000390: 2655 123f 5e6e 813f b482 a73f b14f d23f
000003a0: aa61 0540 83cd a83f b13b 3f3e 43a8 bcbc
000003b0: 400a b53f 0179 983e bded 703f 6602 1240
000003c0: c8b5 603f 5331 0b3f 8758 943f 8cd1 0d3f
000003d0: 6ba3 8d3f 6d9c 413f ccde 0c3f 0a27 24bf
000003e0: a609 43bf 5a96 c5bf b088 eabf a02b dcbf
000003f0: 592b 913d cba2 33bc b2a4 033d fe63 dd3c

conv3.bias f4 [10]
-1.8525714 -0.07991727 1.0903242 -0.09510208 -0.005266267 0.011694794 -0.09284314 -0.10379312
-0.059974667 7.348298
00000000: 0f21 edbf aaab a3bd be8f 8b3f e1c4 c2bd
00000010: a690 acbb 859b 3f3c 8b24 bebd 7d91 d4bd
00000020: ffa7 75bd 4225 eb40

conv4.weight f4 [10, 10, 3, 3]
-0.660587 -0.399139 -0.14163055 -1.329756 -1.4712788 -0.67770505 0.89365435 -1.99646
-1.9940786 -0.0855958 0.03916873 -0.05235547 0.059586853 0.06760235 0.08416227 -0.017707044
0.02783391 0.080982335 -0.18061498 -0.09190825 0.025349557 -1.3649687 -0.069064215 0.8019895
-2.0927477 0.15857846 2.2910142 -0.014006887 -0.031891573 -0.099610224 0.14140487 -0.07068844
0.020722171 0.09003036 0.0946155 -0.065271 0.028497303 0.05977514 0.019590007 0.10556375
0.007880332 0.019014524 0.1123035 0.011643738 -0.03079262 0.05236129 -0.031862464 -0.053571463
-0.04186789 0.053383704 0.12635654 -0.1023851 -0.038018726 -0.07448807 0.061643034 0.0046656923
-0.015781185 -0.059768364 0.030839264 0.12584879 -0.049625486 -0.049187075 -0.03683078 0.014359602
0.042000126 0.057442997 -0.1209668 0.037419666 0.11706314 0.13931406 -0.028044585 -0.11674331
-0.08629505 0.041099083 0.027771072 -0.0603325 -0.16477954 0.05434477 -0.01714789 0.02124952
-0.09441131 -0.8136697 -1.2372624 -1.3357375 1.8198781 -0.31034294 -1.7285204 1.9268216
0.97843164 0.41305432 1.4590787 0.37751365 1.7724535 -0.012768055 0.7533062 -0.35241258
-3.0422893 -1.0013719 -3.4551215 0.09260785 -0.023964997 0.06883037 -0.020137709 0.035859685
0.0199304 -0.05783929 0.080935836 -0.10840782 0.42627046 0.19426472 0.24606983 -0.9679675
0.45612076 0.532652 -0.5496653 -0.77338076 1.009086 0.072357446 0.04507488 -0.0551316
-0.09923625 0.14550501 -0.21565059 0.064292714 0.057967275 -0.026939617 -0.040892176 -0.104847126
0.08104754 0.12285443 -0.07479645 0.042693414 0.012250473 0.0027148034 -0.046857957 -0.07857831
0.034282524 -0.103415675 -0.05603841 -0.06736698 0.07190797 0.012332568 0.010594609 -0.0067905528
0.104310304 0.020246686 0.022224598 0.042614423 0.018096441 -0.028609075 -0.10593026 0.037439376
-0.10198992 -0.08981956 -0.041702565 0.09575791 0.0031501544 -0.07853522 0.06131779 0.07820243
-0.080239154 -0.111623 0.023763472 -0.035826616 0.022428043 -0.01661404 0.018119102 -0.060274325
0.096022956 -0.14608578 -0.22179966 -1.3573833 -1.2711842 -0.7691405 0.009906556 0.3612469
1.4283106 1.4353547 0.90242326 -0.2907888 -0.30547717 1.5502319 0.885731 1.5938078
1.4063505 2.0912812 0.5975744 -0.7073146 -0.7818299 -0.016859917 -0.09103568 -0.04944109
-0.14461835 0.08772925 0.04492432 -0.10924166 -0.032579336 0.06353146 -1.4389257 -0.7468388
-1.0696285 0.17215078 -1.6013372 -0.23981951 -2.1613176 -1.0425218 1.5405192 0.11532249
-0.065284945 -0.032606315 -0.0051612915 0.059197567 0.05234315 -0.019472934 0.14215289 0.10404581
0.034362495 0.10247074 0.08965627 -0.04471425 0.12124775 -0.0005875651 -0.08263844 -0.039466884
-0.010193109 -0.0626399 -0.07666129 0.11618606 0.00065700826 0.0036481568 0.022750584 -0.022435937
0.07125734 0.1233871 0.06065996 0.051166482 -0.11892417 -0.039867662 -0.08499434 -0.05830043
0.08691603 -0.0420663 -0.029487971 0.0029835645 0.01388084 0.07310365 0.012466614 -0.008053446
-0.001846716 0.003207421 -0.010568437 -0.07583767 -0.010845531 0.0053813965 0.11237692 0.050878804
00000000: 3b1c 29bf f25b ccbe 9907 11be 7235 aabf
00000010: dd52 bcbf 147e 2dbf 88c6 643f 008c ffbf
00000020: f83d ffbf da4c afbd 646f 203d b072 56bd
00000030: 5811 743d 1a73 8a3d 455d ac3d 5d0e 91bc
00000040: f103 e43c 11da a53d 22f3 38be 643a bcbd
00000050: e0a9 cf3c 4bb7 aebf 8a71 8dbd 2f4f 4d3f
00000060: 94ef 05c0 6462 223e fa9f 1240 247d 65bc
00000070: bda0 02bd 7200 ccbd 70cc 103e 1ac5 90bd
00000080: 8bc1 a93c d661 b83d c5c5 c13d cdac 85bd
00000090: 2d73 e93c c7d6 743d 397b a03c cf31 d83d
000000a0: 821c 013c 59c4 9b3c 61ff e53d 60c5 3e3c
000000b0: ce40 fcbc cb78 563d 3782 02bd c06d 5bbd
000000c0: aa7d 2bbd dfa8 5a3d 9c63 013e 48af d1bd
000000d0: 86b9 1bbd 348d 98bd 687d 7c3d aae2 983b
000000e0: 8b47 81bc accf 74bd a0a2 fc3c 81de 003e
000000f0: 1844 4bbd 6378 49bd dfdb 16bd 8944 6b3c
00000100: 5308 2c3d 5949 6b3d 71bd f7bd 5d45 193d
00000110: cdbe ef3d 58a8 0e3e c2bd e5bc 1e17 efbd
00000120: 76bb b0bd 8357 283d 2980 e33c 361f 77bd
00000130: f8bb 28be 9f98 5e3d bb79 8cbc 7913 ae3c
00000140: b85a c1bd a84c 50bf 9d5e 9ebf 72f9 aabf
00000150: c4f1 e83f 45e5 9ebe 2840 ddbf 17a2 f63f
00000160: 7f7a 7a3f db7b d33e 17c3 ba3f 7849 c13e
00000170: c2df e23f 1b31 51bc add8 403f 6c6f b4be
00000180: deb4 42c0 f42c 80bf b620 5dc0 2fa9 bd3d
00000190: 3e52 c4bc f0f6 8c3d d6f7 a4bc 9be1 123d
000001a0: 1445 a33c e4e8 6cbd b0c1 a53d eb04 debd
000001b0: 1f40 da3e 55ed 463e bbf9 7b3e b8cc 77bf
000001c0: a988 e93e e25b 083f ddb6 0cbf 48fc 45bf
000001d0: bb29 813f 2430 943d 70a0 383d acd1 61bd
000001e0: 603c cbbd 44ff 143e 82d3 5cbe e6ab 833d
000001f0: 186f 6d3d 79b0 dcbc 8e7e 27bd 17ba d6bd
00000200: 41fc a53d 1a9b fb3d e22e 99bd 4adf 2e3d
00000210: 35b6 483c d8ea 313b 21ee 3fbd aaed a0bd
00000220: d56b 0c3d 99cb d3bd 8888 65bd b3f7 89bd
00000230: 7c44 933d 8a0e 4a3c 0395 2d3c 4983 debb
00000240: a4a0 d53d 61dc a53c 5c10 b63c 768c 2e3d
00000250: fd3e 943c 945d eabc f7f1 d8bd 085a 193d
00000260: 17e0 d0bd 51f3 b7bd 4fd0 2abd b91c c43d
00000270: d272 4e3b 13d7 a0bd 5d28 7b3d 9828 a03d
00000280: 6d54 a4bd 999a e4bd 9dab c23c eebe 12bd
00000290: 04bb b73c 2b1a 88bc 836e 943c 36e2 76bd
000002a0: afa7 c43d 8397 15be 731f 63be bcbe adbf
000002b0: 2ab6 a2bf 64e6 44bf 1c4f 223c 5bf5 b83e
000002c0: e2d2 b63f b4b9 b73f 3605 673f 45e2 94be
000002d0: 8167 9cbe 006e c63f 44bf 623f e501 cc3f
000002e0: 4b03 b43f 8dd7 0540 a3fa 183f 9212 35bf
000002f0: 0126 48bf cf1d 8abc ea70 babd be82 4abd
00000300: d516 14be 65ab b33d 9002 383d 17ba dfbd
00000310: e971 05bd c81c 823d b82e b8bf d430 3fbf
00000320: 96e9 88bf 4b48 303e 9ef8 ccbf 3f93 75be
00000330: 0753 0ac0 5b71 85bf bc2f c53f 332e ec3d
00000340: 1db4 85bd 338e 05bd 0d20 a9bb 2679 723d
00000350: c565 563d b485 9fbc 8790 113e f815 d53d
00000360: b0bf 0c3d 2edc d13d b59d b73d 4a26 37bd
00000370: be50 f83d d406 1aba 583e a9bd 07a8 21bd
00000380: ff00 27bc 5949 80bd 9800 9dbd f5f2 ed3d
00000390: 143b 2c3a ea15 6f3b 6f5f ba3c 92cb b7bc
000003a0: 5eef 913d 60b2 fc3d 9476 783d f293 513d
000003b0: 848e f3bd 464c 23bd 8311 aebd 6fcc 6ebd
000003c0: 0801 b23d b64d 2cbd c290 f1bc e887 433b
000003d0: 766c 633c 5eb7 953d c540 4c3c 9af2 03bc
000003e0: 820d f2ba 9833 523b 3d27 2dbc c850 9bbd
000003f0: 74b1 31bc 6d56 b03b df25 e63d 4b66 503d

conv4.bias f4 [10]
0.2213836 0.29425064 -0.072974585 -0.066577464 -0.25563377 -0.13804677 -0.49983987 0.26218098
-0.43289226 0.20114098
00000000: 62b2 623e 05a8 963e b373 95bd c459 88bd
00000010: 6ee2 82be 225c 0dbe 03eb ffbe 963c 863e
00000020: 0ea4 ddbe e7f7 4d3e

norm.weight f4 [10]
0.35120794 0.20366053 0.22049594 0.1811899 0.13341372 0.24383192 0.4096993 0.21107218
0.26773366 0.16794153
00000000: 87d1 b33e 638c 503e b0c9 613e d889 393e
00000010: 9b9d 083e 13af 793e 1bc4 d13e 4e23 583e
00000020: 6314 893e ddf8 2b3e

norm.bias f4 [10]
-0.3655321 -0.23297952 -0.32613507 -0.15224098 -0.10973294 -0.20948787 -0.35780773 -0.20667247
-0.23635736 -0.13674758
00000000: 0627 bbbe 2f92 6ebe 2dfb a6be 0fe5 1bbe
00000010: aabb e0bd fd83 56be 9332 b7be f3a1 53be
00000020: aa07 72be 8f07 0cbe

norm.running_mean f4 [10]
-905.87506 -321.23975 -187.54587 -807.99304 150.60641 -570.98627 -1427.0978 -982.2995
-890.7161 -148.18147
00000000: 0178 62c4 b09e a0c3 be8b 3bc3 8eff 49c4
00000010: 3e9b 1643 1fbf 0ec4 2163 b2c4 2b93 75c4
00000020: d5ad 5ec4 752e 14c3

norm.running_var f4 [10]
252725.69 183633.22 251717.8 374271.4 145294.56 173798.86 443020.47 230260.2
408903.66 252414.0
00000000: 6ccd 7648 4e54 3348 73d1 7548 edbf b648
00000010: a4e3 0d48 b7b9 2948 8f51 d848 0ddd 6048
00000020: f5a8 c748 807f 7648

fc1.weight f4 [50, 810]
-0.4031513 -0.49013358 -1.3007755 -2.4403384 -1.1642389 0.9191857 -0.44140282 0.028381955
1.1349453 -2.7204113 -0.69904625 -0.53483385 0.13241775 0.7070989 -0.7814531 0.8913345
-1.0642308 -1.1427025 0.62352383 -0.26278552 -1.9070028 -0.22345692 -0.514569 -0.30901957
0.04321459 -0.05809348 -0.4815895 1.0877694 1.7085721 -0.46207756 2.648484 1.2256902
1.1489155 -1.742171 -0.55264014 -0.19797812 -0.5172007 0.26799935 0.55094147 -0.7155508
0.8593731 0.85575515 -0.5584996 -0.42061836 -1.9492576 -1.2672058 -0.6783955 0.2566487
-1.7965173 -2.7839804 -3.5533154 -4.5667043 -1.1856006 0.67540216 -1.0143921 -3.8225417
-0.31133848 -1.375725 -1.2651398 -0.4682433 -2.2270567 0.6932293 -0.78963834 -1.030761
-1.2740352 -0.045720126 -3.3147106 -1.117427 -0.39214554 -4.007718 -0.30690297 -0.924177
-0.21083042 -4.1295843 -1.0857671 -2.6307366 -0.81682104 -1.855441 0.887295 -1.1183699
-0.9181443 0.7058625 2.2347162 -1.1675456 -0.9714977 -2.0435894 0.62895447 0.91739184
0.6323158 1.5771523 -1.1703204 -0.2424894 -1.5993621 -0.9094852 1.1099881 1.4445909
0.11772053 0.26067102 0.5299414 1.0953559 0.48146576 -0.47439164 -0.066236675 0.9236564
0.85339475 -0.62552035 0.41547292 0.076866746 -0.28874052 0.28370956 0.2572395 0.0018460094
-0.33942184 0.4975293 0.017594445 0.47211835 -0.12512033 -0.22235315 0.6440987 0.43319926
-0.28305152 -1.056249 1.5626594 0.050770074 1.1061585 0.9642888 0.7177984 0.39290658
-3.7069006 -2.753466 -1.2144418 -1.9877601 -1.1532341 1.3012694 0.6125353 -2.600506
-0.1891527 0.78867865 -1.9070878 -0.5232873 -1.1805129 -0.4508385 0.5502529 0.44652846
1.2165476 -1.5150627 -1.9332919 -0.25297475 -0.7610122 -1.7737131 -2.207226 -2.478532
0.07770407 0.9385687 -1.6127733 -1.3098963 -1.4395776 -3.6470366 -0.12549739 0.52027005
-0.39514318 1.8385031 -1.2878145 -2.2565205 -1.7494365 0.2999517 -0.0056868047 -1.463857
-0.11435253 0.5578913 0.72365445 -0.2488219 -0.77822953 -0.17871006 0.8568238 -1.955415
-4.241172 -1.4965546 0.015139717 0.014930781 -0.5631732 -0.37448734 -0.016993552 -0.94764143
-1.1789361 1.3446004 -0.20697628 -1.1558727 1.0531095 1.3540452 -0.61459196 0.8821987
1.6035988 0.2679138 -0.15244189 0.27153397 0.7876457 -0.24491753 -0.33481315 1.5172534
0.26814362 0.12370679 -0.5989591 -1.2196823 0.5913992 -2.6907594 -3.7762773 -0.09848967
0.7857772 -0.84772563 -0.5639756 -2.8818293 -0.9292624 -1.0139563 -1.5435607 -0.3023913
0.6220634 -0.7810037 -0.9198212 -0.90578353 -2.7246659 -1.5356187 -0.64461786 -0.40608564
-0.56976986 -1.6003976 0.91678953 -0.2494437 -0.99508125 -0.6977038 -0.07431632 -0.7997707
1.3396819 -0.39948046 -0.82821643 -2.2926219 -0.3745915 -0.18340303 -0.2765348 -1.3258687
-0.8638801 -0.17681968 -0.4974786 -0.036319185 0.35718477 0.11310429 -0.34580952 0.30334505
0.10606857 -0.22351734 0.605598 0.37961665 -0.8967164 0.46726224 0.5921175 0.40340373
00000000: d969 cebe caf2 fabe d07f a6bf 812e 1cc0
00000010: c805 95bf c14f 6b3f 8dff e1be 4681 e83c
00000020: e345 913f 381b 2ec0 b2f4 32bf dfea 08bf
00000030: 8598 073e 6f04 353f 4f0d 48bf 7f2e 643f
00000040: b738 88bf 1344 92bf 429f 1f3f d38b 86be
00000050: ab18 f4bf e4d1 64be cbba 03bf d037 9ebe
00000060: c801 313d 6ef3 6dbd e692 f6be 073c 8b3f
00000070: 7eb2 da3f 6e95 ecbe c380 2940 6be3 9c3f
00000080: aa0f 933f 76ff debf d379 0dbf c7ba 4abe
00000090: 4467 04bf 3637 893e 800a 0d3f 562e 37bf
000000a0: e0ff 5b3f c512 5b3f d4f9 0ebf 4a5b d7be
000000b0: 4681 f9bf cd33 a2bf 54ab 2dbf 7567 833e
000000c0: 47f4 e5bf bc2c 32c0 8569 63c0 7122 92c0
000000d0: c3c1 97bf 28e7 2c3f 9ad7 81bf 86a4 74c0
000000e0: c267 9fbe c217 b0bf 1af0 a1bf 96bd efbe
000000f0: 1988 0ec0 7a77 313f bd25 4abf faef 83bf
00000100: 9613 a3bf 0745 3bbd 3824 54c0 d907 8fbf
00000110: 4dc7 c8be 3a3f 80c0 6322 9dbe dd96 6cbf
00000120: eee3 57be 8e25 84c0 6bfa 8abf fd5d 28c0
00000130: 2f1b 51bf 177f edbf c425 633f bf26 8fbf
00000140: 810b 6bbf 68b3 343f 9705 0f40 2272 95bf
00000150: 13b4 78bf 2bca 02c0 2903 213f 31da 6a3f
00000160: 73df 213f 20e0 c93f 0fcd 95bf 244f 78be
00000170: e6b7 ccbf 06d4 68bf 1714 8e3f 5be8 b83f
00000180: 7617 f13d ac76 853e 3daa 073f 9f34 8c3f
00000190: ae82 f63e 76e3 f2be 18a7 87bd bf74 6c3f
000001a0: 1478 5a3f 1a22 20bf deb8 d43e 506c 9d3d
000001b0: ccd5 93be 6142 913e e5b4 833e ccf5 f13a
000001c0: b3c8 adbe 29bc fe3e 3a22 903c 7fb9 f13e
000001d0: 8b1f 00be 8bb0 63be a7e3 243f 4bcc dd3e
000001e0: 21ec 90be 2b33 87bf 3905 c83f 48f4 4f3d
000001f0: 9a96 8d3f a1db 763f a3c1 373f 0d2b c93e
00000200: dc3d 6dc0 c938 30c0 d472 9bbf ec6e febf
00000210: 2d9d 93bf ff8f a63f 1dcf 1c3f b16e 26c0
00000220: 3fb1 41be d8e6 493f 741b f4bf 28f6 05bf
00000230: 0c1b 97bf 4ed4 e6be 60dd 0c3f 619f e43e
00000240: d5b7 9b3f 93ed c1bf 1c76 f7bf e885 81be
00000250: b2d1 42bf 0809 e3bf 3143 0dc0 45a0 1ec0
00000260: 5023 9f3d 0a46 703f 5b6f cebf afaa a7bf
00000270: 1444 b8bf 0c69 69c0 6382 00be 6b30 053f
00000280: 3550 cabe 1254 eb3f 1bd7 a4bf d56a 10c0
00000290: 89ed dfbf 4593 993e 6058 babb ab5f bbbf
000002a0: a931 eabd f7d1 0e3f 6b41 393f 2bcb 7ebe
000002b0: 0d3a 47bf c5ff 36be ce58 5b3f 0a4b fabf
000002c0: aeb7 87c0 1a8f bfbf 930c 783c 3ca0 743c
000002d0: 1e2c 10bf cebc bfbe 1036 8bbc a198 72bf
000002e0: 61e7 96bf de1b ac3f 97f1 53be a3f3 93bf
000002f0: 4bcc 863f 5a51 ad3f e655 1dbf c6d7 613f
00000300: ba42 cd3f ff2b 893e ba19 1cbe 8006 8b3e
00000310: 26a3 493f a9cb 7abe a16c abbe 5c35 c23f
00000320: 1f4a 893e fc59 fd3d 6255 19bf 8d1e 9cbf
00000330: f065 173f 6735 2cc0 87ae 71c0 f4b4 c9bd
00000340: b228 493f 8c04 59bf b460 10bf e46f 38c0
00000350: 24e4 6dbf 52c9 81bf 6693 c5bf 08d3 9abe
00000360: 8c3f 1f3f dcef 47bf 6779 6bbf 6ee1 67bf
00000370: ed60 2ec0 278f c4bf ad05 25bf 75ea cfbe
00000380: 70dc 11bf d4d9 ccbf b8b2 6a3f 2b6e 7fbe
00000390: a5bd 7ebf b79c 32bf 2833 98bd c6bd 4cbf
000003a0: b27a ab3f b488 ccbe fe05 54bf 51ba 12c0
000003b0: 75ca bfbe 01ce 3bbe f895 8dbe 11b6 a9bf
000003c0: 3f27 5dbf 3810 35be 84b5 febe 6dc3 14bd
000003d0: ece0 b63e 39a3 e73d f20d b1be 0b50 9b3e
000003e0: 7a3a d93d bbe1 64be 7808 1b3f 1d5d c23e
000003f0: 358f 65bf ff3c ef3e 0395 173f ef8a ce3e

fc1.bias f4 [50]
1.0093968 1.8553654 -0.20715676 0.50780725 -0.0827789 1.0537577 0.83106196 -0.24809745
1.3636998 -0.03718981 -0.59910643 0.14350007 -0.62725556 1.8752921 -0.044143397 0.8666079
-0.08015649 -0.05933114 -0.20131238 -0.44232354 1.3520204 3.4805882 -0.21217401 -0.015376148
-0.16140722 -0.82923037 -0.03530222 0.6166247 1.9761232 -0.14188488 -0.069529004 -0.19535127
0.15163076 2.5782073 0.07432432 -0.5026176 -0.23276824 1.418938 -0.1950383 -0.11712558
-0.2650015 2.842929 0.07809742 -0.15802716 -0.04859032 0.7208115 3.0273147e-06 1.5433019
0.65046006 2.1664498
00000000: ea33 813f 9d7c ed3f e720 54be a8ff 013f
00000010: fc87 a9bd 88e1 863f 7ac0 543f 420d 7ebe
00000020: b78d ae3f 5854 18bd 0a5f 19bf aff1 123e
00000030: d293 20bf 9209 f03f b5cf 34bd 04da 5d3f
00000040: 1629 a4bd 3605 73bd d524 4ebe 3b78 e2be
00000050: 010f ad3f f5c1 5e40 2544 59be 3dec 7bbc
00000060: ef47 25be 7148 54bf 1099 10bd 1edb 1d3f
00000070: 9bf1 fc3f 454a 11be 3965 8ebd 2a0a 48be
00000080: 1845 1b3e 5901 2540 5937 983d 8cab 00bf
00000090: cc5a 6ebe c39f b53f 1fb8 47be 89df efbd
000000a0: 47ae 87be 8cf2 3540 8af1 9f3d dfd1 21be
000000b0: a506 47bd 1a87 383f df28 4b36 eb8a c53f
000000c0: 8d84 263f 1da7 0a40

fc2.weight f4 [7, 50]
-0.38243377 0.09856073 -0.0757586 -0.3203308 -0.08593197 -0.18728597 -0.96701103 -0.6045185
-0.076995514 -0.052123442 -1.4257041 -0.19127871 0.19668274 -0.12432217 -0.025929747 0.0050269905
-0.08226787 0.00091389095 -0.22553787 -0.17191878 -0.10779159 0.17595147 -0.13706137 0.056216866
-0.06928224 0.249459 -0.094486065 -0.06820306 -0.19230351 0.038933072 -0.0050442475 0.16822731
-0.16538686 0.21257405 -0.47531992 -0.95928794 -0.19562109 0.23661193 -0.132082 -0.055284414
-0.12066478 -0.09453297 -0.791764 -0.20016105 -0.094013095 -0.14858536 0.07800911 0.18224245
0.08380429 -0.14275536 -0.17136258 -0.4144896 -0.082025334 -0.45323184 0.0040146294 -0.13572349
-1.171989 -0.5207136 0.16728857 0.018617617 -6.732081 -0.37239704 -0.07648117 -0.15383688
0.026330093 0.1546752 -0.04123919 -0.03718954 -0.11300077 -0.05370014 -0.19537078 -0.08965189
-0.061275 0.020028582 0.016416596 -0.1107312 -0.11718942 -0.22972246 -0.24398687 0.10064179
-0.06369328 0.10224298 0.10076951 -0.25076044 -0.7747507 -1.4686306 -0.013525018 -0.30800694
-0.22714067 0.02736256 -0.07017236 -0.27952856 -0.6227612 -0.03868516 0.11030053 -0.04263957
0.08975757 0.6656975 -0.11342614 0.018755546 0.34883404 -0.60422665 -0.03391431 -0.27512404
0.045451105 -0.014908742 -0.94403505 0.1186642 -0.07035644 0.052834347 0.067285515 -0.2672815
-0.015112409 -0.25869587 0.031331982 0.27072105 -0.09731519 0.011797738 -0.28125107 -0.026910119
-0.059027996 -0.0025086023 0.0631864 -0.036608543 -0.1498162 0.20553353 -0.003396996 -0.06560341
-0.15965751 0.08751348 -0.14012767 0.0120776845 -0.032266002 -0.023866838 -0.081911735 0.5893562
0.162569 0.0152266845 -0.18648979 -0.0068034153 -0.21868175 -0.16796286 -0.6136937 -0.19069964
-0.12180678 0.27504575 0.020348568 -0.03437318 -0.03316848 -0.12783715 -0.4109518 -0.59873825
0.059914593 -0.4979095 0.08155299 -0.098593734 -0.74702317 -0.5542224 -0.102812536 0.10528828
-1.5324677 0.34191403 0.020727597 0.28305283 -0.016582549 -0.1846971 0.01682367 -0.01812077
-0.08068953 -0.08148676 0.33755156 -0.012277815 0.016131062 0.05443888 0.034978155 -0.06418984
-0.05337099 0.081030644 0.2741958 -0.027397035 0.06919574 0.11604443 -0.1176635 -0.028113602
-0.32318792 -0.9719887 -0.031709693 -0.39246285 -0.18557104 -0.060850874 -0.04597466 0.30470505
-0.17368859 0.103048064 -0.056869626 -0.049288947 -0.038254205 -0.13258025 -0.46276122 0.11157191
-0.27424818 -0.48451835 -0.09141998 -0.31621626 0.13502488 -0.11974682 -0.5851253 -0.34342852
-0.051592715 -0.018168265 -0.6962027 -0.042889275 -0.2741772 -0.20036551 0.11503014 0.10263611
-0.04251438 -0.050609574 0.04497834 -0.45663124 -0.08771488 0.25208864 -0.040778615 -0.041910645
0.00336798 -0.10750715 -0.050056607 0.050846335 -0.11401556 -0.09004081 -0.037914183 -0.029191544
0.22659919 0.070085466 -0.16282882 -0.7655663 0.024738709 0.08313883 0.06843306 0.08528708
-0.15428363 -0.18860586 -0.62296814 -0.13192786 0.0679259 -0.1869887 0.013404105 -0.093488134
0.03753914 -0.047111377 -0.19887309 -0.0054267785 -0.09519073 0.34680426 0.10180801 0.3144025
00000000: 5cce c3be 35da c93d 5327 9bbd 6602 a4be
00000010: 1afd afbd e5c7 3fbe 098e 77bf b9c1 1abf
00000020: d3af 9dbd 647f 55bd 797d b6bf 91de 43be
00000030: 3367 493e 9f9c febd 9f6a d4bc 74b9 a43b
00000040: 0f7c a8bd 2f92 6f3a 66f3 66be 7a0b 30be
00000050: d6c1 dcbd 9f2c 343e d159 0cbe a843 663d
00000060: d9e3 8dbd 2e72 7f3e e981 c1bd 0cae 8bbd
00000070: 36eb 44be 4978 1f3d 374a a5bb c843 2c3e
00000080: 2c5b 29be 03ad 593e 225d f3be e593 75bf
00000090: e550 48be 664a 723e 8140 07be e971 62bd
000000a0: 191f f7bd 809a c1bd 0cb1 4abf 05f7 4cbe
000000b0: f089 c0bd c326 18be 3ec3 9f3d c49d 3a3e
000000c0: 95a1 ab3d 762e 12be ac79 2fbe fb37 d4be
000000d0: e6fc a7bd 010e e8be 278d 833b 19fb 0abe
000000e0: bc03 96bf 7d4d 05bf b24d 2b3e f983 983c
000000f0: 356d d7c0 d3aa bebe 29a2 9cbd 6a87 1dbe
00000100: 35b2 d73c 2d63 1e3e 6dea 28bd 0f54 18bd
00000110: f36c e7bd aef4 5bbd 470f 48be 699b b7bd
00000120: 7ffb 7abd fb12 a43c 197c 863c 0ac7 e2bd
00000130: 0201 f0bd 5d3c 6bbe b2d7 79be 481d ce3d
00000140: 9f71 82bd c464 d13d 3f60 ce3d ac63 80be
00000150: 1056 46bf 16fc bbbf 0998 5dbc 16b3 9dbe
00000160: 9097 68be 7327 e03c 87b6 8fbd 5e1e 8fbe
00000170: 476d 1fbf 5574 1ebd 3fe5 e13d d4a6 2ebd
00000180: d1d2 b73d 276b 2a3f f74b e8bd 3ba5 993c
00000190: 609a b23e 99ae 1abf bbe9 0abd 0fdd 8cbe
000001a0: f02a 3a3d cc43 74bc 48ac 71bf 3706 f33d
000001b0: 0a17 90bd d468 583d fdcc 893d 1fd9 88be
000001c0: 0a9a 77bc c973 84be f755 003d f39b 8a3e
000001d0: 304d c7bd 4d4b 413c 2400 90be 9c72 dcbc
000001e0: 57c7 71bd 5d67 24bb df67 813d d7f2 15bd
000001f0: 6b69 19be 6277 523e 23a0 5ebb 155b 86bd
00000200: 427d 23be 443a b33d a17d 0fbe 7be1 453c
00000210: 5b29 04bd 6384 c3bc 57c1 a7bd 0ce0 163f
00000220: 7d78 263e 5879 793c 2ef7 3ebe 2fef debb
00000230: 1cee 5fbe 75fe 2bbe 081b 1dbf c446 43be
00000240: d575 f9bd ccd2 8c3e 0ab2 a63c e4ca 0cbd
00000250: acdb 07bd bee7 02be 4668 d2be e946 19bf
00000260: 0169 753d feed febe 4105 a73d 83eb c9bd
00000270: e93c 3fbf 85e1 0dbf 618f d2bd 62a1 d73d
00000280: e727 c4bf 5b0f af3e eccc a93c 4dec 903e
00000290: 20d8 87bc 3d21 3dbe cbd1 893c 0272 94bc
000002a0: 8d40 a5bd 88e2 a6bd 8fd3 ac3e e328 49bc
000002b0: 4a25 843c 4efb 5e3d 4145 0f3d f675 83bd
000002c0: 8a9b 5abd 65f3 a53d 6463 8c3e bf6f e0bc
000002d0: 7fb6 8d3d b4a8 ed3d 90f9 f0bd 7f4e e6bc
000002e0: e378 a5be 40d4 78bf 06e2 01bd e4f0 c8be
000002f0: 5606 3ebe c43e 79bd ed4f 3cbd 4d02 9c3e
00000300: 6cdb 31be dd0a d33d 20f0 68bd 35e3 49bd
00000310: 71b0 1cbd 1ec3 07be 0aef ecbe d07f e43d
00000320: 426a 8cbe ca12 f8be 663a bbbd 19e7 a1be
00000330: f643 0a3e d23d f5bd c6ca 15bf ddd5 afbe
00000340: e252 53bd 9dd5 94bc 573a 32bf aaac 2fbd
00000350: f460 8cbe 9e2c 4dbe ec94 eb3d e132 d23d
00000360: 8f23 2ebd fc4b 4fbd 353b 383d 92cb e9be
00000370: dca3 b3bd c311 813e 7a07 27bd 7faa 2bbd
00000380: 54b9 5c3b b52c dcbd 2808 4dbd 3f44 503d
00000390: fd80 e9bd 5167 b8bd e74b 1bbd 1b23 efbc
000003a0: 9e09 683e f888 8f3d 99bc 26be 27fc 43bf
000003b0: d5a8 ca3c b144 aa3d a226 8c3d feaa ae3d
000003c0: 87fc 1dbe e521 41be d77a 1fbf 1918 07be
000003d0: bc1c 8b3d f779 3fbe e49c 5b3c b576 bfbd
000003e0: a4c2 193d dcf7 40bd 63a5 4bbe 1ed3 b1bb
000003f0: 5cf3 c2bd 5490 b13e b880 d03d 5df9 a03e

fc2.bias f4 [7]
-0.29479444 -1.6369175 0.12028203 0.110860296 0.413055 -0.3159619 0.27838293
00000000: 4cef 96be 8386 d1bf 6d56 f63d b90a e33d
00000010: f27b d33e c2c5 a1be 3588 8e3e

localization.0.weight f4 [8, 1, 7, 7]
0.045818392 -0.021280706 0.07815073 0.1317487 0.050937 0.10866088 0.16944289 0.18541694
0.11956376 0.24462874 0.10909681 0.16946764 0.2287212 0.011985495 -0.03286457 0.08546263
0.2058889 0.0028060793 0.18758588 0.14979334 -0.074428484 0.08173336 -0.07314648 -0.052167155
0.1891559 0.048465047 0.013755563 0.022249335 0.047355883 -0.08011081 0.1870217 0.0069250637
0.11444033 0.14548738 -0.010366362 0.118503205 -0.08285127 0.18980554 0.13427515 0.04002852
0.12650447 -0.063431054 -0.017022176 0.12775879 0.041257687 -0.060892694 0.030977048 0.12866776
-0.009556565 -0.10862287 -0.018328428 0.08009777 -0.10969904 -0.023501175 0.047446128 0.000248036
0.13973 0.099154346 -0.13261938 0.050206594 0.10005185 -0.11096705 -0.016454 -0.02476583
-0.10719791 0.078389354 -0.09407444 -0.061092522 0.0525846 -0.20066854 -0.103475474 -0.12114318
0.040612865 0.09824126 -0.1111324 -0.03141885 -0.062727 0.1005722 -0.026297914 0.04543745
0.02066751 -0.095701195 -0.077809595 -0.09400554 -0.17553854 0.067936584 -0.008976391 0.07508448
-0.09751397 -0.05206467 0.0010149303 -0.004542269 -0.08505826 -0.04918944 -0.13869773 0.08467793
-0.03639911 -0.15501387 -0.05002797 -0.020849552 0.050547298 -0.083048664 0.09385253 0.11802523
-0.011406633 0.07823259 -0.038501956 -0.10473885 0.13017324 0.06449651 -0.044743408 -0.12208464
0.002483407 -0.036289215 -0.007611466 0.12835993 -0.10145896 0.08097416 -0.056844264 -0.087086596
-0.06398429 -0.07799636 -0.006922262 -0.16147412 -0.12618642 0.034192633 0.12508936 -0.039894972
0.045100205 -0.001354505 0.087354176 -0.019057281 0.057192277 0.14402945 -0.100097954 -0.10030251
0.023856165 -0.046392195 0.0040490427 0.014518509 -0.13486989 0.068594396 0.010184571 0.057228882
-0.08114772 -0.1787917 -0.18014027 -0.02394904 -0.095030285 -0.09270075 -0.03833839 0.01097724
0.052954104 -0.07411091 0.06676144 -0.01687492 -0.06742857 0.12686805 0.094635785 -0.07037378
0.084070235 0.13146281 0.11973757 0.07179475 0.12847057 0.010830619 -0.11761566 0.12089379
0.07055399 0.04782152 0.030482607 -0.018668003 -0.03232735 -0.12288597 0.13761537 0.09550624
-0.016177244 0.1035401 0.07124955 0.0794385 0.07993316 -0.14234285 0.051333398 -0.1916702
0.075903505 -0.034628805 -0.07217162 0.012359572 -0.071769185 -0.15365218 -0.14877312 0.015529791
-0.09754626 -0.00825791 0.013775516 0.06483492 -0.075979166 -0.1489517 -0.011213229 0.09366232
0.13562866 -0.009791272 -0.046807498 -0.12499423 -0.08612838 0.10587155 -0.09189415 0.102457926
0.14239338 0.116221 -0.07872157 -0.07806697 0.05841329 -0.005531463 0.1491402 0.073406875
0.08161736 -0.0005058543 0.0568248 -0.0034876652 0.10162174 -0.06419731 -0.049115706 0.12647355
-0.08723026 -0.032694537 -0.035792205 0.08381951 -0.07074225 0.0008676015 -0.0017604256 -0.16969644
-0.005033966 0.06869579 -0.11132322 0.10780471 0.117300056 0.05187489 0.03783579 -0.13941412
-0.008230989 0.027042078 0.049684662 -0.15746965 0.05891907 -0.0143724345 0.15314578 0.112625
0.11643315 0.00402156 0.02711129 0.01470148 0.09747317 0.09879734 -0.048652705 0.080533385
00000000: 11ac 3b3d e054 aebc 7d0d a03d 22e9 063e
00000010: 51a3 503d 9889 de3d 7082 2d3e f0dd 3d3e
00000020: d8dd f43d f57f 7a3e 266e df3d ed88 2d3e
00000030: e435 6a3e cf5e 443c 009d 06bd 0807 af3d
00000040: 8ad4 523e 33e6 373b 8316 403e 6d63 193e
00000050: f66d 98bd d263 a73d d2cd 95bd 3aad 55bd
00000060: 16b2 413e 4983 463d 035f 613c 3d44 b63c
00000070: 3ef8 413d 2311 a4bd 9e82 3f3e a5eb e23b
00000080: b15f ea3d a5fa 143e acd7 29bc cfb1 f23d
00000090: edad a9bd 625c 423e 6d7f 093e f2f4 233d
000000a0: 638a 013e 24e8 81bd 1772 8bbc 33d3 023e
000000b0: d2fd 283d 9e6a 79bd 94c3 fd3c 7bc1 033e
000000c0: 2493 1cbc ab75 debd 8025 96bc 4d0a a43d
000000d0: e4a9 e0bd 8985 c0bc df56 423d d40a 8239
000000e0: 6215 0f3e 6f11 cb3d 60cd 07be 6ea5 4d3d
000000f0: fce7 cc3d b142 e3bd 8aca 86bc b6e1 cabc
00000100: 948a dbbd 998a a03d 1aaa c0bd 273c 7abd
00000110: f362 573d 0e7c 4dbe f3ea d3bd ea19 f8bd
00000120: ad59 263d b732 c93d 6299 e3bd 0db1 00bd
00000130: 0377 80bd ccf8 cd3d b96e d7bc 9f1c 3a3d
00000140: e94e a93c fdfe c3bd a35a 9fbd fa85 c0bd
00000150: 60c0 33be 5622 8b3d b611 13bc e4c5 993d
00000160: 68b5 c7bd c341 55bd 6907 853a 50d7 94bb
00000170: 0633 aebd de7a 49bd c706 0ebe 9f6b ad3d
00000180: 3c17 15bd f5bb 1ebe 21ea 4cbd aecc aabc
00000190: af0a 4f3d 6b15 aabd c135 c03d 36b7 f13d
000001a0: e3e2 3abc 6838 a03d 3ab4 1dbd 5281 d6bd
000001b0: 224c 053e bf16 843d dd44 37bd 8307 fabd
000001c0: a8c0 223b 00a4 14bd 9b69 f9bb c970 033e
000001d0: b7c9 cfbd c8d5 a53d 88d5 68bd 755a b2bd
000001e0: 320a 83bd 8ebc 9fbd 24d4 e2bb 7959 25be
000001f0: 0337 01be 930d 0c3d 6d17 003e e968 23bd
00000200: feba 383d a589 b1ba bfe6 b23d 041e 9cbc
00000210: 7342 6a3d 757c 133e 2800 cdbd 676b cdbd
00000220: 016e c33c be05 3ebd d5ad 843b 0adf 6d3c
00000230: 551b 0abe 387b 8c3d 30dd 263c d568 6a3d
00000240: c730 a6bd 2c15 37be b176 38be c730 c4bc
00000250: 3d9f c2bd e4d9 bdbd b708 1dbd e2d9 333c
00000260: 67e6 583d 76c7 97bd 39ba 883d 463d 8abc
00000270: fd17 8abd b3e9 013e 68d0 c13d 2120 90bd
00000280: 042d ac3d 309e 063e f938 f53d 2009 933d
00000290: ca8d 033e e972 313c 7be0 f0bd 2a97 f73d
000002a0: 9c7e 903d 80e0 433d a9b6 f93c a4ed 98bc
000002b0: af69 04bd a4ab fbbd 0beb 0c3e c798 c33d
000002c0: 2486 84bc d50c d43d 49eb 913d a7b0 a23d
000002d0: ffb3 a33d 53c2 11be f842 523d 3145 44be
000002e0: 4c73 9b3d efd6 0dbd b7ce 93bd cd7f 4a3c
000002f0: b9fb 92bd ff56 1dbe fb57 18be aa70 7e3c
00000300: 55c6 c7bd 2f4c 07bc b4b2 613c 2cc8 843d
00000310: f79a 9bbd cb86 18be b1b7 37bc 08d2 bf3d
00000320: 3de2 0a3e 926b 20bc 38b9 3fbd fafc ffbd
00000330: 1364 b0bd 2fd3 d83d 0033 bcbd 76d5 d13d
00000340: 92cf 113e 4705 ee3d c638 a1bd 93e1 9fbd
00000350: c642 6f3d 4641 b5bb 35b8 183e 5856 963d
00000360: 0127 a73d 4f9b 04ba 1fc1 683d 5091 64bb
00000370: 0f1f d03d e179 83bd 8d2d 49bd 4882 013e
00000380: c7a5 b2bd b5ea 05bd d99a 12bd 90a9 ab3d
00000390: 50e1 90bd c06f 633a 15be e6ba e7c4 2dbe
000003a0: f8f3 a4bb 61b0 8c3d 6efd e3bd b7c8 dc3d
000003b0: 033b f03d c47a 543d b4f9 1a3d 93c2 0ebe
000003c0: 45db 06bc 5987 dd3c 2582 4b3d b93f 21be
000003d0: 1f55 713d 5c7a 6bbc 3fd2 1c3e f0a7 e63d
000003e0: 8174 ee3d 4ac7 833b 7f18 de3c 7ade 703c
000003f0: 03a0 c73d 4356 ca3d 0f48 47bd b0ee a43d

localization.0.bias f4 [8]
0.17815304 -0.06956811 -0.076607816 -0.21392827 -0.043023054 -0.10612564 -0.19939135 -0.23454237
00000000: c06d 363e ba79 8ebd 8fe4 9cbd 0310 5bbe
00000010: f138 30bd 6658 d9bd 3f2d 4cbe e02b 70be

localization.3.weight f4 [10, 8, 5, 5]
-0.048773035 0.05511039 -0.07125551 -0.14174946 0.016310882 -0.0012840758 -0.014539196 -0.053762455
-0.022622779 -0.04222508 0.06733021 -0.08124869 -0.050193418 -0.06571745 -0.15413836 -0.009733278
-0.026390802 -0.10108833 -0.120435685 -0.059236426 -0.093409255 -0.044451553 -0.099883735 -0.12969762
-0.07492304 0.0768644 0.040610038 0.014311384 0.03225495 -0.071067214 0.014329678 0.055722326
-0.015207303 -0.09260049 -0.10678956 -0.022176228 0.023779692 -0.06691177 -0.0844517 -0.13571627
-0.037305456 0.0017715965 -0.026955891 -0.11632765 -0.11682437 -0.13220014 -0.07306092 -0.063302994
-0.17637044 -0.17766908 0.02336346 -0.008747907 0.00014871164 0.028772978 -0.046148613 -0.07931373
0.008737019 -0.12378507 0.0046382295 0.006973912 0.0797064 0.03763775 -0.08110593 0.033612404
-0.022723364 -0.05434976 -0.07335334 -0.022952612 0.0044028093 -0.07190567 -0.04171347 -0.11297617
-0.10345418 -0.059601717 0.0028365485 0.04051944 0.021258144 -0.02478212 -0.04677219 0.056345265
0.041490436 0.0050837393 -0.014616133 -0.12528887 0.030828627 -0.05551852 -0.014254214 -0.10877093
0.016698759 -0.080557555 0.030480208 -0.0943585 -0.029525355 -0.009800926 -0.034579825 -0.01357888
-0.1535039 -0.000740288 -0.05696966 -0.03257838 -0.06553778 -0.018970354 -0.13106884 -0.12759231
-0.066337705 -0.023718987 -0.09313245 -0.15022324 -0.12465754 -0.10018644 -0.077967666 -0.0935628
-0.03982172 -0.11336404 0.02242656 -0.03636886 -0.092246555 -0.03004917 -0.11341992 0.047301546
-0.06645211 -0.07171266 -0.10768694 -0.07112339 -0.032392237 -0.04781381 -0.1385749 -0.112540215
-0.19069709 -0.15622278 -0.12880446 -0.032040767 -0.10179857 -0.16514337 -0.15579917 -0.006977598
-0.09774689 -0.099757865 -0.036442176 -0.0474238 -0.108711705 -0.109433085 -0.11406571 0.024213362
-0.030320842 -0.017821427 -0.07181175 -0.05979452 0.083358176 -0.029255947 -0.010597931 0.008596569
0.00500519 0.030103235 0.011097717 0.11043315 0.018965146 -0.07873632 -0.0902844 -0.040060446
-0.075176984 -0.03406212 -0.04674968 -0.076024465 -0.14141642 -0.039597776 -0.11705113 -0.09325491
0.027390314 0.006556836 -0.07134953 -0.057100926 -0.061341338 -0.013215806 -0.046714786 -0.032495968
-0.051053654 -0.06557263 0.078975186 -0.04542294 0.06259143 -0.011425793 0.06380166 0.04972059
0.08467282 0.060615793 -0.033798743 -0.028246662 0.0010517936 -0.05955255 -0.010412012 -0.06084991
0.05593696 -0.06928391 0.021257801 -0.03578307 -0.015227677 -0.079987176 -0.03793525 -0.052924752
0.041673746 -0.07076959 0.020051708 0.01486599 -0.06438592 -0.038469233 -0.009831199 -0.0047320784
-0.03910356 0.0048622577 -0.009129325 0.032799833 -0.06901813 -0.08318339 -0.014216193 -0.08470092
-0.07990951 -0.03024706 -0.050767135 -0.050148867 0.042935234 0.04194266 -0.07641174 -0.027875539
-0.08440658 -0.0915431 0.04269036 0.03397286 -0.013930387 -0.003159101 -0.03512162 -0.07017123
-0.02692613 -0.07580863 0.0031737604 -0.033485014 0.024111107 -0.07192524 -0.0013024777 -0.010639037
-0.06802622 0.028582538 -0.036399953 -0.061443377 -0.05565248 -0.08022101 0.017118968 -0.095222324
-0.030549088 0.031324185 -0.054123092 -0.07874074 0.0008836254 -0.0013108983 -0.022103906 0.016876142
00000000: 3cc6 47bd 6fbb 613d 69ee 91bd c526 11be
00000010: 669e 853c 6f4e a8ba cf35 6ebc 0536 5cbd
00000020: 6853 b9bc 35f4 2cbd 6ce4 893d b765 a6bd
00000030: 9d97 4dbd df96 86bd 72d6 1dbe 5478 1fbc
00000040: 8631 d8bc 6607 cfbd fca6 f6bd e5a1 72bd
00000050: 5a4d bfbd d512 36bd d88f ccbd 74cf 04be
00000060: 4071 99bd 156b 9d3d b656 263d 4c7a 6a3c
00000070: c41d 043d b08b 91bd 07c7 6a3c 183d 643d
00000080: 0d28 79bc 53a5 bdbd 7cb4 dabd ecaa b5bc
00000090: a1cd c23c 0a09 89bd 03f5 acbd 35f9 0abe
000000a0: 9bcd 18bd ea34 e83a 9ad2 dcbc 313d eebd
000000b0: 9e41 efbd 795f 07be f7a0 95bd 00a5 81bd
000000c0: 749a 34be e2ee 35be ba64 bf3c 6253 0fbc
000000d0: 7aef 1b39 4fb5 eb3c 5406 3dbd 3d6f a2bd
000000e0: b725 0f3c 0783 fdbd 4afc 973b 6a85 e43b
000000f0: 1c3d a33d 0b2a 1a3d de1a a6bd 29ad 093d
00000100: 5926 babc db9d 5ebd 473a 96bd 1e07 bcbc
00000110: 7145 903b 4843 93bd bedb 2abd 0d60 e7bd
00000120: c9df d3bd ee20 74bd 63e5 393b b6f7 253d
00000130: 8f25 ae3c df03 cbbc 3294 3fbd 4bca 663d
00000140: e0f1 293d 7f95 a63b 8178 6fbc ba4b 00be
00000150: 518c fc3c 6367 63bd 828a 69bc 4bc3 debd
00000160: d6cb 883c 5cfb a4bd a1b1 f93c 073f c1bd
00000170: 28df f1bc 1094 20bc 93a3 0dbd f379 5ebc
00000180: 2030 1dbe e30f 42ba 0559 69bd e870 05bd
00000190: ac38 86bd b767 9bbc e936 06be 8fa7 02be
000001a0: 10dc 87bd 524e c2bc 3abc bebd 1fd4 19be
000001b0: 744c ffbd 8c2e cdbd 83ad 9fbd da9d bfbd
000001c0: 1a1c 23bd 682b e8bd e8b7 b73c 84f7 14bd
000001d0: c3eb bcbd ad29 f6bc b448 e8bd 44bf 413d
000001e0: 0b18 88bd 16de 92bd f88a dcbd 24a9 91bd
000001f0: b9ad 04bd 6ad8 43bd 94e6 0dbe 7c7b e6bd
00000200: 1946 43be ddf8 1fbe 51e5 03be 2e3d 03bd
00000210: c57b d0bd 581b 29be d189 1fbe 56a4 e4bb
00000220: 852f c8bd da4d ccbd 6444 15bd 753f 42bd
00000230: 3ea4 debd 741e e0bd 489b e9bd 1a5b c63c
00000240: 6a63 f8bc 3efe 91bc 0a12 93bd 19eb 74bd
00000250: b1b7 aa3d 2baa efbc f2a2 2dbc a0d8 0c3c
00000260: 9402 a43b 0f9b f63c 33d3 353c c62a e23d
00000270: cb5c 9b3c 8240 a1bd 07e7 b8bd 6c16 24bd
00000280: 64f6 99bd b984 0bbd 987c 3fbd b7b2 9bbd
00000290: 77cf 10be 4731 22bd 81b8 efbd 6efc bebd
000002a0: a761 e03c bada d63b b41f 92bd a9e2 69bd
000002b0: 0e41 7bbd 1c87 58bc 0158 3fbd 7e1a 05bd
000002c0: a31d 51bd f14a 86bd bebd a13d 680d 3abd
000002d0: f02f 803d 4033 3bbc 72aa 823d d1a7 4b3d
000002e0: f268 ad3d 4448 783d 8d70 0abd 8b65 e7bc
000002f0: 56dc 893a 60ed 73bd 2597 2abc c13d 79bd
00000300: 271e 653d b9e4 8dbd d724 ae3c 4591 12bd
00000310: 827d 79bc 51d0 a3bd fe61 1bbd a0c7 58bd
00000320: 17b2 2a3d a6ef 90bd 7b43 a43c 7b90 733c
00000330: c4dc 83bd ea91 1dbd 0a13 21bc 8d0f 9bbb
00000340: 0e2b 20bd 9353 9f3b 2a93 15bc 1e59 063d
00000350: 6159 8dbd 0e5c aabd 09eb 68bc ad77 adbd
00000360: 99a7 a3bd afc8 f7bc 33f1 4fbd e668 4dbd
00000370: dbdc 2f3d 11cc 2b3d c27d 9cbd 3e5b e4bc
00000380: 5bdd acbd f37a bbbd 16dc 2e3d 2027 0b3d
00000390: 473c 64bc eb08 4fbb b0db 0fbd efb5 8fbd
000003a0: 3094 dcbc 8e41 9bbd ddfe 4f3b 9527 09bd
000003b0: a884 c53c 8a4d 93bd e6b7 aaba 5b4f 2ebc
000003c0: 5551 8bbd ed25 ea3c 1e18 15bd 0dac 7bbd
000003d0: dbf3 63bd ea4a a4bd 143d 8c3c ec03 c3bd
000003e0: 1542 fabc ca4d 003d 2db0 5dbd d342 a1bd
000003f0: 19a3 673a 73d2 abba 4013 b5bc d63f 8a3c

localization.3.bias f4 [10]
-0.17835163 -0.00928745 0.039384037 0.020574413 -0.09235791 -0.08165188 -0.050329883 0.0019722732
-0.019946191 0.029526506
00000000: cfa1 36be 642a 18bc 2851 213d ac8b a83c
00000010: 2526 bdbd 1a39 a7bd b526 4ebd 4141 013b
00000020: 3266 a3bc 92e1 f13c
