EmpathyBot/model_snapshots/deep_emotion-200-64-0.005-0.5262245340268747.pt (torch_old, 271009 bytes, 24 tensors)

conv1.weight f4 [10, 1, 3, 3]
-0.019253781 -0.07928582 -1.8728148 0.29015696 0.49575368 0.032225728 -1.0670017 0.8195184
1.4624002 -0.9834511 0.31568247 1.266838 -1.6761774 -0.6821103 1.743947 -0.5580898
0.2589282 0.46002296 1.0853548 -0.2389189 -0.46704596 0.8268647 -0.46373183 -0.5680983
-0.4097174 -0.49021944 -0.8824293 1.335316 1.4913602 0.46899748 -0.94756216 -0.011191539
0.024379788 -1.079992 -0.66327345 -0.41283977 -0.56502396 -0.33736834 0.26967296 -0.098976605
-0.4326412 -0.3219615 1.1907735 0.6966486 -0.22052106 0.7255396 1.01431 0.8109469
1.1487837 0.18950494 -2.1749513 0.2527047 -0.46556762 -1.0055401 -0.17496479 0.05482741
-1.3159444 0.849875 0.75448394 -1.2907854 1.017952 0.34372592 -0.4397542 -0.29732227
-0.27537534 0.56332827 -1.6264764 -0.28986514 0.54455036 -0.08006188 1.3469121 0.4229549
-1.3999377 -0.55710185 -0.2521405 0.0049647805 0.34634653 0.21195684 1.2016368 1.399654
-0.7700629 0.47769886 -0.5750449 1.1681505 -0.2860931 -1.6158218 -0.90281194 0.21204251
0.44014773 0.89406496
00000000: 1bba 9dbc 9b60 a2bd 65b8 efbf 748f 943e
00000010: 6dd3 fd3e 20ff 033d 8393 88bf f5cb 513f
00000020: ee2f bb3f 74c3 7bbf 22a1 a13e bf27 a23f
00000030: fb8c d6bf c89e 2ebf a839 df3f f9de 0ebf
00000040: 3d92 843e 2188 eb3e e8ec 8a3f 28a7 74be
00000050: a620 efbe 68ad 533f 426e edbe e46e 11bf
00000060: 7bc6 d1be 0bfe fabe e3e6 61bf a2eb aa3f
00000070: e4e4 be3f 7020 f03e 6f93 72bf b75c 37bc
00000080: 1fb8 c73c 2e3d 8abf 4acc 29bf bc5f d3be
00000090: 69a5 10bf 8bbb acbe 9312 8a3e 3fb4 cabd
000000a0: 2683 ddbe 23d8 a4be 446b 983f 9057 323f
000000b0: 46d0 61be f7bc 393f e9d4 813f 379a 4f3f
000000c0: 580b 933f 950d 423e 6732 0bc0 8362 813e
000000d0: e15e eebe 8ab5 80bf f829 33be b592 603d
000000e0: de70 a8bf 6891 593f dc25 413f 7538 a5bf
000000f0: 404c 823f d8fc af3e 7627 e1be a03a 98be
00000100: fffd 8cbe 4836 103f 6130 d0bf 3469 94be
00000110: a767 0b3f 7cf7 a3bd 9e67 ac3f 8b8d d83e
00000120: 2931 b3bf 3a9e 0ebf 8f18 81be 99af a23b
00000130: 5554 b13e 370b 593e 3ccf 993f dd27 b33f
00000140: d822 45bf f294 f43e 2436 13bf f585 953f
00000150: cb7a 92be 40d3 cebf af1e 67bf ac21 593e
00000160: 0b5b e13e 71e1 643f

conv1.bias f4 [10]
0.29133835 -0.26322693 -0.5544824 0.24627273 0.21065965 -0.6710581 0.5488393 0.7612976
0.3535965 0.20476031
00000000: 4d2a 953e aec5 86be 8ff2 0dbf eb2e 7c3e
00000010: 2ab7 573e 77ca 2bbf bb80 0c3f 66e4 423f
00000020: 9a0a b53e b0ac 513e

conv2.weight f4 [10, 10, 3, 3]
-0.08321447 -0.11603046 -0.098424084 -0.16834828 -0.10391331 -0.11686552 -0.0984715 -0.25309172
-0.11516626 -0.0914077 0.028724447 -0.021712348 0.016959574 0.033511713 0.009909071 0.02815486
-0.140756 -0.00019121295 -0.03625593 0.036379963 0.06192002 -0.13357177 0.0093231695 0.00989727
0.017271189 -0.10394071 -0.13280664 -0.12900025 -0.11836395 -0.014215727 -0.28093144 -0.26685926
0.03601127 -0.11195002 -0.1435178 -0.18922596 -0.044212 -0.0926894 -0.22879435 -0.067207076
-0.17664854 0.105470456 -0.019464044 -0.10149307 -0.21403104 0.025115056 -0.08652628 -0.040870067
-0.030940322 0.073262446 0.008459304 -0.0015861379 -0.04025882 -0.10496296 -0.21526678 -0.106079176
-0.10168399 0.04696352 -0.27624372 -0.24641857 -0.07355919 0.006281765 -0.14128155 -0.2360229
-0.19940546 -0.053857014 -0.117955446 -0.1476286 0.029657952 -0.22215481 -0.10219121 -0.088084064
-0.23157464 -0.09026393 -0.19359179 -0.19972284 -0.17177695 -0.24821292 -0.09746695 -0.018283436
0.04479919 -0.102689914 0.051483896 -0.064801596 -0.1736446 -0.03056562 0.012707479 -0.04567023
-0.22321989 -0.074378535 -0.3853988 -0.34017313 0.051311065 0.15317667 -0.1304888 -0.10033699
-1.6300422 -0.35563555 -0.90235835 0.024269141 -0.29756656 -0.42991367 -0.70766586 -1.156344
-0.49543104 -0.05302992 -0.4239562 -0.8227997 -0.29629183 -0.0940436 -0.49989405 -0.05697691
-0.11038644 0.044917867 0.51251656 -0.10627158 -0.039874658 -0.22257306 -0.9973931 -1.4029614
1.099175 0.8474706 0.35484996 1.3835961 1.0495623 1.0157988 0.71088356 0.33039358
0.15582815 -1.725464 -0.38570753 0.698128 0.6388683 -0.68922645 -1.2993196 1.0626694
0.58335084 0.20404118 -0.38623908 0.33893788 0.59029007 -1.0255094 -0.5069239 0.2456846
-0.113326475 0.09398148 0.53212285 -0.9558294 -0.113187306 0.12991625 -1.047483 -0.69659835
-0.5383192 0.3824911 0.40147167 0.3727154 -0.9372747 -0.002724528 1.5583905 0.18175966
-0.07854055 0.50609636 0.7148519 0.5876302 0.49370846 -1.4571564 -1.1359503 0.07028167
-1.2833337 -1.7358354 -1.1666422 -0.27169526 -0.47661838 0.09246855 -1.2268391 0.28717425
1.5181589 1.4437004 -0.30622014 -0.9705157 -1.288368 -0.45029354 -0.9115642 -0.77511674
0.85219747 -0.040542312 0.7178588 -0.25076538 -1.3996106 -1.57566 0.59193957 0.553441
-2.7961006 -0.8545288 -1.0755929 -2.1589038 0.2239699 1.2578392 -0.11495786 -0.03494779
-0.7634896 0.870432 0.31634536 -0.706998 1.1607748 0.94494456 0.13099132 -0.31226003
0.48797268 1.1978317 0.17200455 0.35375708 0.44909957 -0.21556641 0.5042466 1.0199418
-0.80904937 0.18760727 0.1296078 -2.1678348 -1.2478358 0.1106604 -0.053854052 0.17170784
-0.21396144 0.6009222 0.22652419 -0.87259656 0.14544691 -0.38935167 -2.5798306 0.75457543
1.2110597 -1.0950109 -0.62248456 -0.8585881 -0.55076677 -1.0042263 -0.9890335 -1.0343382
0.72681624 1.4302144 0.2435569 1.0948243 -0.30452722 -2.371077 0.2870821 -0.31562597
-0.09142131 -1.9922124 -0.2607161 0.025300503 0.02777837 0.56304514 -1.3820912 -0.6754293
00000000: 596c aabd 61a1 edbd 9192 c9bd 7e63 2cbe
00000010: 80d0 d4bd 3157 efbd 6dab c9bd 3d95 81be
00000020: 4adc ebbd f633 bbbd 884f eb3c 18de b1bc
00000030: ceee 8a3c 9443 093d a859 223c 05a5 e63c
00000040: 5722 10be 5680 48b9 1981 14bd 2803 153d
00000050: d99f 7d3d 0ac7 08be 35c0 183c 2928 223c
00000060: 4f7c 8d3c dede d4bd 77fe 07be a418 04be
00000070: cc68 f2bd 15e9 68bc 3fd6 8fbe c7a1 88be
00000080: 8e80 133d 0d46 e5bd 55f6 12be 73c4 41be
00000090: a417 35bd f1d3 bdbd 1149 6abe dda3 89bd
000000a0: 5be3 34be e500 d83d 0f73 9fbc 99db cfbd
000000b0: f42a 5bbe 17be cd3c b134 b1bd 5f67 27bd
000000c0: 8f76 fdbc 9f0a 963d e598 0a3c f5e5 cfba
000000d0: 6fe6 24bd d2f6 d6bd e56e 5cbe 0a40 d9bd
000000e0: b23f d0bd d25c 403d d16f 8dbe 2655 7cbe
000000f0: 33a6 96bd 44d7 cd3b 1cac 10be fdaf 71be
00000100: f230 4cbe 2c99 5cbd a092 f1bd f42b 17be
00000110: 3cf5 f23c 8d7c 63be a049 d1bd 6b65 b4bd
00000120: e721 6dbe 4cdc b8bd ed3c 46be 2584 4cbe
00000130: 4ce6 2fbe 872b 7ebe c19c c7bd 25c7 95bc
00000140: 5b7f 373d 174f d2bd c7e0 523d b3b6 84bd
00000150: e4cf 31be c064 fabc 0833 503c b510 3bbd
00000160: c193 64be c653 98bd fe52 c5be 2c2b aebe
00000170: 8d2b 523d 58da 1c3e db9e 05be 7b7d cdbd
00000180: 39a5 d0bf dd15 b6be f500 67bf 14d0 c63c
00000190: a55a 98be a51d dcbe 9729 35bf 1503 94bf
000001a0: 23a9 fdbe e735 59bd c910 d9be 00a3 52bf
000001b0: 90b3 97be ee99 c0bd 1df2 ffbe 9f60 69bd
000001c0: 4912 e2bd ccfb 373d 4934 033f eaa4 d9bd
000001d0: 9c53 23bd 31ea 63be 2755 7fbf 3d94 b3bf
000001e0: c4b1 8c3f d5f3 583f e5ae b53e ad19 b13f
000001f0: 0f58 863f b205 823f 77fc 353f 5929 a93e
00000200: 6a91 1f3e 01dc dcbf 757b c5be 84b8 323f
00000210: df8c 233f 2571 30bf 1b50 a6bf 8d05 883f
00000220: 7b56 153f 2cf0 503e 21c1 c5be 4489 ad3e
00000230: 401d 173f e443 83bf c4c5 01bf be94 7b3e
00000240: b617 e8bd 5d79 c03d 3439 083f 3cb1 74bf
00000250: bfce e7bd c408 053e ec13 86bf 4554 32bf
00000260: 49cf 09bf e0d5 c33e b28d cd3e 8ed4 be3e
00000270: 3cf1 6fbf ff8d 32bb 5779 c73f 341f 3a3e
00000280: ded9 a0bd 888f 013f 8900 373f ef6e 163f
00000290: 5bc7 fc3e 1a84 babf d266 91bf d6ef 8f3d
000002a0: 4744 a4bf db2f debf 8854 95bf a41b 8bbe
000002b0: 5307 f4be 2760 bd3d 1009 9dbf 8108 933e
000002c0: 0853 c23f 2dcb b83f e3c8 9cbe b873 78bf
000002d0: 3ee9 a4bf e08c e6be 455c 69bf 0d6e 46bf
000002e0: 9d29 5a3f b20f 26bd 98c5 373f 5264 80be
000002f0: 7126 b3bf 3aaf c9bf 5a89 173f 4fae 0d3f
00000300: 50f3 32c0 66c2 5abf 07ad 89bf 7b2b 0ac0
00000310: 5e58 653e e000 a13f 076f ebbd 6a25 0fbd
00000320: 0e74 43bf a2d4 5e3f 05f8 a13e d2fd 34bf
00000330: 4594 943f e3e7 713f 9722 063e 8ce0 9fbe
00000340: 8ed7 f93e 8d52 993f f621 303e a61f b53e
00000350: 61f0 e53e 71bd 5cbe 4e16 013f 748d 823f
00000360: dc1d 4fbf 1f1c 403e e8b7 043e cebd 0ac0
00000370: 15b9 9fbf eba1 e23d 1196 5cbd 2ed4 2f3e
00000380: b518 5bbe 0ad6 193f f5f5 673e 7d62 5fbf
00000390: 09f0 143e 1a59 c7be f21b 25c0 db2b 413f
000003a0: 0104 9b3f 5129 8cbf 265b 1fbf 6ecc 5bbf
000003b0: 0dff 0cbf 7d8a 80bf 4d31 7dbf 3265 84bf
000003c0: a110 3a3f 4411 b73f fb66 793e 3423 8c3f
000003d0: feea 9bbe babf 17c0 6dfc 923e ba99 a1be
000003e0: 193b bbbd d100 ffbf 957c 85be 0043 cf3c
000003f0: 778f e33c ba23 103f 5de8 b0bf efe8 2cbf

conv2.bias f4 [10]
-0.25386366 0.9797277 0.0719268 -0.07580433 1.6668144 2.1836486 0.35975575 0.3693291
-0.04615603 0.9807396
00000000: 6bfa 81be 6fcf 7a3f 5c4e 933d 4d3f 9bbd
00000010: 2d5a d53f e6c0 0b40 e831 b83e b418 bd3e
00000020: 1b0e 3dbd c011 7b3f

conv3.weight f4 [10, 10, 3, 3]
-0.021197801 0.12785245 -0.10050723 -0.03393127 0.10669845 0.042050578 0.16659814 0.072981134
-0.016890775 -1.232512 -0.44702408 -0.13027906 -1.088238 0.20745191 -0.04329076 -0.7326709
0.52149737 1.4896786 -0.47236955 -0.23342152 1.2266803 0.14743091 0.29809624 1.8728783
0.3225152 0.68486565 1.5020198 0.007757389 0.03100483 -0.025822055 -0.017847592 0.10425609
-0.09331726 0.03545409 0.09979995 0.113248184 -0.5359556 -1.4348917 0.03419342 0.38477436
1.314564 1.2127416 0.07957937 0.9586532 1.061718 0.13444452 0.41688672 0.15631522
0.7773011 -0.14390333 0.21793196 0.620231 -0.03625232 0.40944389 -0.29115576 -0.26141822
0.63988507 -0.04071823 -0.26337588 0.89692193 -0.4409061 0.21261187 0.99727285 -1.4094503
-1.3658139 -0.26704544 -0.97291154 -0.4532405 0.69501036 0.51735806 1.3789401 0.012796884
-0.030085502 -0.14748247 -0.106760934 0.09642317 0.007519897 -0.06845784 0.19953494 0.016156485
0.18459152 0.28577432 0.59359676 0.6916563 1.3484528 1.8424857 0.6307732 1.6888819
1.2051957 1.1575809 0.04302985 0.069941424 -0.04609541 0.061914396 -0.045045543 0.123908386
-0.04217224 -0.006787325 -0.106457606 0.019280845 -0.094564475 -0.017537901 -0.074744746 -0.09933233
-0.050671685 -0.0014516878 -0.046044543 0.026365139 0.010269925 -0.03352978 0.013783467 -0.09957344
-0.025730139 0.104140304 0.080998085 -0.029979696 -0.0051268227 0.030832626 0.00983083 -0.113515384
0.032520667 -0.11286575 -0.11892566 0.09586939 -0.1039401 0.062871344 -0.020656085 0.010416203
-0.15321732 0.040579446 -0.026872994 0.013213353 -0.06716784 -0.009971246 -0.0755322 0.064057305
-0.13850658 -0.070976645 -0.04054944 -0.11070313 -0.007212849 0.08558146 -0.11739705 -0.10436862
-0.03811392 -0.05337763 -0.0032819882 -0.035161525 -0.0051786066 0.037471052 -0.060426008 -0.036966767
0.016505022 -0.09321181 -0.06319608 -0.002337976 -0.039869513 -0.09856049 -0.12711126 -0.033097025
-0.11682329 -0.15157396 0.14088508 0.023613445 0.08694237 0.017053021 0.13075045 0.022312826
0.027338732 0.1146506 0.037637845 -0.040150587 -0.12432897 -0.05005313 0.033517644 -0.10864441
-0.034818616 0.0498433 -0.13140021 -0.06946406 0.07371019 0.021421878 0.018959744 0.01155387
0.06586693 -0.013107487 0.078621216 -0.11974543 -0.07888904 0.43575 0.054451805 1.1193346
-0.3787392 -0.50449723 -0.5137224 0.073992014 -0.21915598 -0.49290872 -0.2515971 -0.9254346
-1.1959207 -0.9579225 -0.53532606 -0.8204121 -1.8418828 -0.7855226 -0.3890051 0.04632155
-0.028150573 -0.10012385 0.017047623 -0.0024966884 0.08665615 0.04503512 0.024803648 -0.08830289
0.21535951 0.32943574 0.8000793 -0.22192423 -0.55249995 -0.30417228 -1.0015204 -0.7362188
-0.5921328 -0.30105826 -0.19893706 0.51180416 0.017000528 0.36048982 0.8800064 1.2666276
1.5643038 0.88178724 0.21270375 0.13394226 0.89850783 0.07664981 0.45367756 1.4993377
0.42287937 0.3197367 0.86833006 0.67246526 0.8950219 0.16416189 0.33561453 -0.30146235
-0.3603365 -1.1477542 -1.5399871 -1.1667296 0.07088346 -0.010964106 0.032139488 0.027025219
00000000: 03a7 adbc c1eb 023e bcd6 cdbd 84fb 0abd
00000010: b884 da3d 3a3d 2c3d b498 2a3e 2277 953d
00000020: 865e 8abc f4c2 9dbf 57e0 e4be e067 05be
00000030: 624b 8bbf 466e 543e a751 31bd 5290 3bbf
00000040: da80 053f caad be3f 6cda f1be 0d06 6fbe
00000050: dc03 9d3f 21f8 163e 12a0 983e 7aba ef3f
00000060: b620 a53e 5b53 2f3f 2f42 c03f b231 fe3b
00000070: d7fd fd3c c688 d3bc 1d35 92bc 3884 d53d
00000080: 1f1d bfbd 4f38 113d eb63 cc3d aaee e73d
00000090: 6334 09bf 88aa b7bf 660e 0c3d 2501 c53e
000000a0: a243 a83f 1e3b 9b3f 82fa a23d 4c6a 753f
000000b0: 60e6 873f d3ab 093e 2d72 d53e 1911 203e
000000c0: 34fd 463f 655b 13be 8e29 5f3e 75c7 1e3f
000000d0: 507d 14bd a1a2 d13e 5e12 95be 9cd8 85be
000000e0: 82cf 233f 29c8 26bd 34d9 86be ad9c 653f
000000f0: 72be e1be edb6 593e 464d 7f3f de68 b4bf
00000100: fdd2 aebf 2eba 88be bb10 79bf 240f e8be
00000110: 33ec 313f 9471 043f 1c81 b03f 06aa 513c
00000120: df75 f6bc a505 17be 7aa5 dabd 8379 c53d
00000130: 7869 f63b a033 8cbd e352 4c3e 9b5a 843c
00000140: 8f05 3d3e 0351 923e f5f5 173f 6310 313f
00000150: 1a9a ac3f 92d6 eb3f 5a7a 213f 482d d83f
00000160: da43 9a3f 9c2b 943f 1140 303d 733d 8f3d
00000170: 8ace 3cbd f399 7d3d ad81 38bd aec3 fd3d
00000180: ccbc 2cbd 3568 debb 7206 dabd ddf2 9d3c
00000190: 05ab c1bd a5ab 8fbc c613 99bd c06e cbbd
000001a0: 1d8d 4fbd 8f46 beba 3499 3cbd b4fb d73c
000001b0: 3043 283c 8656 09bd 0dd4 613c 29ed cbbd
000001c0: 03c8 d2bc 8347 d53d 53e2 a53d fb97 f5bc
000001d0: e8fe a7bb b494 fc3c 7d11 213c c17a e8bd
000001e0: 6434 053d 2926 e7bd 4c8f f3bd 2c57 c43d
000001f0: 8cde d4bd b1c2 803d f336 a9bc b9a8 2a3c
00000200: 00e5 1cbe a236 263d c124 dcbc d27c 583c
00000210: 4b8f 89bd 705e 23bc a0b0 9abd 7a30 833d
00000220: abd4 0dbe 345c 91bd 2b17 26bd 53b8 e2bd
00000230: c359 ecbb 5545 af3d dd6d f0bd 37bf d5bd
00000240: 571d 1cbd 80a2 5abd a016 57bb 8805 10bd
00000250: 4db1 a9bb 3f7b 193d 4381 77bd 776a 17bd
00000260: 8a35 873c d5e5 bebd f26c 81bd ba38 19bb
00000270: 374e 23bd 15da c9bd 7429 02be bf90 07bd
00000280: 0d41 efbd 3436 1bbe 2e44 103e fc70 c13c
00000290: d70e b23d c7b2 8b3c 72e3 053e 63c9 b63c
000002a0: 7af5 df3c efcd ea3d 242a 1a3d f174 24bd
000002b0: 30a0 febd 8304 4dbd cc49 093d f680 debd
000002c0: f79d 0ebd 7d28 4c3d c78d 06be 2c43 8ebd
000002d0: 5ef5 963d ef7c af3c 7751 9b3c 714c 3d3c
000002e0: 3ee5 863d c9c0 56bc 2904 a13d 183d f5bd
000002f0: 9490 a1bd a01a df3e db08 5f3d 5b46 8f3f
00000300: 1bea c1be bb26 01bf 5083 03bf 2089 973d
00000310: 6d6a 60be 885e fcbe 56d1 80be 48e9 6cbf
00000320: ee13 99bf 693a 75bf 210b 09bf 8706 52bf
00000330: d1c2 ebbf 0218 49bf ad2b c7be aabb 3d3d
00000340: 089c e6bc bc0d cdbd 75a7 8b3c 7b9f 23bb
00000350: c878 b13d bf76 383d 0531 cb3c 25d8 b4bd
00000360: 3487 5c3e cdab a83e ffd1 4c3f 1b40 63be
00000370: a370 0dbf 78bc 9bbe d231 80bf d678 3cbf
00000380: 0496 17bf 4f24 9abe 28b6 4bbe 9905 033f
00000390: b144 8b3c 1f92 b83e 1948 613f da20 a23f
000003a0: 1b3b c83f cfbc 613f 03cf 593e 2928 093e
000003b0: 9c04 663f 93fa 9c3d 6d48 e83e 4cea bf3f
000003c0: a583 d83e 87b4 a33e e14a 5e3f af26 2c3f
000003d0: 2820 653f 0e1a 283e abd5 ab3e 4659 9abe
000003e0: 077e b8be 9ce9 92bf 4c1e c5bf 6557 95bf
000003f0: 592b 913d cba2 33bc b2a4 033d fe63 dd3c

conv3.bias f4 [10]
-1.3056525 -0.07991727 1.5227014 -0.09510208 -0.005266267 0.011694794 -0.09284314 -0.10379312
-0.059974667 3.835928
00000000: 9f1f a7bf aaab a3bd e1e7 c23f e1c4 c2bd
00000010: a690 acbb 859b 3f3c 8b24 bebd 7d91 d4bd
00000020: ffa7 75bd d87f 7540

conv4.weight f4 [10, 10, 3, 3]
-0.6079828 -0.33762467 -0.3104545 -0.6550873 -0.9336507 -0.6478751 0.7063461 -1.6856899
-1.4717673 -0.0855958 0.03916873 -0.05235547 0.059586853 0.06760235 0.08416227 -0.017707044
0.02783391 0.080982335 -0.025842862 -0.16594897 -0.32314548 -0.6220942 -0.116562866 0.87917835
-1.4989299 0.361288 1.4711488 -0.014006887 -0.031891573 -0.099610224 0.14140487 -0.07068844
0.020722171 0.09003036 0.0946155 -0.065271 0.028497303 0.05977514 0.019590007 0.10556375
0.007880332 0.019014524 0.1123035 0.011643738 -0.03079262 0.05236129 -0.031862464 -0.053571463
-0.04186789 0.053383704 0.12635654 -0.1023851 -0.038018726 -0.07448807 0.061643034 0.0046656923
-0.015781185 -0.059768364 0.030839264 0.12584879 -0.049625486 -0.049187075 -0.03683078 0.014359602
0.042000126 0.057442997 -0.1209668 0.037419666 0.11706314 0.13931406 -0.028044585 -0.11674331
-0.08629505 0.041099083 0.027771072 -0.0603325 -0.16477954 0.05434477 -0.01714789 0.02124952
-0.09441131 -0.40486687 -0.69275534 -1.1453035 1.0548843 0.04146287 -0.9650414 1.2322067
0.6210382 0.057385433 0.9328979 0.4016022 1.2611022 -0.17729925 0.4606576 -0.035815522
-2.0389752 -0.6991583 -2.2665918 0.09260785 -0.023964997 0.06883037 -0.020137709 0.035859685
0.0199304 -0.05783929 0.080935836 -0.10840782 0.20423248 0.04286079 0.27394414 -0.6941914
0.13097918 0.42584202 -0.1811522 -0.6525403 0.42869204 0.072357446 0.04507488 -0.0551316
-0.09923625 0.14550501 -0.21565059 0.064292714 0.057967275 -0.026939617 -0.040892176 -0.104847126
0.08104754 0.12285443 -0.07479645 0.042693414 0.012250473 0.0027148034 -0.046857957 -0.07857831
0.034282524 -0.103415675 -0.05603841 -0.06736698 0.07190797 0.012332568 0.010594609 -0.0067905528
0.104310304 0.020246686 0.022224598 0.042614423 0.018096441 -0.028609075 -0.10593026 0.037439376
-0.10198992 -0.08981956 -0.041702565 0.09575791 0.0031501544 -0.07853522 0.06131779 0.07820243
-0.080239154 -0.111623 0.023763472 -0.035826616 0.022428043 -0.01661404 0.018119102 -0.060274325
0.096022956 -0.14608578 -0.22179966 -1.1960367 -0.7505 -0.5566634 0.030139579 0.20950265
0.88972074 1.0076516 0.73332405 0.17137387 -0.053427618 1.0399731 0.5007999 0.80126
1.0707523 1.4998132 0.13081504 -0.30011332 -0.6452414 -0.016859917 -0.09103568 -0.04944109
-0.14461835 0.08772925 0.04492432 -0.10924166 -0.032579336 0.06353146 -0.8153848 -0.5751215
-0.7674357 -0.105899274 -1.3968519 -0.004996312 -1.3999473 -0.80430233 0.99943614 0.11532249
-0.065284945 -0.032606315 -0.0051612915 0.059197567 0.05234315 -0.019472934 0.14215289 0.10404581
0.034362495 0.10247074 0.08965627 -0.04471425 0.12124775 -0.0005875651 -0.08263844 -0.039466884
-0.010193109 -0.0626399 -0.07666129 0.11618606 0.00065700826 0.0036481568 0.022750584 -0.022435937
0.07125734 0.1233871 0.06065996 0.051166482 -0.11892417 -0.039867662 -0.08499434 -0.05830043
0.08691603 -0.0420663 -0.029487971 0.0029835645 0.01388084 0.07310365 0.012466614 -0.008053446
-0.001846716 0.003207421 -0.010568437 -0.07583767 -0.010845531 0.0053813965 0.11237692 0.050878804
00000000: c3a4 1bbf 24dd acbe e4f3 9ebe cdb3 27bf
00000010: bb03 6fbf 24db 25bf 19d3 343f b0c4 d7bf
00000020: df62 bcbf da4c afbd 646f 203d b072 56bd
00000030: 5811 743d 1a73 8a3d 455d ac3d 5d0e 91bc
00000040: f103 e43c 11da a53d 69b4 d3bc 87ee 29be
00000050: 5373 a5be 9141 1fbf 83b8 eebd d511 613f
00000060: efdc bfbf befa b83e 9b4e bc3f 247d 65bc
00000070: bda0 02bd 7200 ccbd 70cc 103e 1ac5 90bd
00000080: 8bc1 a93c d661 b83d c5c5 c13d cdac 85bd
00000090: 2d73 e93c c7d6 743d 397b a03c cf31 d83d
000000a0: 821c 013c 59c4 9b3c 61ff e53d 60c5 3e3c
000000b0: ce40 fcbc cb78 563d 3782 02bd c06d 5bbd
000000c0: aa7d 2bbd dfa8 5a3d 9c63 013e 48af d1bd
000000d0: 86b9 1bbd 348d 98bd 687d 7c3d aae2 983b
000000e0: 8b47 81bc accf 74bd a0a2 fc3c 81de 003e
000000f0: 1844 4bbd 6378 49bd dfdb 16bd 8944 6b3c
00000100: 5308 2c3d 5949 6b3d 71bd f7bd 5d45 193d
00000110: cdbe ef3d 58a8 0e3e c2bd e5bc 1e17 efbd
00000120: 76bb b0bd 8357 283d 2980 e33c 361f 77bd
00000130: f8bb 28be 9f98 5e3d bb79 8cbc 7913 ae3c
00000140: b85a c1bd b64a cfbe 6a58 31bf 4e99 92bf
00000150: 7306 873f f8d4 293d f40c 77bf f3b8 9d3f
00000160: 5cfc 1e3f fd0c 6b3d 66d2 6e3f ce9e cd3e
00000170: cc6b a13f ef8d 35be 50db eb3e 4cb3 12bd
00000180: 927e 02c0 0afc 32bf d70f 11c0 2fa9 bd3d
00000190: 3e52 c4bc f0f6 8c3d d6f7 a4bc 9be1 123d
000001a0: 1445 a33c e4e8 6cbd b0c1 a53d eb04 debd
000001b0: 5222 513e cc8e 2f3d 6842 8c3e 87b6 31bf
000001c0: 681f 063e f707 da3e f67f 39be e20c 27bf
000001d0: 867d db3e 2430 943d 70a0 383d acd1 61bd
000001e0: 603c cbbd 44ff 143e 82d3 5cbe e6ab 833d
000001f0: 186f 6d3d 79b0 dcbc 8e7e 27bd 17ba d6bd
00000200: 41fc a53d 1a9b fb3d e22e 99bd 4adf 2e3d
00000210: 35b6 483c d8ea 313b 21ee 3fbd aaed a0bd
00000220: d56b 0c3d 99cb d3bd 8888 65bd b3f7 89bd
00000230: 7c44 933d 8a0e 4a3c 0395 2d3c 4983 debb
00000240: a4a0 d53d 61dc a53c 5c10 b63c 768c 2e3d
00000250: fd3e 943c 945d eabc f7f1 d8bd 085a 193d
00000260: 17e0 d0bd 51f3 b7bd 4fd0 2abd b91c c43d
00000270: d272 4e3b 13d7 a0bd 5d28 7b3d 9828 a03d
00000280: 6d54 a4bd 999a e4bd 9dab c23c eebe 12bd
00000290: 04bb b73c 2b1a 88bc 836e 943c 36e2 76bd
000002a0: afa7 c43d 8397 15be 731f 63be bb17 99bf
000002b0: c520 40bf 7e81 0ebf 47e7 f63c dd87 563e
000002c0: bdc4 633f bafa 803f 20bb 3b3f a27c 2f3e
000002d0: ebd6 5abd d71d 853f 6c34 003f 601f 4d3f
000002e0: 690e 893f e1f9 bf3f 61f4 053e 74a8 99be
000002f0: 8a2e 25bf cf1d 8abc ea70 babd be82 4abd
00000300: d516 14be 65ab b33d 9002 383d 17ba dfbd
00000310: e971 05bd c81c 823d 0fbd 50bf 2a3b 13bf
00000320: ab76 44bf b8e1 d8bd 0bcc b2bf 1ab8 a3bb
00000330: 7931 b3bf c2e6 4dbf 0cdb 7f3f 332e ec3d
00000340: 1db4 85bd 338e 05bd 0d20 a9bb 2679 723d
00000350: c565 563d b485 9fbc 8790 113e f815 d53d
00000360: b0bf 0c3d 2edc d13d b59d b73d 4a26 37bd
00000370: be50 f83d d406 1aba 583e a9bd 07a8 21bd
00000380: ff00 27bc 5949 80bd 9800 9dbd f5f2 ed3d
00000390: 143b 2c3a ea15 6f3b 6f5f ba3c 92cb b7bc
000003a0: 5eef 913d 60b2 fc3d 9476 783d f293 513d
000003b0: 848e f3bd 464c 23bd 8311 aebd 6fcc 6ebd
000003c0: 0801 b23d b64d 2cbd c290 f1bc e887 433b
000003d0: 766c 633c 5eb7 953d c540 4c3c 9af2 03bc
000003e0: 820d f2ba 9833 523b 3d27 2dbc c850 9bbd
000003f0: 74b1 31bc 6d56 b03b df25 e63d 4b66 503d

conv4.bias f4 [10]
0.19045556 0.3275709 -0.06860785 -0.10993269 -0.2537086 -0.071082436 -0.3776131 0.2681905
-0.42187202 0.23185019
00000000: c806 433e 5fb7 a73e 4682 8cbd 6424 e1bd
00000010: 18e6 81be ab93 91bd 8156 c1be 4450 893e
00000020: 9cff d7be 236a 6d3e

norm.weight f4 [10]
0.42200533 0.22624587 0.22743407 0.205915 0.13288666 0.23693244 0.42761973 0.24693151
0.28306776 0.18602212
00000000: 1511 d83e ffac 673e 7ae4 683e 62db 523e
00000010: 7113 083e 6b9e 723e f9f0 da3e 9ddb 7c3e
00000020: 42ee 903e 957c 3e3e

norm.bias f4 [10]
-0.4373426 -0.25144407 -0.3048818 -0.14589067 -0.09966118 -0.18751456 -0.40760502 -0.21824495
-0.24942482 -0.14234088
00000000: 5feb dfbe 47bd 80be 7819 9cbe 5d64 15be
00000010: 291b ccbd d103 40be 9bb1 d0be 9b7b 5fbe
00000020: 3869 7fbe cfc1 11be

norm.running_mean f4 [10]
-253.86536 -71.97879 -140.70241 -190.04239 42.702465 -178.2902 -384.505 -312.26727
-254.82219 -19.991558
00000000: 88dd 7dc3 24f5 8fc2 d1b3 0cc3 da0a 3ec3
00000010: 53cf 2a42 4b4a 32c3 a440 c0c3 3622 9cc3
00000020: 7bd2 7ec3 b6ee 9fc1

norm.running_var f4 [10]
19344.312 12271.84 20547.248 26534.64 7230.6094 11427.251 30008.371 17629.203
30385.484 17787.863
00000000: a020 9746 5cbf 3f46 7f86 a046 484d cf46
00000010: e0f4 e145 018d 3246 be70 ea46 68ba 8946
00000020: f862 ed46 baf7 8a46

fc1.weight f4 [50, 810]
-0.035904944 -0.70175105 -1.800799 -1.7590111 -0.6705561 -0.19824769 0.052745063 0.0029818122
-0.09705477 -1.0802968 -1.1811677 -1.2157954 -0.5417992 0.40550965 -0.59601384 1.2919217
-0.5610987 -1.0404856 0.08126457 0.0041974294 -0.71673393 -0.45247316 -0.6473252 -0.18825004
-0.106487095 -1.2220665 -0.71079767 0.426429 0.45770657 0.6149305 1.4554996 0.6567439
0.043690637 -0.94236726 -0.7407483 0.15246664 -0.34232745 -0.76491886 0.5162856 -0.4066535
-0.11805615 -0.06147984 -0.107192926 -0.24800763 -0.72669244 -0.48028702 -1.0457896 0.19213647
-0.90304667 -0.9944374 -2.6158624 -1.8113625 -1.0526304 -0.4414648 -0.1351608 -0.92732334
0.002268388 -0.63256794 -0.83886415 -0.16665244 -1.2511061 -0.17282587 0.16951138 -0.086574115
-0.38178116 -0.28699863 -1.8698273 -0.42560518 -1.5359755 -2.1481733 0.7771088 -0.6050584
-0.45625114 -2.1290119 -0.22100483 -1.5336816 0.43779075 -1.7424381 -0.95577157 0.09416211
-0.23097761 -0.27088523 0.55818594 -0.5746427 -0.24422306 -0.45362464 0.36184558 0.9389048
-0.07604029 1.0024678 -0.044809636 0.6559637 -1.0204762 -0.41352606 -0.7414349 -0.58392733
-0.3109806 0.12846862 0.63787806 0.5093815 0.017861366 0.26672438 0.417668 0.93310946
0.26437747 -0.24213271 0.10113926 0.17777236 -0.07895299 0.15846147 -0.29878196 -0.03246689
-0.28934446 0.20914927 -0.09468164 -0.09613827 -0.17950614 -0.89337796 0.3420624 -0.04380229
-2.0159645 -0.7548294 0.19596133 0.7161126 0.90895635 -0.35954654 0.44983467 -0.47478223
-2.2947657 -2.0304527 -0.25058773 -0.04630885 -0.16610059 0.5381966 0.7249378 -0.7739526
0.31854323 0.6728283 -1.5941042 -0.68448216 -0.32315156 -0.3261658 0.89425844 1.0414218
-0.17717712 -0.33765423 -0.52123475 -1.4892514 -1.1474903 -0.8299547 -0.7282578 -1.7968688
-0.08638443 0.09999322 -0.91429406 -1.096163 -1.5797248 -2.2876692 -0.37694952 -0.7531472
-0.37564334 0.34895858 -1.1636198 -0.74685687 -0.3004546 -0.17983466 -0.94122356 -1.6792015
-0.6655979 0.40873098 0.8291176 0.16387092 -0.40858558 -0.8594918 -0.66216403 -2.451745
-1.6969233 -0.07309543 -0.19574757 -0.91384596 0.22006117 -0.63622504 -1.1852508 -1.994143
-0.65609443 0.10930052 0.84732574 -0.41089982 0.2949711 0.015964497 -0.030148797 -0.57107157
1.192861 1.0656066 -0.09353782 0.24020447 0.45312127 0.43580064 0.36214954 0.3508919
-0.42522842 0.51473194 -0.13119937 -0.94787824 0.82329386 -1.0826707 -1.1527785 -1.3521081
0.3344659 0.062104553 -0.54284877 -1.8797998 -0.83925414 -0.8821142 -1.1192815 -0.065565675
0.45708206 -0.89295304 -0.3269411 0.073095076 -0.64775044 -1.0299033 -0.27712807 -0.3514303
-0.74716985 -0.5979332 0.20230739 0.11561147 0.126702 -0.26999587 0.2241583 -0.35759673
0.22874 -0.14026473 -0.76866305 -1.7434629 -0.007744339 -0.2750738 1.0223116 -0.90096647
-1.4795554 0.65595824 -0.25798213 -0.25410077 0.7164843 0.28100136 0.06228909 -0.7925908
-0.26982284 0.11369435 0.43338966 0.44483498 -0.5083832 0.6762012 0.26659638 0.92068243
00000000: 1011 13bd f5a5 33bf 9580 e6bf 4727 e1bf
00000010: 91a9 2bbf 7101 4bbe 350b 583d 826a 433b
00000020: a7c4 c6bd 2a47 8abf 8130 97bf 2f9f 9bbf
00000030: 5ab3 0abf f69e cf3e 5d94 18bf b15d a53f
00000040: 2aa4 0fbf a22e 85bf 0a6e a63d 978a 893b
00000050: e07b 37bf 90aa e7be 1bb7 25bf 9ec4 40be
00000060: e815 dabd ad6c 9cbf d6f6 35bf e754 da3e
00000070: 8458 ea3e 166c 1d3f d04d ba3f 5e20 283f
00000080: f4f4 323d fb3e 71bf aea1 3dbf 3720 1c3e
00000090: 8b45 afbe b9d1 43bf 4b2b 043f e334 d0be
000000a0: 6cc7 f1bd 49d2 7bbd f787 dbbd b6f5 7dbe
000000b0: 8408 3abf 2ee8 f5be 6fdc 85bf 6cbf 443e
000000c0: 112e 67bf 7393 7ebf 4a6a 27c0 bada e7bf
000000d0: 98bc 86bf ad07 e2be 9867 0abe 1065 6dbf
000000e0: 3ca9 143b f9ef 21bf cdbf 56bf f0a6 2abe
000000f0: 3f24 a0bf 44f9 30be 6494 2d3e c54d b1bd
00000100: d278 c3be 7cf1 92be 8056 efbf ece8 d9be
00000110: d89a c4bf ac7b 09c0 9af0 463f 1be5 1abf
00000120: c099 e9be bb41 08c0 174f 62be ae4f c4bf
00000130: 1c26 e03e 3608 dfbf 72ad 74bf 10d8 c03d
00000140: 6585 6cbe 78b1 8abe 46e5 0e3f c91b 13bf
00000150: 9c15 7abe 7d41 e8be d343 b93e 115c 703f
00000160: 03bb 9bbd dd50 803f 4f8a 37bd 3ded 273f
00000170: f79e 82bf b0b9 d3be adce 3dbf 437c 15bf
00000180: d938 9fbe 478d 033e fa4b 233f d366 023f
00000190: 0052 923c 1990 883e 95d8 d53e 43e0 6e3f
000001a0: 7c5c 873e a3f1 77be 1a22 cf3d f509 363e
000001b0: 1bb2 a1bd b943 223e f3f9 98be 00fc 04bd
000001c0: f524 94be 3a2b 563e 73e8 c1bd 24e4 c4bd
000001d0: 75d0 37be 6bb4 64bf ce22 af3e 086a 33bd
000001e0: 9005 01c0 803c 41bf 16aa 483e 2853 373f
000001f0: 5db1 683f 7c16 b8be bb50 e63e a816 f3be
00000200: 71dd 12c0 f0f2 01c0 094d 80be 59ae 3dbd
00000210: 4616 2abe 41c7 093f 8695 393f c221 46bf
00000220: 1918 a33e 7a3e 2c3f 9b0b ccbf 393a 2fbf
00000230: 1f74 a5be 34ff a6be 1fee 643f 4f4d 853f
00000240: eb6d 35be 04e1 acbe a46f 05bf ca9f bebf
00000250: f6e0 92bf e977 54bf 1a6f 3abf ccff e5bf
00000260: 52ea b0bd 3fc9 cc3d 2d0f 6abf 124f 8cbf
00000270: 6c34 cabf 2c69 12c0 87ff c0be 41ce 40bf
00000280: 5354 c0be b3aa b23e 7ef1 94bf 0332 3fbf
00000290: 2fd5 99be 9426 38be 07f4 70bf 13f0 d6bf
000002a0: a064 2abf 3045 d13e 0d41 543f c7cd 273e
000002b0: 2132 d1be a807 5cbf 9583 29bf 64e9 1cc0
000002c0: c834 d9bf 0fb3 95bd 0d72 48be cff1 69bf
000002d0: b757 613e a5df 22bf 4cb6 97bf 1440 ffbf
000002e0: cef5 27bf f3d8 df3d 57ea 583f 7661 d2be
000002f0: 7406 973e fac7 823c 9cfa f6bc bf31 12bf
00000300: abaf 983f cc65 883f c290 bfbd 29f8 753e
00000310: 83ff e73e 4321 df3e aa6b b93e 1aa8 b33e
00000320: 8ab7 d9be 79c5 033f 2159 06be 26a8 72bf
00000330: 63c3 523f f494 8abf 3f8e 93bf e111 adbf
00000340: 1d3f ab3e 5861 7e3d 23f8 0abf 489d f0bf
00000350: 5cd9 56bf 3cd2 61bf 9e44 8fbf 4c47 86bd
00000360: a906 ea3e 9298 64bf d364 a7be dfb2 953d
00000370: f9d2 25bf dfd3 83bf bbe3 8dbe acee b3be
00000380: 8646 3fbf 2612 19bf ab29 4f3e b5c5 ec3d
00000390: 2bbe 013e e63c 8abe c189 653e eb16 b7be
000003a0: d23a 6a3e 8fa1 0fbe 1ac7 44bf cb29 dfbf
000003b0: 39c4 fdbb 79d6 8cbe 1bdb 823f bda5 66bf
000003c0: 1262 bdbf e1ec 273f 3c16 84be 7f19 82be
000003d0: 846b 373f 69df 8f3e d822 7f3d 3be7 4abf
000003e0: 3826 8abe 95d8 e83d 40e5 dd3e 69c1 e33e
000003f0: 6725 02bf 861b 2d3f 527f 883e d8b1 6b3f

fc1.bias f4 [50]
0.24007094 0.9806378 -0.20715676 0.19230856 -0.0827789 0.6843887 0.35259864 -0.025716778
0.92218167 -0.03718981 -0.25865835 -0.1774469 -0.3446341 0.9476269 -0.044143397 0.8607016
-0.08015649 -0.05933114 -0.042534433 -0.2836106 1.3550172 2.2920496 -0.21217401 -0.015376148
-0.16140722 -0.77962524 -0.03530222 0.15957801 1.5180275 -0.14188488 -0.069529004 -0.19535127
0.21253371 2.4039702 -0.27491808 -0.044981766 -0.23276824 1.3795735 -0.1950383 -0.11712558
-0.10632081 2.3059795 -0.19000666 0.0006607497 -0.04859032 0.9948433 3.0273147e-06 0.8687028
-0.04221128 1.7961187
00000000: 28d5 753e 140b 7b3f e720 54be 89ec 443e
00000010: fc87 a9bd 1934 2f3f cf87 b43e feab d2bc
00000020: 1914 6c3f 5854 18bd de6e 84be a4b4 35be
00000030: e173 b0be ad97 723f b5cf 34bd f156 5c3f
00000040: 1629 a4bd 3605 73bd 9638 2ebd 6935 91be
00000050: 3471 ad3f f1b0 1240 2544 59be 3dec 7bbc
00000060: ef47 25be 8595 47bf 1099 10bd 6b68 233e
00000070: ba4e c23f 454a 11be 3965 8ebd 2a0a 48be
00000080: 70a2 593e a6da 1940 10c2 8cbe cd3e 38bd
00000090: cc5a 6ebe dd95 b03f 1fb8 47be 89df efbd
000000a0: babe d9bd 2b95 1340 1b91 42be 2936 2d3a
000000b0: a506 47bd 0dae 7e3f df28 4b36 4f63 5e3f
000000c0: bce5 2cbd 38e7 e53f

fc2.weight f4 [7, 50]
-0.24936533 0.27042437 -0.0757586 -0.27113125 -0.08593197 -0.20508917 -0.7125291 -0.040810544
-0.078048214 -0.052123442 -0.09131973 -0.13573438 0.21849509 -0.12820418 -0.025929747 -0.016056195
-0.08226787 0.00091389095 -0.06961733 -0.03315982 -0.09279861 0.16194376 -0.13706137 0.056216866
-0.06928224 0.24496946 -0.094486065 -0.06234835 -0.18777914 0.038933072 -0.0050442475 0.16822731
-0.14813477 0.25329554 -0.43209323 -0.10874694 -0.19562109 0.2710346 -0.132082 -0.055284414
0.0006474993 -0.10533239 -0.695315 -0.042568635 -0.094013095 -0.21566619 0.07800911 0.24049623
0.14531024 -0.14897452 -0.5277902 -0.85902613 -0.082025334 -0.4832993 0.0040146294 -0.039997157
-0.79294044 0.075057395 0.13072002 0.018617617 0.032630768 -0.20533028 -0.15711056 -0.12737985
0.026330093 0.031890485 -0.04123919 -0.03718954 -0.005567871 0.08687565 -0.13582088 -0.1775887
-0.061275 0.020028582 0.016416596 -0.22038208 -0.11718942 -0.28591728 -0.26962796 0.10064179
-0.06369328 0.10224298 0.3398165 -0.48623416 -1.1872174 0.094009995 -0.013525018 -0.37359345
-0.22714067 0.02736256 -0.06592234 -0.28565764 -0.48111093 0.073105715 0.11030053 -0.09021315
0.08975757 0.61561114 -0.058221154 -0.026362646 0.4854285 -0.6035123 -0.03391431 -0.17085172
0.045451105 0.025800899 -1.0447369 0.09112037 -0.08904892 0.052834347 0.00748528 -0.04452652
-0.0052043567 -0.31569582 0.031331982 0.28279498 -0.09731519 0.011797738 -0.12526877 -0.18541975
-0.06794275 0.012572382 0.0631864 -0.036608543 -0.1498162 0.24150415 -0.003396996 -0.06811455
-0.17234991 0.08751348 -0.14012767 0.0120776845 -0.033752248 -0.040010337 0.08730812 -0.016108276
0.162569 0.011683569 -0.18648979 -0.0068034153 -0.069220394 -0.17959198 -0.48032513 -0.03432344
-0.12180678 0.2712603 0.020348568 -0.011490224 -0.039045706 -0.16202058 -0.56254524 -0.4624682
0.059914593 -0.47368708 0.08155299 -0.18225348 -0.5821227 -0.007719527 -0.11483401 0.10528828
-0.20166327 0.119135514 0.03642665 0.28272977 -0.016582549 -0.17219286 0.01682367 -0.01812077
0.0697763 0.05583961 0.36300558 0.03323741 0.016131062 0.05443888 0.034978155 -0.06908898
-0.05337099 0.16443545 0.31331915 -0.027397035 0.06919574 0.11604443 -0.12666975 -0.02182993
-0.5376918 0.029655471 -0.031709693 -0.43178102 -0.18557104 -0.060850874 0.11272128 0.39256087
-0.04021439 -0.05554298 -0.056869626 -0.07949034 -0.038254205 -0.1702884 -0.49021038 0.24977648
-0.29285166 -0.69563764 -0.09141998 -0.32328728 0.13502488 -0.106860414 -0.7110394 -0.0028118957
-0.11489277 -0.018168265 -0.08033273 0.13340004 -0.2462091 -0.16354063 0.11503014 0.13348141
-0.04251438 -0.050609574 -0.11336893 -0.30159712 -0.08904146 0.2636946 -0.040778615 -0.041910645
0.00336798 -0.13444772 -0.050056607 -0.0004043367 -0.19918656 -0.09004081 -0.037914183 -0.029191544
0.18603154 0.119472995 -0.062122192 0.073430255 0.024738709 0.0617622 0.06843306 0.08528708
-0.0037720038 -0.18019144 -0.51432204 0.026089633 0.0679259 -0.24598989 0.013404105 -0.08934101
-0.0064135487 -0.11825381 -0.050857108 0.314426 -0.09519073 0.34503242 0.10180801 0.3744424
00000000: a059 7fbe 1075 8a3e 5327 9bbd b7d1 8abe
00000010: 1afd afbd e502 52be 4f68 36bf f528 27bd
00000020: bed7 9fbd 647f 55bd d705 bbbd f4fd 0abe
00000030: 2dbd 5f3e f547 03be 9f6a d4bc 4888 83bc
00000040: 0f7c a8bd 2f92 6f3a 8893 8ebd 97d2 07bd
00000050: 330d bebd 96d4 253e d159 0cbe a843 663d
00000060: d9e3 8dbd 46d9 7a3e e981 c1bd fc60 7fbd
00000070: 2d49 40be 4978 1f3d 374a a5bb c843 2c3e
00000080: a4b0 17be f4af 813e 533b ddbe b7b6 debd
00000090: e550 48be 0cc5 8a3e 8140 07be e971 62bd
000000a0: f1bc 293a 82b8 d7bd 2a00 32bf 735c 2ebd
000000b0: f089 c0bd 99d7 5cbe 3ec3 9f3d a544 763e
000000c0: 35cc 143e c78c 18be 421d 07bf 23e9 5bbf
000000d0: e6fc a7bd 0173 f7be 278d 833b 0fd4 23bd
000000e0: 25fe 4abf b1b7 993d 78db 053e f983 983c
000000f0: d7a7 053d 1a42 52be 97e1 20be dd6f 02be
00000100: 35b2 d73c 999f 023d 6dea 28bd 0f54 18bd
00000110: b072 b6bb dceb b13d a114 0bbe d0d9 35be
00000120: 7ffb 7abd fb12 a43c 197c 863c d7ab 61be
00000130: 0201 f0bd c063 92be ad0c 8abe 481d ce3d
00000140: 9f71 82bd c464 d13d 6efc ad3e aff3 f8be
00000150: bdf6 97bf 5088 c03d 0998 5dbc a447 bfbe
00000160: 9097 68be 7327 e03c 4b02 87bd b841 92be
00000170: 2c54 f6be 73b8 953d 3fe5 e13d acc1 b8bd
00000180: d1d2 b73d b198 1d3f 4e79 6ebd 7af6 d7bc
00000190: 168a f83e c87f 1abf bbe9 0abd c1f3 2ebe
000001a0: f02a 3a3d 685c d33c f0b9 85bf 519d ba3d
000001b0: 485f b6bd d468 583d 1447 f53b 7161 36bd
000001c0: 4f89 aabb e2a2 a1be f755 003d 81ca 903e
000001d0: 304d c7bd 4d4b 413c 7546 00be adde 3dbe
000001e0: 9225 8bbd 64fc 4d3c df67 813d d7f2 15bd
000001f0: 6b69 19be dd4c 773e 23a0 5ebb a47f 8bbd
00000200: 7f7c 30be 443a b33d a17d 0fbe 7be1 453c
00000210: cc3f 0abd e1e1 23bd 9ace b23d 81f5 83bc
00000220: 7d78 263e 716c 3f3c 2ef7 3ebe 2fef debb
00000230: 6cc3 8dbd f6e6 37be 2ded f5be bc96 0cbd
00000240: d575 f9bd a1e2 8a3e 0ab2 a63c 7e41 3cbc
00000250: 64ee 1fbd b9e8 25be f702 10bf a2c8 ecbe
00000260: 0169 753d 1d87 f2be 4105 a73d a8a0 3abe
00000270: fe05 15bf 16f4 fcbb 182e ebbd 62a1 d73d
00000280: d180 4ebe 52fd f33d 1c34 153d f5c1 903e
00000290: 20d8 87bc 5353 30be cbd1 893c 0272 94bc
000002a0: e0e6 8e3d 13b8 643d dedb b93e f323 083d
000002b0: 4a25 843c 4efb 5e3d 4145 0f3d 867e 8dbd
000002c0: 8a9b 5abd c461 283e 5e6b a03e bf6f e0bc
000002d0: 7fb6 8d3d b4a8 ed3d b7b5 01be aed4 b2bc
000002e0: 2ba6 09bf 08f0 f23c 06e2 01bd 6712 ddbe
000002f0: 5606 3ebe c43e 79bd 6ada e63d bdfd c83e
00000300: d8b7 24bd 0981 63bd 20f0 68bd d5cb a2bd
00000310: 71b0 1cbd 1560 2ebe dbfc fabe 68c5 7f3e
00000320: a7f0 95be 4f15 32bf 663a bbbd e985 a5be
00000330: f643 0a3e a2d9 dabd ae06 36bf c847 38bb
00000340: e74c ebbd 9dd5 94bc 7d85 a4bd 059a 083e
00000350: 3d1e 7cbe 3277 27be ec94 eb3d 5aaf 083e
00000360: 8f23 2ebd fc4b 4fbd f82d e8bd f06a 9abe
00000370: 5e5b b6bd fb02 873e 7a07 27bd 7faa 2bbd
00000380: 54b9 5c3b aaac 09be 2808 4dbd 27fd d3b9
00000390: 90f7 4bbe 5167 b8bd e74b 1bbd 1b23 efbc
000003a0: 0d7f 3e3e 42ae f43d d773 7ebd 9a62 963d
000003b0: d5a8 ca3c 5cfa 7c3d a226 8c3d feaa ae3d
000003c0: b933 77bb 1b84 38be 9caa 03bf edb9 d53c
000003d0: bc1c 8b3d c6e4 7bbe e49c 5b3c 6bf8 b6bd
000003e0: bf28 d2bb 0e2f f2bd 8b4f 50bd 72fc a03e
000003f0: 5cf3 c2bd 17a8 b03e b880 d03d eab6 bf3e

fc2.bias f4 [7]
-0.3361099 -1.7749444 0.01492111 0.20008743 0.5244978 -0.3664458 0.30651116
00000000: 9916 acbe 6131 e3bf ac77 743c b8e3 4c3e
00000010: 7d45 063f c99e bbbe 08ef 9c3e

localization.0.weight f4 [8, 1, 7, 7]
0.045818392 -0.021280706 0.07815073 0.1317487 0.050937 0.10866088 0.16944289 0.18541694
0.11956376 0.24462874 0.10909681 0.16946764 0.2287212 0.011985495 -0.03286457 0.08546263
0.2058889 0.0028060793 0.18758588 0.14979334 -0.074428484 0.08173336 -0.07314648 -0.052167155
0.1891559 0.048465047 0.013755563 0.022249335 0.047355883 -0.08011081 0.1870217 0.0069250637
0.11444033 0.14548738 -0.010366362 0.118503205 -0.08285127 0.18980554 0.13427515 0.04002852
0.12650447 -0.063431054 -0.017022176 0.12775879 0.041257687 -0.060892694 0.030977048 0.12866776
-0.009556565 -0.10862287 -0.018328428 0.08009777 -0.10969904 -0.023501175 0.047446128 0.000248036
0.13973 0.099154346 -0.13261938 0.050206594 0.10005185 -0.11096705 -0.016454 -0.02476583
-0.10719791 0.078389354 -0.09407444 -0.061092522 0.0525846 -0.20066854 -0.103475474 -0.12114318
0.040612865 0.09824126 -0.1111324 -0.03141885 -0.062727 0.1005722 -0.026297914 0.04543745
0.02066751 -0.095701195 -0.077809595 -0.09400554 -0.17553854 0.067936584 -0.008976391 0.07508448
-0.09751397 -0.05206467 0.0010149303 -0.004542269 -0.08505826 -0.04918944 -0.13869773 0.08467793
-0.03639911 -0.15501387 -0.05002797 -0.020849552 0.050547298 -0.083048664 0.09385253 0.11802523
-0.011406633 0.07823259 -0.038501956 -0.10473885 0.13017324 0.06449651 -0.044743408 -0.12208464
0.002483407 -0.036289215 -0.007611466 0.12835993 -0.10145896 0.08097416 -0.056844264 -0.087086596
-0.06398429 -0.07799636 -0.006922262 -0.16147412 -0.12618642 0.034192633 0.12508936 -0.039894972
0.045100205 -0.001354505 0.087354176 -0.019057281 0.057192277 0.14402945 -0.100097954 -0.10030251
0.023856165 -0.046392195 0.0040490427 0.014518509 -0.13486989 0.068594396 0.010184571 0.057228882
-0.08114772 -0.1787917 -0.18014027 -0.02394904 -0.095030285 -0.09270075 -0.03833839 0.01097724
0.052954104 -0.07411091 0.06676144 -0.01687492 -0.06742857 0.12686805 0.094635785 -0.07037378
0.084070235 0.13146281 0.11973757 0.07179475 0.12847057 0.010830619 -0.11761566 0.12089379
0.07055399 0.04782152 0.030482607 -0.018668003 -0.03232735 -0.12288597 0.13761537 0.09550624
-0.016177244 0.1035401 0.07124955 0.0794385 0.07993316 -0.14234285 0.051333398 -0.1916702
0.075903505 -0.034628805 -0.07217162 0.012359572 -0.071769185 -0.15365218 -0.14877312 0.015529791
-0.09754626 -0.00825791 0.013775516 0.06483492 -0.075979166 -0.1489517 -0.011213229 0.09366232
0.13562866 -0.009791272 -0.046807498 -0.12499423 -0.08612838 0.10587155 -0.09189415 0.102457926
0.14239338 0.116221 -0.07872157 -0.07806697 0.05841329 -0.005531463 0.1491402 0.073406875
0.08161736 -0.0005058543 0.0568248 -0.0034876652 0.10162174 -0.06419731 -0.049115706 0.12647355
-0.08723026 -0.032694537 -0.035792205 0.08381951 -0.07074225 0.0008676015 -0.0017604256 -0.16969644
-0.005033966 0.06869579 -0.11132322 0.10780471 0.117300056 0.05187489 0.03783579 -0.13941412
-0.008230989 0.027042078 0.049684662 -0.15746965 0.05891907 -0.0143724345 0.15314578 0.112625
0.11643315 0.00402156 0.02711129 0.01470148 0.09747317 0.09879734 -0.048652705 0.080533385
00000000: 11ac 3b3d e054 aebc 7d0d a03d 22e9 063e
00000010: 51a3 503d 9889 de3d 7082 2d3e f0dd 3d3e
00000020: d8dd f43d f57f 7a3e 266e df3d ed88 2d3e
00000030: e435 6a3e cf5e 443c 009d 06bd 0807 af3d
00000040: 8ad4 523e 33e6 373b 8316 403e 6d63 193e
00000050: f66d 98bd d263 a73d d2cd 95bd 3aad 55bd
00000060: 16b2 413e 4983 463d 035f 613c 3d44 b63c
00000070: 3ef8 413d 2311 a4bd 9e82 3f3e a5eb e23b
00000080: b15f ea3d a5fa 143e acd7 29bc cfb1 f23d
00000090: edad a9bd 625c 423e 6d7f 093e f2f4 233d
000000a0: 638a 013e 24e8 81bd 1772 8bbc 33d3 023e
000000b0: d2fd 283d 9e6a 79bd 94c3 fd3c 7bc1 033e
000000c0: 2493 1cbc ab75 debd 8025 96bc 4d0a a43d
000000d0: e4a9 e0bd 8985 c0bc df56 423d d40a 8239
000000e0: 6215 0f3e 6f11 cb3d 60cd 07be 6ea5 4d3d
000000f0: fce7 cc3d b142 e3bd 8aca 86bc b6e1 cabc
00000100: 948a dbbd 998a a03d 1aaa c0bd 273c 7abd
00000110: f362 573d 0e7c 4dbe f3ea d3bd ea19 f8bd
00000120: ad59 263d b732 c93d 6299 e3bd 0db1 00bd
00000130: 0377 80bd ccf8 cd3d b96e d7bc 9f1c 3a3d
00000140: e94e a93c fdfe c3bd a35a 9fbd fa85 c0bd
00000150: 60c0 33be 5622 8b3d b611 13bc e4c5 993d
00000160: 68b5 c7bd c341 55bd 6907 853a 50d7 94bb
00000170: 0633 aebd de7a 49bd c706 0ebe 9f6b ad3d
00000180: 3c17 15bd f5bb 1ebe 21ea 4cbd aecc aabc
00000190: af0a 4f3d 6b15 aabd c135 c03d 36b7 f13d
000001a0: e3e2 3abc 6838 a03d 3ab4 1dbd 5281 d6bd
000001b0: 224c 053e bf16 843d dd44 37bd 8307 fabd
000001c0: a8c0 223b 00a4 14bd 9b69 f9bb c970 033e
000001d0: b7c9 cfbd c8d5 a53d 88d5 68bd 755a b2bd
000001e0: 320a 83bd 8ebc 9fbd 24d4 e2bb 7959 25be
000001f0: 0337 01be 930d 0c3d 6d17 003e e968 23bd
00000200: feba 383d a589 b1ba bfe6 b23d 041e 9cbc
00000210: 7342 6a3d 757c 133e 2800 cdbd 676b cdbd
00000220: 016e c33c be05 3ebd d5ad 843b 0adf 6d3c
00000230: 551b 0abe 387b 8c3d 30dd 263c d568 6a3d
00000240: c730 a6bd 2c15 37be b176 38be c730 c4bc
00000250: 3d9f c2bd e4d9 bdbd b708 1dbd e2d9 333c
00000260: 67e6 583d 76c7 97bd 39ba 883d 463d 8abc
00000270: fd17 8abd b3e9 013e 68d0 c13d 2120 90bd
00000280: 042d ac3d 309e 063e f938 f53d 2009 933d
00000290: ca8d 033e e972 313c 7be0 f0bd 2a97 f73d
000002a0: 9c7e 903d 80e0 433d a9b6 f93c a4ed 98bc
000002b0: af69 04bd a4ab fbbd 0beb 0c3e c798 c33d
000002c0: 2486 84bc d50c d43d 49eb 913d a7b0 a23d
000002d0: ffb3 a33d 53c2 11be f842 523d 3145 44be
000002e0: 4c73 9b3d efd6 0dbd b7ce 93bd cd7f 4a3c
000002f0: b9fb 92bd ff56 1dbe fb57 18be aa70 7e3c
00000300: 55c6 c7bd 2f4c 07bc b4b2 613c 2cc8 843d
00000310: f79a 9bbd cb86 18be b1b7 37bc 08d2 bf3d
00000320: 3de2 0a3e 926b 20bc 38b9 3fbd fafc ffbd
00000330: 1364 b0bd 2fd3 d83d 0033 bcbd 76d5 d13d
00000340: 92cf 113e 4705 ee3d c638 a1bd 93e1 9fbd
00000350: c642 6f3d 4641 b5bb 35b8 183e 5856 963d
00000360: 0127 a73d 4f9b 04ba 1fc1 683d 5091 64bb
00000370: 0f1f d03d e179 83bd 8d2d 49bd 4882 013e
00000380: c7a5 b2bd b5ea 05bd d99a 12bd 90a9 ab3d
00000390: 50e1 90bd c06f 633a 15be e6ba e7c4 2dbe
000003a0: f8f3 a4bb 61b0 8c3d 6efd e3bd b7c8 dc3d
000003b0: 033b f03d c47a 543d b4f9 1a3d 93c2 0ebe
000003c0: 45db 06bc 5987 dd3c 2582 4b3d b93f 21be
000003d0: 1f55 713d 5c7a 6bbc 3fd2 1c3e f0a7 e63d
000003e0: 8174 ee3d 4ac7 833b 7f18 de3c 7ade 703c
000003f0: 03a0 c73d 4356 ca3d 0f48 47bd b0ee a43d

localization.0.bias f4 [8]
0.17815304 -0.06956811 -0.076607816 -0.21392827 -0.043023054 -0.10612564 -0.19939135 -0.23454237
00000000: c06d 363e ba79 8ebd 8fe4 9cbd 0310 5bbe
00000010: f138 30bd 6658 d9bd 3f2d 4cbe e02b 70be

localization.3.weight f4 [10, 8, 5, 5]
-0.048773035 0.05511039 -0.07125551 -0.14174946 0.016310882 -0.0012840758 -0.014539196 -0.053762455
-0.022622779 -0.04222508 0.06733021 -0.08124869 -0.050193418 -0.06571745 -0.15413836 -0.009733278
-0.026390802 -0.10108833 -0.120435685 -0.059236426 -0.093409255 -0.044451553 -0.099883735 -0.12969762
-0.07492304 0.0768644 0.040610038 0.014311384 0.03225495 -0.071067214 0.014329678 0.055722326
-0.015207303 -0.09260049 -0.10678956 -0.022176228 0.023779692 -0.06691177 -0.0844517 -0.13571627
-0.037305456 0.0017715965 -0.026955891 -0.11632765 -0.11682437 -0.13220014 -0.07306092 -0.063302994
-0.17637044 -0.17766908 0.02336346 -0.008747907 0.00014871164 0.028772978 -0.046148613 -0.07931373
0.008737019 -0.12378507 0.0046382295 0.006973912 0.0797064 0.03763775 -0.08110593 0.033612404
-0.022723364 -0.05434976 -0.07335334 -0.022952612 0.0044028093 -0.07190567 -0.04171347 -0.11297617
-0.10345418 -0.059601717 0.0028365485 0.04051944 0.021258144 -0.02478212 -0.04677219 0.056345265
0.041490436 0.0050837393 -0.014616133 -0.12528887 0.030828627 -0.05551852 -0.014254214 -0.10877093
0.016698759 -0.080557555 0.030480208 -0.0943585 -0.029525355 -0.009800926 -0.034579825 -0.01357888
-0.1535039 -0.000740288 -0.05696966 -0.03257838 -0.06553778 -0.018970354 -0.13106884 -0.12759231
-0.066337705 -0.023718987 -0.09313245 -0.15022324 -0.12465754 -0.10018644 -0.077967666 -0.0935628
-0.03982172 -0.11336404 0.02242656 -0.03636886 -0.092246555 -0.03004917 -0.11341992 0.047301546
-0.06645211 -0.07171266 -0.10768694 -0.07112339 -0.032392237 -0.04781381 -0.1385749 -0.112540215
-0.19069709 -0.15622278 -0.12880446 -0.032040767 -0.10179857 -0.16514337 -0.15579917 -0.006977598
-0.09774689 -0.099757865 -0.036442176 -0.0474238 -0.108711705 -0.109433085 -0.11406571 0.024213362
-0.030320842 -0.017821427 -0.07181175 -0.05979452 0.083358176 -0.029255947 -0.010597931 0.008596569
0.00500519 0.030103235 0.011097717 0.11043315 0.018965146 -0.07873632 -0.0902844 -0.040060446
-0.075176984 -0.03406212 -0.04674968 -0.076024465 -0.14141642 -0.039597776 -0.11705113 -0.09325491
0.027390314 0.006556836 -0.07134953 -0.057100926 -0.061341338 -0.013215806 -0.046714786 -0.032495968
-0.051053654 -0.06557263 0.078975186 -0.04542294 0.06259143 -0.011425793 0.06380166 0.04972059
0.08467282 0.060615793 -0.033798743 -0.028246662 0.0010517936 -0.05955255 -0.010412012 -0.06084991
0.05593696 -0.06928391 0.021257801 -0.03578307 -0.015227677 -0.079987176 -0.03793525 -0.052924752
0.041673746 -0.07076959 0.020051708 0.01486599 -0.06438592 -0.038469233 -0.009831199 -0.0047320784
-0.03910356 0.0048622577 -0.009129325 0.032799833 -0.06901813 -0.08318339 -0.014216193 -0.08470092
-0.07990951 -0.03024706 -0.050767135 -0.050148867 0.042935234 0.04194266 -0.07641174 -0.027875539
-0.08440658 -0.0915431 0.04269036 0.03397286 -0.013930387 -0.003159101 -0.03512162 -0.07017123
-0.02692613 -0.07580863 0.0031737604 -0.033485014 0.024111107 -0.07192524 -0.0013024777 -0.010639037
-0.06802622 0.028582538 -0.036399953 -0.061443377 -0.05565248 -0.08022101 0.017118968 -0.095222324
-0.030549088 0.031324185 -0.054123092 -0.07874074 0.0008836254 -0.0013108983 -0.022103906 0.016876142
00000000: 3cc6 47bd 6fbb 613d 69ee 91bd c526 11be
00000010: 669e 853c 6f4e a8ba cf35 6ebc 0536 5cbd
00000020: 6853 b9bc 35f4 2cbd 6ce4 893d b765 a6bd
00000030: 9d97 4dbd df96 86bd 72d6 1dbe 5478 1fbc
00000040: 8631 d8bc 6607 cfbd fca6 f6bd e5a1 72bd
00000050: 5a4d bfbd d512 36bd d88f ccbd 74cf 04be
00000060: 4071 99bd 156b 9d3d b656 263d 4c7a 6a3c
00000070: c41d 043d b08b 91bd 07c7 6a3c 183d 643d
00000080: 0d28 79bc 53a5 bdbd 7cb4 dabd ecaa b5bc
00000090: a1cd c23c 0a09 89bd 03f5 acbd 35f9 0abe
000000a0: 9bcd 18bd ea34 e83a 9ad2 dcbc 313d eebd
000000b0: 9e41 efbd 795f 07be f7a0 95bd 00a5 81bd
000000c0: 749a 34be e2ee 35be ba64 bf3c 6253 0fbc
000000d0: 7aef 1b39 4fb5 eb3c 5406 3dbd 3d6f a2bd
000000e0: b725 0f3c 0783 fdbd 4afc 973b 6a85 e43b
000000f0: 1c3d a33d 0b2a 1a3d de1a a6bd 29ad 093d
00000100: 5926 babc db9d 5ebd 473a 96bd 1e07 bcbc
00000110: 7145 903b 4843 93bd bedb 2abd 0d60 e7bd
00000120: c9df d3bd ee20 74bd 63e5 393b b6f7 253d
00000130: 8f25 ae3c df03 cbbc 3294 3fbd 4bca 663d
00000140: e0f1 293d 7f95 a63b 8178 6fbc ba4b 00be
00000150: 518c fc3c 6367 63bd 828a 69bc 4bc3 debd
00000160: d6cb 883c 5cfb a4bd a1b1 f93c 073f c1bd
00000170: 28df f1bc 1094 20bc 93a3 0dbd f379 5ebc
00000180: 2030 1dbe e30f 42ba 0559 69bd e870 05bd
00000190: ac38 86bd b767 9bbc e936 06be 8fa7 02be
000001a0: 10dc 87bd 524e c2bc 3abc bebd 1fd4 19be
000001b0: 744c ffbd 8c2e cdbd 83ad 9fbd da9d bfbd
000001c0: 1a1c 23bd 682b e8bd e8b7 b73c 84f7 14bd
000001d0: c3eb bcbd ad29 f6bc b448 e8bd 44bf 413d
000001e0: 0b18 88bd 16de 92bd f88a dcbd 24a9 91bd
000001f0: b9ad 04bd 6ad8 43bd 94e6 0dbe 7c7b e6bd
00000200: 1946 43be ddf8 1fbe 51e5 03be 2e3d 03bd
00000210: c57b d0bd 581b 29be d189 1fbe 56a4 e4bb
00000220: 852f c8bd da4d ccbd 6444 15bd 753f 42bd
00000230: 3ea4 debd 741e e0bd 489b e9bd 1a5b c63c
00000240: 6a63 f8bc 3efe 91bc 0a12 93bd 19eb 74bd
00000250: b1b7 aa3d 2baa efbc f2a2 2dbc a0d8 0c3c
00000260: 9402 a43b 0f9b f63c 33d3 353c c62a e23d
00000270: cb5c 9b3c 8240 a1bd 07e7 b8bd 6c16 24bd
00000280: 64f6 99bd b984 0bbd 987c 3fbd b7b2 9bbd
00000290: 77cf 10be 4731 22bd 81b8 efbd 6efc bebd
000002a0: a761 e03c bada d63b b41f 92bd a9e2 69bd
000002b0: 0e41 7bbd 1c87 58bc 0158 3fbd 7e1a 05bd
000002c0: a31d 51bd f14a 86bd bebd a13d 680d 3abd
000002d0: f02f 803d 4033 3bbc 72aa 823d d1a7 4b3d
000002e0: f268 ad3d 4448 783d 8d70 0abd 8b65 e7bc
000002f0: 56dc 893a 60ed 73bd 2597 2abc c13d 79bd
00000300: 271e 653d b9e4 8dbd d724 ae3c 4591 12bd
00000310: 827d 79bc 51d0 a3bd fe61 1bbd a0c7 58bd
00000320: 17b2 2a3d a6ef 90bd 7b43 a43c 7b90 733c
00000330: c4dc 83bd ea91 1dbd 0a13 21bc 8d0f 9bbb
00000340: 0e2b 20bd 9353 9f3b 2a93 15bc 1e59 063d
00000350: 6159 8dbd 0e5c aabd 09eb 68bc ad77 adbd
00000360: 99a7 a3bd afc8 f7bc 33f1 4fbd e668 4dbd
00000370: dbdc 2f3d 11cc 2b3d c27d 9cbd 3e5b e4bc
00000380: 5bdd acbd f37a bbbd 16dc 2e3d 2027 0b3d
00000390: 473c 64bc eb08 4fbb b0db 0fbd efb5 8fbd
000003a0: 3094 dcbc 8e41 9bbd ddfe 4f3b 9527 09bd
000003b0: a884 c53c 8a4d 93bd e6b7 aaba 5b4f 2ebc
000003c0: 5551 8bbd ed25 ea3c 1e18 15bd 0dac 7bbd
000003d0: dbf3 63bd ea4a a4bd 143d 8c3c ec03 c3bd
000003e0: 1542 fabc ca4d 003d 2db0 5dbd d342 a1bd
000003f0: 19a3 673a 73d2 abba 4013 b5bc d63f 8a3c

localization.3.bias f4 [10]
-0.17835163 -0.00928745 0.039384037 0.020574413 -0.09235791 -0.08165188 -0.050329883 0.0019722732
-0.019946191 0.029526506
00000000: cfa1 36be 642a 18bc 2851 213d ac8b a83c
00000010: 2526 bdbd 1a39 a7bd b526 4ebd 4141 013b
00000020: 3266 a3bc 92e1 f13c
