EmpathyBot/model_snapshots/deep_emotion-200-64-0.005-0.47903894978017214.pt (torch_old, 271009 bytes, 24 tensors)

conv1.weight f4 [10, 1, 3, 3]
0.09212539 -0.09565253 -0.91576344 0.27275577 0.12602769 0.1928181 -0.5828065 0.30142874
0.6190346 -0.53611034 0.35222417 0.39569846 -0.59933394 -0.48398942 0.67456484 -0.07197638
0.07131694 0.3094223 0.47401768 -0.22550406 -0.12714602 0.37320235 -0.27489355 -0.042220827
-0.28985968 -0.21990193 -0.4205821 0.44019926 0.46435976 0.16033326 -0.7002441 0.114712745
0.16233675 -0.46511817 -0.37304574 0.11545321 -0.6306355 -0.21713193 0.37481043 0.20522507
-0.3334008 -0.29652703 0.57731855 0.3253774 0.104592696 0.38695422 -0.032933522 0.46004516
0.16461805 0.22646034 -0.6253881 0.303122 -0.33273068 -0.35764006 -0.28030246 0.08160251
-0.55563384 0.4964522 0.45007583 -0.67725706 0.5347828 0.101613924 -0.058169533 -0.28554022
-0.50886554 0.2699073 -0.80155027 0.0011337275 0.25337002 0.053467646 0.82830876 0.23104505
-0.80390984 -0.37087762 0.12878196 0.06948552 0.06344862 0.10836543 0.5188959 0.67575395
-0.40437245 -0.052070413 -0.35629407 0.5661198 -0.04703043 -0.772499 -0.34787905 0.08266853
0.19869849 0.6735831
00000000: 3dac bc3d 79e5 c3bd 796f 6abf a5a6 8b3e
00000010: 670d 013e 1c72 453e cf32 15bf de54 9a3e
00000020: 0d79 1e3f 873e 09bf ba56 b43e fd98 ca3e
00000030: f36d 19bf 76cd f7be 48b0 2c3f 5a68 93bd
00000040: 9e0e 923d 9a6c 9e3e 72b2 f23e 89ea 66be
00000050: 9132 02be 6114 bf3e d9be 8cbe bfef 2cbd
00000060: 7d68 94be f92d 61be 8956 d7be cc61 e13e
00000070: 90c0 ed3e 672e 243e 3343 33bf 84ee ea3d
00000080: 9b3b 263e f823 eebe daff bebe bc72 ec3d
00000090: 5471 21bf d557 5ebe 27e7 bf3e 8526 523e
000000a0: 82b3 aabe 64d2 97be 26cb 133f de97 a63e
000000b0: b234 d63d dd1e c63e 4de5 06bd 0a8b eb3e
000000c0: a291 283e 38e5 673e 6f19 20bf cf32 9b3e
000000d0: ad5b aabe 991c b7be ce83 8fbe 371f a73d
000000e0: 053e 0ebf fc2e fe3e 5770 e63e b860 2dbf
000000f0: 87e7 083f f61a d03d 2d43 6ebd 5432 92be
00000100: 0345 02bf 4a31 8a3e 6632 4dbf 9599 943a
00000110: b7b9 813e e400 5b3d 0b0c 543f 1397 6c3e
00000120: 09cd 4dbf ace3 bdbe 6bdf 033e 6d4e 8e3d
00000130: 5af1 813d b2ee dd3d 5dd6 043f 36fe 2c3f
00000140: e809 cfbe c947 55bd 2d6c b6be 3aed 103f
00000150: fba2 40bd 7fc2 45bf 341d b2be 1e4e a93d
00000160: 9e77 4b3e f16f 2c3f

conv1.bias f4 [10]
0.10052593 -0.14249241 -0.18609683 0.2401237 0.19286095 -0.23558185 0.23240693 0.3366767
0.18898669 0.20191564
00000000: 8ae0 cd3d 88e9 11be 2b90 3ebe fde2 753e
00000010: 577d 453e 5e3c 71be 15fc 6d3e e360 ac3e
00000020: ba85 413e f9c2 4e3e

conv2.weight f4 [10, 10, 3, 3]
0.059950028 0.0396215 0.058400135 -0.031956736 0.04055837 0.039257683 0.020899532 -0.11998422
0.026470864 -0.0914077 0.028724447 -0.021712348 0.016959574 0.033511713 0.009909071 0.02815486
-0.140756 -0.00019121295 -0.03625593 0.036379963 0.06192002 -0.13357177 0.0093231695 0.00989727
0.017271189 -0.10394071 -0.13280664 -0.012190218 -0.11836395 -0.014215727 -0.139841 -0.1369365
0.03601127 0.037375115 0.003947415 -0.04177543 0.09484852 -0.034611665 -0.08083868 0.07048749
-0.040881433 0.105470456 -0.019464044 -0.037144702 -0.11622782 0.025115056 -0.08652628 0.019872745
-0.030940322 0.073262446 0.008459304 -0.0015861379 0.023304012 -0.10496296 -0.13009423 0.0468058
0.055287898 0.04696352 -0.1383781 -0.09169636 -0.07355919 0.006281765 -0.109908074 -0.08879759
-0.07472568 -0.053857014 0.031878598 -0.00036722046 0.029657952 -0.08062966 0.03278482 0.054787092
-0.099489674 0.052280348 -0.04115466 -0.07940247 -0.030046698 -0.115277596 -0.09746695 -0.018283436
0.06669515 0.022411983 0.051483896 -0.064801596 -0.040888764 -0.03056562 0.012707479 -0.04567023
-0.117288 -0.074378535 -0.11318939 0.072174996 -0.26108694 0.016283352 0.2971232 -0.0482204
-0.48337176 -0.0705023 -0.092883825 -0.13073629 0.016582297 -0.046400927 -0.58460784 -0.6089657
-0.4208885 0.051562175 -0.10471908 -0.5780998 -0.13496915 0.0663006 -0.01732651 -0.05790215
-0.072711736 0.12887299 0.27866754 -0.030496346 0.12965856 -0.15838538 -0.1609213 -0.38081583
0.5194871 0.42182222 0.16766065 0.7447727 0.57123584 0.4876633 0.20533708 0.039205212
0.3441982 -0.56242424 -0.5563328 0.04466514 -0.25755447 -0.8917401 -0.7258959 0.1738618
0.13707373 -0.09357177 -0.08425371 0.13586096 0.19811606 -0.31491953 0.14563763 0.252478
-0.027538672 0.18588156 0.400324 -0.541553 -0.12956083 0.15039285 -1.1301548 -0.73522496
-0.21718913 0.10956933 0.064696476 0.13509955 -0.23251453 -0.0034782598 0.36816853 -0.16364586
-0.1523201 -0.04975784 0.06557827 -0.074501656 0.26745272 -0.2614446 -0.43127698 -0.16390288
-0.34373552 -0.43528137 -0.37525663 -0.31685528 -0.24430805 0.11294357 -0.37896106 -0.0980425
0.3548743 0.1981945 -0.3188246 -0.35085744 -0.4462085 -0.4495893 -0.4148143 -0.32414216
-0.08688104 0.1600195 0.00911604 -0.27714282 -0.36322084 -0.74625444 -0.25822508 -0.1128706
-0.4562606 -0.16877206 -0.32952708 0.078588046 0.30165198 0.22392309 0.2516328 0.022123758
-0.06350114 0.46445504 0.19832148 0.27769434 0.5000716 0.55536 0.48601037 0.040806446
0.15308212 0.4671025 -0.032291807 0.025080744 0.23925541 -0.1816435 0.14421113 0.2857321
-0.44050944 -0.29356578 -0.37646854 -0.47041312 -0.12177306 -0.21472606 -0.32998902 -0.11945547
-0.37081975 0.17219622 0.090952374 -0.15345737 -0.08996095 -0.16647835 -0.36316767 0.7155776
0.647288 0.11947418 -0.3893169 -0.30983013 -0.3475258 -0.44599724 -0.48284358 -0.6971194
0.014672433 -0.0960248 -0.33644724 -0.20508169 -0.67750466 -0.9010189 -0.20875828 -0.45008337
-0.37236202 -0.8153412 -0.3463703 -0.372578 -0.11647801 -0.077876836 -0.56828547 -0.12962095
00000000: 298e 753d 274a 223d fb34 6f3d 11e5 02bd
00000010: 8920 263d aacc 203d 7f35 ab3c 49ba f5bd
00000020: 6dd9 d83c f633 bbbd 884f eb3c 18de b1bc
00000030: ceee 8a3c 9443 093d a859 223c 05a5 e63c
00000040: 5722 10be 5680 48b9 1981 14bd 2803 153d
00000050: d99f 7d3d 0ac7 08be 35c0 183c 2928 223c
00000060: 4f7c 8d3c dede d4bd 77fe 07be 7bb9 47bc
00000070: cc68 f2bd 15e9 68bc 7b32 0fbe 1539 0cbe
00000080: 8e80 133d a616 193d 5159 813b b71c 2bbd
00000090: f13f c23d f6c4 0dbd c08e a5bd bf5b 903d
000000a0: 4a73 27bd e500 d83d 0f73 9fbc 0b25 18bd
000000b0: da08 eebd 17be cd3c b134 b1bd 2bcc a23c
000000c0: 8f76 fdbc 9f0a 963d e598 0a3c f5e5 cfba
000000d0: 0ee8 be3c d2f6 d6bd 6c37 05be 70b7 3f3d
000000e0: 9075 623d d25c 403d fdb2 0dbe 4dcb bbbd
000000f0: 33a6 96bd 44d7 cd3b 7c17 e1bd 83db b5bd
00000100: c709 99bd 2c99 5cbd 2293 023d 7f87 c0b9
00000110: 3cf5 f23c 2a21 a5bd 6049 063d 6e68 603d
00000120: 3ec1 cbbd eb23 563d ca91 28bd c39d a2bd
00000130: 7e24 f6bc a916 ecbd c19c c7bd 25c7 95bc
00000140: 7897 883d 5699 b73c c7e0 523d b3b6 84bd
00000150: fa7a 27bd c064 fabc 0833 503c b510 3bbd
00000160: b134 f0bd c653 98bd d7cf e7bd 7cd0 933d
00000170: 30ad 85be aa64 853c 8820 983e c182 45bd
00000180: 817c f7be 8363 90bd e039 bebd bcdf 05be
00000190: 99d7 873c e60e 3ebd dca8 15bf 2de5 1bbf
000001a0: b37e d7be dc32 533d f576 d6bd 59fe 13bf
000001b0: 5a35 0abe 9cc8 873d 53f0 8dbc ce2a 6dbd
000001c0: e4e9 94bd 48f7 033e 83ad 8e3e 79d3 f9bc
000001d0: 37c5 043e c72f 22be 8ec8 24be 4bfa c2be
000001e0: 1bfd 043f 15f9 d73e 3caf 2b3e 6ca9 3e3f
000001f0: 833c 123f 01af f93e e243 523e a595 203d
00000200: bf3a b03e 09fb 0fbf d46b 0ebf cbf2 363d
00000210: 2ede 83be 1449 64bf 50d4 39bf d408 323e
00000220: 0e5d 0c3e 8ea2 bfbd 368d acbd 231f 0b3e
00000230: f0de 4a3e 223d a1be 0822 153e cc44 813e
00000240: c898 e1bc bc57 3e3e 44f7 cc3e 38a3 0abf
00000250: 98ab 04be 9500 1a3e eaa8 90bf b437 3cbf
00000260: d466 5ebe e365 e03d 967f 843d 8957 0a3e
00000270: 4a18 6ebe 84f3 63bb 9680 bc3e c892 27be
00000280: cdf9 1bbe e0ce 4bbd e64d 863d 5394 98bd
00000290: 90ef 883e 11dc 85be 56d0 dcbe 28d6 27be
000002a0: 1afe afbe 33dd debe a321 c0be db3a a2be
000002b0: e42b 7abe f54e e73d 2f07 c2be 82ca c8bd
000002c0: 16b2 b53e 80f3 4a3e fa3c a3be 96a3 b3be
000002d0: 7175 e4be 9230 e6be 8a62 d4be f6f5 a5be
000002e0: b0ee b1bd 27dc 233e 715b 153c aae5 8dbe
000002f0: 15f8 b9be 880a 3fbf 1436 84be b328 e7bd
00000300: fd9a e9be 95d2 2cbe c6b7 a8be c5f2 a03d
00000310: 2172 9a3e 184c 653e 04d6 803e e23c b53c
00000320: e30c 82bd 0dcd ed3e c914 4b3e f42d 8e3e
00000330: b104 003f 132c 0e3f 5ad6 f83e a924 273d
00000340: 8fc1 1c3e 0f28 ef3e 6a44 04bd 2276 cd3c
00000350: 5fff 743e c100 3abe 15ac 133e 7a4b 923e
00000360: 748a e1be 414e 96be 7cc0 c0be fdd9 f0be
00000370: 2764 f9bd 26e1 5bbe 52f4 a8be 12a5 f4bd
00000380: 16dc bdbe 3554 303e 3d45 ba3d ee23 1dbe
00000390: 723d b8bd 4d79 2abe 1df1 b9be 1830 373f
000003a0: abb4 253f e1ae f43d 8b54 c7be 0ea2 9ebe
000003b0: e7ee b1be c059 e4be 4637 f7be 6b76 32bf
000003c0: a564 703c a6a8 c4bd d042 acbe ef00 52be
000003d0: f270 2dbf 2da9 66bf bbc4 55be 5471 e6be
000003e0: 3ca6 bebe 33ba 50bf 7357 b1be 8bc2 bebe
000003f0: 068c eebd e47d 9fbd 287b 11bf 5bbb 04be

conv2.bias f4 [10]
-0.11193868 0.35573426 -0.03947681 -0.07481726 0.8230474 0.5468022 0.1081335 0.35710192
-0.03793166 0.35055727
00000000: 1b40 e5bd cd22 b63e 6fb2 21bd cb39 99bd
00000010: 3cb3 523f 3bfb 0b3f 1975 dd3d 10d6 b63e
00000020: 3a5e 1bbd 3e7c b33e

conv3.weight f4 [10, 10, 3, 3]
-0.034484766 0.103840075 -0.005587578 -0.050630964 0.07971019 -0.09751809 0.072142564 0.047259025
-0.08873494 -0.5172217 -0.26224226 -0.20631042 -0.48007482 0.0051345923 0.24041176 -0.37233838
0.099070854 0.7098201 -0.108417615 0.50066954 0.46670607 0.49845946 0.8196677 0.57230735
0.17160426 0.4006521 0.041745525 0.0077883704 0.030990465 -0.0257904 -0.017835746 0.10427107
-0.09328485 0.035436194 0.09980824 0.113288626 -0.30510724 -0.24973275 -0.1585998 0.044279102
0.2528496 0.26901495 -0.032252923 0.33792 0.41194108 0.008972058 0.17609724 0.19184864
0.108173914 0.121115685 0.1553343 0.19210482 0.07327826 0.26803306 -0.066407554 -0.19310898
0.19338375 -0.07379075 0.013359929 0.21635762 -0.14699167 0.06477297 0.24318726 -0.5462824
-0.5385349 0.22182444 -0.15307571 -0.14713618 0.1939805 0.19844508 0.51598966 0.19614863
-0.031744566 -0.14942227 -0.10710845 0.096400976 0.0070661777 -0.06910467 0.20032305 0.016553355
0.18498617 0.33670717 0.19314598 0.06642327 0.5820342 0.6981537 0.3603448 0.85163265
0.85226727 0.6754963 0.04302985 0.069941424 -0.04609541 0.061914396 -0.045045543 0.123908386
-0.04217224 -0.006787325 -0.106457606 0.01977796 -0.094072975 -0.017033312 -0.07276333 -0.09145299
-0.046544053 0.07781401 0.02592391 0.06407354 0.010269925 -0.03352978 0.013783467 -0.09957344
-0.025730139 0.104140304 0.085828125 -0.029007357 -0.0051268227 0.030832626 0.00983083 -0.113515384
0.032520667 -0.11286575 -0.11892566 0.09586939 -0.1039401 0.062871344 -0.020389559 0.011088381
-0.15213414 0.040915012 -0.026121067 0.01461724 -0.06650069 -0.0075960546 -0.073017314 0.064764254
-0.13670142 -0.06665331 -0.039786823 -0.10809405 -0.0016168908 0.08739971 -0.111654796 -0.09625076
-0.03811392 -0.05337763 -0.0032819882 -0.035161525 -0.0051786066 0.037471052 -0.060426008 -0.036966767
0.016505022 -0.09321181 -0.06319608 -0.002337976 -0.039869513 -0.09856049 -0.12711126 -0.033097025
-0.11682329 -0.15157396 0.14088508 0.023613445 0.08694237 0.017053021 0.13075045 0.022312826
0.027338732 0.1146506 0.037637845 -0.040150587 -0.12432897 -0.05005313 0.033589423 -0.10864441
-0.034818616 0.053181626 -0.12784946 -0.066741414 0.07371019 0.021421878 -0.059008855 0.010567876
0.06467469 0.06950993 -0.014321264 -0.1207189 0.049436595 0.11663511 0.011806162 0.2952721
-0.1075949 -0.33813778 -0.35036537 -0.025996478 -0.29426378 -0.4905604 0.2083994 -0.18931611
-0.34944785 -0.36058268 -0.29036027 -0.6147972 -0.45338666 -0.45977685 -0.3043322 0.04634586
-0.028111057 -0.10012315 0.01704555 -0.0024643722 0.086667895 0.045048077 0.02482806 -0.0882843
0.051670346 -0.09165092 0.07968763 -0.0019074793 -0.09335886 0.015266298 0.09840147 0.025041947
0.24726726 -0.22554925 0.023426527 0.0698828 0.04976067 0.06125116 0.3503413 0.45006874
0.48020476 0.53258747 -0.11240686 0.1779754 0.35600653 -0.05641257 0.057644404 0.60317045
-0.051885925 -0.009707706 0.32941982 0.48425364 0.4943004 0.20759948 0.08638102 -0.20293795
0.10456406 -0.36936134 -0.70080423 -0.4278626 0.07024272 -0.011625704 0.031717546 0.027116155
00000000: e63f 0dbd 1baa d43d 0018 b7bb 6a62 4fbd
00000010: 193f a33d 90b7 c7bd 7bbf 933d ae92 413d
00000020: aaba b5bd a468 04bf 9e44 86be 0a43 53be
00000030: 5ecc f5be 1540 a83b 802e 763e 23a3 bebe
00000040: a9e5 ca3d c5b6 353f 0e0a debd e12b 003f
00000050: 19f4 ee3e 1436 ff3e bed5 513f bc82 123f
00000060: 07b9 2f3e 4622 cd3e 5bfd 2a3d 9635 ff3b
00000070: b7df fd3c 6446 d3bc 451c 92bc 128c d53d
00000080: 210c bfbd 8b25 113d 4368 cc3d de03 e83d
00000090: 0437 9cbe f1b9 7fbe fc67 22be 015e 353d
000000a0: 8175 813e 54bc 893e a41b 04bd da03 ad3e
000000b0: f1e9 d23e 8aff 123c d652 343e f873 443e
000000c0: 498a dd3d 800b f83d f40f 1f3e 20b7 443e
000000d0: ea12 963d a13b 893e af00 88bd 5cbe 45be
000000e0: 6406 463e 9b1f 97bd 9be3 5a3c da8c 5d3e
000000f0: fc84 16be b1a7 843d 1506 793e 2ad9 0bbf
00000100: 6cdd 09bf f225 633e e1bf 1cbe deaa 16be
00000110: d3a2 463e 3035 4b3e e617 043f 30db 483e
00000120: 9706 02bd 2702 19be ad5b dbbd e06d c53d
00000130: 658b e73b c086 8dbd 7c21 4d3e e79a 873c
00000140: 046d 3d3e e264 ac3e 0fc8 453e ec08 883d
00000150: 3100 153f 33ba 323f 1d7f b83e 9904 5a3f
00000160: 302e 5a3f 53ed 2c3f 1140 303d 733d 8f3d
00000170: 8ace 3cbd f399 7d3d ad81 38bd aec3 fd3d
00000180: ccbc 2cbd 3568 debb 7206 dabd 6305 a23c
00000190: 55a9 c0bd 7289 8bbc f104 95bd b54b bbbd
000001a0: faa4 3ebd f45c 9f3d 615e d43c fd38 833d
000001b0: 3043 283c 8656 09bd 0dd4 613c 29ed cbbd
000001c0: 03c8 d2bc 8347 d53d a8c6 af3d d6a0 edbc
000001d0: e8fe a7bb b494 fc3c 7d11 213c c17a e8bd
000001e0: 6434 053d 2926 e7bd 4c8f f3bd 2c57 c43d
000001f0: 8cde d4bd b1c2 803d 0108 a7bc 0aac 353c
00000200: 0dc9 1bbe 8096 273d d9fb d5bc 267d 6f3c
00000210: 8431 88bd 53e8 f8bb 1a8a 95bd 1fa3 843d
00000220: 75fb 0bbe 8881 88bd 82f7 22bd 6a60 ddbd
00000230: daed d3ba 9ffe b23d 45ab e4bd 1e1f c5bd
00000240: 571d 1cbd 80a2 5abd a016 57bb 8805 10bd
00000250: 4db1 a9bb 3f7b 193d 4381 77bd 776a 17bd
00000260: 8a35 873c d5e5 bebd f26c 81bd ba38 19bb
00000270: 374e 23bd 15da c9bd 7429 02be bf90 07bd
00000280: 0d41 efbd 3436 1bbe 2e44 103e fc70 c13c
00000290: d70e b23d c7b2 8b3c 72e3 053e 63c9 b63c
000002a0: 7af5 df3c efcd ea3d 242a 1a3d f174 24bd
000002b0: 30a0 febd 8304 4dbd 1095 093d f680 debd
000002c0: f79d 0ebd fad4 593d f8ea 02be b9af 88bd
000002d0: 5ef5 963d ef7c af3c 45b3 71bd e224 2d3c
000002e0: 2a74 843d 395b 8e3d bca3 6abc 783b f7bd
000002f0: 077e 4a3d 63de ee3d a26e 413c e82d 973e
00000300: b75a dcbd 6520 adbe 1763 b3be 91f6 d4bc
00000310: bea9 96be bc2a fbbe a766 553e 15dc 41be
00000320: d4ea b2be 4b9e b8be 1aaa 94be 5963 1dbf
00000330: 4c22 e8be df67 ebbe 6ed1 9bbe 28d5 3d3d
00000340: 2949 e6bc 5e0d cdbd 1ca3 8b3c 4e81 21bb
00000350: f07e b13d 5584 383d 3764 cb3c 66ce b4bd
00000360: 49a4 533d 7ab3 bbbd 4533 a33d 6204 faba
00000370: ee32 bfbd 7f1f 7a3c b686 c93d c524 cd3c
00000380: a133 7d3e 62f6 66be fde8 bf3c b71e 8f3d
00000390: d8d1 4b3d 7fe2 7a3d ef5f b33e 696f e63e
000003a0: 66dd f53e a757 083f 9135 e6bd 2f3f 363e
000003b0: 7d46 b63e de10 67bd 8a1c 6c3d 6169 1a3f
000003c0: 5686 54bd 120d 1fbc b7a9 a83e 18f0 f73e
000003d0: f114 fd3e f594 543e 88e8 b03d f7ce 4fbe
000003e0: af25 d63d ee1c bdbe e867 33bf cf10 dbbe
000003f0: 6adb 8f3d bd79 3ebc 42ea 013d b322 de3c

conv3.bias f4 [10]
-0.66533035 -0.07963188 0.9500142 -0.09510208 -0.0026070485 0.011694794 -0.085279346 -0.10338752
-0.059974667 0.7018505
00000000: 1753 2abf 0a16 a3bd 2134 733f e1c4 c2bd
00000010: 04db 2abb 859b 3f3c f0a6 aebd d6bc d3bd
00000020: ffa7 75bd 79ac 333f

conv4.weight f4 [10, 10, 3, 3]
-0.5232105 -0.2799227 -0.2055897 -0.42051294 -0.1739899 -0.32535368 -0.47485033 -0.969607
-0.6163301 -0.08557186 0.039179016 -0.052347977 0.059587717 0.06760545 0.08416939 -0.017741222
0.027819734 0.08097263 0.062190205 -0.026606204 -0.29862836 -0.2568339 -0.1056642 0.28183138
-0.29138303 0.29186654 0.46330607 -0.014006887 -0.031891573 -0.099610224 0.14140487 -0.07068844
0.020722171 0.09003036 0.0946155 -0.065271 0.028085638 0.060269184 0.019524077 0.10557272
0.011490895 0.018296607 0.11230512 0.0049182447 -0.030560547 0.05236129 -0.031862464 -0.053571463
-0.04186789 0.053383704 0.12635654 -0.1023851 -0.038018726 -0.07448807 0.049976036 0.045724418
0.024052314 -0.06900698 0.03189275 0.12221461 -0.04529541 -0.03937865 -0.039199475 0.014384475
0.042000126 0.057442997 -0.12095252 0.037419666 0.11706314 0.13941205 -0.028044585 -0.11674331
-0.08629505 0.041099083 0.027771072 -0.0603325 -0.16477954 0.05434477 -0.01714789 0.02124952
-0.09441131 -0.0835999 -0.34286895 -0.57397723 0.3315328 0.050930977 -0.062990926 0.42057502
0.14482522 -0.029981155 0.28846893 0.36788803 0.6587553 -0.18614408 0.11971493 0.07707199
-0.79376066 -0.42826715 -0.9192207 0.092598945 -0.023970302 0.06882713 -0.020148838 0.03584587
0.019908568 -0.0578393 0.08093386 -0.10841296 -0.13213086 -0.217997 0.081713766 -0.32022324
0.0066944677 0.3748656 0.06457945 -0.07525481 0.30694306 0.072357446 0.04507488 -0.0551316
-0.09923625 0.14550501 -0.21565059 0.064292714 0.057967275 -0.026939617 -0.040908948 -0.10536091
0.08104255 0.12284955 -0.074789405 0.04268543 0.012256328 0.0027003165 -0.046917163 -0.07857831
0.034282524 -0.103415675 -0.05603841 -0.06736698 0.07190797 0.012332568 0.010594609 -0.0067905528
0.067759536 0.025291298 0.01987822 -0.11358794 -0.052280635 -0.028442878 -0.06279262 0.02802085
-0.10569762 -0.16698967 -0.041702565 0.09575791 0.003385279 -0.07853522 0.06131779 0.07837989
-0.080239154 -0.111623 0.023763472 -0.035826616 0.022428043 -0.01661404 0.018119102 -0.060274325
0.096022956 -0.14608578 -0.22179966 -0.55554503 -0.28541297 -0.3499648 -0.01508955 0.19020802
0.13551341 0.27830255 0.29469106 0.23819122 -0.103278644 0.2351978 0.08104515 -0.065184146
0.47024876 0.4736763 0.13786015 0.1422183 -0.084979005 -0.01684716 -0.09102291 -0.04942512
-0.14461115 0.08773661 0.044934265 -0.10924008 -0.032577757 0.0635332 -0.32335573 -0.50644445
-0.5049955 -0.34722042 -0.62298816 -0.15108438 -0.5921722 -0.21497361 0.37226388 0.11532249
-0.065284945 -0.032606315 -0.0051612915 0.059197567 0.05234315 -0.019472934 0.14215289 0.10404581
0.03475088 0.10497636 0.092157945 -0.0446855 0.12079762 -0.0005358865 -0.081652045 -0.039418533
-0.010156612 -0.0626399 -0.07666129 0.11618606 0.00065700826 0.0036481568 0.022750584 -0.022435937
0.07125734 0.1233871 0.059768688 0.051071063 -0.12708312 -0.040284213 -0.08568363 -0.05872146
0.08555909 -0.04391657 -0.032365125 0.0029643609 0.01388084 0.07310365 0.012450136 -0.008053446
-0.001846716 0.0032108028 -0.010568437 -0.07583767 -0.010845531 0.0053813965 0.11237692 0.050878804
00000000: 20f1 05bf 0752 8fbe 1b86 52be 794d d7be
00000010: 692a 32be c294 a6be 951f f3be 2a38 78bf
00000020: cfc7 1dbf 4d40 afbd 2d7a 203d d56a 56bd
00000030: 4012 743d ba74 8a3d 0061 ac3d 0a56 91bc
00000040: 36e6 e33c fad4 a53d 28bb 7e3d 41f5 d9bc
00000050: d1e5 98be bc7f 83be 7966 d8bd 344c 903e
00000060: 2830 95be 886f 953e 7436 ed3e 247d 65bc
00000070: bda0 02bd 7200 ccbd 70cc 103e 1ac5 90bd
00000080: 8bc1 a93c d661 b83d c5c5 c13d cdac 85bd
00000090: da13 e63c d2dc 763d f5f0 9f3c 8336 d83d
000000a0: 4f44 3c3c c4e2 953c 3a00 e63d 3a29 a13b
000000b0: 1d5a fabc cb78 563d 3782 02bd c06d 5bbd
000000c0: aa7d 2bbd dfa8 5a3d 9c63 013e 48af d1bd
000000d0: 86b9 1bbd 348d 98bd acb3 4c3d 8749 3b3d
000000e0: 5c09 c53c 8853 8dbd f9a1 023d a74b fa3d
000000f0: ae87 39bd 824b 21bd a18f 20bd dcac 6b3c
00000100: 5308 2c3d 5949 6b3d f4b5 f7bd 5d45 193d
00000110: cdbe ef3d 08c2 0e3e c2bd e5bc 1e17 efbd
00000120: 76bb b0bd 8357 283d 2980 e33c 361f 77bd
00000130: f8bb 28be 9f98 5e3d bb79 8cbc 7913 ae3c
00000140: b85a c1bd 6d36 abbd 858c afbe 2cf0 12bf
00000150: abbe a93e 009d 503d 6301 81bd 9c55 d73e
00000160: 104d 143e 0a9b f5bc 33b2 933e d25b bc3e
00000170: 30a4 283f 8e9c 3ebe 1a2d f53d ebd7 9d3d
00000180: e633 4bbf d545 dbbe 0c52 6bbf 84a4 bd3d
00000190: 5e5d c4bc 3df5 8c3d 2d0f a5bc 1ed3 123d
000001a0: 4b17 a33c e7e8 6cbd a7c0 a53d 9d07 debd
000001b0: 504d 07be 9b3a 5fbe 8c59 a73d 4df4 a3be
000001c0: 445d db3b 62ee bf3e 3b42 843d 321f 9abd
000001d0: a427 9d3e 2430 943d 70a0 383d acd1 61bd
000001e0: 603c cbbd 44ff 143e 82d3 5cbe e6ab 833d
000001f0: 186f 6d3d 79b0 dcbc 2490 27bd 76c7 d7bd
00000200: a3f9 a53d 8b98 fb3d 302b 99bd ebd6 2e3d
00000210: c4ce 483c cbf7 303b 362c 40bd aaed a0bd
00000220: d56b 0c3d 99cb d3bd 8888 65bd b3f7 89bd
00000230: 7c44 933d 8a0e 4a3c 0395 2d3c 4983 debb
00000240: 83c5 8a3d b22f cf3c a6d7 a23c cba0 e8bd
00000250: 3824 56bd 0a01 e9bc 6b99 80bd fb8b e53c
00000260: fe77 d8bd 57ff 2abe 4fd0 2abd b91c c43d
00000270: 8fdb 5d3b 13d7 a0bd 5d28 7b3d a385 a03d
00000280: 6d54 a4bd 999a e4bd 9dab c23c eebe 12bd
00000290: 04bb b73c 2b1a 88bc 836e 943c 36e2 76bd
000002a0: afa7 c43d 8397 15be 731f 63be 3338 0ebf
000002b0: a621 92be 962e b3be 293a 77bc e4c5 423e
000002c0: 07c4 0a3e ac7d 8e3e bfe1 963e 66e8 733e
000002d0: c183 d3bd b1d7 703e 00fb a53d 447f 85bd
000002e0: 72c4 f03e b385 f23e 362b 0d3e ada1 113e
000002f0: 7909 aebd 0e03 8abc 386a babd ff71 4abd
00000300: f214 14be 40af b33d fe0c 383d 43b9 dfbd
00000310: 4170 05bd b21d 823d e28e a5be 58a6 01bf
00000320: 6347 01bf e0c6 b1be 277c 1fbf ddb5 1abe
00000330: 9998 17bf 0b22 5cbe 5f99 be3e 332e ec3d
00000340: 1db4 85bd 338e 05bd 0d20 a9bb 2679 723d
00000350: c565 563d b485 9fbc 8790 113e f815 d53d
00000360: f056 0e3d d9fd d63d 4ebd bc3d 2508 37bd
00000370: be64 f73d bc7a 0cba 3039 a7bd 5475 21bd
00000380: eb67 26bc 5949 80bd 9800 9dbd f5f2 ed3d
00000390: 143b 2c3a ea15 6f3b 6f5f ba3c 92cb b7bc
000003a0: 5eef 913d 60b2 fc3d 03d0 743d e42f 513d
000003b0: 1422 02be 0f01 25bd e67a afbd ea85 70bd
000003c0: 9b39 af3d dce1 33bd 4b91 04bd b945 423b
000003d0: 766c 633c 5eb7 953d a8fb 4b3c 9af2 03bc
000003e0: 820d f2ba 556c 523b 3d27 2dbc c850 9bbd
000003f0: 74b1 31bc 6d56 b03b df25 e63d 4b66 503d

conv4.bias f4 [10]
-0.05234169 0.20309564 0.16415909 -0.112034775 -0.28156704 0.033576477 -0.13155642 0.09964558
-0.39261314 0.10630385
00000000: 3d64 56bd 4ef8 4f3e 5219 283e 7d72 e5bd
00000010: 8e29 90be 7d87 093d bab6 06be fb12 cc3d
00000020: 9704 c9be d5b5 d93d

norm.weight f4 [10]
0.6112834 0.48121914 0.45637932 0.35953668 0.22141609 0.4434358 0.6801899 0.5066195
0.48106194 0.37995696
00000000: 127d 1c3f 5b62 f63e 8daa e93e 3115 b83e
00000010: e6ba 623e 040a e33e ed20 2e3f d1b1 013f
00000020: c04d f63e b889 c23e

norm.bias f4 [10]
-0.60514563 -0.52143717 -0.5318455 -0.239769 -0.21269867 -0.43928894 -0.5733597 -0.40461326
-0.4014705 -0.2958326
00000000: d3ea 1abf e87c 05bf 0727 08bf 0186 75be
00000010: aecd 59be 7bea e0be b4c7 12bf 7829 cfbe
00000020: 8b8d cdbe 5f77 97be

norm.running_mean f4 [10]
-19.306267 -3.233329 -13.143864 -17.476404 1.1058131 -6.1346183 -17.002474 -18.26063
-13.275019 -2.451482
00000000: 3c73 9ac1 ddee 4ec0 444d 52c1 adcf 8bc1
00000010: 498b 8d3f cb4e c4c0 1105 88c1 c515 92c1
00000020: 7a66 54c1 15e5 1cc0

norm.running_var f4 [10]
94.38293 33.787743 66.77236 110.48677 17.411276 28.471926 84.02813 51.65482
64.52687 56.86416
00000000: 0fc4 bc42 a626 0742 738b 8542 3af9 dc42
00000010: 4b4a 8b41 81c6 e341 670e a842 899e 4e42
00000020: c20d 8142 e674 6342

fc1.weight f4 [50, 810]
0.02124051 -0.031516787 -0.010877396 -0.010921728 0.0023509916 -0.04229999 -0.011850264 0.030752309
-0.0003939668 -0.0017981223 -0.009666591 -0.013760449 0.032400616 -0.04713285 -0.010120092 -0.06900849
-0.04767482 0.0020839807 -0.0856015 -0.03800392 -0.05715433 -0.011850839 0.027384885 -0.028584858
-0.015996594 -0.0076783514 -0.00057588855 0.036527593 -0.09398204 -0.06226127 0.0023723769 -0.014508073
0.02454098 0.02718639 -0.04005361 -0.0284763 0.03425712 -0.055687882 -0.04242277 0.020358415
-0.0015159535 -0.0438272 -0.01092985 -0.056793876 0.025420984 -0.02758644 -0.03656194 -0.012608869
0.040013608 -0.038088255 -0.03289214 0.01235101 -0.0788361 -0.026520414 -0.03128205 -0.041399393
-0.07317776 0.026165213 -0.006999781 -0.000880087 -0.041633658 -0.029213328 -0.0009813246 -0.016647618
-0.04180542 -0.017232006 -0.052265074 -0.065952644 -0.0328881 -0.01173425 -0.021393718 -0.05079706
-0.072582714 -0.025932405 0.00054300943 -0.078787275 -0.03680772 -0.0028770536 0.049219888 0.008546249
0.0015334624 0.019731129 -0.012109758 0.007859765 0.021243624 0.02351371 -0.018943787 -0.04448534
-0.02317363 -0.07575939 -0.00047058068 -0.103319034 -0.06961163 0.02636564 0.00497059 0.09283396
-0.004451321 -0.051508743 -0.045355443 -0.018689992 -0.036223926 -0.08258781 0.016385747 -0.20043075
-0.013875285 -0.1256406 -0.08622522 0.035544246 -0.026919702 -0.07441935 0.008861659 -0.06875574
-0.07793353 -0.09302492 -0.08175406 -0.049830373 -0.049372025 -0.11896757 0.023237996 0.086509585
-0.11211406 -0.03082386 -0.040797155 -0.07872428 0.009252541 -0.019910919 -0.033887036 0.1682105
0.00791255 -0.055349782 -0.043347817 -0.058995925 -0.04338469 0.029037038 -0.041528568 -0.024949014
0.007703511 0.006712766 -0.06275456 0.028297547 -0.04586636 -0.03759733 -0.11451988 0.014125749
0.02803633 0.01372785 0.011063082 0.002088404 -0.08790426 -0.023193784 -0.04457688 -0.0036886032
0.06730711 0.007987839 -0.012188107 0.0025305934 -0.017605793 -0.098224364 0.017179273 -0.0020345016
-0.010192207 0.012038562 -0.0074862824 -0.008274513 -0.025146084 0.11949644 0.12295439 0.033872902
0.118192434 -0.10464511 -0.06528574 -0.08106074 0.0031286215 0.0037099703 -0.07983714 0.12031284
-0.16512914 -0.052933637 -0.07751879 -0.024989838 -0.0062798513 0.0063081165 -0.022240479 -0.06587436
-0.033909045 -0.017089887 -0.057500426 -0.026354007 -0.07662438 0.042893723 0.064099796 0.037640072
-0.06823807 -0.0067252293 -0.012971624 -0.04931524 -0.030135723 -0.014198048 0.03499822 -0.053806286
-0.05276283 -0.046894025 -0.12285635 -0.08357122 -0.082298175 -0.09255096 0.036796197 -0.027753642
0.024366917 0.08918874 -0.104053006 -0.15349217 -0.09551798 -0.062275074 -0.032984357 0.01118251
-0.015005252 -0.021212297 -0.062271696 -0.037686653 -0.11376445 -0.08450261 0.005162771 -0.034629006
0.014030729 0.009445288 0.0077041974 0.034924947 -0.04222756 0.008239821 0.01603687 0.045265537
-0.032730356 -0.0020536575 0.013417781 -0.044871192 -0.032266665 -0.039325852 0.019280232 0.03253846
-0.012731175 -0.015563127 -0.04385506 -0.03493666 -0.050957434 -0.06300525 0.0073792515 -0.07829181
0.010013568 -0.08255946 -0.013852394 -0.07172383 -0.03376056 -0.033628866 -0.02852541 -0.17053176
00000000: 9400 ae3c bf17 01bd 1b37 32bc 0cf1 32bc
00000010: 1813 1a3b c142 2dbd 9c27 42bc 44ec fb3c
00000020: 548d ceb9 f9ae ebba 9f60 1ebc 8273 61bc
00000030: 82b6 043d 600e 41bd bece 25bc 5354 8dbd
00000040: ac46 43bd 6593 083b d74f afbd 00aa 1bbd
00000050: a91a 6abd 052a 42bc 4456 e03c cb2a eabc
00000060: 4a0b 83bc ae9a fbbb 3af7 16ba f59d 153d
00000070: a879 c0bd ac05 7fbd e179 1b3b 45b3 6dbc
00000080: 2a0a c93c feb5 de3c 410f 24bd 2147 e9bc
00000090: 3251 0c3d fa18 64bd 80c3 2dbd b1c6 a63c
000000a0: f5b2 c6ba 2684 33bd 1d13 33bc b2a0 68bd
000000b0: ab3f d03c f5fc e1bc f9c1 15bd 6e95 4ebc
000000c0: 4fe5 233d 6e02 1cbd e9b9 06bd e45b 4a3c
000000d0: d274 a1bd 5741 d9bc 9b21 00bd 6992 29bd
000000e0: 39de 95bd 6e58 d63c 6b5e e5bb a4b5 66ba
000000f0: 0e88 2abd ca50 efbc ca9f 80ba 9660 88bc
00000100: 293c 2bbd 232a 8dbc e713 56bd 2e12 87bd
00000110: acb5 06bd 0341 40bc e141 afbc 9410 50bd
00000120: 3fa6 94bd 3270 d4bc bf58 0e3a 395b a1bd
00000130: b1c3 16bd f38c 3cbb cb9a 493d 9105 0c3c
00000140: 76fe c83a 2da3 a13c 0268 46bc 3ec6 003c
00000150: 1c07 ae3c d39f c03c 0030 9bbc 4336 36bd
00000160: a0d6 bdbc bd27 9bbd 45b8 f6b9 ee98 d3bd
00000170: 8b90 8ebd c1fc d73c 55e0 a23b bb1f be3d
00000180: 63dc 91bb d5fa 52bd a1c6 39bd c11b 99bc
00000190: 8a5f 14bd cc23 a9bd 673b 863c b83d 4dbe
000001a0: 2a55 63bc eea7 00be d996 b0bd d896 113d
000001b0: b586 dcbc 2c69 98bd 7e30 113c cfcf 8cbd
000001c0: 9d9b 9fbd d983 bebd ac6e a7bd ef1a 4cbd
000001d0: 523a 4abd 45a5 f3bd 9c5d be3c f02b b13d
000001e0: 0e9c e5bd 5282 fcbc eb1a 27bd 323a a1bd
000001f0: f897 173c 391c a3bc 22cd 0abd 603f 2c3e
00000200: a4a3 013c 74b6 62bd 7b8d 31bd b6a5 71bd
00000210: 25b4 31bd 15df ed3c dc19 2abd e061 ccbc
00000220: bc6d fc3b c3f6 db3b 7685 80bd 42d0 e73c
00000230: 5dde 3bbd a8ff 19bd 6689 eabd af6f 673c
00000240: 72ac e53c c7ea 603c ee41 353c 9bdd 083b
00000250: 2607 b4bd e400 bebc 3f96 36bd 7ebc 71bb
00000260: 4fd8 893d 6ddf 023c a0b0 47bc 50d8 253b
00000270: 063a 90bc db29 c9bd 8cbb 8c3c 4655 05bb
00000280: 37fd 26bc 643d 453c 7d4f f5bb d391 07bc
00000290: 29ff cdbc 8dba f43d 83cf fb3d 50be 0a3d
000002a0: e00e f23d 2d50 d6bd 88b4 85bd 2c03 a6bd
000002b0: 8f09 4d3b f922 733b a881 a3bd 9466 f63d
000002c0: 9d17 29be f1d0 58bd 2cc2 9ebd 7db7 ccbc
000002d0: 36c7 cdbb 51b4 ce3b aa31 b6bc 23e9 86bd
000002e0: 36e4 0abd 1700 8cbc 9185 6bbd 5ce4 d7bc
000002f0: 3eed 9cbd 54b1 2f3d c146 833d 7a2c 1a3d
00000300: 67c0 8bbd 505f dcbb ef86 54bc c7fe 49bd
00000310: 31df f6bc ee9e 68bc 4b5a 0f3d fb63 5cbd
00000320: d61d 58bd f313 40bd 1c9c fbbd 6327 abbd
00000330: f28b a8bd 5c8b bdbd 9cb7 163d 9b5b e3bc
00000340: 219d c73c 96a8 b63d be19 d5bd 0d2d 1dbe
00000350: ee9e c3bd 2614 7fbd 9b1a 07bd d936 373c
00000360: 97d8 75bc 69c5 adbc 9b10 7fbd 525d 1abd
00000370: 56fd e8bd b40f adbd 762c a93b 25d7 0dbd
00000380: 25e1 653c 69c0 1a3c 7e73 fc3b 760d 0f3d
00000390: cef6 2cbd 5000 073c c15f 833c 5b68 393d
000003a0: 4410 06bd a896 06bb 41d6 5b3c dbca 37bd
000003b0: 0d2a 04bd 2514 21bd 94f1 9d3c 0c47 053d
000003c0: 6b96 50bc 7cfc 7ebc 5da1 33bd be19 0fbd
000003d0: beb8 50bd e608 81bd a6cd f13b 7557 a0bd
000003e0: f30f 243c ef14 a9bd 27f5 62bc f2e3 92bd
000003f0: 8348 0abd 6cbe 09bd 1fae e9bc e19f 2ebe

fc1.bias f4 [50]
-0.1294653 -0.07517076 -0.048407122 -0.14225176 -0.061963443 -0.04711119 -0.010689859 -0.025716778
0.21992993 -0.03718981 -0.18421932 -0.02701293 0.05296914 -0.28683832 -0.044143397 0.5906349
-0.08015649 -0.05933114 -0.042534433 -0.05187784 0.80673057 0.6439909 -0.21217401 -0.015376148
-0.07334145 -0.002823801 -0.03530222 0.077430286 0.62381095 -0.14188488 -0.069529004 -0.045897987
-0.07892925 1.0059036 -0.06658163 -0.044981766 -0.07549618 0.42447227 -0.03625169 -0.11712558
-0.02581398 0.85733676 -0.10258118 0.0006607497 -0.04859032 0.55287194 3.0273147e-06 -0.27749804
-0.22953144 0.8371224
00000000: 8d92 04be 21f3 99bd 8c46 46bd 72aa 11be
00000010: 61cd 7dbd aaf7 40bd 8524 2fbc feab d2bc
00000020: 5035 613e 5854 18bd fda3 3cbe 384a ddbc
00000030: 2bf6 583d 79dc 92be b5cf 34bd d933 173f
00000040: 1629 a4bd 3605 73bd 9638 2ebd dc7d 54bd
00000050: e585 4e3f 96dc 243f 2544 59be 3dec 7bbc
00000060: 0b34 96bd 850f 39bb 1099 10bd c593 9e3d
00000070: 13b2 1f3f 454a 11be 3965 8ebd 87ff 3bbd
00000080: a9a5 a1bd 73c1 803f f35b 88bd cd3e 38bd
00000090: be9d 9abd 6e54 d93e a77c 14bd 89df efbd
000000a0: d777 d3bc 6c7a 5b3f 1516 d2bd 2936 2d3a
000000b0: a506 47bd 0489 0d3f df28 4b36 3914 8ebe
000000c0: 4a0a 6bbe a74d 563f

fc2.weight f4 [7, 50]
-0.01630765 0.08072451 -0.009495649 -0.12130532 -0.08570195 -0.16593458 -0.035789654 -0.040810544
-0.10863498 -0.052123442 0.07189013 0.024948977 0.1939861 0.12063948 -0.025929747 -0.045331597
-0.08226787 0.00091389095 -0.06961733 0.027012737 0.010231986 0.12902145 -0.13706137 0.056216866
-0.068127446 0.15815285 -0.094486065 -0.05595179 -0.18586986 0.038933072 -0.0050442475 0.1712573
-0.016789425 0.23457584 -0.059995968 -0.10874694 -0.04144847 0.16917989 0.026284046 -0.055284414
-0.0004514598 -0.09322847 -0.0685832 -0.042568635 -0.094013095 -0.22733688 0.07800911 0.22757685
0.15209484 -0.08479484 0.10066378 -0.149864 -0.08163143 -0.06728313 0.004031653 0.04920072
0.03979441 0.075057395 0.09645787 0.018617617 0.036559142 0.06506884 -0.24664463 -0.19881417
0.026330093 0.056456447 -0.04123919 -0.03718954 -0.005567871 -0.051914662 -0.2853832 -0.23557581
-0.061275 0.020028582 0.016557386 -0.05885066 -0.11718942 -0.27950817 -0.19121556 0.10064179
-0.06369328 0.102444515 0.19254632 -0.47288474 -0.11849282 0.094009995 -0.0041519757 -0.13487145
-0.10057527 0.02736256 -0.06591077 -0.24887085 -0.07955731 0.073105715 0.11030053 -0.22535163
0.08975757 0.4474617 -0.07970188 -0.09929951 0.15039913 -0.0256051 0.059531488 -0.10233158
0.046676904 -0.029402982 -0.03871352 0.09112037 0.042817593 0.052834347 0.079611786 -0.12881404
-0.17419639 -0.044457242 0.031331982 0.17207983 -0.09731519 0.011797738 -0.12526877 -0.16626616
-0.08366996 0.037048887 0.0631864 -0.036608543 -0.14593066 0.17098221 -0.003396996 -0.12405626
-0.13221097 0.08751348 -0.14012767 0.024259156 0.062076654 0.03139999 -0.036421575 -0.016108276
0.0039640865 0.04135996 -0.02873886 -0.0068034153 -0.06914168 -0.1166748 -0.06485494 -0.03432344
-0.12180678 0.151834 0.020348568 0.071640804 -0.06285622 -0.12291266 0.103144735 0.047141597
-0.08686342 -0.047585703 0.013178572 -0.13991706 -0.0671284 -0.007719527 -0.14719585 0.10528828
-0.06432021 0.07636257 0.02932356 0.18908277 -0.016582549 -0.088997945 0.01682367 -0.01812077
0.0697763 -0.04846922 0.28689566 0.10640018 0.016131062 0.05443888 -0.028191796 -0.010587077
-0.05337099 0.2608162 0.32420865 -0.027397035 0.06919574 0.12418873 -0.09186452 0.048547003
0.05155223 0.029655471 0.11740759 -0.4313699 -0.028174756 -0.060850874 0.113155864 0.3300399
0.10966885 -0.05554298 -0.056869626 -0.023052461 -0.038254205 -0.11838824 -0.22741212 0.2487153
0.061955754 0.10358834 -0.08557393 -0.0027198365 0.1361696 -0.03803668 -0.035363536 -0.0028118957
-0.09052498 -0.018168265 -0.010022143 0.025576273 -0.2782218 -0.06648547 0.11503014 0.16501766
-0.04251438 -0.050609574 -0.11336893 -0.018187925 -0.10476244 0.19270931 -0.040778615 -0.041910645
0.014338448 -0.08853527 -0.050056607 0.03577933 -0.16427188 -0.09004081 -0.037914183 0.021602605
0.07691923 0.047494784 0.031513214 0.073430255 0.07627408 0.047550194 -0.09015794 0.08528708
-0.00336502 -0.15335591 -0.006605699 0.026089633 0.0679259 -0.1065155 0.013404105 -0.07236208
-0.047310673 -0.10226825 0.008379787 0.04816678 -0.075057216 -0.111329295 0.11766086 0.29846227
00000000: 9f97 85bc e452 a53d a393 1bbc ec6e f8bd
00000010: 8184 afbd c1ea 29be 2c98 12bd f528 27bd
00000020: 047c debd 647f 55bd 223b 933d cc61 cc3c
00000030: 4ba4 463e d511 f73d 9f6a d4bc a0ad 39bd
00000040: 0f7c a8bd 2f92 6f3a 8893 8ebd d149 dd3c
00000050: 0fa4 273c 331e 043e d159 0cbe a843 663d
00000060: 6786 8bbd d2f2 213e e981 c1bd b42d 65bd
00000070: ab54 3ebe 4978 1f3d 374a a5bb 135e 2f3e
00000080: fa89 89bc a634 703e 55be 75bd b7b6 debd
00000090: dfc5 29bd 7e3d 2d3e a451 d73c e971 62bd
000000a0: e9b1 ecb9 91ee bebd 5975 8cbd 735c 2ebd
000000b0: f089 c0bd 00cb 68be 3ec3 9f3d e809 693e
000000c0: c0be 1b3e eba8 adbd d028 ce3d f375 19be
000000d0: 612e a7bd bdcb 89bd f51b 843b b286 493d
000000e0: 77ff 223d b1b7 993d b48b c53d f983 983c
000000f0: 0abf 153d d042 853d 6990 7cbe f195 4bbe
00000100: 35b2 d73c e03e 673d 6dea 28bd 0f54 18bd
00000110: b072 b6bb 78a4 54bd bf1d 92be c93a 71be
00000120: 7ffb 7abd fb12 a43c 5ba3 873c 640d 71bd
00000130: 0201 f0bd b21b 8fbe 03ce 43be 481d ce3d
00000140: 9f71 82bd 6ece d13d dd2a 453e f31d f2be
00000150: 5dac f2bd 5088 c03d 4c0d 88bb be1b 0abe
00000160: 68fa cdbd 7327 e03c 3afc 86bd 00d8 7ebe
00000170: f1ee a2bd 73b8 953d 3fe5 e13d 94c2 66be
00000180: d1d2 b73d b319 e53e bd3a a3bd 8b5d cbbd
00000190: 3b02 1a3e c9c1 d1bc 4ad7 733d 3893 d1bd
000001a0: 4830 3f3d 86de f0bc 1192 1ebd 519d ba3d
000001b0: 8061 2f3d d468 583d 810b a33d d4e7 03be
000001c0: 8a60 32be cc18 36bd f755 003d b235 303e
000001d0: 304d c7bd 4d4b 413c 7546 00be ad41 2abe
000001e0: 285b abbd 93c0 173d df67 813d d7f2 15bd
000001f0: d96e 15be f615 2f3e 23a0 5ebb 3511 febd
00000200: 5062 07be 443a b33d a17d 0fbe 23bb c63c
00000210: 1744 7e3d 479d 003d ca2e 15bd 81f5 83bc
00000220: 2be5 813b 1069 293d c26d ebbc 2fef debb
00000230: 279a 8dbd 33f3 eebd abd2 84bd bc96 0cbd
00000240: d575 f9bd 5f7a 1b3e 0ab2 a63c 6ab8 923d
00000250: c3ba 80bd a2b9 fbbd 8c3d d33d 8c17 413d
00000260: 73e5 b1bd 3ae9 42bd f0ea 573c 6b46 0fbe
00000270: 9d7a 89bd 16f4 fcbb 82ba 16be 62a1 d73d
00000280: 50ba 83bd fb63 9c3d f637 f03c ea9e 413e
00000290: 20d8 87bc 8e44 b6bd cbd1 893c 0272 94bc
000002a0: e0e6 8e3d a987 46bd fde3 923e 56e8 d93d
000002b0: 4a25 843c 4efb 5e3d 7bf2 e6bc 6b75 2dbc
000002c0: 8a9b 5abd b389 853e adfe a53e bf6f e0bc
000002d0: 7fb6 8d3d a956 fe3d 7723 bcbd 39d9 463d
000002e0: 6e28 533d 08f0 f23c 6473 f03d 84dc dcbe
000002f0: bfce e6bc c43e 79bd 43be e73d fdfa a83e
00000300: 109a e03d 0981 63bd 20f0 68bd 84d8 bcbc
00000310: 71b0 1cbd 8975 f2bd b9de 68be 39af 7e3e
00000320: 51c5 7d3d 2026 d43d 6241 afbd 493f 32bb
00000330: 0b70 0b3e 5acc 1bbd 5bd9 10bd c847 38bb
00000340: 2965 b9bd 9dd5 94bc ea33 24bc 5585 d13c
00000350: 1673 8ebe 8929 88bd ec94 eb3d 64fa 283e
00000360: 8f23 2ebd fc4b 4fbd f82d e8bd d8fe 94bc
00000370: b18d d6bd 9755 453e 7a07 27bd 7faa 2bbd
00000380: cfeb 6a3c fb51 b5bd 2808 4dbd 598d 123d
00000390: e336 28be 5167 b8bd e74b 1bbd f2f7 b03c
000003a0: d487 9d3d e489 423d 0014 013d 9a62 963d
000003b0: 9635 9c3d fec3 423d baa4 b8bd feaa ae3d
000003c0: ab87 5cbb 5509 1dbe 9f74 d8bb edb9 d53c
000003d0: bc1c 8b3d cc24 dabd e49c 5b3c 9232 94bd
000003e0: d6c8 41bd 0472 d1bd 604b 093c 884a 453d
000003f0: 99b7 99bd 9d00 e4bd 2df8 f03d 0cd0 983e

fc2.bias f4 [7]
-0.21255781 -1.3534976 -0.1269144 0.13871941 0.36427045 -0.24892479 0.32244855
00000000: c1a8 59be 693f adbf d9f5 01be 760c 0e3e
00000010: a881 ba3e 24e6 7ebe fa17 a53e

localization.0.weight f4 [8, 1, 7, 7]
0.045818392 -0.021280706 0.07815073 0.1317487 0.050937 0.10866088 0.16944289 0.18541694
0.11956376 0.24462874 0.10909681 0.16946764 0.2287212 0.011985495 -0.03286457 0.08546263
0.2058889 0.0028060793 0.18758588 0.14979334 -0.074428484 0.08173336 -0.07314648 -0.052167155
0.1891559 0.048465047 0.013755563 0.022249335 0.047355883 -0.08011081 0.1870217 0.0069250637
0.11444033 0.14548738 -0.010366362 0.118503205 -0.08285127 0.18980554 0.13427515 0.04002852
0.12650447 -0.063431054 -0.017022176 0.12775879 0.041257687 -0.060892694 0.030977048 0.12866776
-0.009556565 -0.10862287 -0.018328428 0.08009777 -0.10969904 -0.023501175 0.047446128 0.000248036
0.13973 0.099154346 -0.13261938 0.050206594 0.10005185 -0.11096705 -0.016454 -0.02476583
-0.10719791 0.078389354 -0.09407444 -0.061092522 0.0525846 -0.20066854 -0.103475474 -0.12114318
0.040612865 0.09824126 -0.1111324 -0.03141885 -0.062727 0.1005722 -0.026297914 0.04543745
0.02066751 -0.095701195 -0.077809595 -0.09400554 -0.17553854 0.067936584 -0.008976391 0.07508448
-0.09751397 -0.05206467 0.0010149303 -0.004542269 -0.08505826 -0.04918944 -0.13869773 0.08467793
-0.03639911 -0.15501387 -0.05002797 -0.020849552 0.050547298 -0.083048664 0.09385253 0.11802523
-0.011406633 0.07823259 -0.038501956 -0.10473885 0.13017324 0.06449651 -0.044743408 -0.12208464
0.002483407 -0.036289215 -0.007611466 0.12835993 -0.10145896 0.08097416 -0.056844264 -0.087086596
-0.06398429 -0.07799636 -0.006922262 -0.16147412 -0.12618642 0.034192633 0.12508936 -0.039894972
0.045100205 -0.001354505 0.087354176 -0.019057281 0.057192277 0.14402945 -0.100097954 -0.10030251
0.023856165 -0.046392195 0.0040490427 0.014518509 -0.13486989 0.068594396 0.010184571 0.057228882
-0.08114772 -0.1787917 -0.18014027 -0.02394904 -0.095030285 -0.09270075 -0.03833839 0.01097724
0.052954104 -0.07411091 0.06676144 -0.01687492 -0.06742857 0.12686805 0.094635785 -0.07037378
0.084070235 0.13146281 0.11973757 0.07179475 0.12847057 0.010830619 -0.11761566 0.12089379
0.07055399 0.04782152 0.030482607 -0.018668003 -0.03232735 -0.12288597 0.13761537 0.09550624
-0.016177244 0.1035401 0.07124955 0.0794385 0.07993316 -0.14234285 0.051333398 -0.1916702
0.075903505 -0.034628805 -0.07217162 0.012359572 -0.071769185 -0.15365218 -0.14877312 0.015529791
-0.09754626 -0.00825791 0.013775516 0.06483492 -0.075979166 -0.1489517 -0.011213229 0.09366232
0.13562866 -0.009791272 -0.046807498 -0.12499423 -0.08612838 0.10587155 -0.09189415 0.102457926
0.14239338 0.116221 -0.07872157 -0.07806697 0.05841329 -0.005531463 0.1491402 0.073406875
0.08161736 -0.0005058543 0.0568248 -0.0034876652 0.10162174 -0.06419731 -0.049115706 0.12647355
-0.08723026 -0.032694537 -0.035792205 0.08381951 -0.07074225 0.0008676015 -0.0017604256 -0.16969644
-0.005033966 0.06869579 -0.11132322 0.10780471 0.117300056 0.05187489 0.03783579 -0.13941412
-0.008230989 0.027042078 0.049684662 -0.15746965 0.05891907 -0.0143724345 0.15314578 0.112625
0.11643315 0.00402156 0.02711129 0.01470148 0.09747317 0.09879734 -0.048652705 0.080533385
00000000: 11ac 3b3d e054 aebc 7d0d a03d 22e9 063e
00000010: 51a3 503d 9889 de3d 7082 2d3e f0dd 3d3e
00000020: d8dd f43d f57f 7a3e 266e df3d ed88 2d3e
00000030: e435 6a3e cf5e 443c 009d 06bd 0807 af3d
00000040: 8ad4 523e 33e6 373b 8316 403e 6d63 193e
00000050: f66d 98bd d263 a73d d2cd 95bd 3aad 55bd
00000060: 16b2 413e 4983 463d 035f 613c 3d44 b63c
00000070: 3ef8 413d 2311 a4bd 9e82 3f3e a5eb e23b
00000080: b15f ea3d a5fa 143e acd7 29bc cfb1 f23d
00000090: edad a9bd 625c 423e 6d7f 093e f2f4 233d
000000a0: 638a 013e 24e8 81bd 1772 8bbc 33d3 023e
000000b0: d2fd 283d 9e6a 79bd 94c3 fd3c 7bc1 033e
000000c0: 2493 1cbc ab75 debd 8025 96bc 4d0a a43d
000000d0: e4a9 e0bd 8985 c0bc df56 423d d40a 8239
000000e0: 6215 0f3e 6f11 cb3d 60cd 07be 6ea5 4d3d
000000f0: fce7 cc3d b142 e3bd 8aca 86bc b6e1 cabc
00000100: 948a dbbd 998a a03d 1aaa c0bd 273c 7abd
00000110: f362 573d 0e7c 4dbe f3ea d3bd ea19 f8bd
00000120: ad59 263d b732 c93d 6299 e3bd 0db1 00bd
00000130: 0377 80bd ccf8 cd3d b96e d7bc 9f1c 3a3d
00000140: e94e a93c fdfe c3bd a35a 9fbd fa85 c0bd
00000150: 60c0 33be 5622 8b3d b611 13bc e4c5 993d
00000160: 68b5 c7bd c341 55bd 6907 853a 50d7 94bb
00000170: 0633 aebd de7a 49bd c706 0ebe 9f6b ad3d
00000180: 3c17 15bd f5bb 1ebe 21ea 4cbd aecc aabc
00000190: af0a 4f3d 6b15 aabd c135 c03d 36b7 f13d
000001a0: e3e2 3abc 6838 a03d 3ab4 1dbd 5281 d6bd
000001b0: 224c 053e bf16 843d dd44 37bd 8307 fabd
000001c0: a8c0 223b 00a4 14bd 9b69 f9bb c970 033e
000001d0: b7c9 cfbd c8d5 a53d 88d5 68bd 755a b2bd
000001e0: 320a 83bd 8ebc 9fbd 24d4 e2bb 7959 25be
000001f0: 0337 01be 930d 0c3d 6d17 003e e968 23bd
00000200: feba 383d a589 b1ba bfe6 b23d 041e 9cbc
00000210: 7342 6a3d 757c 133e 2800 cdbd 676b cdbd
00000220: 016e c33c be05 3ebd d5ad 843b 0adf 6d3c
00000230: 551b 0abe 387b 8c3d 30dd 263c d568 6a3d
00000240: c730 a6bd 2c15 37be b176 38be c730 c4bc
00000250: 3d9f c2bd e4d9 bdbd b708 1dbd e2d9 333c
00000260: 67e6 583d 76c7 97bd 39ba 883d 463d 8abc
00000270: fd17 8abd b3e9 013e 68d0 c13d 2120 90bd
00000280: 042d ac3d 309e 063e f938 f53d 2009 933d
00000290: ca8d 033e e972 313c 7be0 f0bd 2a97 f73d
000002a0: 9c7e 903d 80e0 433d a9b6 f93c a4ed 98bc
000002b0: af69 04bd a4ab fbbd 0beb 0c3e c798 c33d
000002c0: 2486 84bc d50c d43d 49eb 913d a7b0 a23d
000002d0: ffb3 a33d 53c2 11be f842 523d 3145 44be
000002e0: 4c73 9b3d efd6 0dbd b7ce 93bd cd7f 4a3c
000002f0: b9fb 92bd ff56 1dbe fb57 18be aa70 7e3c
00000300: 55c6 c7bd 2f4c 07bc b4b2 613c 2cc8 843d
00000310: f79a 9bbd cb86 18be b1b7 37bc 08d2 bf3d
00000320: 3de2 0a3e 926b 20bc 38b9 3fbd fafc ffbd
00000330: 1364 b0bd 2fd3 d83d 0033 bcbd 76d5 d13d
00000340: 92cf 113e 4705 ee3d c638 a1bd 93e1 9fbd
00000350: c642 6f3d 4641 b5bb 35b8 183e 5856 963d
00000360: 0127 a73d 4f9b 04ba 1fc1 683d 5091 64bb
00000370: 0f1f d03d e179 83bd 8d2d 49bd 4882 013e
00000380: c7a5 b2bd b5ea 05bd d99a 12bd 90a9 ab3d
00000390: 50e1 90bd c06f 633a 15be e6ba e7c4 2dbe
000003a0: f8f3 a4bb 61b0 8c3d 6efd e3bd b7c8 dc3d
000003b0: 033b f03d c47a 543d b4f9 1a3d 93c2 0ebe
000003c0: 45db 06bc 5987 dd3c 2582 4b3d b93f 21be
000003d0: 1f55 713d 5c7a 6bbc 3fd2 1c3e f0a7 e63d
000003e0: 8174 ee3d 4ac7 833b 7f18 de3c 7ade 703c
000003f0: 03a0 c73d 4356 ca3d 0f48 47bd b0ee a43d

localization.0.bias f4 [8]
0.17815304 -0.06956811 -0.076607816 -0.21392827 -0.043023054 -0.10612564 -0.19939135 -0.23454237
00000000: c06d 363e ba79 8ebd 8fe4 9cbd 0310 5bbe
00000010: f138 30bd 6658 d9bd 3f2d 4cbe e02b 70be

localization.3.weight f4 [10, 8, 5, 5]
-0.048773035 0.05511039 -0.07125551 -0.14174946 0.016310882 -0.0012840758 -0.014539196 -0.053762455
-0.022622779 -0.04222508 0.06733021 -0.08124869 -0.050193418 -0.06571745 -0.15413836 -0.009733278
-0.026390802 -0.10108833 -0.120435685 -0.059236426 -0.093409255 -0.044451553 -0.099883735 -0.12969762
-0.07492304 0.0768644 0.040610038 0.014311384 0.03225495 -0.071067214 0.014329678 0.055722326
-0.015207303 -0.09260049 -0.10678956 -0.022176228 0.023779692 -0.06691177 -0.0844517 -0.13571627
-0.037305456 0.0017715965 -0.026955891 -0.11632765 -0.11682437 -0.13220014 -0.07306092 -0.063302994
-0.17637044 -0.17766908 0.02336346 -0.008747907 0.00014871164 0.028772978 -0.046148613 -0.07931373
0.008737019 -0.12378507 0.0046382295 0.006973912 0.0797064 0.03763775 -0.08110593 0.033612404
-0.022723364 -0.05434976 -0.07335334 -0.022952612 0.0044028093 -0.07190567 -0.04171347 -0.11297617
-0.10345418 -0.059601717 0.0028365485 0.04051944 0.021258144 -0.02478212 -0.04677219 0.056345265
0.041490436 0.0050837393 -0.014616133 -0.12528887 0.030828627 -0.05551852 -0.014254214 -0.10877093
0.016698759 -0.080557555 0.030480208 -0.0943585 -0.029525355 -0.009800926 -0.034579825 -0.01357888
-0.1535039 -0.000740288 -0.05696966 -0.03257838 -0.06553778 -0.018970354 -0.13106884 -0.12759231
-0.066337705 -0.023718987 -0.09313245 -0.15022324 -0.12465754 -0.10018644 -0.077967666 -0.0935628
-0.03982172 -0.11336404 0.02242656 -0.03636886 -0.092246555 -0.03004917 -0.11341992 0.047301546
-0.06645211 -0.07171266 -0.10768694 -0.07112339 -0.032392237 -0.04781381 -0.1385749 -0.112540215
-0.19069709 -0.15622278 -0.12880446 -0.032040767 -0.10179857 -0.16514337 -0.15579917 -0.006977598
-0.09774689 -0.099757865 -0.036442176 -0.0474238 -0.108711705 -0.109433085 -0.11406571 0.024213362
-0.030320842 -0.017821427 -0.07181175 -0.05979452 0.083358176 -0.029255947 -0.010597931 0.008596569
0.00500519 0.030103235 0.011097717 0.11043315 0.018965146 -0.07873632 -0.0902844 -0.040060446
-0.075176984 -0.03406212 -0.04674968 -0.076024465 -0.14141642 -0.039597776 -0.11705113 -0.09325491
0.027390314 0.006556836 -0.07134953 -0.057100926 -0.061341338 -0.013215806 -0.046714786 -0.032495968
-0.051053654 -0.06557263 0.078975186 -0.04542294 0.06259143 -0.011425793 0.06380166 0.04972059
0.08467282 0.060615793 -0.033798743 -0.028246662 0.0010517936 -0.05955255 -0.010412012 -0.06084991
0.05593696 -0.06928391 0.021257801 -0.03578307 -0.015227677 -0.079987176 -0.03793525 -0.052924752
0.041673746 -0.07076959 0.020051708 0.01486599 -0.06438592 -0.038469233 -0.009831199 -0.0047320784
-0.03910356 0.0048622577 -0.009129325 0.032799833 -0.06901813 -0.08318339 -0.014216193 -0.08470092
-0.07990951 -0.03024706 -0.050767135 -0.050148867 0.042935234 0.04194266 -0.07641174 -0.027875539
-0.08440658 -0.0915431 0.04269036 0.03397286 -0.013930387 -0.003159101 -0.03512162 -0.07017123
-0.02692613 -0.07580863 0.0031737604 -0.033485014 0.024111107 -0.07192524 -0.0013024777 -0.010639037
-0.06802622 0.028582538 -0.036399953 -0.061443377 -0.05565248 -0.08022101 0.017118968 -0.095222324
-0.030549088 0.031324185 -0.054123092 -0.07874074 0.0008836254 -0.0013108983 -0.022103906 0.016876142
00000000: 3cc6 47bd 6fbb 613d 69ee 91bd c526 11be
00000010: 669e 853c 6f4e a8ba cf35 6ebc 0536 5cbd
00000020: 6853 b9bc 35f4 2cbd 6ce4 893d b765 a6bd
00000030: 9d97 4dbd df96 86bd 72d6 1dbe 5478 1fbc
00000040: 8631 d8bc 6607 cfbd fca6 f6bd e5a1 72bd
00000050: 5a4d bfbd d512 36bd d88f ccbd 74cf 04be
00000060: 4071 99bd 156b 9d3d b656 263d 4c7a 6a3c
00000070: c41d 043d b08b 91bd 07c7 6a3c 183d 643d
00000080: 0d28 79bc 53a5 bdbd 7cb4 dabd ecaa b5bc
00000090: a1cd c23c 0a09 89bd 03f5 acbd 35f9 0abe
000000a0: 9bcd 18bd ea34 e83a 9ad2 dcbc 313d eebd
000000b0: 9e41 efbd 795f 07be f7a0 95bd 00a5 81bd
000000c0: 749a 34be e2ee 35be ba64 bf3c 6253 0fbc
000000d0: 7aef 1b39 4fb5 eb3c 5406 3dbd 3d6f a2bd
000000e0: b725 0f3c 0783 fdbd 4afc 973b 6a85 e43b
000000f0: 1c3d a33d 0b2a 1a3d de1a a6bd 29ad 093d
00000100: 5926 babc db9d 5ebd 473a 96bd 1e07 bcbc
00000110: 7145 903b 4843 93bd bedb 2abd 0d60 e7bd
00000120: c9df d3bd ee20 74bd 63e5 393b b6f7 253d
00000130: 8f25 ae3c df03 cbbc 3294 3fbd 4bca 663d
00000140: e0f1 293d 7f95 a63b 8178 6fbc ba4b 00be
00000150: 518c fc3c 6367 63bd 828a 69bc 4bc3 debd
00000160: d6cb 883c 5cfb a4bd a1b1 f93c 073f c1bd
00000170: 28df f1bc 1094 20bc 93a3 0dbd f379 5ebc
00000180: 2030 1dbe e30f 42ba 0559 69bd e870 05bd
00000190: ac38 86bd b767 9bbc e936 06be 8fa7 02be
000001a0: 10dc 87bd 524e c2bc 3abc bebd 1fd4 19be
000001b0: 744c ffbd 8c2e cdbd 83ad 9fbd da9d bfbd
000001c0: 1a1c 23bd 682b e8bd e8b7 b73c 84f7 14bd
000001d0: c3eb bcbd ad29 f6bc b448 e8bd 44bf 413d
000001e0: 0b18 88bd 16de 92bd f88a dcbd 24a9 91bd
000001f0: b9ad 04bd 6ad8 43bd 94e6 0dbe 7c7b e6bd
00000200: 1946 43be ddf8 1fbe 51e5 03be 2e3d 03bd
00000210: c57b d0bd 581b 29be d189 1fbe 56a4 e4bb
00000220: 852f c8bd da4d ccbd 6444 15bd 753f 42bd
00000230: 3ea4 debd 741e e0bd 489b e9bd 1a5b c63c
00000240: 6a63 f8bc 3efe 91bc 0a12 93bd 19eb 74bd
00000250: b1b7 aa3d 2baa efbc f2a2 2dbc a0d8 0c3c
00000260: 9402 a43b 0f9b f63c 33d3 353c c62a e23d
00000270: cb5c 9b3c 8240 a1bd 07e7 b8bd 6c16 24bd
00000280: 64f6 99bd b984 0bbd 987c 3fbd b7b2 9bbd
00000290: 77cf 10be 4731 22bd 81b8 efbd 6efc bebd
000002a0: a761 e03c bada d63b b41f 92bd a9e2 69bd
000002b0: 0e41 7bbd 1c87 58bc 0158 3fbd 7e1a 05bd
000002c0: a31d 51bd f14a 86bd bebd a13d 680d 3abd
000002d0: f02f 803d 4033 3bbc 72aa 823d d1a7 4b3d
000002e0: f268 ad3d 4448 783d 8d70 0abd 8b65 e7bc
000002f0: 56dc 893a 60ed 73bd 2597 2abc c13d 79bd
00000300: 271e 653d b9e4 8dbd d724 ae3c 4591 12bd
00000310: 827d 79bc 51d0 a3bd fe61 1bbd a0c7 58bd
00000320: 17b2 2a3d a6ef 90bd 7b43 a43c 7b90 733c
00000330: c4dc 83bd ea91 1dbd 0a13 21bc 8d0f 9bbb
00000340: 0e2b 20bd 9353 9f3b 2a93 15bc 1e59 063d
00000350: 6159 8dbd 0e5c aabd 09eb 68bc ad77 adbd
00000360: 99a7 a3bd afc8 f7bc 33f1 4fbd e668 4dbd
00000370: dbdc 2f3d 11cc 2b3d c27d 9cbd 3e5b e4bc
00000380: 5bdd acbd f37a bbbd 16dc 2e3d 2027 0b3d
00000390: 473c 64bc eb08 4fbb b0db 0fbd efb5 8fbd
000003a0: 3094 dcbc 8e41 9bbd ddfe 4f3b 9527 09bd
000003b0: a884 c53c 8a4d 93bd e6b7 aaba 5b4f 2ebc
000003c0: 5551 8bbd ed25 ea3c 1e18 15bd 0dac 7bbd
000003d0: dbf3 63bd ea4a a4bd 143d 8c3c ec03 c3bd
000003e0: 1542 fabc ca4d 003d 2db0 5dbd d342 a1bd
000003f0: 19a3 673a 73d2 abba 4013 b5bc d63f 8a3c

localization.3.bias f4 [10]
-0.17835163 -0.00928745 0.039384037 0.020574413 -0.09235791 -0.08165188 -0.050329883 0.0019722732
-0.019946191 0.029526506
00000000: cfa1 36be 642a 18bc 2851 213d ac8b a83c
00000010: 2526 bdbd 1a39 a7bd b526 4ebd 4141 013b
00000020: 3266 a3bc 92e1 f13c
