EmpathyBot/model_snapshots/deep_emotion-200-64-0.005-0.5049229054430615.pt (torch_old, 271007 bytes, 24 tensors)

conv1.weight f4 [10, 1, 3, 3]
0	0x3acf230a	0.0015803289
1	0xbe106d32	-0.14104155
2	0xbfd82440	-1.6886063
3	0x3e86686a	0.26251537
4	0x3ed75032	0.42053372
5	0x3d4d4b9a	0.050120927
6	0xbf68c78d	-0.9092949
7	0x3f3fca32	0.749179
8	0x3f8c9b57	1.0984906
9	0xbf5b2102	-0.8559724
10	0x3e9fe47e	0.31229013
11	0x3f894b14	1.0726037
12	0xbfb28f56	-1.3949993
13	0xbf305311	-0.6887675
14	0x3fadc461	1.3575555
15	0xbedc400e	-0.4301762
16	0x3def42e4	0.1168268
17	0x3ecae4ab	0.39627585
18	0x3f505102	0.8137361
19	0xbe5aab7d	-0.2135448
20	0xbe9f479d	-0.31109324
21	0x3f25b401	0.6472779
22	0xbed0f92f	-0.40815112
23	0xbebbd9dd	-0.36689654
24	0xbec53c3d	-0.3852252
25	0xbeeabe63	-0.4584838
26	0xbf4fd948	-0.8119092
27	0x3f89f4ab	1.0777792
28	0x3f8f80ef	1.1211222
29	0x3ea64aa6	0.32478827
30	0xbf634b15	-0.8878644
31	0x3cc192d4	0.023629583
32	0x3dede8f7	0.116167
33	0xbf6d3694	-0.92661405
34	0xbf176b35	-0.5914796
35	0xbe36e138	-0.17859352
36	0xbf25f6c5	-0.64829665
37	0xbeb4b045	-0.35290733
38	0x3e8de932	0.27716976
39	0x3c8db864	0.017299838
40	0xbeabc628	-0.3354962
41	0xbea06fc0	-0.31335258
42	0x3f87672e	1.0578363
43	0x3f12c6af	0.5733442
44	0xbe046ad8	-0.12931383
45	0x3f1da22e	0.6157559
46	0x3f171778	0.59020185
47	0x3f3afe41	0.7304421
48	0x3f5ad57a	0.8548199
49	0x3e3c267e	0.18374059
50	0xbfd5efd2	-1.6713812
51	0x3ed9f40e	0.4256901
52	0xbeeee1be	-0.46656603
53	0xbf57823d	-0.841831
54	0xbe43b5f3	-0.19112377
55	0x3d77574b	0.060385983
56	0xbf8b7be7	-1.0897187
57	0x3f28edb0	0.6598768
58	0x3f1838a1	0.5946141
59	0xbf97294a	-1.1809475
60	0x3f5ee11b	0.87062234
61	0x3ea04587	0.31303045
62	0xbe98a2d9	-0.29811743
63	0xbec25687	-0.3795664
64	0xbeb10c5f	-0.3457975
65	0x3ef63cea	0.4809335
66	0xbfb3c7f9	-1.4045402
67	0xbe14f283	-0.14545636
68	0x3f0a35d3	0.5398838
69	0x3a80df0b	0.0009832097
70	0x3f99afc7	1.2006768
71	0x3ed7dc53	0.42160282
72	0xbf9976c7	-1.1989373
73	0xbf0e5c79	-0.5560985
74	0xbe2692ca	-0.16266933
75	0x3d418d1e	0.04725372
76	0x3e84cfb8	0.25939727
77	0x3dfdf04e	0.1239935
78	0x3f87a2f9	1.059661
79	0x3f8c3aec	1.0955482
80	0xbf414113	-0.7548992
81	0x3e7bbbab	0.24583308
82	0xbf05a3f6	-0.5220331
83	0x3f74e9b2	0.9566909
84	0xbe5976ef	-0.21236776
85	0xbfa1c239	-1.2637397
86	0xbf1781cf	-0.5918245
87	0x3e4ca51f	0.19984864
88	0x3eca5786	0.395199
89	0x3f73bec4	0.9521296

conv1.bias f4 [10]
0	0x3e201f25	0.1563688
1	0xbe21e813	-0.15811186
2	0xbec6cdb5	-0.38828817
3	0x3e9cba34	0.30610812
4	0x3e28ef7e	0.16497609
5	0xbed85c3f	-0.42257878
6	0x3f01a16e	0.5063695
7	0x3efd259d	0.4944276
8	0x3e9a5af8	0.3014753
9	0x3e3529aa	0.17691675

conv2.weight f4 [10, 10, 3, 3]
0	0x3d758e29	0.059950028
1	0x3d224a27	0.0396215
2	0x3d6f34fb	0.058400135
3	0xbd02e511	-0.031956736
4	0x3d262089	0.04055837
5	0x3d20ccaa	0.039257683
6	0x3cab357f	0.020899532
7	0xbdf5ba49	-0.11998422
8	0x3cd8d96d	0.026470864
9	0xbdbb33f6	-0.0914077
10	0x3ceb4f88	0.028724447
11	0xbcb1de18	-0.021712348
12	0x3c8aeece	0.016959574
13	0x3d094394	0.033511713
14	0x3c2259a8	0.009909071
15	0x3ce6a505	0.02815486
16	0xbe102257	-0.140756
17	0xb9488056	-0.00019121295
18	0xbd148119	-0.03625593
19	0x3d150328	0.036379963
20	0x3d7d9fd9	0.06192002
21	0xbe08c70a	-0.13357177
22	0x3c18c035	0.0093231695
23	0x3c222829	0.00989727
24	0x3c8d7c4f	0.017271189
25	0xbdd4dede	-0.10394071
26	0xbe07fe77	-0.13280664
27	0xbc47b97b	-0.012190218
28	0xbdf268cc	-0.11836395
29	0xbc68e915	-0.014215727
30	0xbe0f327b	-0.139841
31	0xbe0c3915	-0.1369365
32	0x3d13808e	0.03601127
33	0x3d1916a6	0.037375115
34	0x3b815951	0.003947415
35	0xbd2b1cb7	-0.04177543
36	0x3dc23ff1	0.09484852
37	0xbd0dc4f6	-0.034611665
38	0xbda58ec0	-0.08083868
39	0x3d905bbf	0.07048749
40	0xbd27734a	-0.040881433
41	0x3dd800e5	0.105470456
42	0xbc9f730f	-0.019464044
43	0xbd18250b	-0.037144702
44	0xbdee08da	-0.11622782
45	0x3ccdbe17	0.025115056
46	0xbdb134b1	-0.08652628
47	0x3ca2cc2b	0.019872745
48	0xbcfd768f	-0.030940322
49	0x3d960a9f	0.073262446
50	0x3c0a98e5	0.008459304
51	0xbacfe5f5	-0.0015861379
52	0x3cbee80e	0.023304012
53	0xbdd6f6d2	-0.10496296
54	0xbe05376c	-0.13009423
55	0x3d3fb770	0.0468058
56	0x3d627590	0.055287898
57	0x3d405cd2	0.04696352
58	0xbe0db2fd	-0.1383781
59	0xbdbbcb4d	-0.09169636
60	0xbd96a633	-0.07355919
61	0x3bcdd744	0.006281765
62	0xbde1177c	-0.109908074
63	0xbdb5db83	-0.08879759
64	0xbd9909c7	-0.07472568
65	0xbd5c992c	-0.053857014
66	0x3d029322	0.031878598
67	0xb9c0877f	-0.00036722046
68	0x3cf2f53c	0.029657952
69	0xbda5212a	-0.08062966
70	0x3d064960	0.03278482
71	0x3d60686e	0.054787092
72	0xbdcbc13e	-0.099489674
73	0x3d5623eb	0.052280348
74	0xbd2891ca	-0.04115466
75	0xbda29dc3	-0.07940247
76	0xbcf6247e	-0.030046698
77	0xbdec16a9	-0.115277596
78	0xbdc79cc1	-0.09746695
79	0xbc95c725	-0.018283436
80	0x3d889778	0.06669515
81	0x3cb79956	0.022411983
82	0x3d52e0c7	0.051483896
83	0xbd84b6b3	-0.064801596
84	0xbd277afa	-0.040888764
85	0xbcfa64c0	-0.03056562
86	0x3c503308	0.012707479
87	0xbd3b10b5	-0.04567023
88	0xbdf034b1	-0.117288
89	0xbd9853c6	-0.074378535
90	0xbeff3d76	-0.49851578
91	0xbe4f3199	-0.20233764
92	0xbcb9d370	-0.02268383
93	0xbc87c935	-0.016575435
94	0xbdf6a7b7	-0.12043708
95	0xbdd11bfe	-0.10210417
96	0xbf91ffae	-1.1406152
97	0xbddbade4	-0.107265264
98	0xbf036873	-0.5133125
99	0x3da8223d	0.082096554
100	0xbed159cc	-0.40888822
101	0xbeac7043	-0.336794
102	0xbf460418	-0.77349997
103	0xbf81fa60	-1.0154533
104	0xbf072faa	-0.52807105
105	0xbd449acf	-0.0479992
106	0xbe57151b	-0.21004145
107	0xbf4ad33b	-0.7922856
108	0xbcb5282c	-0.022113882
109	0xbcdadd0b	-0.02671673
110	0xbe93cb5f	-0.28866097
111	0xbdb912d4	-0.09036794
112	0xbea44dc7	-0.3209059
113	0xbda54511	-0.08069814
114	0x3f1482f6	0.5801233
115	0xbdc4f691	-0.09617341
116	0xbd6caa37	-0.057779517
117	0xbebd2daa	-0.369489
118	0xbf44c40d	-0.7686165
119	0xbf854271	-1.0410901
120	0x3f3ebe4c	0.7450912
121	0x3f234e0c	0.63790965
122	0x3e964dbb	0.2935618
123	0x3f9d7edc	1.230434
124	0x3f618b48	0.8810315
125	0x3f5d74da	0.86506426
126	0x3f3972b2	0.72440636
127	0x3e42c3e5	0.1902004
128	0x3e2f8202	0.17139438
129	0xbf80f7dc	-1.0075641
130	0xbeaefef1	-0.3417888
131	0x3ea0f7b2	0.31438977
132	0x3e895312	0.2682119
133	0xbf875b81	-1.05748
134	0xbfac60cf	-1.3467044
135	0x3f57ea6a	0.8434206
136	0x3eca8e05	0.39561477
137	0x3e66a9c1	0.22525693
138	0xbf064eba	-0.5246388
139	0xbc6485ab	-0.013947885
140	0x3e9b78c0	0.30365562
141	0xbf734006	-0.95019567
142	0xbe90bee1	-0.2827063
143	0x3e79552b	0.24348895
144	0xbd0c6924	-0.034279957
145	0x3d9b5d82	0.075861946
146	0x3f0b8bcb	0.5451018
147	0xbf3cabac	-0.7369945
148	0xbdaa8b1d	-0.08327315
149	0x3e6b53c3	0.22981171
150	0xbf8bb5d4	-1.0914865
151	0xbf42db14	-0.76115537
152	0xbebf6936	-0.37384957
153	0x3eb52b0d	0.35384408
154	0x3eb1a4c4	0.3469602
155	0x3eb82ba3	0.35970792
156	0xbf40e97f	-0.75356287
157	0x3c43dc24	0.011954341
158	0x3f9be3db	1.2178911
159	0xbd100cb1	-0.035168353
160	0xbe2f2d96	-0.17107233
161	0x3e5068cb	0.20352475
162	0x3f179f44	0.59227395
163	0x3eb642ae	0.35597748
164	0x3ec62234	0.3869797
165	0xbf6a6be0	-0.91570854
166	0xbf728ac7	-0.9474301
167	0xbe21e6ce	-0.15810701
168	0xbf8ca386	-1.0987403
169	0xbfbee975	-1.4914995
170	0xbf8114e0	-1.0084496
171	0xbe3607de	-0.17776439
172	0xbebe78f1	-0.37201646
173	0x3e6768de	0.22598597
174	0xbf677901	-0.9041901
175	0x3ed819c5	0.4220716
176	0x3fbe0a19	1.4846832
177	0x3f44222b	0.76614636
178	0xbeedce6c	-0.4644655
179	0xbf59354a	-0.8484694
180	0xbf31fc58	-0.6952567
181	0xbf4fa2a7	-0.8110756
182	0xbf1355a1	-0.57552534
183	0xbf83ef5d	-1.0307423
184	0x3ea2857d	0.31742468
185	0x3e81635c	0.25271118
186	0x3f07af67	0.5300202
187	0xbeedc7ae	-0.46441406
188	0xbfb13bb8	-1.384635
189	0xbfb3b62e	-1.4039972
190	0x3ef39aef	0.47579142
191	0x3e8f9156	0.2804057
192	0xbff68f47	-1.9262475
193	0xbf487008	-0.78295946
194	0xbf49fda0	-0.78902626
195	0xbfa320cd	-1.2744385
196	0xbe4fc8a5	-0.20291384
197	0x3f77739e	0.9666079
198	0xbdd2e36c	-0.102972835
199	0xbe019d9d	-0.12657781
200	0xbf1de1c4	-0.61672616
201	0x3f2141f8	0.62991285
202	0x3e3947b3	0.18093757
203	0xbebccf86	-0.36877078
204	0x3f699994	0.91249967
205	0x3f56f57c	0.8396833
206	0x3ea6d5a5	0.32584873
207	0xbe330052	-0.17480591
208	0x3edd8349	0.43264225
209	0x3f824089	1.0175945
210	0x3db29ea1	0.08721662
211	0x3e92bf94	0.28661788
212	0x3efabf8b	0.4897426
213	0xbe9a696b	-0.30158553
214	0x3ea271d7	0.31727478
215	0x3f5a0942	0.85170376
216	0xbf664c6c	-0.8996036
217	0x3e3fffb4	0.18749887
218	0xbe1f7b85	-0.15574463
219	0xbfbe9183	-1.4888157
220	0xbf0ee40f	-0.5581674
221	0x3cbbfd84	0.022948034
222	0xbeafe514	-0.3435446
223	0x3cea201f	0.02857977
224	0xbe77d0b4	-0.24200708
225	0x3ede57c7	0.43426344
226	0x3dd9a9d5	0.10628096
227	0xbf36f471	-0.7146674
228	0xbd6036d4	-0.05473979
229	0xbed37eaa	-0.41307575
230	0xbff2af76	-1.8959796
231	0x3ee0dd3e	0.43918794
232	0x3f32567d	0.6966322
233	0xbf3ca719	-0.7369247
234	0xbf1bae37	-0.60812706
235	0xbf458ef2	-0.7717124
236	0xbf30f02c	-0.69116473
237	0xbf5a58c2	-0.85291684
238	0xbf5f52e6	-0.8723587
239	0xbf9a16b2	-1.2038176
240	0x3f17b3ed	0.5925892
241	0x3f8b1de7	1.08685
242	0x3e582dbb	0.21111195
243	0x3f50f7db	0.816282
244	0xbec86593	-0.39139995
245	0xc009a827	-2.1508882
246	0xbe1e8ee2	-0.15484193
247	0xbf085243	-0.5325052
248	0xbe2d559a	-0.16927186
249	0xbfdaba68	-1.7088137
250	0xbe901cc8	-0.28146958
251	0x3d131a0c	0.035913512
252	0xbe0c4a67	-0.13700257
253	0x3f1dbe20	0.6161823
254	0xbf92c408	-1.1466074
255	0xbe36d235	-0.17853625

conv2.bias f4 [10]
0	0xbde5401b	-0.11193868
1	0x3f604315	0.8760236
2	0x3dac35e9	0.0840872
3	0xbd9b3f4d	-0.07580433
4	0x3fbd639f	1.4796027
5	0x3fb7bc34	1.435431
6	0x3e9b473e	0.3032779
7	0x3f00d13b	0.5031926
8	0xbd3d0e1b	-0.04615603
9	0x3f26b121	0.6511403

conv3.weight f4 [10, 10, 3, 3]
0	0xbd0d3fe6	-0.034484766
1	0x3dd4aa1b	0.103840075
2	0xbbb71800	-0.005587578
3	0xbd4f626a	-0.050630964
4	0x3da33f19	0.07971019
5	0xbdc7b790	-0.09751809
6	0x3d93bf7b	0.072142564
7	0x3d4192ae	0.047259025
8	0xbdb5baaa	-0.08873494
9	0xbf86ce8c	-1.0531783
10	0xbed3d222	-0.41371256
11	0xbe2e7c70	-0.17039657
12	0xbf692a6b	-0.9108035
13	0x3d99a05d	0.0750129
14	0xbddcaa0c	-0.10774621
15	0xbf28ca93	-0.65934104
16	0x3ead146f	0.33804652
17	0x3f9ea378	1.2393637
18	0xbee579af	-0.448194
19	0x3e2c1673	0.16805439
20	0x3f6b2ca6	0.91865003
21	0x3d02ee74	0.031965688
22	0x3ee63b15	0.4496695
23	0x3fa6becd	1.3026978
24	0x3ebb4688	0.3657725
25	0x3f4806a8	0.78135157
26	0x3f8d34e5	1.1031767
27	0x3bfe31b2	0.007757389
28	0x3cfdfdd7	0.03100483
29	0xbcd388c6	-0.025822055
30	0xbc92351d	-0.017847592
31	0x3dd58438	0.10425609
32	0xbdbf1d1f	-0.09331726
33	0x3d11384f	0.03545409
34	0x3dcc63eb	0.09979995
35	0x3de7eeaa	0.113248184
36	0xbea73f1b	-0.32665333
37	0xbf781b59	-0.9691673
38	0xbe1196c8	-0.14217675
39	0x3e92e465	0.28689876
40	0x3f6df1fb	0.9294736
41	0x3f4438fd	0.7664946
42	0x3c47134b	0.012150596
43	0x3f43121b	0.761995
44	0x3f5dcc40	0.86639786
45	0x3e80ab0a	0.25130492
46	0x3eaafc7a	0.3339575
47	0x3e271ec9	0.16320337
48	0x3ef2eb93	0.47445354
49	0xbdd89b5c	-0.105765074
50	0x3e9ee054	0.31030524
51	0x3f12298e	0.5709466
52	0x3d518fca	0.05116252
53	0x3ec5e73d	0.38652983
54	0xbe571dd6	-0.21007475
55	0xbe9bf4d4	-0.30460227
56	0x3eb6194c	0.35566175
57	0xbe2f1f94	-0.1710189
58	0xbdfa3842	-0.122177616
59	0x3f36a228	0.7134118
60	0xbead2887	-0.33819982
61	0x3e448adb	0.19193594
62	0x3f35d848	0.71033144
63	0xbf99aad0	-1.2005253
64	0xbf91de55	-1.1395975
65	0xbce9acad	-0.028524721
66	0xbf670e10	-0.9025583
67	0xbec875b1	-0.3915229
68	0x3f0b02e6	0.543013
69	0x3f1272b9	0.572063
70	0x3f85646d	1.0421273
71	0x3dc8cd6c	0.09804806
72	0xbcf675df	-0.030085502
73	0xbe1705a5	-0.14748247
74	0xbddaa57a	-0.106760934
75	0x3dc57983	0.09642317
76	0x3bf66978	0.007519897
77	0xbd8c33a0	-0.06845784
78	0x3e4c52e3	0.19953494
79	0x3c845a9b	0.016156485
80	0x3e3d058f	0.18459152
81	0x3e3144da	0.17311421
82	0x3ed3d86d	0.41376057
83	0x3ecaa80c	0.39581335
84	0x3f849506	1.0357978
85	0x3fa16488	1.2608805
86	0x3ec004ab	0.3750356
87	0x3fc92eaf	1.5717372
88	0x3fad1944	1.3523335
89	0x3f850a70	1.039381
90	0x3d304011	0.04302985
91	0x3d8f3d73	0.069941424
92	0xbd3cce8a	-0.04609541
93	0x3d7d99f3	0.061914396
94	0xbd3881ad	-0.045045543
95	0x3dfdc3ae	0.123908386
96	0xbd2cbccc	-0.04217224
97	0xbbde6835	-0.006787325
98	0xbdda0672	-0.106457606
99	0x3c9df2dd	0.019280845
100	0xbdc1ab05	-0.094564475
101	0xbc8faba5	-0.017537901
102	0xbd9913c6	-0.074744746
103	0xbdcb6ec0	-0.09933233
104	0xbd4f8d1d	-0.050671685
105	0xbabe468f	-0.0014516878
106	0xbd3c9934	-0.046044543
107	0x3cd7fbb4	0.026365139
108	0x3c284330	0.010269925
109	0xbd095686	-0.03352978
110	0x3c61d40d	0.013783467
111	0xbdcbed29	-0.09957344
112	0xbcd2c803	-0.025730139
113	0x3dd54783	0.104140304
114	0x3da5e253	0.080998085
115	0xbcf597fb	-0.029979696
116	0xbba7fee8	-0.0051268227
117	0x3cfc94b4	0.030832626
118	0x3c21117d	0.00983083
119	0xbde87ac1	-0.113515384
120	0x3d053464	0.032520667
121	0xbde72629	-0.11286575
122	0xbdf38f4c	-0.11892566
123	0x3dc4572c	0.09586939
124	0xbdd4de8c	-0.1039401
125	0x3d80c2b1	0.062871344
126	0xbca936f3	-0.020656085
127	0x3c2aa8b9	0.010416203
128	0xbe1ce500	-0.15321732
129	0x3d2636a2	0.040579446
130	0xbcdc24c1	-0.026872994
131	0x3c587cd2	0.013213353
132	0xbd898f4b	-0.06716784
133	0xbc235e70	-0.009971246
134	0xbd9ab0a0	-0.0755322
135	0x3d83307a	0.064057305
136	0xbe0dd4ab	-0.13850658
137	0xbd915c34	-0.070976645
138	0xbd26172b	-0.04054944
139	0xbde2b853	-0.11070313
140	0xbbec59c3	-0.007212849
141	0x3daf4555	0.08558146
142	0xbdf06ddd	-0.11739705
143	0xbdd5bf37	-0.10436862
144	0xbd1c1d57	-0.03811392
145	0xbd5aa280	-0.05337763
146	0xbb5716a0	-0.0032819882
147	0xbd100588	-0.035161525
148	0xbba9b14d	-0.0051786066
149	0x3d197b3f	0.037471052
150	0xbd778143	-0.060426008
151	0xbd176a77	-0.036966767
152	0x3c87358a	0.016505022
153	0xbdbee5d5	-0.09321181
154	0xbd816cf2	-0.06319608
155	0xbb1938ba	-0.002337976
156	0xbd234e37	-0.039869513
157	0xbdc9da15	-0.09856049
158	0xbe022974	-0.12711126
159	0xbd0790bf	-0.033097025
160	0xbdef410d	-0.11682329
161	0xbe1b3634	-0.15157396
162	0x3e10442e	0.14088508
163	0x3cc170fc	0.023613445
164	0x3db20ed7	0.08694237
165	0x3c8bb2c7	0.017053021
166	0x3e05e372	0.13075045
167	0x3cb6c963	0.022312826
168	0x3cdff57a	0.027338732
169	0x3deacdef	0.1146506
170	0x3d1a2a24	0.037637845
171	0xbd2474f1	-0.040150587
172	0xbdfea030	-0.12432897
173	0xbd4d0483	-0.05005313
174	0x3d0949cc	0.033517644
175	0xbdde80f6	-0.10864441
176	0xbd0e9df7	-0.034818616
177	0x3d4c287d	0.0498433
178	0xbe068dc7	-0.13140021
179	0xbd8e432c	-0.06946406
180	0x3d96f55e	0.07371019
181	0x3caf7cef	0.021421878
182	0xbd71b345	-0.059008855
183	0x3c2d24e2	0.010567876
184	0x3d84742a	0.06467469
185	0x3d8e5b39	0.06950993
186	0xbc6aa3bc	-0.014321264
187	0xbdf73b78	-0.1207189
188	0x3d4a7e07	0.049436595
189	0x3e8448d6	0.2583682
190	0xba084224	-0.0005197844
191	0x3f5e91aa	0.86941016
192	0xbf0572fb	-0.5212857
193	0xbf0a5051	-0.54028803
194	0xbf2fa406	-0.68609655
195	0xbcc47cfc	-0.023985378
196	0xbe72b8c0	-0.23703289
197	0xbedfb96a	-0.43696147
198	0xbe2fd948	-0.1717273
199	0xbf587427	-0.84552234
200	0xbf888be0	-1.0667686
201	0xbf79078a	-0.9727713
202	0xbf5d6946	-0.8648876
203	0xbf80ea9b	-1.0071596
204	0xbf8722c7	-1.0557488
205	0xbefd9bf4	-0.49533045
206	0xbdf16c26	-0.11788206
207	0x3d3dbbaa	0.04632155
208	0xbce69c08	-0.028150573
209	0xbdcd0dbc	-0.10012385
210	0x3c8ba775	0.017047623
211	0xbb239f7b	-0.0024966884
212	0x3db178c8	0.08665615
213	0x3d3876bf	0.04503512
214	0x3ccb3105	0.024803648
215	0xbdb4d825	-0.08830289
216	0x3e5abc6e	0.21360943
217	0x3e64d4b0	0.22346759
218	0x3f44dacc	0.7689636
219	0xbcb27d4f	-0.021788267
220	0xbecf794a	-0.40522224
221	0xbe434d78	-0.1907252
222	0xbf1c52c6	-0.610638
223	0xbec61aaa	-0.38692218
224	0xbe03b1d9	-0.12860812
225	0xbe86d183	-0.2633172
226	0xbe5dc650	-0.21657681
227	0x3e995e51	0.2995477
228	0xbde35286	-0.110997245
229	0x3e941e83	0.2892953
230	0x3f47458f	0.77840513
231	0x3f815783	1.0104831
232	0x3f9f915f	1.2466239
233	0x3f526822	0.82190144
234	0x3dca0c84	0.098656684
235	0x3e02db11	0.1277888
236	0x3f1a53a7	0.60283893
237	0x3d826da0	0.063685656
238	0x3eda9987	0.42695257
239	0x3f8a8082	1.0820467
240	0x3e75a605	0.23989113
241	0x3e82d7a9	0.2555516
242	0x3f38779e	0.7205752
243	0x3f1a7558	0.603353
244	0x3f47d129	0.7805353
245	0x3e12adf0	0.14324164
246	0x3e86b529	0.2631009
247	0xbea65765	-0.32488552
248	0xbe3a8e27	-0.1821829
249	0xbf735a07	-0.95059246
250	0xbf9a95ac	-1.2076926
251	0xbf79eae9	-0.9762407
252	0x3d912b59	0.07088346
253	0xbc33a2cb	-0.010964106
254	0x3d03a4b2	0.032139488
255	0x3cdd63fe	0.027025219

conv3.bias f4 [10]
0	0xbf8a44db	-1.0802263
1	0xbda3abaa	-0.07991727
2	0x3fb0cfda	1.3813431
3	0xbdc2c4e1	-0.09510208
4	0xbbac90a6	-0.005266267
5	0x3c3f9b85	0.011694794
6	0xbdbe248b	-0.09284314
7	0xbdd4917d	-0.10379312
8	0xbd75a7ff	-0.059974667
9	0x4027d8c3	2.622605

conv4.weight f4 [10, 10, 3, 3]
0	0xbf2d01f1	-0.6758109
1	0xbee7f0df	-0.45300958
2	0xbebd5c4e	-0.36984485
3	0xbf289a86	-0.65860784
4	0xbf13e16c	-0.5776584
5	0xbe7c7b78	-0.24656475
6	0x3eaf6d29	0.3426297
7	0xbfca149d	-1.5787541
8	0xbf72c03a	-0.94824564
9	0xbdaf4cda	-0.0855958
10	0x3d206f64	0.03916873
11	0xbd5672b0	-0.05235547
12	0x3d741158	0.059586853
13	0x3d8a731a	0.06760235
14	0x3dac5d45	0.08416227
15	0xbc910e5d	-0.017707044
16	0x3ce403f1	0.02783391
17	0x3da5da11	0.080982335
18	0xbdd6cf8e	-0.10488807
19	0xbe1794cf	-0.1480286
20	0xbe9683a3	-0.29397306
21	0xbed0d6eb	-0.4078897
22	0xbe4a1ccf	-0.19737552
23	0x3f34da67	0.70645756
24	0xbf9a2086	-1.2041175
25	0x3eb2f3e4	0.349517
26	0x3f9b1f5f	1.2118949
27	0xbc657d24	-0.014006887
28	0xbd02a0bd	-0.031891573
29	0xbdcc0072	-0.099610224
30	0x3e10cc70	0.14140487
31	0xbd90c51a	-0.07068844
32	0x3ca9c18b	0.020722171
33	0x3db861d6	0.09003036
34	0x3dc1c5c5	0.0946155
35	0xbd85accd	-0.065271
36	0x3ce9732d	0.028497303
37	0x3d74d6c7	0.05977514
38	0x3ca07b39	0.019590007
39	0x3dd831cf	0.10556375
40	0x3c011c82	0.007880332
41	0x3c9bc459	0.019014524
42	0x3de5ff61	0.1123035
43	0x3c3ec560	0.011643738
44	0xbcfc40ce	-0.03079262
45	0x3d5678cb	0.05236129
46	0xbd028237	-0.031862464
47	0xbd5b6dc0	-0.053571463
48	0xbd2b7daa	-0.04186789
49	0x3d5aa8df	0.053383704
50	0x3e01639c	0.12635654
51	0xbdd1af48	-0.1023851
52	0xbd1bb986	-0.038018726
53	0xbd988d34	-0.07448807
54	0x3d7c7d68	0.061643034
55	0x3b98e2aa	0.0046656923
56	0xbc81478b	-0.015781185
57	0xbd74cfac	-0.059768364
58	0x3cfca2a0	0.030839264
59	0x3e00de81	0.12584879
60	0xbd4b4418	-0.049625486
61	0xbd497863	-0.049187075
62	0xbd16dbdf	-0.03683078
63	0x3c6b4489	0.014359602
64	0x3d2c0853	0.042000126
65	0x3d6b4959	0.057442997
66	0xbdf7bd71	-0.1209668
67	0x3d19455d	0.037419666
68	0x3defbecd	0.11706314
69	0x3e0ea858	0.13931406
70	0xbce5bdc2	-0.028044585
71	0xbdef171e	-0.11674331
72	0xbdb0bb76	-0.08629505
73	0x3d285783	0.041099083
74	0x3ce38029	0.027771072
75	0xbd771f36	-0.0603325
76	0xbe28bbf8	-0.16477954
77	0x3d5e989f	0.05434477
78	0xbc8c79bb	-0.01714789
79	0x3cae1379	0.02124952
80	0xbdc15ab8	-0.09441131
81	0xbe5ecae9	-0.21757092
82	0xbf2f1574	-0.6839211
83	0xbf7a47db	-0.9776589
84	0x3f64e55d	0.8941248
85	0x3ca566e4	0.020190664
86	0xbf09cd88	-0.5382924
87	0x3f85a11f	1.0439795
88	0x3eab4c3b	0.33456597
89	0x3e1ad8dc	0.15121788
90	0x3f1e5470	0.6184759
91	0x3ed3565c	0.41276824
92	0x3f842d58	1.0326338
93	0xbd8b9184	-0.06814864
94	0x3ebabb64	0.36471093
95	0x3c524d86	0.012835866
96	0xbfccb928	-1.5994005
97	0xbf3b4259	-0.73148113
98	0xbfef3d89	-1.8690654
99	0x3dbda92f	0.09260785
100	0xbcc4523e	-0.023964997
101	0x3d8cf6f0	0.06883037
102	0xbca4f7d6	-0.020137709
103	0x3d12e19b	0.035859685
104	0x3ca34514	0.0199304
105	0xbd6ce8e4	-0.05783929
106	0x3da5c1b0	0.080935836
107	0xbdde04eb	-0.10840782
108	0x3e403928	0.18771803
109	0x3d206f3a	0.039168574
110	0x3ea2a747	0.31768247
111	0xbf23e3e8	-0.6401963
112	0x3d1ced3b	0.038312178
113	0x3ec21439	0.37906054
114	0x3e0c8b36	0.1372498
115	0xbef3917b	-0.4757193
116	0x3eac07c5	0.33599678
117	0x3d943024	0.072357446
118	0x3d38a070	0.04507488
119	0xbd61d1ac	-0.0551316
120	0xbdcb3c60	-0.09923625
121	0x3e14ff44	0.14550501
122	0xbe5cd382	-0.21565059
123	0x3d83abe6	0.064292714
124	0x3d6d6f18	0.057967275
125	0xbcdcb079	-0.026939617
126	0xbd277e8e	-0.040892176
127	0xbdd6ba17	-0.104847126
128	0x3da5fc41	0.08104754
129	0x3dfb9b1a	0.12285443
130	0xbd992ee2	-0.07479645
131	0x3d2edf4a	0.042693414
132	0x3c48b635	0.012250473
133	0x3b31ead8	0.0027148034
134	0xbd3fee21	-0.046857957
135	0xbda0edaa	-0.07857831
136	0x3d0c6bd5	0.034282524
137	0xbdd3cb99	-0.103415675
138	0xbd658888	-0.05603841
139	0xbd89f7b3	-0.06736698
140	0x3d93447c	0.07190797
141	0x3c4a0e8a	0.012332568
142	0x3c2d9503	0.010594609
143	0xbbde8349	-0.0067905528
144	0x3dd5a0a4	0.104310304
145	0x3ca5dc61	0.020246686
146	0x3cb6105c	0.022224598
147	0x3d2e8c76	0.042614423
148	0x3c943efd	0.018096441
149	0xbcea5d94	-0.028609075
150	0xbdd8f1f7	-0.10593026
151	0x3d195a08	0.037439376
152	0xbdd0e017	-0.10198992
153	0xbdb7f351	-0.08981956
154	0xbd2ad04f	-0.041702565
155	0x3dc41cb9	0.09575791
156	0x3b4e72d2	0.0031501544
157	0xbda0d713	-0.07853522
158	0x3d7b285d	0.06131779
159	0x3da02898	0.07820243
160	0xbda4546d	-0.080239154
161	0xbde49a99	-0.111623
162	0x3cc2ab9d	0.023763472
163	0xbd12beee	-0.035826616
164	0x3cb7bb04	0.022428043
165	0xbc881a2b	-0.01661404
166	0x3c946e83	0.018119102
167	0xbd76e236	-0.060274325
168	0x3dc4a7af	0.096022956
169	0xbe159783	-0.14608578
170	0xbe631f73	-0.22179966
171	0xbf78603c	-0.9702184
172	0xbf3ed84c	-0.7454879
173	0xbf32e476	-0.69879854
174	0xbc94f022	-0.01818091
175	0x3e3e1216	0.18561587
176	0x3efdc552	0.49564606
177	0x3f4b6d7d	0.7946394
178	0x3f197d5b	0.599569
179	0x3eb01e31	0.34398034
180	0x3d47691f	0.048684236
181	0x3f2968f7	0.6617579
182	0x3efcf235	0.4940354
183	0x3edbeb5c	0.42953002
184	0x3f69bdf8	0.91305494
185	0x3f9c7e73	1.2226089
186	0x3de74912	0.11293234
187	0xbd84dfbd	-0.06487987
188	0xbe9b1882	-0.30292135
189	0xbc8a1dcf	-0.016859917
190	0xbdba70ea	-0.09103568
191	0xbd4a82be	-0.04944109
192	0xbe1416d5	-0.14461835
193	0x3db3ab65	0.08772925
194	0x3d380290	0.04492432
195	0xbddfba17	-0.10924166
196	0xbd0571e9	-0.032579336
197	0x3d821cc8	0.06353146
198	0xbf3a147d	-0.7268751
199	0xbf055af0	-0.52091885
200	0xbf1989ac	-0.59975696
201	0xbe21bd7f	-0.15794943
202	0xbf91eb0f	-1.1399859
203	0xbe0a92ba	-0.13532534
204	0xbfa7c280	-1.3106232
205	0xbf22ace5	-0.63545066
206	0x3f53de2d	0.8276089
207	0x3dec2e33	0.11532249
208	0xbd85b41d	-0.065284945
209	0xbd058e33	-0.032606315
210	0xbba9200d	-0.0051612915
211	0x3d727926	0.059197567
212	0x3d5665c5	0.05234315
213	0xbc9f85b4	-0.019472934
214	0x3e119087	0.14215289
215	0x3dd515f8	0.10404581
216	0x3d0cbfb0	0.034362495
217	0x3dd1dc2e	0.10247074
218	0x3db79db5	0.08965627
219	0xbd37264a	-0.04471425
220	0x3df850be	0.12124775
221	0xba1a06d4	-0.0005875651
222	0xbda93e58	-0.08263844
223	0xbd21a807	-0.039466884
224	0xbc2700ff	-0.010193109
225	0xbd804959	-0.0626399
226	0xbd9d0098	-0.07666129
227	0x3dedf2f5	0.11618606
228	0x3a2c3b14	0.00065700826
229	0x3b6f15ea	0.0036481568
230	0x3cba5f6f	0.022750584
231	0xbcb7cb92	-0.022435937
232	0x3d91ef5e	0.07125734
233	0x3dfcb260	0.1233871
234	0x3d787694	0.06065996
235	0x3d5193f2	0.051166482
236	0xbdf38e84	-0.11892417
237	0xbd234c46	-0.039867662
238	0xbdae1183	-0.08499434
239	0xbd6ecc6f	-0.05830043
240	0x3db20108	0.08691603
241	0xbd2c4db6	-0.0420663
242	0xbcf190c2	-0.029487971
243	0x3b4387e8	0.0029835645
244	0x3c636c76	0.01388084
245	0x3d95b75e	0.07310365
246	0x3c4c40c5	0.012466614
247	0xbc03f29a	-0.008053446
248	0xbaf20d82	-0.001846716
249	0x3b523398	0.003207421
250	0xbc2d273d	-0.010568437
251	0xbd9b50c8	-0.07583767
252	0xbc31b174	-0.010845531
253	0x3bb0566d	0.0053813965
254	0x3de625df	0.11237692
255	0x3d50664b	0.050878804

conv4.bias f4 [10]
0	0x3e40d846	0.18832502
1	0x3e981af7	0.29708073
2	0x3c0301d0	0.007996038
3	0xbe03e34e	-0.12879679
4	0xbe7d796c	-0.2475335
5	0xbd77c061	-0.0604862
6	0xbe89e289	-0.26930645
7	0x3e28d8ba	0.16488925
8	0xbed79ccd	-0.42111817
9	0x3e898a55	0.2686335

norm.weight f4 [10]
0	0x3ef1be5f	0.47215554
1	0x3e72a728	0.23696578
2	0x3e70a3cc	0.23499984
3	0x3e679bc1	0.22618009
4	0x3e04ae84	0.12957197
5	0x3e89b019	0.26892164
6	0x3efd852c	0.49515665
7	0x3e95f0ca	0.2928527
8	0x3ea1529d	0.3150834
9	0x3e3a926f	0.18219922

norm.bias f4 [10]
0	0xbefe6bbb	-0.49691567
1	0xbe98b13e	-0.29822725
2	0xbec52120	-0.38501835
3	0xbe379a4a	-0.1792995
4	0xbdba0f27	-0.09084921
5	0xbe802f55	-0.2503611
6	0xbedbd16d	-0.42933217
7	0xbe693795	-0.22775109
8	0xbe87b7fa	-0.2650755
9	0xbe26832a	-0.16260973

norm.running_mean f4 [10]
0	0xc302d9b4	-130.8504
1	0xc2244986	-41.0718
2	0xc20d1db7	-35.27902
3	0xc30551f3	-133.32011
4	0x41ee41f5	29.782206
5	0xc286adec	-67.33969
6	0xc32c19c6	-172.10068
7	0xc306e0fc	-134.87885
8	0xc2d0f4b2	-104.47792
9	0xbf0ee79e	-0.5582217

norm.running_var f4 [10]
0	0x459fc7eb	5112.9897
1	0x45345d2b	2885.823
2	0x458e756d	4558.678
3	0x45fac2af	8024.3354
4	0x44dcab54	1765.354
5	0x4523a87b	2618.53
6	0x45d882dc	6928.3574
7	0x458b8882	4465.0635
8	0x45d2c549	6744.6606
9	0x457f3543	4083.3289

fc1.weight f4 [50, 810]
0	0xbe29404d	-0.16528435
1	0xbc9c349e	-0.019068059
2	0xbf5e112f	-0.8674497
3	0xbf9ff626	-1.2496994
4	0xbf536f38	-0.8259158
5	0x3e46c76d	0.19412012
6	0x3e0920eb	0.13391463
7	0xbe9f4d58	-0.31113696
8	0xbebdd681	-0.37077716
9	0xbefa4d45	-0.48887077
10	0xbfa4de48	-1.2880335
11	0xbf6dcb87	-0.92888683
12	0xbec57a40	-0.38569832
13	0xbc4072a5	-0.011746083
14	0xbf6ab37b	-0.91680115
15	0x3f5b8e68	0.8576417
16	0xbe407db9	-0.1879796
17	0xbe50c5a1	-0.2038789
18	0x3dbf3774	0.09336749
19	0x3dbb090c	0.09132585
20	0xbf65d20a	-0.8977362
21	0xbeb066c2	-0.34453398
22	0x3c1c2684	0.009530667
23	0xbf305b51	-0.6888934
24	0x3e25cdc6	0.16191778
25	0xbf507a40	-0.8143654
26	0xbe908cca	-0.28232414
27	0x3cd1ce2c	0.025611006
28	0xbf458057	-0.77148956
29	0x3e5d2d6b	0.21599357
30	0x3d8caf36	0.06869356
31	0x3e87daa3	0.26533994
32	0xbec48aef	-0.38387248
33	0xbf7dbe2f	-0.9911832
34	0xbf4603e9	-0.77349716
35	0xbe996f58	-0.2996776
36	0x3df5315e	0.11972307
37	0xbf9e8362	-1.2383845
38	0x3e4a8f1b	0.19781153
39	0xbecc9bc5	-0.39962593
40	0xbe757780	-0.23971367
41	0xbeb3552b	-0.35025916
42	0xbe4f742e	-0.20259163
43	0xbf358675	-0.7090829
44	0xbf66df8a	-0.90184844
45	0xbe9f2007	-0.31079122
46	0xbfbeed64	-1.4916196
47	0xbdd301cc	-0.10303077
48	0xbf655c5e	-0.89594066
49	0xbeffe32d	-0.4997801
50	0xbfc46f86	-1.5346534
51	0xbf275f80	-0.65380096
52	0xbf84d5ba	-1.0377724
53	0xbed885f0	-0.42289686
54	0xbf541c80	-0.8285599
55	0xbf6157d7	-0.8802466
56	0x3e7d9714	0.24764663
57	0xbf610cdc	-0.87910247
58	0xbea68f81	-0.3253136
59	0xbf121090	-0.5705652
60	0xbf53c497	-0.8272185
61	0xbeb8fa38	-0.36128402
62	0x3e248e83	0.16069989
63	0xbf153e08	-0.5829778
64	0xbf014bff	-0.50506586
65	0x3d3a18ec	0.045433924
66	0xbfc9cedc	-1.5766253
67	0xbf235c6b	-0.63812894
68	0xbf5d9372	-0.8655311
69	0xbfbcb35a	-1.4742234
70	0x3d89f558	0.06736249
71	0xbd0a71a0	-0.033799767
72	0xbec1384e	-0.3773827
73	0xbfefd7c1	-1.8737718
74	0xbe4e05c1	-0.20119382
75	0xbee48d04	-0.44638836
76	0x3e7764f2	0.24159601
77	0xbf08f21d	-0.53494436
78	0xbed1d8f9	-0.4098585
79	0xbf0251ba	-0.50905955
80	0xbe171364	-0.1475349
81	0xbf1bbfe1	-0.6083966
82	0xbd89287d	-0.06697176
83	0xbf658b88	-0.8966603
84	0xbf3a71a1	-0.72829634
85	0xbeb820d9	-0.3596256
86	0x3e6095f4	0.21932203
87	0x3f75761d	0.9588335
88	0xbe84e715	-0.25957552
89	0xbd92975a	-0.07157774
90	0x3e845766	0.2584793
91	0x3ba096a1	0.004900769
92	0xbf616164	-0.8803923
93	0xbf760f0d	-0.96116716
94	0xbf254af1	-0.64567477
95	0xbf167c6e	-0.58783615
96	0xbecd473d	-0.40093413
97	0x3f40eab0	0.75358105
98	0x3f8342e8	1.0254793
99	0x3f118d2c	0.56856036
100	0x3e9b0e88	0.30284524
101	0x3ef38eca	0.47569877
102	0x3e654773	0.22390537
103	0x3f300ece	0.6877259
104	0x3eb509ff	0.3535919
105	0x3ecbe21f	0.39820954
106	0x3e177626	0.14791164
107	0xbc144750	-0.009050205
108	0xbe7ed355	-0.24885304
109	0xbecc8814	-0.3994757
110	0xbe76bc35	-0.24095233
111	0xbe4ce4d5	-0.20009167
112	0x3d18650c	0.03720574
113	0x3ddc0314	0.107427746
114	0xbe3962a3	-0.18104033
115	0x3e0a888c	0.13528651
116	0xbec43e21	-0.3832865
117	0xbf8c030a	-1.0938427
118	0xbec69dbd	-0.3879222
119	0xbec1bb08	-0.37838006
120	0xbff43ff5	-1.9082018
121	0xbf1ae177	-0.6050028
122	0xbf15f552	-0.58577454
123	0xbe373700	-0.17892075
124	0xbdefb2ae	-0.11704002
125	0xbe96432f	-0.29348132
126	0x3ee4536f	0.44594905
127	0x3ebc5335	0.36782232
128	0xbffc515d	-1.971233
129	0xbfbe4579	-1.4864951
130	0x3d890498	0.06690329
131	0xbe3556cc	-0.17708892
132	0xbecd183b	-0.4005755
133	0xbf1bdbd3	-0.608823
134	0x3f7dc5c6	0.99129903
135	0xbe25e5c1	-0.16200925
136	0x3eabb72f	0.33538195
137	0x3f3231a6	0.6960701
138	0xbfb0e540	-1.3819962
139	0xbf938f7b	-1.1528162
140	0xbf15d420	-0.585268
141	0xbf18ad15	-0.596391
142	0x3e7ffdde	0.24999186
143	0xbe65afe9	-0.22430386
144	0xbf1e47af	-0.6182813
145	0xbe132284	-0.14368635
146	0xbe54a5f0	-0.20766425
147	0xbfa6795e	-1.3005788
148	0xbfc38c7d	-1.5277249
149	0xbed5736c	-0.41689622
150	0xbf36c641	-0.7139626
151	0xbf5bb432	-0.8582183
152	0xbf391239	-0.7229343
153	0xbec9c389	-0.39406994
154	0xbf2cae51	-0.67453486
155	0xbf8892ba	-1.0669777
156	0xbe89f85d	-0.269473
157	0xbf716705	-0.9429782
158	0xbcb0f042	-0.021598939
159	0xbf032372	-0.5122596
160	0xbe224f07	-0.15850459
161	0x3e9dac16	0.30795354
162	0xbf2dc9b6	-0.6788591
163	0xbf677d23	-0.9042532
164	0xbebc078f	-0.36724517
165	0xbe84bd5f	-0.2592573
166	0xbf339c97	-0.7016081
167	0xbf9f2ccf	-1.243555
168	0xbee094aa	-0.43863422
169	0x3e9a67a5	0.301572
170	0x3f32953f	0.6975898
171	0xbd97794d	-0.07396183
172	0xbf28f98a	-0.66005766
173	0xbf831d37	-1.0243291
174	0xbf8ff295	-1.1245905
175	0xbfbbd728	-1.4675035
176	0xbfa479ec	-1.2849708
177	0xbedd888d	-0.43268242
178	0xbd891f8a	-0.06695469
179	0xbeaa8505	-0.3330461
180	0x3e38fef6	0.1806601
181	0xbf240ea1	-0.6408482
182	0xbf09825c	-0.5371454
183	0xc013a57b	-2.3069751
184	0xbf03494e	-0.5128373
185	0x3e3453b2	0.17610052
186	0x3f24b901	0.64344794
187	0xbeb32968	-0.34992528
188	0xbe891a0e	-0.2677769
189	0xbc593da6	-0.013259327
190	0xbf0338cf	-0.5125856
191	0xbf6e326a	-0.93045676
192	0x3d9f5f5f	0.077818625
193	0x3ed08b0f	0.40731093
194	0xbe00c9e9	-0.12577023
195	0x3f2edb6d	0.6830357
196	0xbd8beb56	-0.06831996
197	0x3f23eef1	0.6403647
198	0xbe5e1f1e	-0.21691558
199	0x3df29ddd	0.11846516
200	0xbe4463fc	-0.19178766
201	0x3e982cc7	0.29721662
202	0x3ec0382e	0.37542862
203	0xbf73a8c6	-0.951794
204	0x3df42c0a	0.11922462
205	0xbe1c9aea	-0.1529347
206	0xbf2cf8a9	-0.67566925
207	0xbf2775ad	-0.65413934
208	0xbf3058a6	-0.68885267
209	0xbe97f4ba	-0.296789
210	0xbf0e15ca	-0.55502
211	0xbf8fa340	-1.1221695
212	0xbf24078d	-0.6407402
213	0xbf19ea41	-0.6012307
214	0xbf0a22e8	-0.5395951
215	0xbe3d4d9f	-0.18486641
216	0x3da5820d	0.08081446
217	0xbf208baa	-0.6271311
218	0xbe166aae	-0.14689133
219	0xbdcf65a1	-0.10126806
220	0xbe8e4c41	-0.27792552
221	0xbf0949fb	-0.5362851
222	0x3e1b8644	0.15187937
223	0xbccec176	-0.025238734
224	0xbebfb4c2	-0.37442595
225	0xbf10c60e	-0.5655221
226	0xbd13a79d	-0.03604852
227	0x3e5965ec	0.21230286
228	0x3c1def56	0.009639582
229	0xbe22eaf2	-0.15909937
230	0x3df3b232	0.118992224
231	0xbdc44567	-0.0958355
232	0x3e9bf686	0.3046152
233	0x3eba5653	0.36393985
234	0xbf57b2b9	-0.84257084
235	0xbf928f6b	-1.1450018
236	0x3e95fac6	0.29292887
237	0xbcc3f435	-0.023920158
238	0x3eb1059b	0.3457459
239	0xbefbe678	-0.4919927
240	0xbf0afaeb	-0.5428912
241	0x3ec24040	0.37939644
242	0xbe14d49f	-0.14534234
243	0x3ed2700a	0.41101104
244	0x3efcba7b	0.49361023
245	0x3df37687	0.11887842
246	0x3cefb920	0.02926308
247	0xbf4295a9	-0.76009613
248	0xbda58441	-0.08081866
249	0x3de242a0	0.11047864
250	0x3cccef9d	0.0250166
251	0xbccd55e1	-0.025065364
252	0x3df1a9b4	0.117999464
253	0x3bb9731c	0.005659474
254	0x3ed2936e	0.41128105
255	0x3f562c29	0.83661133

fc1.bias f4 [50]
0	0xbd8995c0	-0.06718016
1	0x3ee76ea0	0.45201588
2	0xbe5420e7	-0.20715676
3	0xbd409635	-0.04701825
4	0xbda987fc	-0.0827789
5	0x3f00fa09	0.50381523
6	0xbdc275e7	-0.09495144
7	0xbcd2abfe	-0.025716778
8	0x3f402cb2	0.750682
9	0xbd185458	-0.03718981
10	0xbe846ede	-0.25865835
11	0xbcdd4a38	-0.02701293
12	0xbe3b92a0	-0.18317652
13	0x3ed6c71c	0.41948783
14	0xbd34cfb5	-0.044143397
15	0x3f54feba	0.8320118
16	0xbda42916	-0.08015649
17	0xbd730536	-0.05933114
18	0xbd2e3896	-0.042534433
19	0xbe913569	-0.2836106
20	0x3f974532	1.1817992
21	0x3fddb3c0	1.732048
22	0xbe594425	-0.21217401
23	0xbc7bec3d	-0.015376148
24	0xbe2547ef	-0.16140722
25	0xbf03d14d	-0.5149124
26	0xbd109910	-0.03530222
27	0x3e4e7049	0.20160021
28	0x3faad592	1.3346426
29	0xbe114a45	-0.14188488
30	0xbd8e6539	-0.069529004
31	0xbe480a2a	-0.19535127
32	0x3d93c7bc	0.07215831
33	0x400ae647	2.170305
34	0xbd885bf3	-0.06658163
35	0xbd383ecd	-0.044981766
36	0xbe6e5acc	-0.23276824
37	0x3f9de423	1.2335247
38	0xbd147ca7	-0.03625169
39	0xbdefdf89	-0.11712558
40	0xbdd9beba	-0.10632081
41	0x3ff81a81	1.9383088
42	0xbe6d323d	-0.23163696
43	0x3a2d3629	0.0006607497
44	0xbd4706a5	-0.04859032
45	0x3f86f0a1	1.0542184
46	0x364b28df	3.0273147e-06
47	0x3ed26813	0.41095027
48	0xbe553495	-0.2082084
49	0x3fcc5d04	1.5965886

fc2.weight f4 [7, 50]
0	0xbebedd4a	-0.37278205
1	0x3e9206bc	0.28520763
2	0xbd9b2753	-0.0757586
3	0xbea7333e	-0.32656282
4	0xbdaffd1a	-0.08593197
5	0xbe46bc70	-0.1940782
6	0xbf44ed3a	-0.7692448
7	0xbd2728f5	-0.040810544
8	0xbd793d46	-0.06084945
9	0xbd557f64	-0.052123442
10	0xbdbb05d7	-0.09131973
11	0x3ccc61cc	0.024948977
12	0x3e5c4477	0.21510492
13	0xbd8f5fea	-0.07000716
14	0xbcd46a9f	-0.025929747
15	0xbd89ecb3	-0.067346
16	0xbda87c0f	-0.08226787
17	0x3a6f922f	0.00091389095
18	0xbd8e9388	-0.06961733
19	0xbd07d297	-0.03315982
20	0xbda005ec	-0.078136295
21	0x3e1b60a2	0.15173581
22	0xbe0c59d1	-0.13706137
23	0x3d6643a8	0.056216866
24	0xbd8de3d9	-0.06928224
25	0x3e3244dc	0.1740908
26	0xbdc181e9	-0.094486065
27	0xbd970616	-0.07374208
28	0xbe6f75c1	-0.23384763
29	0x3d1f7849	0.038933072
30	0xbba54a37	-0.0050442475
31	0x3e2c43c8	0.16822731
32	0xbe51b7b4	-0.20480233
33	0x3e7bf758	0.24606073
34	0xbd75be55	-0.059995968
35	0xbddeb6b7	-0.10874694
36	0xbe4850e5	-0.19562109
37	0x3e86fb9c	0.26363838
38	0x3cd751a4	0.026284046
39	0xbd6271e9	-0.055284414
40	0x3a29bcf1	0.0006474993
41	0xbd950bd2	-0.07277645
42	0xbf30f34b	-0.69121236
43	0xbd2e5c73	-0.042568635
44	0xbdc089f0	-0.094013095
45	0xbe85b339	-0.261133
46	0x3d9fc33e	0.07800911
47	0x3e70dfed	0.23522921
48	0x3daa4df4	0.0831565
49	0xbe25e24c	-0.16199607
50	0xbf6bdd61	-0.9213467
51	0xbf041822	-0.51599324
52	0xbda7fce6	-0.082025334
53	0xbf1283b7	-0.5723223
54	0x3b838d27	0.0040146294
55	0xbd5b3f08	-0.05352691
56	0xbf874f71	-1.0571119
57	0x3d99b7b1	0.075057395
58	0x3dca8ea6	0.09890489
59	0x3c9883f9	0.018617617
60	0x3d05a7d7	0.032630768
61	0x3d8542d0	0.06506884
62	0xbdfd99bd	-0.12382839
63	0xbeac7341	-0.33681682
64	0x3cd7b235	0.026330093
65	0x3c8e6473	0.017381882
66	0xbd28ea6d	-0.04123919
67	0xbd18540f	-0.03718954
68	0xbbb672b0	-0.005567871
69	0x3db1ebdc	0.08687565
70	0xbe399942	-0.1812487
71	0xbe2faf02	-0.17156604
72	0xbd7afb7f	-0.061275
73	0x3ca412fb	0.020028582
74	0x3c867c19	0.016416596
75	0xbe3cf9b9	-0.18454637
76	0xbdf00102	-0.11718942
77	0xbeab6bf2	-0.33480793
78	0xbe8979a4	-0.26850617
79	0x3dce1d48	0.10064179
80	0xbd82719f	-0.06369328
81	0x3dd164c4	0.10224298
82	0x3eae76da	0.34075052
83	0xbf00ad47	-0.502644
84	0xbdf2ac5d	-0.11849282
85	0x3dc08850	0.094009995
86	0xbc5d9809	-0.013525018
87	0xbe970f20	-0.29503727
88	0xbdcdfa68	-0.10057527
89	0x3ce02773	0.02736256
90	0xbd87024b	-0.06592234
91	0xbeb0ffbd	-0.34570113
92	0xbf92c632	-1.1466734
93	0x3d95b873	0.073105715
94	0x3de1e53f	0.11030053
95	0xbde30ac4	-0.11086038
96	0x3db7d2d1	0.08975757
97	0x3f2043c3	0.62603396
98	0x3a0171fc	0.00049379445
99	0x3d1b8b51	0.03797466
100	0x3f2a02af	0.66410345
101	0xbf626d6b	-0.8844821
102	0xbd0ae9bb	-0.03391431
103	0xbe2f6a23	-0.17130332
104	0x3d3a2af0	0.045451105
105	0x3d3f0e38	0.04664442
106	0xbf8d5669	-1.1041995
107	0x3dba9d51	0.09112037
108	0xbb327344	-0.0027229348
109	0x3d5868d4	0.052834347
110	0x3bf54714	0.00748528
111	0xbe03e7d4	-0.12881404
112	0xbd437b74	-0.047725156
113	0xbeb14e4a	-0.34630042
114	0x3d0055f7	0.031331982
115	0x3e826fb5	0.2547585
116	0xbdc74d30	-0.09731519
117	0x3c414b4d	0.011797738
118	0xbe004675	-0.12526877
119	0xbe3ddead	-0.18541975
120	0xbdd9f279	-0.10641951
121	0x3b8d3aab	0.0043099723
122	0x3d8167df	0.0631864
123	0xbd15f2d7	-0.036608543
124	0xbe19696b	-0.1498162
125	0x3e64bba5	0.22337206
126	0xbb5ea023	-0.003396996
127	0xbda9a01d	-0.08282492
128	0xbe0c7a6f	-0.1371858
129	0x3db33a44	0.08751348
130	0xbe0f7da1	-0.14012767
131	0x3c45e17b	0.0120776845
132	0xbd0b4f85	-0.034011383
133	0x3d163dd2	0.03668005
134	0xbd152eca	-0.036421575
135	0xbc83f581	-0.016108276
136	0x3e26787d	0.162569
137	0x3c83df46	0.016097676
138	0xbceb6dc2	-0.02873886
139	0xbbdeef2f	-0.0068034153
140	0xbd8dc36c	-0.069220394
141	0xbe2e1ce0	-0.17003202
142	0xbee31016	-0.4434821
143	0xbd0c96bc	-0.03432344
144	0xbdf975d5	-0.12180678
145	0x3e4cd873	0.20004444
146	0x3ca6b20a	0.020348568
147	0x3d5262be	0.0513637
148	0x3b01496e	0.0019727605
149	0xbe010868	-0.12600863
150	0xbee8811d	-0.45411006
151	0xbecbca1b	-0.39802632
152	0x3d756901	0.059914593
153	0xbee0674e	-0.43828815
154	0x3da70541	0.08155299
155	0xbe2ab60e	-0.16671011
156	0xbf3ebfe7	-0.7451157
157	0xbbfcf416	-0.007719527
158	0xbdd738ac	-0.10508856
159	0x3dd7a162	0.10528828
160	0xbe4e80d1	-0.20166327
161	0x3d9c63fb	0.07636257
162	0x3d7bcd22	0.061474927
163	0x3e834776	0.25640458
164	0xbc87d820	-0.016582549
165	0xbe10b124	-0.14130074
166	0x3c89d1cb	0.01682367
167	0xbc947202	-0.01812077
168	0x3d8ee6e0	0.0697763
169	0x3d64b813	0.05583961
170	0x3ec927fb	0.39288315
171	0x3d125501	0.035725597
172	0x3c84254a	0.016131062
173	0x3d5efb4e	0.05443888
174	0x3d0f4541	0.034978155
175	0xbcc4f90b	-0.024044534
176	0xbd5a9b8a	-0.05337099
177	0x3e05eb33	0.13078003
178	0x3eb96d41	0.36216167
179	0xbce06fbf	-0.027397035
180	0x3d8db67f	0.06919574
181	0x3deda8b4	0.11604443
182	0xbe0f3fd1	-0.13989188
183	0xbd828d69	-0.06374628
184	0x3d53286e	0.05155223
185	0x3cf2f008	0.029655471
186	0xbd01e206	-0.031709693
187	0xbef2e6b4	-0.47441638
188	0xbce6cebf	-0.028174756
189	0xbd793ec4	-0.060850874
190	0x3de6da6a	0.11272128
191	0x3ecfcc0e	0.4058537
192	0xbd8d2bdc	-0.06893131
193	0xbd638109	-0.05554298
194	0xbd68f020	-0.056869626
195	0xbcda8230	-0.026673406
196	0xbd1cb071	-0.038254205
197	0xbe3a4149	-0.18188967
198	0xbf05318c	-0.5202873
199	0x3e8b9d58	0.2726848
200	0xbe2bdedf	-0.16784237
201	0xbecd2598	-0.40067744
202	0xbdbb3a66	-0.09141998
203	0xbe9b8046	-0.30371302
204	0x3e0a43f6	0.13502488
205	0xbdff94f1	-0.1247958
206	0xbf4765dc	-0.778898
207	0xbb3847c8	-0.0028118957
208	0xbe126060	-0.14294577
209	0xbc94d59d	-0.018168265
210	0xbda4857d	-0.08033273
211	0x3cd18555	0.025576273
212	0xbe7c1ff7	-0.24621569
213	0xbe0af965	-0.13571699
214	0x3deb94ec	0.11503014
215	0x3e2ffb32	0.17185667
216	0xbd2e238f	-0.04251438
217	0xbd4f4bfc	-0.050609574
218	0xbde82df8	-0.11336893
219	0xbe9a6af0	-0.30159712
220	0xbdffc0a6	-0.12487917
221	0x3e89d7ba	0.269224
222	0xbd27077a	-0.040778615
223	0xbd2baa7f	-0.041910645
224	0x3b5cb954	0.00336798
225	0xbda3f2ac	-0.0800527
226	0xbd4d0828	-0.050056607
227	0x3d2dca49	0.042429242
228	0xbe4407e4	-0.19143635
229	0xbdb86751	-0.09004081
230	0xbd1b4be7	-0.037914183
231	0xbcef231b	-0.029191544
232	0x3e1fff7c	0.15624803
233	0x3ddb21fc	0.106998414
234	0x3d011400	0.031513214
235	0x3d96629a	0.073430255
236	0x3ccaa8d5	0.024738709
237	0x3d83f43b	0.06443068
238	0xbdb8a4ba	-0.09015794
239	0x3daeaafe	0.08528708
240	0xbb7733b9	-0.0037720038
241	0xbe51d642	-0.20491889
242	0x3e556933	0.20840912
243	0x3cd5b9ed	0.026089633
244	0x3d8b1cbc	0.0679259
245	0xbe3bfa00	-0.18357086
246	0x3c5b9ce4	0.013404105
247	0xbdb9cb16	-0.09071939
248	0x3b955467	0.0045571807
249	0xbe05316f	-0.13007139
250	0xbe245587	-0.16048251
251	0x3d835a98	0.06413764
252	0xbdc2f35c	-0.09519073
253	0x3eace3b0	0.33767462
254	0x3dd080b8	0.10180801
255	0x3eb4d7b5	0.3532082

fc2.bias f4 [7]
0	0xbe8ddf42	-0.27709395
1	0xbfd2b285	-1.646073
2	0xbd881664	-0.06644896
3	0x3e3f072a	0.18655077
4	0x3f06de8a	0.5268332
5	0xbec4708d	-0.3836712
6	0x3e9cf2f5	0.30654112

localization.0.weight f4 [8, 1, 7, 7]
0	0x3d3bac11	0.045818392
1	0xbcae54e0	-0.021280706
2	0x3da00d7d	0.07815073
3	0x3e06e922	0.1317487
4	0x3d50a351	0.050937
5	0x3dde8998	0.10866088
6	0x3e2d8270	0.16944289
7	0x3e3dddf0	0.18541694
8	0x3df4ddd8	0.11956376
9	0x3e7a7ff5	0.24462874
10	0x3ddf6e26	0.10909681
11	0x3e2d88ed	0.16946764
12	0x3e6a35e4	0.2287212
13	0x3c445ecf	0.011985495
14	0xbd069d00	-0.03286457
15	0x3daf0708	0.08546263
16	0x3e52d48a	0.2058889
17	0x3b37e633	0.0028060793
18	0x3e401683	0.18758588
19	0x3e19636d	0.14979334
20	0xbd986df6	-0.074428484
21	0x3da763d2	0.08173336
22	0xbd95cdd2	-0.07314648
23	0xbd55ad3a	-0.052167155
24	0x3e41b216	0.1891559
25	0x3d468349	0.048465047
26	0x3c615f03	0.013755563
27	0x3cb6443d	0.022249335
28	0x3d41f83e	0.047355883
29	0xbda41123	-0.08011081
30	0x3e3f829e	0.1870217
31	0x3be2eba5	0.0069250637
32	0x3dea5fb1	0.11444033
33	0x3e14faa5	0.14548738
34	0xbc29d7ac	-0.010366362
35	0x3df2b1cf	0.118503205
36	0xbda9aded	-0.08285127
37	0x3e425c62	0.18980554
38	0x3e097f6d	0.13427515
39	0x3d23f4f2	0.04002852
40	0x3e018a63	0.12650447
41	0xbd81e824	-0.063431054
42	0xbc8b7217	-0.017022176
43	0x3e02d333	0.12775879
44	0x3d28fdd2	0.041257687
45	0xbd796a9e	-0.060892694
46	0x3cfdc394	0.030977048
47	0x3e03c17b	0.12866776
48	0xbc1c9324	-0.009556565
49	0xbdde75ab	-0.10862287
50	0xbc962580	-0.018328428
51	0x3da40a4d	0.08009777
52	0xbde0a9e4	-0.10969904
53	0xbcc08589	-0.023501175
54	0x3d4256df	0.047446128
55	0x39820ad4	0.000248036
56	0x3e0f1562	0.13973
57	0x3dcb116f	0.099154346
58	0xbe07cd60	-0.13261938
59	0x3d4da56e	0.050206594
60	0x3dcce7fc	0.10005185
61	0xbde342b1	-0.11096705
62	0xbc86ca8a	-0.016454
63	0xbccae1b6	-0.02476583
64	0xbddb8a94	-0.10719791
65	0x3da08a99	0.078389354
66	0xbdc0aa1a	-0.09407444
67	0xbd7a3c27	-0.061092522
68	0x3d5762f3	0.0525846
69	0xbe4d7c0e	-0.20066854
70	0xbdd3eaf3	-0.103475474
71	0xbdf819ea	-0.12114318
72	0x3d2659ad	0.040612865
73	0x3dc932b7	0.09824126
74	0xbde39962	-0.1111324
75	0xbd00b10d	-0.03141885
76	0xbd807703	-0.062727
77	0x3dcdf8cc	0.1005722
78	0xbcd76eb9	-0.026297914
79	0x3d3a1c9f	0.04543745
80	0x3ca94ee9	0.02066751
81	0xbdc3fefd	-0.095701195
82	0xbd9f5aa3	-0.077809595
83	0xbdc085fa	-0.09400554
84	0xbe33c060	-0.17553854
85	0x3d8b2256	0.067936584
86	0xbc1311b6	-0.008976391
87	0x3d99c5e4	0.07508448
88	0xbdc7b568	-0.09751397
89	0xbd5541c3	-0.05206467
90	0x3a850769	0.0010149303
91	0xbb94d750	-0.004542269
92	0xbdae3306	-0.08505826
93	0xbd497ade	-0.04918944
94	0xbe0e06c7	-0.13869773
95	0x3dad6b9f	0.08467793
96	0xbd15173c	-0.03639911
97	0xbe1ebbf5	-0.15501387
98	0xbd4cea21	-0.05002797
99	0xbcaaccae	-0.020849552
100	0x3d4f0aaf	0.050547298
101	0xbdaa156b	-0.083048664
102	0x3dc035c1	0.09385253
103	0x3df1b736	0.11802523
104	0xbc3ae2e3	-0.011406633
105	0x3da03868	0.07823259
106	0xbd1db43a	-0.038501956
107	0xbdd68152	-0.10473885
108	0x3e054c22	0.13017324
109	0x3d8416bf	0.06449651
110	0xbd3744dd	-0.044743408
111	0xbdfa0783	-0.12208464
112	0x3b22c0a8	0.002483407
113	0xbd14a400	-0.036289215
114	0xbbf9699b	-0.007611466
115	0x3e0370c9	0.12835993
116	0xbdcfc9b7	-0.10145896
117	0x3da5d5c8	0.08097416
118	0xbd68d588	-0.056844264
119	0xbdb25a75	-0.087086596
120	0xbd830a32	-0.06398429
121	0xbd9fbc8e	-0.07799636
122	0xbbe2d424	-0.006922262
123	0xbe255979	-0.16147412
124	0xbe013703	-0.12618642
125	0x3d0c0d93	0.034192633
126	0x3e00176d	0.12508936
127	0xbd2368e9	-0.039894972
128	0x3d38bafe	0.045100205
129	0xbab189a5	-0.001354505
130	0x3db2e6bf	0.087354176
131	0xbc9c1e04	-0.019057281
132	0x3d6a4273	0.057192277
133	0x3e137c75	0.14402945
134	0xbdcd0028	-0.100097954
135	0xbdcd6b67	-0.10030251
136	0x3cc36e01	0.023856165
137	0xbd3e05be	-0.046392195
138	0x3b84add5	0.0040490427
139	0x3c6ddf0a	0.014518509
140	0xbe0a1b55	-0.13486989
141	0x3d8c7b38	0.068594396
142	0x3c26dd30	0.010184571
143	0x3d6a68d5	0.057228882
144	0xbda630c7	-0.08114772
145	0xbe37152c	-0.1787917
146	0xbe3876b1	-0.18014027
147	0xbcc430c7	-0.02394904
148	0xbdc29f3d	-0.095030285
149	0xbdbdd9e4	-0.09270075
150	0xbd1d08b7	-0.03833839
151	0x3c33d9e2	0.01097724
152	0x3d58e667	0.052954104
153	0xbd97c776	-0.07411091
154	0x3d88ba39	0.06676144
155	0xbc8a3d46	-0.01687492
156	0xbd8a17fd	-0.06742857
157	0x3e01e9b3	0.12686805
158	0x3dc1d068	0.094635785
159	0xbd902021	-0.07037378
160	0x3dac2d04	0.084070235
161	0x3e069e30	0.13146281
162	0x3df538f9	0.11973757
163	0x3d930920	0.07179475
164	0x3e038dca	0.12847057
165	0x3c3172e9	0.010830619
166	0xbdf0e07b	-0.11761566
167	0x3df7972a	0.12089379
168	0x3d907e9c	0.07055399
169	0x3d43e080	0.04782152
170	0x3cf9b6a9	0.030482607
171	0xbc98eda4	-0.018668003
172	0xbd0469af	-0.03232735
173	0xbdfbaba4	-0.12288597
174	0x3e0ceb0b	0.13761537
175	0x3dc398c7	0.09550624
176	0xbc848624	-0.016177244
177	0x3dd40cd5	0.1035401
178	0x3d91eb49	0.07124955
179	0x3da2b0a7	0.0794385
180	0x3da3b3ff	0.07993316
181	0xbe11c253	-0.14234285
182	0x3d5242f8	0.051333398
183	0xbe444531	-0.1916702
184	0x3d9b734c	0.075903505
185	0xbd0dd6ef	-0.034628805
186	0xbd93ceb7	-0.07217162
187	0x3c4a7fcd	0.012359572
188	0xbd92fbb9	-0.071769185
189	0xbe1d56ff	-0.15365218
190	0xbe1857fb	-0.14877312
191	0x3c7e70aa	0.015529791
192	0xbdc7c655	-0.09754626
193	0xbc074c2f	-0.00825791
194	0x3c61b2b4	0.013775516
195	0x3d84c82c	0.06483492
196	0xbd9b9af7	-0.075979166
197	0xbe1886cb	-0.1489517
198	0xbc37b7b1	-0.011213229
199	0x3dbfd208	0.09366232
200	0x3e0ae23d	0.13562866
201	0xbc206b92	-0.009791272
202	0xbd3fb938	-0.046807498
203	0xbdfffcfa	-0.12499423
204	0xbdb06413	-0.08612838
205	0x3dd8d32f	0.10587155
206	0xbdbc3300	-0.09189415
207	0x3dd1d576	0.102457926
208	0x3e11cf92	0.14239338
209	0x3dee0547	0.116221
210	0xbda138c6	-0.07872157
211	0xbd9fe193	-0.07806697
212	0x3d6f42c6	0.05841329
213	0xbbb54146	-0.005531463
214	0x3e18b835	0.1491402
215	0x3d965658	0.073406875
216	0x3da72701	0.08161736
217	0xba049b4f	-0.0005058543
218	0x3d68c11f	0.0568248
219	0xbb649150	-0.0034876652
220	0x3dd01f0f	0.10162174
221	0xbd8379e1	-0.06419731
222	0xbd492d8d	-0.049115706
223	0x3e018248	0.12647355
224	0xbdb2a5c7	-0.08723026
225	0xbd05eab5	-0.032694537
226	0xbd129ad9	-0.035792205
227	0x3daba990	0.08381951
228	0xbd90e150	-0.07074225
229	0x3a636fc0	0.0008676015
230	0xbae6be15	-0.0017604256
231	0xbe2dc4e7	-0.16969644
232	0xbba4f3f8	-0.005033966
233	0x3d8cb061	0.06869579
234	0xbde3fd6e	-0.11132322
235	0x3ddcc8b7	0.10780471
236	0x3df03b03	0.117300056
237	0x3d547ac4	0.05187489
238	0x3d1af9b4	0.03783579
239	0xbe0ec293	-0.13941412
240	0xbc06db45	-0.008230989
241	0x3cdd8759	0.027042078
242	0x3d4b8225	0.049684662
243	0xbe213fb9	-0.15746965
244	0x3d71551f	0.05891907
245	0xbc6b7a5c	-0.0143724345
246	0x3e1cd23f	0.15314578
247	0x3de6a7f0	0.112625
248	0x3dee7481	0.11643315
249	0x3b83c74a	0.00402156
250	0x3cde187f	0.02711129
251	0x3c70de7a	0.01470148
252	0x3dc7a003	0.09747317
253	0x3dca5643	0.09879734
254	0xbd47480f	-0.048652705
255	0x3da4eeb0	0.080533385

localization.0.bias f4 [8]
0	0x3e366dc0	0.17815304
1	0xbd8e79ba	-0.06956811
2	0xbd9ce48f	-0.076607816
3	0xbe5b1003	-0.21392827
4	0xbd3038f1	-0.043023054
5	0xbdd95866	-0.10612564
6	0xbe4c2d3f	-0.19939135
7	0xbe702be0	-0.23454237
