EmpathyBot/model_snapshots/deep_emotion-200-64-0.005-0.526410304043594.pt (torch_old, 271009 bytes, 24 tensors)

conv1.weight f4 [10, 1, 3, 3]
0	0x3cd75162	0.026283924
1	0xbe2c9927	-0.16855298
2	0xc00248bd	-2.0356896
3	0x3eaa0bbe	0.33212084
4	0x3f03fff1	0.5156241
5	0x3d90118c	0.07034597
6	0xbf89e71c	-1.0773654
7	0x3f5ad02d	0.854739
8	0x3fca635e	1.5811574
9	0xbf882875	-1.0637347
10	0x3ea8daa7	0.32979318
11	0x3fabbdf3	1.3417343
12	0xbfec209f	-1.8447455
13	0xbf369f3f	-0.7133674
14	0x3fe79ec0	1.8095322
15	0xbf015298	-0.50516653
16	0x3eb03e20	0.34422398
17	0x3ec546fc	0.3853072
18	0x3f9a96f1	1.2077314
19	0xbe9f1746	-0.31072444
20	0xbf1c6a28	-0.6109948
21	0x3f646e92	0.89231217
22	0xbf0321bc	-0.5122335
23	0xbf31c473	-0.6944038
24	0xbed38760	-0.4131422
25	0xbefada20	-0.4899454
26	0xbf681426	-0.90655744
27	0x3fae0fdf	1.3598593
28	0x3fcaec0c	1.5853286
29	0x3eea6fa2	0.45788294
30	0xbf7e2ea4	-0.9928992
31	0x3c2ba9e2	0.010477515
32	0xbd01c254	-0.031679466
33	0xbf96b2e4	-1.1773343
34	0xbf34c791	-0.70617014
35	0xbf038470	-0.5137396
36	0xbf207733	-0.62681884
37	0xbebda113	-0.37036952
38	0x3e81c527	0.25345728
39	0xbe20df46	-0.15710172
40	0xbef47266	-0.4774353
41	0xbeceaee5	-0.4036781
42	0x3faf6141	1.3701555
43	0x3f221a96	0.63321817
44	0xbeaa26ff	-0.33232877
45	0x3f4a20db	0.78956383
46	0x3f906ff6	1.1284168
47	0x3f53ee94	0.82785916
48	0x3fa8da6d	1.3191658
49	0x3e42f5e5	0.19039114
50	0xc0136cfe	-2.3035274
51	0x3e927b99	0.28609923
52	0xbeefd81c	-0.46844566
53	0xbf93a310	-1.1534138
54	0x3b954d02	0.004556299
55	0x3dacfae7	0.08446293
56	0xbfae14e6	-1.3600128
57	0x3f790c96	0.9728483
58	0x3f3e41b8	0.7431903
59	0xbfad0e42	-1.3519976
60	0x3f991475	1.1959368
61	0x3eceee94	0.40416396
62	0xbee0de24	-0.4391948
63	0xbec9d235	-0.39418188
64	0xbe2a94ce	-0.16658327
65	0x3f258ca7	0.64667743
66	0xbfecf743	-1.8512958
67	0xbea8cbfc	-0.32968128
68	0x3f1306fb	0.57432526
69	0xbde44c0a	-0.11147316
70	0x3fb394aa	1.4029744
71	0x3eec6b51	0.46175626
72	0xbfbf6105	-1.4951483
73	0xbf0a216d	-0.53957254
74	0xbe87d80f	-0.26532027
75	0x3d3d34b2	0.046192832
76	0x3eda11c5	0.42591682
77	0x3e4048d1	0.18777777
78	0x3fa9bd69	1.3260928
79	0x3fbc1b36	1.4695804
80	0xbf56c321	-0.83891493
81	0x3ef2dbd6	0.47433347
82	0xbf2a53a2	-0.66533864
83	0x3fa5da21	1.2957193
84	0xbecbd6d8	-0.3981235
85	0xbfde38b6	-1.7361057
86	0xbf6e24fe	-0.93025196
87	0x3eacdae4	0.3376075
88	0x3f0ad2cf	0.5422792
89	0x3f8a106d	1.0786263

conv1.bias f4 [10]
0	0x3e983971	0.29731324
1	0xbe965c46	-0.29367274
2	0xbf079fae	-0.52978027
3	0x3e97ed18	0.29673076
4	0x3e4d0ae5	0.20023687
5	0xbf465d23	-0.77485865
6	0x3f25779d	0.6463564
7	0x3f288819	0.6583267
8	0x3ec69994	0.38789046
9	0x3e5490da	0.20758381

conv2.weight f4 [10, 10, 3, 3]
0	0xbdaa6c59	-0.08321447
1	0xbdeda161	-0.11603046
2	0xbdc99291	-0.098424084
3	0xbe2c637e	-0.16834828
4	0xbdd4d080	-0.10391331
5	0xbdef5731	-0.11686552
6	0xbdc9ab6d	-0.0984715
7	0xbe81953d	-0.25309172
8	0xbdebdc4a	-0.11516626
9	0xbdbb33f6	-0.0914077
10	0x3ceb4f88	0.028724447
11	0xbcb1de18	-0.021712348
12	0x3c8aeece	0.016959574
13	0x3d094394	0.033511713
14	0x3c2259a8	0.009909071
15	0x3ce6a505	0.02815486
16	0xbe102257	-0.140756
17	0xb9488056	-0.00019121295
18	0xbd148119	-0.03625593
19	0x3d150328	0.036379963
20	0x3d7d9fd9	0.06192002
21	0xbe08c70a	-0.13357177
22	0x3c18c035	0.0093231695
23	0x3c222829	0.00989727
24	0x3c8d7c4f	0.017271189
25	0xbdd4dede	-0.10394071
26	0xbe07fe77	-0.13280664
27	0xbe0418a4	-0.12900025
28	0xbdf268cc	-0.11836395
29	0xbc68e915	-0.014215727
30	0xbe8fd63f	-0.28093144
31	0xbe88a1c7	-0.26685926
32	0x3d13808e	0.03601127
33	0xbde5460d	-0.11195002
34	0xbe12f655	-0.1435178
35	0xbe41c473	-0.18922596
36	0xbd3517a4	-0.044212
37	0xbdbdd3f1	-0.0926894
38	0xbe6a4911	-0.22879435
39	0xbd89a3dd	-0.067207076
40	0xbe34e35b	-0.17664854
41	0x3dd800e5	0.105470456
42	0xbc9f730f	-0.019464044
43	0xbdcfdb99	-0.10149307
44	0xbe5b2af4	-0.21403104
45	0x3ccdbe17	0.025115056
46	0xbdb134b1	-0.08652628
47	0xbd27675f	-0.040870067
48	0xbcfd768f	-0.030940322
49	0x3d960a9f	0.073262446
50	0x3c0a98e5	0.008459304
51	0xbacfe5f5	-0.0015861379
52	0xbd24e66f	-0.04025882
53	0xbdd6f6d2	-0.10496296
54	0xbe5c6ee5	-0.21526678
55	0xbdd9400a	-0.106079176
56	0xbdd03fb2	-0.10168399
57	0x3d405cd2	0.04696352
58	0xbe8d6fd1	-0.27624372
59	0xbe7c5526	-0.24641857
60	0xbd96a633	-0.07355919
61	0x3bcdd744	0.006281765
62	0xbe10ac1c	-0.14128155
63	0xbe71affd	-0.2360229
64	0xbe4c30f2	-0.19940546
65	0xbd5c992c	-0.053857014
66	0xbdf192a0	-0.117955446
67	0xbe172bf4	-0.1476286
68	0x3cf2f53c	0.029657952
69	0xbe637c8d	-0.22215481
70	0xbdd149a0	-0.10219121
71	0xbdb4656b	-0.088084064
72	0xbe6d21e7	-0.23157464
73	0xbdb8dc4c	-0.09026393
74	0xbe463ced	-0.19359179
75	0xbe4c8425	-0.19972284
76	0xbe2fe64c	-0.17177695
77	0xbe7e2b87	-0.24821292
78	0xbdc79cc1	-0.09746695
79	0xbc95c725	-0.018283436
80	0x3d377f5b	0.04479919
81	0xbdd24f17	-0.102689914
82	0x3d52e0c7	0.051483896
83	0xbd84b6b3	-0.064801596
84	0xbe31cfe4	-0.1736446
85	0xbcfa64c0	-0.03056562
86	0x3c503308	0.012707479
87	0xbd3b10b5	-0.04567023
88	0xbe6493c1	-0.22321989
89	0xbd9853c6	-0.074378535
90	0xbee7aeb2	-0.4525047
91	0xbeac9b5e	-0.33712286
92	0x3d7cf9c6	0.06176164
93	0x3e940c49	0.28915623
94	0xbe18a361	-0.14906074
95	0xbe070360	-0.13184881
96	0xbfd244e9	-1.642728
97	0xbea2a1b1	-0.31763986
98	0xbf866917	-1.0500821
99	0x3e19445f	0.14967488
100	0xbec29570	-0.38004637
101	0xbec875b4	-0.391523
102	0xbf0b878d	-0.5450371
103	0xbf9c5f01	-1.2216493
104	0xbec3404e	-0.38134998
105	0x3dc365c6	0.09540896
106	0xbeed4172	-0.46338993
107	0xbf34b0f0	-0.70582485
108	0xbf11f8dc	-0.57020354
109	0xbefe84f7	-0.4971082
110	0xbf37fa01	-0.7186585
111	0xbdae2361	-0.08502842
112	0xbe932a71	-0.28743318
113	0xbda1f51a	-0.079080775
114	0x3f18218e	0.594262
115	0xbd82884a	-0.06373651
116	0x3e235b27	0.1595274
117	0xbdf35493	-0.118813656
118	0xbf7f10fc	-0.9963529
119	0xbfaf938c	-1.3716903
120	0x3f964ea5	1.174275
121	0x3f64978e	0.89293754
122	0x3eaea82e	0.34112686
123	0x3fc19230	1.5122738
124	0x3f8f0c67	1.117566
125	0x3f88419a	1.064502
126	0x3f371bb3	0.7152664
127	0x3ea1cd6a	0.3160203
128	0x3e98c2f0	0.29836226
129	0xbffa6b0b	-1.9563917
130	0xbeb9f3d2	-0.36318833
131	0x3f776ff7	0.9665522
132	0x3f2909b9	0.6603046
133	0xbf148b30	-0.58024883
134	0xbf9c3d30	-1.2206173
135	0x3f7a1e44	0.9770243
136	0x3eeab45b	0.45840725
137	0x3e7f387f	0.24923895
138	0xbedd178f	-0.43182036
139	0x3ec438a7	0.38324472
140	0x3f3923bc	0.7232015
141	0xbf94329e	-1.1577947
142	0xbf1ae5ce	-0.60506904
143	0x3eabcc19	0.33554152
144	0xbe15c25b	-0.14624922
145	0x3e06465a	0.13112774
146	0x3f248d66	0.64278257
147	0xbf853436	-1.0406559
148	0xbd7a8ed2	-0.06117136
149	0x3e9d910e	0.3077473
150	0xbf8f7dc6	-1.1210258
151	0xbf0f3528	-0.55940485
152	0xbed7a247	-0.42115995
153	0x3edd7da7	0.43259928
154	0x3ec8a02b	0.39184698
155	0x3eb87f6c	0.36034715
156	0xbf61a789	-0.88146263
157	0x3d4a3fd5	0.04937728
158	0x3fd9b987	1.7009743
159	0x3e9fa66e	0.31181663
160	0xbcc372e7	-0.0238585
161	0x3f0f3fd9	0.559568
162	0x3f43dd15	0.7650922
163	0x3f20732f	0.62675756
164	0x3f131c42	0.57464993
165	0xbfe08c1c	-1.7542758
166	0xbf94e5da	-1.1632645
167	0x3e0bc334	0.13648683
168	0xbfb9a084	-1.450211
169	0xbfd8d826	-1.6940963
170	0xbfa08ee1	-1.2543603
171	0xbe9a9025	-0.301881
172	0xbefcfcc7	-0.49411604
173	0x395bcbe0	0.00020961417
174	0xbf8d3ced	-1.1034218
175	0x3eb7b331	0.358789
176	0x3fcb8ad9	1.5901748
177	0x3fc78f70	1.5590649
178	0xbeebff1e	-0.46093076
179	0xbf9ecaa1	-1.2405587
180	0xbfbb53bf	-1.4634932
181	0xbe9ca5fa	-0.3059538
182	0xbf4d2391	-0.80132395
183	0xbf5c261c	-0.8599565
184	0x3f8a2925	1.0793806
185	0x3e760bb7	0.24027906
186	0x3f3cdecf	0.7377748
187	0xbe7c5342	-0.24641135
188	0xbfabd1a9	-1.3423358
189	0xbff9f441	-1.9527665
190	0x3f3d6ce9	0.7399431
191	0x3f372661	0.71542937
192	0xc0460e50	-3.0946236
193	0xbf384b92	-0.7199031
194	0xbf81d5bc	-1.0143352
195	0xc0111f45	-2.2675335
196	0x3f00be62	0.502905
197	0x3fd34927	1.6506699
198	0x3cb2d702	0.02183104
199	0x3d1de909	0.038552318
200	0xbf4bf444	-0.79669595
201	0x3f88ee90	1.0697803
202	0x3ecac46d	0.39602986
203	0xbf4ea55c	-0.8072107
204	0x3fa899c6	1.3171928
205	0x3f84403d	1.0332104
206	0x3dcdc9d0	0.10048258
207	0xbecfadf0	-0.4056239
208	0x3f0623c1	0.52398306
209	0x3fa8d42b	1.3189749
210	0x3e893507	0.2679827
211	0x3ee2fb24	0.4433223
212	0x3eeba32c	0.46022928
213	0xbe5b396d	-0.21408625
214	0x3f16b710	0.5887308
215	0x3f8ea708	1.1144724
216	0xbf84e4ed	-1.0382363
217	0xbe2bfe3b	-0.167962
218	0x3d0e38c1	0.034722093
219	0xc02084c9	-2.5081046
220	0xbfb331bc	-1.3999553
221	0xbd380795	-0.044929106
222	0x3e56cce7	0.20976602
223	0x3ea86893	0.32892284
224	0xbea49591	-0.3214536
225	0x3f0fd147	0.56178707
226	0x3e2a7c59	0.16648997
227	0xbf620394	-0.8828671
228	0x3e75bb4b	0.23997228
229	0xbeb0abb3	-0.34505996
230	0xc0321b5a	-2.7829194
231	0x3f4dc930	0.8038511
232	0x3fb237b1	1.3923246
233	0xbfa4cee4	-1.2875638
234	0xbf299ed2	-0.66257966
235	0xbf8b708f	-1.0893725
236	0xbeee82a4	-0.46584046
237	0xbf8c8541	-1.0978166
238	0xbf8b5f86	-1.0888526
239	0xbf5d2162	-0.86379063
240	0x3f4b37bc	0.7938192
241	0x3fc82612	1.5636618
242	0x3e3395ea	0.17537656
243	0x3f8ce1ae	1.1006372
244	0xbe802a48	-0.25032258
245	0xc01d7adf	-2.4606245
246	0x3eb313e4	0.34976113
247	0xbe65aaa5	-0.22428377
248	0xbbdc4038	-0.0067215227
249	0xc00303ba	-2.0471025
250	0xbe9299fd	-0.2863311
251	0x3d88585f	0.066574804
252	0xbe16fb8a	-0.14744392
253	0x3ebc1962	0.36738116
254	0xbfc30394	-1.5235467
255	0xbf7cf7b8	-0.9881549

conv2.bias f4 [10]
0	0xbe81fa6b	-0.25386366
1	0x3f89ee8f	1.0775927
2	0x3d8f7805	0.07005314
3	0xbd9b3f4d	-0.07580433
4	0x3fe57482	1.792618
5	0x401e5147	2.4737108
6	0x3ecb25c3	0.39677247
7	0x3edd5eec	0.43236482
8	0xbd3d0e1b	-0.04615603
9	0x3f83e244	1.0303426

conv3.weight f4 [10, 10, 3, 3]
0	0xbcada703	-0.021197801
1	0x3e02ebc1	0.12785245
2	0xbdcdd6bc	-0.10050723
3	0xbd0afb84	-0.03393127
4	0x3dda84b8	0.10669845
5	0x3d2c3d3a	0.042050578
6	0x3e2a98b4	0.16659814
7	0x3d957722	0.072981134
8	0xbc8a5e86	-0.016890775
9	0xbfb9daab	-1.4519857
10	0xbee60fb3	-0.44933853
11	0xbdc68137	-0.096926145
12	0xbfa3a0e4	-1.2783475
13	0x3e9b0d9d	0.30283824
14	0xbd3d543b	-0.046222907
15	0xbf3b16bd	-0.7308157
16	0x3f0fc74f	0.56163496
17	0x3fc1d957	1.5144452
18	0xbeae7f8e	-0.34081692
19	0xbeed9cb2	-0.46408612
20	0x3f9c3634	1.2204041
21	0x3e8b3963	0.2719222
22	0x3eba1f66	0.3635208
23	0x4001e6b3	2.0297058
24	0x3eb80edd	0.3594884
25	0x3f569e0a	0.838349
26	0x3fe18f8f	1.7621936
27	0x3bfe31b2	0.007757389
28	0x3cfdfdd7	0.03100483
29	0xbcd388c6	-0.025822055
30	0xbc92351d	-0.017847592
31	0x3dd58438	0.10425609
32	0xbdbf1d1f	-0.09331726
33	0x3d11384f	0.03545409
34	0x3dcc63eb	0.09979995
35	0x3de7eeaa	0.113248184
36	0xbf4443e2	-0.7666608
37	0xbfd30954	-1.6487222
38	0x3dcf3f25	0.10119466
39	0x3f0f443c	0.5596349
40	0x3fb69ce6	1.4266632
41	0x3fa9831b	1.3243135
42	0x3eb6c9bf	0.35700795
43	0x3f6e1899	0.93006283
44	0x3f8dace3	1.1068386
45	0x3e6d2b88	0.23161137
46	0x3edb9d6d	0.42893544
47	0x3e587e73	0.21141987
48	0x3f3cc098	0.73731375
49	0xbdf28cfa	-0.118432954
50	0x3ea9e70d	0.3318409
51	0x3f1912aa	0.59794104
52	0xbdded6ce	-0.108808145
53	0x3ee494fb	0.44644913
54	0xbeb53e41	-0.35399058
55	0xbe87ce5d	-0.2652463
56	0x3f2ca6fd	0.67442304
57	0xbdc321e6	-0.0952795
58	0xbecff8a6	-0.4061939
59	0x3f83eff9	1.0307609
60	0xbf0dabb7	-0.5534014
61	0x3e2f0868	0.1709305
62	0x3f80644e	1.003061
63	0xbfcac6ae	-1.5841882
64	0xbfd4ca4e	-1.6624238
65	0xbe5741fc	-0.21021265
66	0xbf86f731	-1.0544187
67	0xbf0e1202	-0.5549623
68	0x3f2aec98	0.66767263
69	0x3ed179f7	0.40913364
70	0x3fb632f2	1.4234297
71	0x3d28da55	0.041223843
72	0xbcf675df	-0.030085502
73	0xbe1705a5	-0.14748247
74	0xbddaa57a	-0.106760934
75	0x3dc57983	0.09642317
76	0x3bf66978	0.007519897
77	0xbd8c33a0	-0.06845784
78	0x3e4c52e3	0.19953494
79	0x3c845a9b	0.016156485
80	0x3e3d058f	0.18459152
81	0x3e76fa77	0.24118982
82	0x3f4ab89e	0.79187953
83	0x3f24798c	0.64247966
84	0x3fd4487a	1.6584618
85	0x3fe0828c	1.753984
86	0x3ee72beb	0.45150694
87	0x400098fe	2.009338
88	0x3facebc1	1.3509446
89	0x3f9286d2	1.1447394
90	0x3d304011	0.04302985
91	0x3d8f3d73	0.069941424
92	0xbd3cce8a	-0.04609541
93	0x3d7d99f3	0.061914396
94	0xbd3881ad	-0.045045543
95	0x3dfdc3ae	0.123908386
96	0xbd2cbccc	-0.04217224
97	0xbbde6835	-0.006787325
98	0xbdda0672	-0.106457606
99	0x3c9df2dd	0.019280845
100	0xbdc1ab05	-0.094564475
101	0xbc8faba5	-0.017537901
102	0xbd9913c6	-0.074744746
103	0xbdcb6ec0	-0.09933233
104	0xbd4f8d1d	-0.050671685
105	0xbabe468f	-0.0014516878
106	0xbd3c9934	-0.046044543
107	0x3cd7fbb4	0.026365139
108	0x3c284330	0.010269925
109	0xbd095686	-0.03352978
110	0x3c61d40d	0.013783467
111	0xbdcbed29	-0.09957344
112	0xbcd2c803	-0.025730139
113	0x3dd54783	0.104140304
114	0x3da5e253	0.080998085
115	0xbcf597fb	-0.029979696
116	0xbba7fee8	-0.0051268227
117	0x3cfc94b4	0.030832626
118	0x3c21117d	0.00983083
119	0xbde87ac1	-0.113515384
120	0x3d053464	0.032520667
121	0xbde72629	-0.11286575
122	0xbdf38f4c	-0.11892566
123	0x3dc4572c	0.09586939
124	0xbdd4de8c	-0.1039401
125	0x3d80c2b1	0.062871344
126	0xbca936f3	-0.020656085
127	0x3c2aa8b9	0.010416203
128	0xbe1ce500	-0.15321732
129	0x3d2636a2	0.040579446
130	0xbcdc24c1	-0.026872994
131	0x3c587cd2	0.013213353
132	0xbd898f4b	-0.06716784
133	0xbc235e70	-0.009971246
134	0xbd9ab0a0	-0.0755322
135	0x3d83307a	0.064057305
136	0xbe0dd4ab	-0.13850658
137	0xbd915c34	-0.070976645
138	0xbd26172b	-0.04054944
139	0xbde2b853	-0.11070313
140	0xbbec59c3	-0.007212849
141	0x3daf4555	0.08558146
142	0xbdf06ddd	-0.11739705
143	0xbdd5bf37	-0.10436862
144	0xbd1c1d57	-0.03811392
145	0xbd5aa280	-0.05337763
146	0xbb5716a0	-0.0032819882
147	0xbd100588	-0.035161525
148	0xbba9b14d	-0.0051786066
149	0x3d197b3f	0.037471052
150	0xbd778143	-0.060426008
151	0xbd176a77	-0.036966767
152	0x3c87358a	0.016505022
153	0xbdbee5d5	-0.09321181
154	0xbd816cf2	-0.06319608
155	0xbb1938ba	-0.002337976
156	0xbd234e37	-0.039869513
157	0xbdc9da15	-0.09856049
158	0xbe022974	-0.12711126
159	0xbd0790bf	-0.033097025
160	0xbdef410d	-0.11682329
161	0xbe1b3634	-0.15157396
162	0x3e10442e	0.14088508
163	0x3cc170fc	0.023613445
164	0x3db20ed7	0.08694237
165	0x3c8bb2c7	0.017053021
166	0x3e05e372	0.13075045
167	0x3cb6c963	0.022312826
168	0x3cdff57a	0.027338732
169	0x3deacdef	0.1146506
170	0x3d1a2a24	0.037637845
171	0xbd2474f1	-0.040150587
172	0xbdfea030	-0.12432897
173	0xbd4d0483	-0.05005313
174	0x3d0949cc	0.033517644
175	0xbdde80f6	-0.10864441
176	0xbd0e9df7	-0.034818616
177	0x3d4c287d	0.0498433
178	0xbe068dc7	-0.13140021
179	0xbd8e432c	-0.06946406
180	0x3d96f55e	0.07371019
181	0x3caf7cef	0.021421878
182	0x3c9b5177	0.018959744
183	0x3c3d4c71	0.01155387
184	0x3d86e53e	0.06586693
185	0xbc56c0c9	-0.013107487
186	0x3da10429	0.078621216
187	0xbdf53d18	-0.11974543
188	0xbda19094	-0.07888904
189	0x3ee9a5c8	0.45634294
190	0x3d11fe16	0.035642706
191	0x3f8df958	1.1091719
192	0xbf1c792f	-0.6112241
193	0xbf079f1c	-0.52977157
194	0xbecb406d	-0.3969759
195	0xbde57725	-0.11204366
196	0xbeb98943	-0.36237535
197	0xbf1b8141	-0.607441
198	0xbeed5095	-0.46350542
199	0xbf8df668	-1.1090822
200	0xbfb7c83b	-1.435798
201	0xbf81be80	-1.0136261
202	0xbf3c9a5c	-0.73673034
203	0xbf8ddb05	-1.1082464
204	0xc00494ab	-2.071574
205	0xbf49b31a	-0.7878891
206	0xbf0209c1	-0.50796133
207	0x3d3dbbaa	0.04632155
208	0xbce69c08	-0.028150573
209	0xbdcd0dbc	-0.10012385
210	0x3c8ba775	0.017047623
211	0xbb239f7b	-0.0024966884
212	0x3db178c8	0.08665615
213	0x3d3876bf	0.04503512
214	0x3ccb3105	0.024803648
215	0xbdb4d825	-0.08830289
216	0x3e7b3ed6	0.24535689
217	0x3ea2f537	0.3182771
218	0x3f77def4	0.96824574
219	0xbee7968e	-0.45232052
220	0xbf0f1f1e	-0.55906856
221	0xbe875c67	-0.26437685
222	0xbfa8c8df	-1.3186301
223	0xbf7328fc	-0.9498441
224	0xbf2741c3	-0.6533472
225	0xbe9f8aad	-0.3116049
226	0xbe0ac05a	-0.13549939
227	0x3f03acb3	0.51435393
228	0x3e4c1cd1	0.19932868
229	0x3f0873c1	0.53301626
230	0x3f86a86d	1.052015
231	0x3f956d24	1.1673932
232	0x3fcbda66	1.5926025
233	0x3f2fa0f5	0.68604976
234	0x3e244bd2	0.16044548
235	0x3e06f06b	0.1317765
236	0x3f830dcb	1.0238584
237	0x3e19b458	0.15010202
238	0x3eaae1d9	0.33375433
239	0x3fbb6260	1.4639397
240	0x3f106d19	0.5641647
241	0x3ed2fe32	0.4120956
242	0x3f6bcd9d	0.92110616
243	0x3f023774	0.50865865
244	0x3f734967	0.9503388
245	0x3e295d84	0.1653958
246	0x3eba5147	0.36390135
247	0xbef3ed14	-0.47641814
248	0xbed6bded	-0.41941777
249	0xbfa832ab	-1.3140463
250	0xbfcd7314	-1.6050744
251	0xbf9c7913	-1.2224449
252	0x3d912b59	0.07088346
253	0xbc33a2cb	-0.010964106
254	0x3d03a4b2	0.032139488
255	0x3cdd63fe	0.027025219

conv3.bias f4 [10]
0	0xbfbaa1cf	-1.458063
1	0xbda3abaa	-0.07991727
2	0x3fb5ad3b	1.4193491
3	0xbdc2c4e1	-0.09510208
4	0xbbac90a6	-0.005266267
5	0x3c3f9b85	0.011694794
6	0xbdbe248b	-0.09284314
7	0xbdd4917d	-0.10379312
8	0xbd75a7ff	-0.059974667
9	0x408dceb5	4.431483

conv4.weight f4 [10, 10, 3, 3]
0	0xbf47ed4f	-0.7809648
1	0xbed1fcfc	-0.41013324
2	0xbec03479	-0.37540033
3	0xbf42f8a9	-0.76160675
4	0xbf8c4475	-1.0958391
5	0xbf0d62f5	-0.5522912
6	0x3f121051	0.57056147
7	0xbfee7cc1	-1.8631822
8	0xbfbb0040	-1.4609451
9	0xbdaf4cda	-0.0855958
10	0x3d206f64	0.03916873
11	0xbd5672b0	-0.05235547
12	0x3d741158	0.059586853
13	0x3d8a731a	0.06760235
14	0x3dac5d45	0.08416227
15	0xbc910e5d	-0.017707044
16	0x3ce403f1	0.02783391
17	0x3da5da11	0.080982335
18	0x3beb12c8	0.0071738698
19	0xbe51049a	-0.20411912
20	0xbe8765e6	-0.2644493
21	0xbf49997d	-0.7874983
22	0xbe0abb40	-0.13547993
23	0x3f4e2774	0.8052895
24	0xbfca07e3	-1.5783657
25	0x3eca7f2c	0.3955015
26	0x3fcba952	1.5911047
27	0xbc657d24	-0.014006887
28	0xbd02a0bd	-0.031891573
29	0xbdcc0072	-0.099610224
30	0x3e10cc70	0.14140487
31	0xbd90c51a	-0.07068844
32	0x3ca9c18b	0.020722171
33	0x3db861d6	0.09003036
34	0x3dc1c5c5	0.0946155
35	0xbd85accd	-0.065271
36	0x3ce9732d	0.028497303
37	0x3d74d6c7	0.05977514
38	0x3ca07b39	0.019590007
39	0x3dd831cf	0.10556375
40	0x3c011c82	0.007880332
41	0x3c9bc459	0.019014524
42	0x3de5ff61	0.1123035
43	0x3c3ec560	0.011643738
44	0xbcfc40ce	-0.03079262
45	0x3d5678cb	0.05236129
46	0xbd028237	-0.031862464
47	0xbd5b6dc0	-0.053571463
48	0xbd2b7daa	-0.04186789
49	0x3d5aa8df	0.053383704
50	0x3e01639c	0.12635654
51	0xbdd1af48	-0.1023851
52	0xbd1bb986	-0.038018726
53	0xbd988d34	-0.07448807
54	0x3d7c7d68	0.061643034
55	0x3b98e2aa	0.0046656923
56	0xbc81478b	-0.015781185
57	0xbd74cfac	-0.059768364
58	0x3cfca2a0	0.030839264
59	0x3e00de81	0.12584879
60	0xbd4b4418	-0.049625486
61	0xbd497863	-0.049187075
62	0xbd16dbdf	-0.03683078
63	0x3c6b4489	0.014359602
64	0x3d2c0853	0.042000126
65	0x3d6b4959	0.057442997
66	0xbdf7bd71	-0.1209668
67	0x3d19455d	0.037419666
68	0x3defbecd	0.11706314
69	0x3e0ea858	0.13931406
70	0xbce5bdc2	-0.028044585
71	0xbdef171e	-0.11674331
72	0xbdb0bb76	-0.08629505
73	0x3d285783	0.041099083
74	0x3ce38029	0.027771072
75	0xbd771f36	-0.0603325
76	0xbe28bbf8	-0.16477954
77	0x3d5e989f	0.05434477
78	0xbc8c79bb	-0.01714789
79	0x3cae1379	0.02124952
80	0xbdc15ab8	-0.09441131
81	0xbf0f2f4e	-0.55931556
82	0xbf56f6c7	-0.839703
83	0xbf8c70a1	-1.0971872
84	0x3f9c0612	1.2189353
85	0xbbebe6b3	-0.0071991323
86	0xbf835637	-1.0260686
87	0x3fa9aec6	1.3256462
88	0x3f38a28a	0.72123015
89	0x3e60a3a4	0.21937424
90	0x3f83b421	1.0289346
91	0x3eb5e32e	0.35524887
92	0x3fa2ce0b	1.2719129
93	0xbdef0bc5	-0.11672167
94	0x3f0856eb	0.53257626
95	0xbe463f54	-0.19360095
96	0xc00d7765	-2.2104123
97	0xbf5a7f6d	-0.85350686
98	0xc02145cb	-2.5198848
99	0x3dbda92f	0.09260785
100	0xbcc4523e	-0.023964997
101	0x3d8cf6f0	0.06883037
102	0xbca4f7d6	-0.020137709
103	0x3d12e19b	0.035859685
104	0x3ca34514	0.0199304
105	0xbd6ce8e4	-0.05783929
106	0x3da5c1b0	0.080935836
107	0xbdde04eb	-0.10840782
108	0x3e38a091	0.18030001
109	0x3dabbb14	0.08385292
110	0x3e8b8f1f	0.2725763
111	0xbf59bd0b	-0.8505408
112	0x3dbdc77b	0.092665635
113	0x3edf31be	0.43592638
114	0xbe57c16e	-0.21069881
115	0xbf21f7e6	-0.6326889
116	0x3f126870	0.5719061
117	0x3d943024	0.072357446
118	0x3d38a070	0.04507488
119	0xbd61d1ac	-0.0551316
120	0xbdcb3c60	-0.09923625
121	0x3e14ff44	0.14550501
122	0xbe5cd382	-0.21565059
123	0x3d83abe6	0.064292714
124	0x3d6d6f18	0.057967275
125	0xbcdcb079	-0.026939617
126	0xbd277e8e	-0.040892176
127	0xbdd6ba17	-0.104847126
128	0x3da5fc41	0.08104754
129	0x3dfb9b1a	0.12285443
130	0xbd992ee2	-0.07479645
131	0x3d2edf4a	0.042693414
132	0x3c48b635	0.012250473
133	0x3b31ead8	0.0027148034
134	0xbd3fee21	-0.046857957
135	0xbda0edaa	-0.07857831
136	0x3d0c6bd5	0.034282524
137	0xbdd3cb99	-0.103415675
138	0xbd658888	-0.05603841
139	0xbd89f7b3	-0.06736698
140	0x3d93447c	0.07190797
141	0x3c4a0e8a	0.012332568
142	0x3c2d9503	0.010594609
143	0xbbde8349	-0.0067905528
144	0x3dd5a0a4	0.104310304
145	0x3ca5dc61	0.020246686
146	0x3cb6105c	0.022224598
147	0x3d2e8c76	0.042614423
148	0x3c943efd	0.018096441
149	0xbcea5d94	-0.028609075
150	0xbdd8f1f7	-0.10593026
151	0x3d195a08	0.037439376
152	0xbdd0e017	-0.10198992
153	0xbdb7f351	-0.08981956
154	0xbd2ad04f	-0.041702565
155	0x3dc41cb9	0.09575791
156	0x3b4e72d2	0.0031501544
157	0xbda0d713	-0.07853522
158	0x3d7b285d	0.06131779
159	0x3da02898	0.07820243
160	0xbda4546d	-0.080239154
161	0xbde49a99	-0.111623
162	0x3cc2ab9d	0.023763472
163	0xbd12beee	-0.035826616
164	0x3cb7bb04	0.022428043
165	0xbc881a2b	-0.01661404
166	0x3c946e83	0.018119102
167	0xbd76e236	-0.060274325
168	0x3dc4a7af	0.096022956
169	0xbe159783	-0.14608578
170	0xbe631f73	-0.22179966
171	0xbfa0cb30	-1.2562008
172	0xbf40632f	-0.7515134
173	0xbf2332cd	-0.6374939
174	0xbd43475c	-0.047675475
175	0x3e8592cb	0.26088557
176	0x3f63c1ba	0.8896748
177	0x3f940788	1.1564798
178	0x3f350882	0.70716107
179	0x3baaefdc	0.0052165817
180	0xbc8fb775	-0.017543534
181	0x3f90ec8f	1.1322192
182	0x3ef7e340	0.48415565
183	0x3f6f1f3d	0.9340704
184	0x3f8e6490	1.1124439
185	0x3fbcb2ea	1.47421
186	0x3e3e947a	0.18611327
187	0xbeaf4705	-0.3423387
188	0xbf179c9e	-0.59223354
189	0xbc8a1dcf	-0.016859917
190	0xbdba70ea	-0.09103568
191	0xbd4a82be	-0.04944109
192	0xbe1416d5	-0.14461835
193	0x3db3ab65	0.08772925
194	0x3d380290	0.04492432
195	0xbddfba17	-0.10924166
196	0xbd0571e9	-0.032579336
197	0x3d821cc8	0.06353146
198	0xbf699f23	-0.9125845
199	0xbf27d99a	-0.6556641
200	0xbf566c2f	-0.83758825
201	0xbea25085	-0.31702057
202	0xbfc1f40a	-1.51526
203	0x3d983731	0.07432402
204	0xbfd642c1	-1.6739122
205	0xbf3cbf26	-0.7372917
206	0x3f97dbfc	1.1864009
207	0x3dec2e33	0.11532249
208	0xbd85b41d	-0.065284945
209	0xbd058e33	-0.032606315
210	0xbba9200d	-0.0051612915
211	0x3d727926	0.059197567
212	0x3d5665c5	0.05234315
213	0xbc9f85b4	-0.019472934
214	0x3e119087	0.14215289
215	0x3dd515f8	0.10404581
216	0x3d0cbfb0	0.034362495
217	0x3dd1dc2e	0.10247074
218	0x3db79db5	0.08965627
219	0xbd37264a	-0.04471425
220	0x3df850be	0.12124775
221	0xba1a06d4	-0.0005875651
222	0xbda93e58	-0.08263844
223	0xbd21a807	-0.039466884
224	0xbc2700ff	-0.010193109
225	0xbd804959	-0.0626399
226	0xbd9d0098	-0.07666129
227	0x3dedf2f5	0.11618606
228	0x3a2c3b14	0.00065700826
229	0x3b6f15ea	0.0036481568
230	0x3cba5f6f	0.022750584
231	0xbcb7cb92	-0.022435937
232	0x3d91ef5e	0.07125734
233	0x3dfcb260	0.1233871
234	0x3d787694	0.06065996
235	0x3d5193f2	0.051166482
236	0xbdf38e84	-0.11892417
237	0xbd234c46	-0.039867662
238	0xbdae1183	-0.08499434
239	0xbd6ecc6f	-0.05830043
240	0x3db20108	0.08691603
241	0xbd2c4db6	-0.0420663
242	0xbcf190c2	-0.029487971
243	0x3b4387e8	0.0029835645
244	0x3c636c76	0.01388084
245	0x3d95b75e	0.07310365
246	0x3c4c40c5	0.012466614
247	0xbc03f29a	-0.008053446
248	0xbaf20d82	-0.001846716
249	0x3b523398	0.003207421
250	0xbc2d273d	-0.010568437
251	0xbd9b50c8	-0.07583767
252	0xbc31b174	-0.010845531
253	0x3bb0566d	0.0053813965
254	0x3de625df	0.11237692
255	0x3d50664b	0.050878804

conv4.bias f4 [10]
0	0x3e33f9d6	0.17575774
1	0x3e965022	0.2935801
2	0xbd76aa17	-0.060220804
3	0xbdc8182b	-0.09770235
4	0xbe88793b	-0.26654992
5	0xbdc36a2c	-0.09541735
6	0xbedde974	-0.43342173
7	0x3e93908a	0.28821212
8	0xbed3337b	-0.41250214
9	0x3e500bcb	0.20316999

norm.weight f4 [10]
0	0x3ec69a68	0.38789678
1	0x3e5fb947	0.21848021
2	0x3e4b4f2a	0.19854417
3	0x3e395a91	0.18100955
4	0x3e005686	0.12533006
5	0x3e73c513	0.23805647
6	0x3ed0cc5b	0.4078091
7	0x3e73e4da	0.23817769
8	0x3e8d2324	0.27565873
9	0x3e2f8e31	0.17144085

norm.bias f4 [10]
0	0xbed9d6ce	-0.42546695
1	0xbe8194b1	-0.25308755
2	0xbea06b20	-0.3133173
3	0xbe3c5e59	-0.18395366
4	0xbdde23c0	-0.108466625
5	0xbe6c7ac3	-0.23093705
6	0xbecb0e20	-0.39659214
7	0xbe48d942	-0.19614127
8	0xbe8320a1	-0.2561083
9	0xbe1163f2	-0.14198282

norm.running_mean f4 [10]
0	0xc3aa33f2	-340.40582
1	0xc2f5d409	-122.91413
2	0xc30d1d4b	-141.11443
3	0xc387ef11	-271.8677
4	0x4273949a	60.89512
5	0xc347ece3	-199.92534
6	0xc3fcb3ca	-505.4046
7	0xc3a1c3a3	-323.5284
8	0xc3ab24d7	-342.2878
9	0x415f252b	13.946574

norm.running_var f4 [10]
0	0x47126303	37475.01
1	0x46b1b3f1	22745.97
2	0x4721c949	41417.285
3	0x47412685	49446.52
4	0x466b6ea2	15067.658
5	0x4695af2a	19159.582
6	0x47477fb5	51071.707
7	0x46d180c1	26816.377
8	0x4765b4a8	58804.656
9	0x46e57dc0	29374.875

fc1.weight f4 [50, 810]
0	0xbede0aab	-0.43367514
1	0xbf47ce49	-0.7804914
2	0xbfc62672	-1.5480483
3	0xbfea4c30	-1.83045
4	0xbf8277c1	-1.0192796
5	0xbf00532b	-0.50126904
6	0x3c1e8a31	0.009676502
7	0xbe047cf4	-0.12938291
8	0x3e87280f	0.2639775
9	0xbf9b504c	-1.213388
10	0xbf799bec	-0.9750354
11	0xbfb940ac	-1.4472861
12	0xbf19f24b	-0.60135335
13	0x3eccb62a	0.3998273
14	0xbf19ea0a	-0.6012274
15	0x3f905d01	1.1278383
16	0xbf269bc2	-0.6508142
17	0xbfabf17a	-1.3433068
18	0xbea484c3	-0.3213254
19	0xbe02b15c	-0.1276297
20	0xbf669c7e	-0.9008254
21	0xbdf84e08	-0.12124258
22	0xbf1733eb	-0.59063596
23	0x3ee44f6a	0.44591838
24	0x3d964c98	0.07338828
25	0xbf374f21	-0.71605116
26	0xbf81b6f7	-1.0133961
27	0x3e67aa70	0.2262361
28	0x3f7b683a	0.9820591
29	0x3e9316c3	0.28728303
30	0x3fb00b2f	1.3753413
31	0x3f105516	0.5637983
32	0x3f2c8964	0.6739714
33	0xbf706a85	-0.93912536
34	0xbf29c7d3	-0.6632053
35	0x3e0dd804	0.13851935
36	0xbd93b038	-0.072113454
37	0xbf2275e2	-0.63461125
38	0x3f0db907	0.55360454
39	0xbe9c0893	-0.30475292
40	0x3dc96b10	0.09834874
41	0x3d1f0cfa	0.038830735
42	0xbe757174	-0.2396906
43	0x3e5186a0	0.20461512
44	0xbedf95c6	-0.43668956
45	0xbf028e65	-0.50998527
46	0xbf9fcbc6	-1.2484062
47	0xbd934fd0	-0.071929574
48	0xbf1d85be	-0.615322
49	0xbfb3a97e	-1.40361
50	0xc0215f28	-2.5214329
51	0xbff030c1	-1.8764879
52	0xbf808f45	-1.0043722
53	0x3ebdd1d2	0.37074143
54	0xbee02da7	-0.4378483
55	0xbfbd322c	-1.4780936
56	0x3dc1eb8e	0.094687566
57	0xbf8beb97	-1.0931271
58	0xbf5fb5b1	-0.87386614
59	0xbf3d418b	-0.73928136
60	0xbfe2c845	-1.7717367
61	0x3e070d63	0.131887
62	0xbca41a20	-0.020031989
63	0xbe66e06c	-0.22546548
64	0xbf8cdf31	-1.1005613
65	0xbf0ddd1f	-0.5541553
66	0xc0100d21	-2.2508013
67	0xbf698d4a	-0.91231215
68	0xbfe82b3d	-1.8138195
69	0xc032fbc6	-2.796617
70	0x3f262d58	0.6491294
71	0xbf092d0e	-0.53584373
72	0xbd8480eb	-0.06469902
73	0xc0314f15	-2.7704518
74	0xbece69d3	-0.40315112
75	0xbfbf5b6f	-1.4949778
76	0x3ed1ff9f	0.41015336
77	0xbfcd96eb	-1.6061682
78	0xbf93faae	-1.1560876
79	0xbc6d9a79	-0.014502161
80	0xbe894c9d	-0.26816264
81	0x3d22a0e9	0.039704237
82	0x3f5627e6	0.8365463
83	0xbf7f1d70	-0.99654293
84	0xbeb0c5d9	-0.34525946
85	0xbfa1b837	-1.2634343
86	0x3f11a96c	0.5689914
87	0x3f8d7049	1.1049892
88	0xbe3ed9e4	-0.18637806
89	0x3f4f9126	0.81080854
90	0xbe600ea3	-0.21880583
91	0x3f4f32c5	0.80936843
92	0xbf9705d8	-1.1798658
93	0xbe850987	-0.2598383
94	0xbe35f376	-0.17768654
95	0xbf4334c9	-0.7625242
96	0x3e9636f7	0.2933881
97	0x3e79db5d	0.24400087
98	0x3f6a2b7c	0.914726
99	0x3f98ff8b	1.1952986
100	0x3e2a9600	0.16658783
101	0x3c0d606d	0.008628947
102	0x3ea552bc	0.32289684
103	0x3f785b07	0.97013897
104	0x3eac4563	0.33646688
105	0xbcc2a4dc	-0.023760252
106	0x3d5347c4	0.051582113
107	0x3d7635c9	0.060109887
108	0xbe08f490	-0.13374543
109	0x3e093c10	0.13401818
110	0x3d1f33ea	0.03886787
111	0x3e37e242	0.17957404
112	0xbe52f219	-0.20600165
113	0xbeafbdf3	-0.34324607
114	0xbcd51422	-0.026010577
115	0x3c2d5307	0.010578877
116	0x3dbec4c4	0.09314874
117	0xbf3da75d	-0.740835
118	0x3f157746	0.5838512
119	0x3e0b9ae7	0.1363331
120	0xbfe9b632	-1.8258727
121	0xbfa2fb31	-1.2732908
122	0x3ea9f6a2	0.33195978
123	0x3f4db039	0.8034702
124	0x3f5c9faf	0.8618116
125	0xbe06469e	-0.13112876
126	0x3f835342	1.0259783
127	0xbe59ffd1	-0.21288992
128	0xc0199e10	-2.4002724
129	0xc0137ec4	-2.3046122
130	0xbef88f28	-0.4854672
131	0xbe3c6990	-0.18399644
132	0xbdda0d04	-0.10647014
133	0x3f247e31	0.6425505
134	0x3f9eacd6	1.2396495
135	0xbf60cbee	-0.8781117
136	0x3da343c3	0.07971909
137	0x3ee02782	0.43780142
138	0xbfd729e4	-1.6809659
139	0xbe8cc55d	-0.27494326
140	0xbefd701c	-0.49499595
141	0xbef6dd79	-0.48215845
142	0x3f4d2d36	0.8014711
143	0x3f9186fa	1.1369317
144	0xbe31abc5	-0.17350681
145	0xbf54c959	-0.8311973
146	0xbf1706b3	-0.589946
147	0xbfc21633	-1.5163025
148	0xbf9206a7	-1.140828
149	0xbf6d8dbe	-0.92794406
150	0xbf8db906	-1.107209
151	0xbfec9756	-1.8483684
152	0xbf048014	-0.5175793
153	0x3ea4a1ce	0.32154697
154	0xbf822684	-1.0168004
155	0xbf4f9f43	-0.8110239
156	0xbff40e53	-1.9066871
157	0xc016a800	-2.354004
158	0xbe01ed39	-0.1268815
159	0xbf014c97	-0.5050749
160	0xbe9940e9	-0.29932335
161	0x3f1f41c9	0.62209755
162	0xbfb4cae0	-1.4124413
163	0xbea5918b	-0.32337603
164	0xbf241521	-0.6409474
165	0xbc69782e	-0.0142498445
166	0xbf24ae21	-0.643282
167	0xc0023da3	-2.035012
168	0xbeaf2a2a	-0.34211856
169	0x3f1ce554	0.61287427
170	0x3f829fdb	1.0205034
171	0x3e889773	0.26678047
172	0xbd365f2a	-0.04452435
173	0xbf836383	-1.0264744
174	0xbeb856be	-0.3600368
175	0xc01298de	-2.2905803
176	0xc00513df	-2.0793378
177	0xbec6dd60	-0.3884077
178	0xbe7969a0	-0.24356699
179	0xbf232962	-0.6373502
180	0x3e8a9cb9	0.27072695
181	0xbf09e626	-0.53866804
182	0xbf30d33b	-0.6907231
183	0xc0026e1b	-2.0379703
184	0xbf0cd8d4	-0.55018353
185	0x3f01bd53	0.5067951
186	0x3e8a7bfb	0.27047715
187	0xbf025ab5	-0.5091966
188	0x3f1dc5db	0.6163003
189	0xbee30d44	-0.44346058
190	0xbee1084b	-0.4395164
191	0xbf0c5526	-0.54817426
192	0x3fde107e	1.7348783
193	0x3f630d62	0.88692296
194	0x3e33cb86	0.17558107
195	0xbe8d488c	-0.2759441
196	0x3df65ced	0.12029443
197	0x3e4951ce	0.19660112
198	0xbe36d150	-0.17853284
199	0x3f063210	0.5242014
200	0xbecab17c	-0.39588535
201	0x3f24a4e8	0.64314127
202	0x3c2e812c	0.010650914
203	0xbfce3d2b	-1.6112417
204	0x3f8ea88b	1.1145185
205	0xbf73fa3e	-0.95303714
206	0xbf8694ee	-1.05142
207	0xbf87be2d	-1.0604912
208	0x3f527638	0.8221164
209	0x3dda54ad	0.10660682
210	0xbf32588e	-0.69666374
211	0xbfe4afa7	-1.7866105
212	0xbefa3eec	-0.4887613
213	0xbebfa2ab	-0.37428793
214	0xbf5c817f	-0.86135095
215	0x3e38187a	0.17978087
216	0x3e20586e	0.15658733
217	0xbfa6742a	-1.30042
218	0xbe346e54	-0.17620212
219	0xbdb3cbd8	-0.087791145
220	0xbf57e9d8	-0.8434119
221	0xbf920272	-1.1406996
222	0xbf0a5d9a	-0.54049075
223	0xbe91e1ba	-0.28492528
224	0xbf954d4a	-1.1664212
225	0xbe836dfb	-0.25669846
226	0x3e59f05a	0.21283093
227	0x3eb6c8f2	0.35700184
228	0xbeb60b27	-0.35555384
229	0xbe54d30e	-0.20783636
230	0x3e859aea	0.26094753
231	0xbe315865	-0.17318876
232	0x3ef76ae4	0.4832374
233	0xbf095e84	-0.53659844
234	0xbf74a1fe	-0.9555968
235	0xbfe74584	-1.806809
236	0xbe5a2daa	-0.21306482
237	0xbf0af7d0	-0.5428438
238	0x3f872028	1.0556688
239	0xbf819161	-1.0122491
240	0xbfb0e6e3	-1.3820461
241	0x3e96e160	0.29468822
242	0xbea3f6d3	-0.3202425
243	0x3e076663	0.13222651
244	0x3f1a3b5b	0.6024682
245	0x3e98aac3	0.2981778
246	0x3e372634	0.17885667
247	0xbefa0707	-0.48833486
248	0xbcd147ec	-0.02554699
249	0x3ee8dabb	0.45479378
250	0x3f1aafc6	0.6042446
251	0x3f42f330	0.76152325
252	0xbe179a90	-0.14805055
253	0x3ed299a8	0.41132855
254	0x3f34d6b2	0.706401
255	0x3f6e01db	0.9297158

fc1.bias f4 [50]
0	0x3e8bbae5	0.27291027
1	0x3f99029e	1.1953924
2	0xbe5420e7	-0.20715676
3	0x3e7a8c0b	0.24467485
4	0xbda987fc	-0.0827789
5	0x3f5a1ec2	0.8520318
6	0x3e9bf787	0.30462286
7	0xbcd2abfe	-0.025716778
8	0x3f86c0ea	1.0527623
9	0xbd185458	-0.03718981
10	0xbea036a9	-0.31291702
11	0xbe823d0c	-0.254372
12	0xbecc36fe	-0.39885706
13	0x3f8f038d	1.1172959
14	0xbd34cfb5	-0.044143397
15	0x3f5c7885	0.861214
16	0xbda42916	-0.08015649
17	0xbd730536	-0.05933114
18	0xbd2e3896	-0.042534433
19	0xbe913569	-0.2836106
20	0x3fad9c75	1.3563372
21	0x40213739	2.5189955
22	0xbe594425	-0.21217401
23	0xbc7bec3d	-0.015376148
24	0xbe2547ef	-0.16140722
25	0xbf4a47f5	-0.7901605
26	0xbd109910	-0.03530222
27	0x3e8de4c0	0.27713585
28	0x3fd0fd6c	1.6327338
29	0xbe114a45	-0.14188488
30	0xbd8e6539	-0.069529004
31	0xbe480a2a	-0.19535127
32	0x3e8e9865	0.27850643
33	0x401b27f5	2.4243138
34	0xbe4758db	-0.1946749
35	0xbe40212f	-0.18762659
36	0xbe6e5acc	-0.23276824
37	0x3fac0542	1.3439105
38	0xbe47b81f	-0.1950383
39	0xbdefdf89	-0.11712558
40	0xbdd9beba	-0.10632081
41	0x40196986	2.3970656
42	0xbe2e181a	-0.17001382
43	0x3a2d3629	0.0006607497
44	0xbd4706a5	-0.04859032
45	0x3f7b049b	0.980539
46	0x364b28df	3.0273147e-06
47	0x3f7960a0	0.97413063
48	0x3e37945b	0.17927687
49	0x3fea06fc	1.8283381

fc2.weight f4 [7, 50]
0	0xbed0937c	-0.40737522
1	0x3e4c8940	0.19974232
2	0xbd9b2753	-0.0757586
3	0xbe7625d5	-0.2403787
4	0xbdaffd1a	-0.08593197
5	0xbe5de9a7	-0.21671163
6	0xbf6902ea	-0.9102007
7	0xbd2728f5	-0.040810544
8	0xbd986f7f	-0.07443141
9	0xbd557f64	-0.052123442
10	0xbf71884c	-0.943486
11	0xbebb4868	-0.3657868
12	0x3e68fa4a	0.22751728
13	0xbd9a6b29	-0.075399704
14	0xbcd46a9f	-0.025929747
15	0xbc4abc89	-0.012374052
16	0xbda87c0f	-0.08226787
17	0x3a6f922f	0.00091389095
18	0xbd8e9388	-0.06961733
19	0xbd07d297	-0.03315982
20	0xbce0063c	-0.027346723
21	0x3e1d9070	0.1538713
22	0xbe0c59d1	-0.13706137
23	0x3d6643a8	0.056216866
24	0xbd8de3d9	-0.06928224
25	0x3e93a167	0.28834078
26	0xbdc181e9	-0.094486065
27	0xbd90bdc6	-0.070674464
28	0xbe556b13	-0.20841627
29	0x3d1f7849	0.038933072
30	0xbba54a37	-0.0050442475
31	0x3e2c43c8	0.16822731
32	0xbe0ad96e	-0.13559505
33	0x3e6cae5e	0.23113391
34	0xbebb5934	-0.36591494
35	0xbe40faad	-0.18845625
36	0xbe4850e5	-0.19562109
37	0x3e8b523a	0.2721117
38	0xbe074081	-0.132082
39	0xbd6271e9	-0.055284414
40	0x3a29bcf1	0.0006474993
41	0xbdb621d7	-0.08893173
42	0xbf496ebf	-0.7868461
43	0xbd2e5c73	-0.042568635
44	0xbdc089f0	-0.094013095
45	0xbe1e04c1	-0.15431501
46	0x3d9fc33e	0.07800911
47	0x3e4ad9cb	0.19809644
48	0x3e13f476	0.14448723
49	0xbe19e3ae	-0.15028259
50	0xbe8f6e8c	-0.28014028
51	0xbf48036b	-0.78130215
52	0xbda7fce6	-0.082025334
53	0xbf202c68	-0.6256776
54	0x3b838d27	0.0040146294
55	0xbca1f60b	-0.019770643
56	0xbf8e62a0	-1.1123848
57	0x3d99b7b1	0.075057395
58	0x3e42f374	0.19038182
59	0x3c9883f9	0.018617617
60	0xbfe39934	-1.7781129
61	0xbf571078	-0.84009504
62	0xbe1cec5a	-0.15324536
63	0xbe653048	-0.22381699
64	0x3cd7b235	0.026330093
65	0x3cac0b2f	0.021001427
66	0xbd28ea6d	-0.04123919
67	0xbd18540f	-0.03718954
68	0xbbb672b0	-0.005567871
69	0x3db1ebdc	0.08687565
70	0xbe7e1553	-0.24812822
71	0xbde5ad51	-0.11214698
72	0xbd7afb7f	-0.061275
73	0x3ca412fb	0.020028582
74	0x3c867c19	0.016416596
75	0xbe4e9b61	-0.2017646
76	0xbdf00102	-0.11718942
77	0xbe5ba110	-0.21448159
78	0xbe96c7ce	-0.29449314
79	0x3dce1d48	0.10064179
80	0xbd82719f	-0.06369328
81	0x3dd164c4	0.10224298
82	0x3e4749a5	0.19461687
83	0xbee1b904	-0.44086468
84	0xbf8b90e5	-1.0903593
85	0xbc6771f0	-0.014126286
86	0xbc5d9809	-0.013525018
87	0xbeafb55e	-0.3431806
88	0xbe689790	-0.22714067
89	0x3ce02773	0.02736256
90	0xbd87024b	-0.06592234
91	0xbe8da743	-0.27666673
92	0xbf90dac9	-1.1316768
93	0x3d95b873	0.073105715
94	0x3de1e53f	0.11030053
95	0xbdf61199	-0.12015075
96	0x3db7d2d1	0.08975757
97	0x3f208383	0.6270067
98	0xbda2edfe	-0.0795555
99	0x3d418f46	0.047255777
100	0x3eff9962	0.4992171
101	0xbf2c91a6	-0.6740974
102	0xbd0ae9bb	-0.03391431
103	0xbe8b4690	-0.27202272
104	0x3d3a2af0	0.045451105
105	0x3c7cdbba	0.015433246
106	0xbf5a0410	-0.8516245
107	0x3dba9d51	0.09112037
108	0xbd8284a0	-0.063729525
109	0x3d5868d4	0.052834347
110	0x3ec71924	0.38886368
111	0xbe85f0ea	-0.26160365
112	0x3cd926c2	0.026507739
113	0xbeb258ad	-0.3483328
114	0x3d0055f7	0.031331982
115	0x3e7e1ef5	0.24816497
116	0xbdc74d30	-0.09731519
117	0x3c414b4d	0.011797738
118	0xbe004675	-0.12526877
119	0xbe3ddead	-0.18541975
120	0xbd864eee	-0.065580234
121	0x3cc3d848	0.023906842
122	0x3d8167df	0.0631864
123	0xbd15f2d7	-0.036608543
124	0xbe19696b	-0.1498162
125	0x3e613199	0.21991576
126	0xbb5ea023	-0.003396996
127	0xbde2abcf	-0.11067926
128	0xbe31c86f	-0.17361616
129	0x3db33a44	0.08751348
130	0xbe0f7da1	-0.14012767
131	0x3c45e17b	0.0120776845
132	0xbd651e4f	-0.055937108
133	0x3c864183	0.01638866
134	0x3ab36e28	0.0013689445
135	0x3c83e1c9	0.016098874
136	0x3e26787d	0.162569
137	0x3cc9878f	0.024600772
138	0xbe3ef72e	-0.18648979
139	0xbbdeef2f	-0.0068034153
140	0xbd8dc36c	-0.069220394
141	0xbe12d5fa	-0.14339438
142	0xbf01b4d8	-0.5066657
143	0xbd0c96bc	-0.03432344
144	0xbdf975d5	-0.12180678
145	0x3e7e589b	0.24838488
146	0x3ca6b20a	0.020348568
147	0x3c9f6ccd	0.01946106
148	0xbd5685a4	-0.052373543
149	0xbe252be3	-0.16130023
150	0xbecb7067	-0.39734194
151	0xbf0de6d6	-0.5543035
152	0x3d756901	0.059914593
153	0xbf091b1c	-0.5355699
154	0x3da70541	0.08155299
155	0xbe0cdad2	-0.13755348
156	0xbf39b833	-0.7254669
157	0xbbfcf416	-0.007719527
158	0xbe124b89	-0.14286627
159	0x3dd7a162	0.10528828
160	0xbf5f63bd	-0.87261564
161	0x3ec09e51	0.37620786
162	0xbd258e13	-0.040418696
163	0x3e9a6cad	0.30161038
164	0xbc87d820	-0.016582549
165	0xbe2b9a29	-0.16758026
166	0x3c89d1cb	0.01682367
167	0xbc947202	-0.01812077
168	0x3d8ee6e0	0.0697763
169	0x3d64b813	0.05583961
170	0x3e9620fe	0.29322046
171	0xbb1112b4	-0.0022136392
172	0x3c84254a	0.016131062
173	0x3d5efb4e	0.05443888
174	0x3d0f4541	0.034978155
175	0xbd4347b6	-0.04767581
176	0xbd5a9b8a	-0.05337099
177	0x3dd34847	0.1031652
178	0x3e9f7222	0.31141764
179	0xbce06fbf	-0.027397035
180	0x3d8db67f	0.06919574
181	0x3deda8b4	0.11604443
182	0xbe237f43	-0.15966515
183	0xbdadec7e	-0.08492373
184	0xbee77bc5	-0.45211616
185	0x3b75641c	0.0037443703
186	0xbd01e206	-0.031709693
187	0xbeea3f12	-0.45751244
188	0xbe3e0656	-0.18557104
189	0xbd793ec4	-0.060850874
190	0x3de6da6a	0.11272128
191	0x3eb55499	0.35416105
192	0xbdb43b06	-0.0880032
193	0xbd638109	-0.05554298
194	0xbd68f020	-0.056869626
195	0xbd7502ba	-0.059817053
196	0xbd1cb071	-0.038254205
197	0xbe58a25d	-0.21155687
198	0xbf08b2d6	-0.5339788
199	0x3e40e182	0.18836024
200	0xbe8d0575	-0.27543226
201	0xbf22406a	-0.6337954
202	0xbdbb3a66	-0.09141998
203	0xbebd4d49	-0.36973026
204	0x3e0a43f6	0.13502488
205	0xbdec1adf	-0.11528563
206	0xbf05af2b	-0.5222041
207	0xbb3847c8	-0.0028118957
208	0xbdbd3bf2	-0.09239949
209	0xbc94d59d	-0.018168265
210	0xbeafbaa8	-0.34322095
211	0x3e67176b	0.22567527
212	0xbea2237a	-0.3166769
213	0xbe2f0c82	-0.17094615
214	0x3deb94ec	0.11503014
215	0x3e0c5527	0.13704358
216	0xbd2e238f	-0.04251438
217	0xbd4f4bfc	-0.050609574
218	0xbde82df8	-0.11336893
219	0xbe9a6af0	-0.30159712
220	0xbd51a0ae	-0.051178627
221	0x3e7815b0	0.24227023
222	0xbd27077a	-0.040778615
223	0xbd2baa7f	-0.041910645
224	0x3b5cb954	0.00336798
225	0xbe042e36	-0.12908253
226	0xbd4d0828	-0.050056607
227	0x3bb947ef	0.005654327
228	0xbe068a26	-0.13138637
229	0xbdb86751	-0.09004081
230	0xbd1b4be7	-0.037914183
231	0xbcef231b	-0.029191544
232	0x3e90ca42	0.2827931
233	0x3dae8643	0.08521702
234	0xbdafc640	-0.08582735
235	0x3e48a550	0.19594312
236	0x3ccaa8d5	0.024738709
237	0x3d1cfa1b	0.038324457
238	0x3d8c26a2	0.06843306
239	0x3daeaafe	0.08528708
240	0xbb7733b9	-0.0037720038
241	0xbe775fe8	-0.24157679
242	0xbefacee2	-0.48985964
243	0x3cd5b9ed	0.026089633
244	0x3d8b1cbc	0.0679259
245	0xbe58e8c7	-0.21182548
246	0x3c5b9ce4	0.013404105
247	0xbd9032df	-0.07040953
248	0x3cf80a09	0.030278223
249	0xbd0e792a	-0.03478352
250	0xbe357f42	-0.17724326
251	0x3e6d9b78	0.23203838
252	0xbdc2f35c	-0.09519073
253	0x3ed938a7	0.42426035
254	0x3dd080b8	0.10180801
255	0x3eb55f04	0.35424054

fc2.bias f4 [7]
0	0xbe8ea334	-0.2785889
1	0xbfe2c359	-1.7715865
2	0x3d7492f0	0.059710443
3	0x3e2f7f43	0.1713839
4	0x3efdd4fd	0.4957656
5	0xbed13893	-0.40863475
6	0x3e96457a	0.2934988

localization.0.weight f4 [8, 1, 7, 7]
0	0x3d3bac11	0.045818392
1	0xbcae54e0	-0.021280706
2	0x3da00d7d	0.07815073
3	0x3e06e922	0.1317487
4	0x3d50a351	0.050937
5	0x3dde8998	0.10866088
6	0x3e2d8270	0.16944289
7	0x3e3dddf0	0.18541694
8	0x3df4ddd8	0.11956376
9	0x3e7a7ff5	0.24462874
10	0x3ddf6e26	0.10909681
11	0x3e2d88ed	0.16946764
12	0x3e6a35e4	0.2287212
13	0x3c445ecf	0.011985495
14	0xbd069d00	-0.03286457
15	0x3daf0708	0.08546263
16	0x3e52d48a	0.2058889
17	0x3b37e633	0.0028060793
18	0x3e401683	0.18758588
19	0x3e19636d	0.14979334
20	0xbd986df6	-0.074428484
21	0x3da763d2	0.08173336
22	0xbd95cdd2	-0.07314648
23	0xbd55ad3a	-0.052167155
24	0x3e41b216	0.1891559
25	0x3d468349	0.048465047
26	0x3c615f03	0.013755563
27	0x3cb6443d	0.022249335
28	0x3d41f83e	0.047355883
29	0xbda41123	-0.08011081
30	0x3e3f829e	0.1870217
31	0x3be2eba5	0.0069250637
32	0x3dea5fb1	0.11444033
33	0x3e14faa5	0.14548738
34	0xbc29d7ac	-0.010366362
35	0x3df2b1cf	0.118503205
36	0xbda9aded	-0.08285127
37	0x3e425c62	0.18980554
38	0x3e097f6d	0.13427515
39	0x3d23f4f2	0.04002852
40	0x3e018a63	0.12650447
41	0xbd81e824	-0.063431054
42	0xbc8b7217	-0.017022176
43	0x3e02d333	0.12775879
44	0x3d28fdd2	0.041257687
45	0xbd796a9e	-0.060892694
46	0x3cfdc394	0.030977048
47	0x3e03c17b	0.12866776
48	0xbc1c9324	-0.009556565
49	0xbdde75ab	-0.10862287
50	0xbc962580	-0.018328428
51	0x3da40a4d	0.08009777
52	0xbde0a9e4	-0.10969904
53	0xbcc08589	-0.023501175
54	0x3d4256df	0.047446128
55	0x39820ad4	0.000248036
56	0x3e0f1562	0.13973
57	0x3dcb116f	0.099154346
58	0xbe07cd60	-0.13261938
59	0x3d4da56e	0.050206594
60	0x3dcce7fc	0.10005185
61	0xbde342b1	-0.11096705
62	0xbc86ca8a	-0.016454
63	0xbccae1b6	-0.02476583
64	0xbddb8a94	-0.10719791
65	0x3da08a99	0.078389354
66	0xbdc0aa1a	-0.09407444
67	0xbd7a3c27	-0.061092522
68	0x3d5762f3	0.0525846
69	0xbe4d7c0e	-0.20066854
70	0xbdd3eaf3	-0.103475474
71	0xbdf819ea	-0.12114318
72	0x3d2659ad	0.040612865
73	0x3dc932b7	0.09824126
74	0xbde39962	-0.1111324
75	0xbd00b10d	-0.03141885
76	0xbd807703	-0.062727
77	0x3dcdf8cc	0.1005722
78	0xbcd76eb9	-0.026297914
79	0x3d3a1c9f	0.04543745
80	0x3ca94ee9	0.02066751
81	0xbdc3fefd	-0.095701195
82	0xbd9f5aa3	-0.077809595
83	0xbdc085fa	-0.09400554
84	0xbe33c060	-0.17553854
85	0x3d8b2256	0.067936584
86	0xbc1311b6	-0.008976391
87	0x3d99c5e4	0.07508448
88	0xbdc7b568	-0.09751397
89	0xbd5541c3	-0.05206467
90	0x3a850769	0.0010149303
91	0xbb94d750	-0.004542269
92	0xbdae3306	-0.08505826
93	0xbd497ade	-0.04918944
94	0xbe0e06c7	-0.13869773
95	0x3dad6b9f	0.08467793
96	0xbd15173c	-0.03639911
97	0xbe1ebbf5	-0.15501387
98	0xbd4cea21	-0.05002797
99	0xbcaaccae	-0.020849552
100	0x3d4f0aaf	0.050547298
101	0xbdaa156b	-0.083048664
102	0x3dc035c1	0.09385253
103	0x3df1b736	0.11802523
104	0xbc3ae2e3	-0.011406633
105	0x3da03868	0.07823259
106	0xbd1db43a	-0.038501956
107	0xbdd68152	-0.10473885
108	0x3e054c22	0.13017324
109	0x3d8416bf	0.06449651
110	0xbd3744dd	-0.044743408
111	0xbdfa0783	-0.12208464
112	0x3b22c0a8	0.002483407
113	0xbd14a400	-0.036289215
114	0xbbf9699b	-0.007611466
115	0x3e0370c9	0.12835993
116	0xbdcfc9b7	-0.10145896
117	0x3da5d5c8	0.08097416
118	0xbd68d588	-0.056844264
119	0xbdb25a75	-0.087086596
120	0xbd830a32	-0.06398429
121	0xbd9fbc8e	-0.07799636
122	0xbbe2d424	-0.006922262
123	0xbe255979	-0.16147412
124	0xbe013703	-0.12618642
125	0x3d0c0d93	0.034192633
126	0x3e00176d	0.12508936
127	0xbd2368e9	-0.039894972
128	0x3d38bafe	0.045100205
129	0xbab189a5	-0.001354505
130	0x3db2e6bf	0.087354176
131	0xbc9c1e04	-0.019057281
132	0x3d6a4273	0.057192277
133	0x3e137c75	0.14402945
134	0xbdcd0028	-0.100097954
135	0xbdcd6b67	-0.10030251
136	0x3cc36e01	0.023856165
137	0xbd3e05be	-0.046392195
138	0x3b84add5	0.0040490427
139	0x3c6ddf0a	0.014518509
140	0xbe0a1b55	-0.13486989
141	0x3d8c7b38	0.068594396
142	0x3c26dd30	0.010184571
143	0x3d6a68d5	0.057228882
144	0xbda630c7	-0.08114772
145	0xbe37152c	-0.1787917
146	0xbe3876b1	-0.18014027
147	0xbcc430c7	-0.02394904
148	0xbdc29f3d	-0.095030285
149	0xbdbdd9e4	-0.09270075
150	0xbd1d08b7	-0.03833839
151	0x3c33d9e2	0.01097724
152	0x3d58e667	0.052954104
153	0xbd97c776	-0.07411091
154	0x3d88ba39	0.06676144
155	0xbc8a3d46	-0.01687492
156	0xbd8a17fd	-0.06742857
157	0x3e01e9b3	0.12686805
158	0x3dc1d068	0.094635785
159	0xbd902021	-0.07037378
160	0x3dac2d04	0.084070235
161	0x3e069e30	0.13146281
162	0x3df538f9	0.11973757
163	0x3d930920	0.07179475
164	0x3e038dca	0.12847057
165	0x3c3172e9	0.010830619
166	0xbdf0e07b	-0.11761566
167	0x3df7972a	0.12089379
168	0x3d907e9c	0.07055399
169	0x3d43e080	0.04782152
170	0x3cf9b6a9	0.030482607
171	0xbc98eda4	-0.018668003
172	0xbd0469af	-0.03232735
173	0xbdfbaba4	-0.12288597
174	0x3e0ceb0b	0.13761537
175	0x3dc398c7	0.09550624
176	0xbc848624	-0.016177244
177	0x3dd40cd5	0.1035401
178	0x3d91eb49	0.07124955
179	0x3da2b0a7	0.0794385
180	0x3da3b3ff	0.07993316
181	0xbe11c253	-0.14234285
182	0x3d5242f8	0.051333398
183	0xbe444531	-0.1916702
184	0x3d9b734c	0.075903505
185	0xbd0dd6ef	-0.034628805
186	0xbd93ceb7	-0.07217162
187	0x3c4a7fcd	0.012359572
188	0xbd92fbb9	-0.071769185
189	0xbe1d56ff	-0.15365218
190	0xbe1857fb	-0.14877312
191	0x3c7e70aa	0.015529791
192	0xbdc7c655	-0.09754626
193	0xbc074c2f	-0.00825791
194	0x3c61b2b4	0.013775516
195	0x3d84c82c	0.06483492
196	0xbd9b9af7	-0.075979166
197	0xbe1886cb	-0.1489517
198	0xbc37b7b1	-0.011213229
199	0x3dbfd208	0.09366232
200	0x3e0ae23d	0.13562866
201	0xbc206b92	-0.009791272
202	0xbd3fb938	-0.046807498
203	0xbdfffcfa	-0.12499423
204	0xbdb06413	-0.08612838
205	0x3dd8d32f	0.10587155
206	0xbdbc3300	-0.09189415
207	0x3dd1d576	0.102457926
208	0x3e11cf92	0.14239338
209	0x3dee0547	0.116221
210	0xbda138c6	-0.07872157
211	0xbd9fe193	-0.07806697
212	0x3d6f42c6	0.05841329
213	0xbbb54146	-0.005531463
214	0x3e18b835	0.1491402
215	0x3d965658	0.073406875
216	0x3da72701	0.08161736
217	0xba049b4f	-0.0005058543
218	0x3d68c11f	0.0568248
219	0xbb649150	-0.0034876652
220	0x3dd01f0f	0.10162174
221	0xbd8379e1	-0.06419731
222	0xbd492d8d	-0.049115706
223	0x3e018248	0.12647355
224	0xbdb2a5c7	-0.08723026
225	0xbd05eab5	-0.032694537
226	0xbd129ad9	-0.035792205
227	0x3daba990	0.08381951
228	0xbd90e150	-0.07074225
229	0x3a636fc0	0.0008676015
230	0xbae6be15	-0.0017604256
231	0xbe2dc4e7	-0.16969644
232	0xbba4f3f8	-0.005033966
233	0x3d8cb061	0.06869579
234	0xbde3fd6e	-0.11132322
235	0x3ddcc8b7	0.10780471
236	0x3df03b03	0.117300056
237	0x3d547ac4	0.05187489
238	0x3d1af9b4	0.03783579
239	0xbe0ec293	-0.13941412
240	0xbc06db45	-0.008230989
241	0x3cdd8759	0.027042078
242	0x3d4b8225	0.049684662
243	0xbe213fb9	-0.15746965
244	0x3d71551f	0.05891907
245	0xbc6b7a5c	-0.0143724345
246	0x3e1cd23f	0.15314578
247	0x3de6a7f0	0.112625
248	0x3dee7481	0.11643315
249	0x3b83c74a	0.00402156
250	0x3cde187f	0.02711129
251	0x3c70de7a	0.01470148
252	0x3dc7a003	0.09747317
253	0x3dca5643	0.09879734
254	0xbd47480f	-0.048652705
255	0x3da4eeb0	0.080533385

localization.0.bias f4 [8]
0	0x3e366dc0	0.17815304
1	0xbd8e79ba	-0.06956811
2	0xbd9ce48f	-0.076607816
3	0xbe5b1003	-0.21392827
4	0xbd3038f1	-0.043023054
5	0xbdd95866	-0.10612564
6	0xbe4c2d3f	-0.19939135
7	0xbe702be0	-0.23454237
