EmpathyBot/model_snapshots/deep_emotion-200-64-0.005-0.5358845748962784.pt (torch_old, 271009 bytes, 24 tensors)

conv1.weight f4 [10, 1, 3, 3]
000000 9c c6 fc bd c3 bb 83 be 54 43 23 c0 63 5c b9 3e
       -0.12342569 -0.25729188 -2.5509844 0.36203298
000010 80 b5 29 3f 96 b4 1b 3d be c8 b9 bf 2a d6 84 3f
       0.6629257 0.038014017 -1.4514387 1.0377858
000020 76 ab 12 40 1b f0 b1 bf 9c e3 cb 3e bd 65 e4 3f
       2.2917151 -1.3901399 0.3982209 1.7843548
000030 25 f9 1e c0 c6 ed 21 bf c7 d3 15 40 e5 91 40 bf
       -2.4839566 -0.6325344 2.3410509 -0.7522262
000040 d1 db fc 3e ff f7 42 3e 11 c2 c7 3f c8 31 e3 be
       0.49386457 0.19039916 1.5606099 -0.44373918
000050 da 3a 79 bf 05 e5 b1 3f 74 1c cf be 36 87 82 bf
       -0.97355425 1.3898016 -0.40451396 -1.0197513
000060 02 e3 02 bf e4 03 1b bf 4a 1a 87 bf 88 98 cf 3f
       -0.51127636 -0.6055281 -1.0554898 1.6218424
000070 8b b3 05 40 7d 67 04 3f 46 c7 7a bf fb a2 27 3e
       2.0890834 0.5172041 -0.9796032 0.16370766
000080 f9 e5 1e be 36 36 c6 bf 1f 95 62 bf a7 9b 62 bf
       -0.15517415 -1.5485294 -0.8850879 -0.88518757
000090 fe e8 6b be 7b fd 3a be 9b d8 11 3e 97 1e bf bd
       -0.23038098 -0.18260758 0.14242785 -0.093320064
0000a0 71 af 19 bf 1b cf ec be 95 15 db 3f 09 91 13 3f
       -0.6003333 -0.4625176 1.7115961 0.5764318
0000b0 6b d7 2f bf 8e 4b 76 3f 77 66 e1 3f c1 84 91 3f
       -0.68688077 0.9620904 1.7609395 1.1368638
0000c0 fc b9 d3 3f 9c 7a 12 bd 19 6f 4e c0 ca cd 2d 3e
       1.6541133 -0.03576146 -3.2255309 0.16973034
0000d0 aa 54 14 be 94 c4 be bf 71 35 83 bd c6 9b 43 bb
       -0.14485422 -1.4903741 -0.064066775 -0.0029847487
0000e0 34 9a d0 bf 3a 21 80 3f 8d a6 0a 3f f3 56 dd bf
       -1.6297059 1.001014 0.54160386 -1.729216
0000f0 7d 92 cc 3f 15 c0 18 3f 96 fc 0e bf 29 75 b6 be
       1.5982205 0.59668094 -0.55854166 -0.3563626
000100 f6 c6 8d 3d b8 0f 29 3f ec 79 1f c0 19 43 c3 be
       0.069227144 0.6603961 -2.4918165 -0.3813713
000110 4c f6 33 3f 1e 57 7b be 72 17 dd 3f 0e d7 31 3f
       0.70297694 -0.24544951 1.727278 0.6946877
000120 18 ac 03 c0 67 fb 2e bf 45 df e0 be f8 06 e8 3d
       -2.0573788 -0.6835236 -0.4392034 0.11329454
000130 f7 d4 1d 3f 0f 05 75 3e 9a 1e d5 3f e6 c5 ef 3f
       0.61653084 0.23927711 1.6649964 1.8732269
000140 b8 be 8c bf 5b ca 76 3f c4 26 1b bf ca f5 fa 3f
       -1.0995703 0.9640252 -0.60606027 1.9606259
000150 d0 ab 4e bf 6c 88 11 c0 a4 17 98 bf c6 cc 4f 3e
       -0.80730915 -2.2739515 -1.1882215 0.20292959
000160 a7 16 47 3f de e2 9f 3f
       0.7776894 1.2491109

conv1.bias f4 [10]
000000 a2 3a bb 3e 1b 6a 87 be 34 7d 26 bf d8 ea ca 3e
       0.3656817 -0.2644814 -0.65034795 0.39632297
000010 cb 86 93 3d ff 0a 5a bf f5 8e 3b 3f e0 8e 60 3f
       0.07203444 -0.8517303 0.7326501 0.8771801
000020 c3 62 11 3f 4d 12 1a 3d
       0.56791323 0.03761511

conv2.weight f4 [10, 10, 3, 3]
000000 59 6c aa bd 61 a1 ed bd 91 92 c9 bd 7e 63 2c be
       -0.08321447 -0.11603046 -0.098424084 -0.16834828
000010 80 d0 d4 bd 31 57 ef bd 6d ab c9 bd 3d 95 81 be
       -0.10391331 -0.11686552 -0.0984715 -0.25309172
000020 4a dc eb bd f6 33 bb bd 88 4f eb 3c 18 de b1 bc
       -0.11516626 -0.0914077 0.028724447 -0.021712348
000030 ce ee 8a 3c 94 43 09 3d a8 59 22 3c 05 a5 e6 3c
       0.016959574 0.033511713 0.009909071 0.02815486
000040 57 22 10 be 56 80 48 b9 19 81 14 bd 28 03 15 3d
       -0.140756 -0.00019121295 -0.03625593 0.036379963
000050 d9 9f 7d 3d 0a c7 08 be 35 c0 18 3c 29 28 22 3c
       0.06192002 -0.13357177 0.0093231695 0.00989727
000060 4f 7c 8d 3c de de d4 bd 77 fe 07 be a4 18 04 be
       0.017271189 -0.10394071 -0.13280664 -0.12900025
000070 cc 68 f2 bd 15 e9 68 bc 3f d6 8f be c7 a1 88 be
       -0.11836395 -0.014215727 -0.28093144 -0.26685926
000080 8e 80 13 3d 0d 46 e5 bd 55 f6 12 be 73 c4 41 be
       0.03601127 -0.11195002 -0.1435178 -0.18922596
000090 a4 17 35 bd f1 d3 bd bd 11 49 6a be dd a3 89 bd
       -0.044212 -0.0926894 -0.22879435 -0.067207076
0000a0 5b e3 34 be e5 00 d8 3d 0f 73 9f bc 99 db cf bd
       -0.17664854 0.105470456 -0.019464044 -0.10149307
0000b0 f4 2a 5b be 17 be cd 3c b1 34 b1 bd 5f 67 27 bd
       -0.21403104 0.025115056 -0.08652628 -0.040870067
0000c0 8f 76 fd bc 9f 0a 96 3d e5 98 0a 3c f5 e5 cf ba
       -0.030940322 0.073262446 0.008459304 -0.0015861379
0000d0 6f e6 24 bd d2 f6 d6 bd e5 6e 5c be 0a 40 d9 bd
       -0.04025882 -0.10496296 -0.21526678 -0.106079176
0000e0 b2 3f d0 bd d2 5c 40 3d d1 6f 8d be 26 55 7c be
       -0.10168399 0.04696352 -0.27624372 -0.24641857
0000f0 33 a6 96 bd 44 d7 cd 3b 1c ac 10 be fd af 71 be
       -0.07355919 0.006281765 -0.14128155 -0.2360229
000100 f2 30 4c be 2c 99 5c bd a0 92 f1 bd f4 2b 17 be
       -0.19940546 -0.053857014 -0.117955446 -0.1476286
000110 3c f5 f2 3c 8d 7c 63 be a0 49 d1 bd 6b 65 b4 bd
       0.029657952 -0.22215481 -0.10219121 -0.088084064
000120 e7 21 6d be 4c dc b8 bd ed 3c 46 be 25 84 4c be
       -0.23157464 -0.09026393 -0.19359179 -0.19972284
000130 4c e6 2f be 87 2b 7e be c1 9c c7 bd 25 c7 95 bc
       -0.17177695 -0.24821292 -0.09746695 -0.018283436
000140 5b 7f 37 3d 17 4f d2 bd c7 e0 52 3d b3 b6 84 bd
       0.04479919 -0.102689914 0.051483896 -0.064801596
000150 e4 cf 31 be c0 64 fa bc 08 33 50 3c b5 10 3b bd
       -0.1736446 -0.03056562 0.012707479 -0.04567023
000160 c1 93 64 be c6 53 98 bd 15 56 24 bf 5f bd 4d bf
       -0.22321989 -0.074378535 -0.6419385 -0.8036708
000170 cf 3d 4d be ef a9 28 3e bb 3a af be 35 ee 50 be
       -0.2004311 0.16471075 -0.34224495 -0.20403369
000180 36 8d 3a c0 c1 c2 53 bf 92 79 b3 bf 51 79 2a 3d
       -2.9148688 -0.82719046 -1.4021475 0.041619603
000190 ab ec b2 be 95 46 c6 be f7 60 01 bf ad 90 b9 bf
       -0.34946188 -0.38725725 -0.5053858 -1.4497277
0001a0 d3 04 5d bf a2 ea 0e be 59 ad 56 bf 9f 3b 5e bf
       -0.86335486 -0.13956693 -0.8385826 -0.86809725
0001b0 2c 2a 3f bf de a0 0a bf 38 26 8c bf 53 9d 82 bd
       -0.74673724 -0.54151714 -1.0949163 -0.063776635
0001c0 e8 0d 03 be d9 5b b7 3c 41 a9 7b 3f 37 ab 8e 3d
       -0.12798274 0.022382664 0.98305136 0.069662504
0001d0 ae 21 fa 3e 16 dd 6e be ed 37 a2 bf aa de d1 bf
       0.4885382 -0.23326525 -1.2673317 -1.6396077
0001e0 28 f1 90 3f d1 7f 49 3f d6 0a 13 3d c1 f5 f1 3f
       1.1323595 0.7871066 0.035899006 1.8903123
0001f0 f9 93 af 3f 5b dc 9c 3f 6a e6 1b 3f 3b 76 1f 3e
       1.3717033 1.2254747 0.6089846 0.15572445
000200 1f a3 66 3d af 0f 30 c0 fb 29 e0 be 12 1a b9 3f
       0.05630791 -2.7509573 -0.4378203 1.4461081
000210 18 26 37 3f a4 a1 29 3e 02 ee 8e bf 1e 11 af 3f
       0.715425 0.16565567 -1.1166384 1.3677099
000220 62 23 2d 3f 7c ab df 3e 31 13 54 bf fe 14 bc 3e
       0.67632115 0.4368552 -0.82841784 0.36734766
000230 b1 97 5b 3f 9f 8b 9b bf 9e 4e 82 bf 4f 0b 58 3e
       0.8577834 -1.2151984 -1.0180242 0.21098064
000240 18 bf 47 be 7c 22 47 bd f9 4a 05 3f fa 10 86 bf
       -0.1950649 -0.04861687 0.52067524 -1.0473931
000250 6b 3d 3e be 23 33 af 3e ae 66 6a bf f3 88 04 bf
       -0.18578117 0.34218702 -0.91562927 -0.5177147
000260 70 e9 69 bf fe e3 20 3f e8 cf 0f 3f 03 3d de 3e
       -0.9137182 0.6284789 0.56176615 0.43405923
000270 48 4f 9e bf 29 b5 40 3e c2 83 1e 40 ff 43 c2 3e
       -1.2367945 0.18819107 2.4767919 0.37942502
000280 2a 42 8e 3d e7 84 62 3f 95 7c a6 3f 08 56 36 3f
       0.069462135 0.8848404 1.300677 0.71225023
000290 0d 03 2a 3f 8e a6 2c c0 21 35 f0 bf 5e d6 cb 3e
       0.66410905 -2.6976657 -1.8766214 0.39811987
0002a0 a5 a2 fa bf 4d eb 07 c0 20 08 0e c0 7b 05 2b bf
       -1.9580885 -2.1237366 -2.219246 -0.6680524
0002b0 7d 91 0b bf f1 6e f9 be 0a bb 52 bf 80 54 00 3f
       -0.5451887 -0.48717454 -0.8231665 0.50128937
0002c0 22 cb f9 3f 29 2b 1e 40 35 d8 76 be c0 12 a9 bf
       1.9515116 2.4713843 -0.24105914 -1.3208847
0002d0 bf 2a f9 bf 18 be 8a 3f b1 88 95 bf 5c 31 2e 3f
       -1.946617 1.0839262 -1.168234 0.68044066
0002e0 34 a3 db 3f 66 3a 03 bf 48 f6 9b 3f 6c 60 94 be
       1.7159181 -0.51260984 1.2184534 -0.28979814
0002f0 e7 d4 c8 bf eb 11 09 c0 3a 3a 8b 3f 23 48 81 3f
       -1.5689973 -2.1417186 1.0877144 1.0100139
000300 1c 5f 51 c0 ab c7 1a bf 92 3f f1 bf 4f f4 73 c0
       -3.27143 -0.6046092 -1.8847525 -3.8117864
000310 97 fc dc 3d 14 ea e9 3f c5 72 20 3e f8 1c ea 3d
       0.10790365 1.827456 0.15668781 0.114313066
000320 0f 01 a9 bf df db c0 3f ea 97 0e 3f 5b cd b6 bf
       -1.3203448 1.5067099 0.5570055 -1.428142
000330 d1 ed d5 3f 1e 16 94 3f 2f 8e f4 be 2a 05 62 bf
       1.6713201 1.156925 -0.47764727 -0.8828913
000340 26 72 11 3f 4b 32 d4 3f a0 9c c5 3e 58 9d 27 3f
       0.568148 1.6577848 0.38596058 0.6547446
000350 4b 46 de 3e 64 1c b6 be 73 48 42 3f db da 9b 3f
       0.43413004 -0.35568535 0.758918 1.2176164
000360 1d a1 7c bf 6e ce 30 bf 58 9d 77 3f 91 11 46 c0
       -0.9868334 -0.69064987 0.9672446 -3.0948222
000370 35 07 58 bf f5 3a b6 3e bd 96 19 3e 09 3f 97 3f
       -0.84386 0.35591856 0.14998908 1.1816112
000380 ce 54 84 be 9d 4c 19 3f 6d b7 d2 3d ae d7 5d bf
       -0.2584595 0.5988253 0.10288892 -0.86657226
000390 ef 83 15 3f 8b 2b 7a be f4 4f 79 c0 b4 b7 98 3f
       0.5840444 -0.24430673 -3.895505 1.1931062
0003a0 71 78 e3 3f 9d e0 14 c0 3f b5 47 bf 87 53 d2 bf
       1.7771131 -2.3262093 -0.78010935 -1.643174
0003b0 18 87 da be b2 37 ac bf ce b7 90 bf 2e ef 4d bf
       -0.42681193 -1.3454497 -1.1306093 -0.80443084
0003c0 49 7e 43 3f c2 29 06 40 b0 23 b5 be 7e 0c f2 3f
       0.7636457 2.0962987 -0.3537879 1.8910062
0003d0 c9 32 69 3e da 1d 4b c0 0b 0a 8a 3f 21 2d 4a be
       0.22773279 -3.173697 1.0784315 -0.19743778
0003e0 e8 d9 ad be 90 41 1c c0 09 41 36 bf 3c 40 0b be
       -0.33955312 -2.4415016 -0.71192986 -0.13598722
0003f0 cc 8b 12 3e dc 6f 0a 3f 0f c0 9a bf 47 a4 27 bf
       0.14311141 0.54076934 -1.2089862 -0.6548504

conv2.bias f4 [10]
000000 6b fa 81 be 0e 74 ac 3f 11 84 57 3c 4d 3f 9b bd
       -0.25386366 1.3472917 0.013154046 -0.07580433
000010 a7 dd 1a 40 54 6e 80 40 c8 c3 be 3e ae 1a 20 3f
       2.4197786 4.013468 0.37258744 0.6254071
000020 1b 0e 3d bd 09 7e c9 3f
       -0.04615603 1.5741588

conv3.weight f4 [10, 10, 3, 3]
000000 03 a7 ad bc c1 eb 02 3e bc d6 cd bd 84 fb 0a bd
       -0.021197801 0.12785245 -0.10050723 -0.03393127
000010 b8 84 da 3d 3a 3d 2c 3d b4 98 2a 3e 22 77 95 3d
       0.10669845 0.042050578 0.16659814 0.072981134
000020 86 5e 8a bc 70 c6 00 c0 18 43 1c bf 86 f3 b5 bd
       -0.016890775 -2.0121117 -0.61039877 -0.08884339
000030 8a 77 c4 bf 44 33 e0 3e 0f 87 03 3e 99 21 81 bf
       -1.534898 0.43789113 0.1284449 -1.0088378
000040 ef 24 58 3f 3f 3f e3 3f 36 aa 5a be 1b 9f 15 bf
       0.84431356 1.7753676 -0.21353993 -0.584459
000050 b7 77 08 40 71 f7 e3 3e f5 d0 13 3f 35 cd 20 40
       2.1323068 0.4452472 0.5774072 2.5125248
000060 6e 8e 96 3e 32 cb 28 3f fb 7f 38 40 b2 31 fe 3b
       0.2940554 0.6593505 2.8828113 0.007757389
000070 d7 fd fd 3c c6 88 d3 bc 1d 35 92 bc 38 84 d5 3d
       0.03100483 -0.025822055 -0.017847592 0.10425609
000080 1f 1d bf bd 4f 38 11 3d eb 63 cc 3d aa ee e7 3d
       -0.09331726 0.03545409 0.09979995 0.113248184
000090 c8 c1 ac bf 81 21 2b c0 f9 d9 f7 3d 8b e8 f1 3e
       -1.3496637 -2.67392 0.12102122 0.4724773
0000a0 fc c4 0b 40 25 fb b4 3f 31 28 1a 3f b9 70 8a 3f
       2.183898 1.4139143 0.6021758 1.081565
0000b0 53 e4 af 3f 6b 0f 96 3e 6a df e0 3e 23 52 ab 3d
       1.3741554 0.29308638 0.4392045 0.08365276
0000c0 ea 1f 4f 3f 63 8e a5 be 63 d0 ff 3e 47 17 27 3f
       0.8090807 -0.32335195 0.49963674 0.65269893
0000d0 00 6e cd bd 42 0f 5a 3f 00 31 9d be 57 b4 fc 3d
       -0.100307465 0.8517953 -0.30701447 0.123390846
0000e0 8b 0b 68 3f 9a 98 0a 3e 77 0a e8 be 6b 1e ca 3f
       0.90642613 0.13534775 -0.45320484 1.5790533
0000f0 66 17 34 bf 4b 8e 0f 3e fe 25 8d 3f be 6c 01 c0
       -0.70348203 0.14019124 1.1027219 -2.022262
000100 50 f0 11 c0 de 49 6d be fe d8 c9 bf df 38 69 bf
       -2.2802925 -0.2317271 -1.5769346 -0.91102403
000110 a5 2e fa 3e 88 90 ba 3e 94 19 c0 3f ae 89 56 3e
       0.48863712 0.36438394 1.5007806 0.20950958
000120 df 75 f6 bc a5 05 17 be 7a a5 da bd 83 79 c5 3d
       -0.030085502 -0.14748247 -0.106760934 0.09642317
000130 78 69 f6 3b a0 33 8c bd e3 52 4c 3e 9b 5a 84 3c
       0.007519897 -0.06845784 0.19953494 0.016156485
000140 8f 05 3d 3e 70 a8 08 3f 19 65 76 3f c8 f9 72 3f
       0.18459152 0.53382015 0.9624801 0.94912386
000150 c4 bd 00 40 2f 55 0d 40 79 e5 58 3f 20 ec 22 40
       2.0115824 2.2083242 0.8472515 2.545662
000160 f2 b9 cf 3f 22 15 ac 3f 11 40 30 3d 73 3d 8f 3d
       1.6228621 1.3443949 0.04302985 0.069941424
000170 8a ce 3c bd f3 99 7d 3d ad 81 38 bd ae c3 fd 3d
       -0.04609541 0.061914396 -0.045045543 0.123908386
000180 cc bc 2c bd 35 68 de bb 72 06 da bd dd f2 9d 3c
       -0.04217224 -0.006787325 -0.106457606 0.019280845
000190 05 ab c1 bd a5 ab 8f bc c6 13 99 bd c0 6e cb bd
       -0.094564475 -0.017537901 -0.074744746 -0.09933233
0001a0 1d 8d 4f bd 8f 46 be ba 34 99 3c bd b4 fb d7 3c
       -0.050671685 -0.0014516878 -0.046044543 0.026365139
0001b0 30 43 28 3c 86 56 09 bd 0d d4 61 3c 29 ed cb bd
       0.010269925 -0.03352978 0.013783467 -0.09957344
0001c0 03 c8 d2 bc 83 47 d5 3d 53 e2 a5 3d fb 97 f5 bc
       -0.025730139 0.104140304 0.080998085 -0.029979696
0001d0 e8 fe a7 bb b4 94 fc 3c 7d 11 21 3c c1 7a e8 bd
       -0.0051268227 0.030832626 0.00983083 -0.113515384
0001e0 64 34 05 3d 29 26 e7 bd 4c 8f f3 bd 2c 57 c4 3d
       0.032520667 -0.11286575 -0.11892566 0.09586939
0001f0 8c de d4 bd b1 c2 80 3d f3 36 a9 bc b9 a8 2a 3c
       -0.1039401 0.062871344 -0.020656085 0.010416203
000200 00 e5 1c be a2 36 26 3d c1 24 dc bc d2 7c 58 3c
       -0.15321732 0.040579446 -0.026872994 0.013213353
000210 4b 8f 89 bd 70 5e 23 bc a0 b0 9a bd 7a 30 83 3d
       -0.06716784 -0.009971246 -0.0755322 0.064057305
000220 ab d4 0d be 34 5c 91 bd 2b 17 26 bd 53 b8 e2 bd
       -0.13850658 -0.070976645 -0.04054944 -0.11070313
000230 c3 59 ec bb 55 45 af 3d dd 6d f0 bd 37 bf d5 bd
       -0.007212849 0.08558146 -0.11739705 -0.10436862
000240 57 1d 1c bd 80 a2 5a bd a0 16 57 bb 88 05 10 bd
       -0.03811392 -0.05337763 -0.0032819882 -0.035161525
000250 4d b1 a9 bb 3f 7b 19 3d 43 81 77 bd 77 6a 17 bd
       -0.0051786066 0.037471052 -0.060426008 -0.036966767
000260 8a 35 87 3c d5 e5 be bd f2 6c 81 bd ba 38 19 bb
       0.016505022 -0.09321181 -0.06319608 -0.002337976
000270 37 4e 23 bd 15 da c9 bd 74 29 02 be bf 90 07 bd
       -0.039869513 -0.09856049 -0.12711126 -0.033097025
000280 0d 41 ef bd 34 36 1b be 2e 44 10 3e fc 70 c1 3c
       -0.11682329 -0.15157396 0.14088508 0.023613445
000290 d7 0e b2 3d c7 b2 8b 3c 72 e3 05 3e 63 c9 b6 3c
       0.08694237 0.017053021 0.13075045 0.022312826
0002a0 7a f5 df 3c ef cd ea 3d 24 2a 1a 3d f1 74 24 bd
       0.027338732 0.1146506 0.037637845 -0.040150587
0002b0 30 a0 fe bd 83 04 4d bd cc 49 09 3d f6 80 de bd
       -0.12432897 -0.05005313 0.033517644 -0.10864441
0002c0 f7 9d 0e bd 7d 28 4c 3d c7 8d 06 be 2c 43 8e bd
       -0.034818616 0.0498433 -0.13140021 -0.06946406
0002d0 5e f5 96 3d ef 7c af 3c 77 51 9b 3c 71 4c 3d 3c
       0.07371019 0.021421878 0.018959744 0.01155387
0002e0 3e e5 86 3d c9 c0 56 bc 29 04 a1 3d 18 3d f5 bd
       0.06586693 -0.013107487 0.078621216 -0.11974543
0002f0 94 90 a1 bd 6d db 27 3f 4b f5 8f 3e ca f9 93 3f
       -0.07888904 0.6556919 0.2811683 1.1560605
000300 ad 7d 3d bf bb d6 8b be c0 56 3d bf 47 f2 76 be
       -0.7401989 -0.27312264 -0.73960495 -0.24115859
000310 42 2f d6 be 43 fd 63 bf a5 82 ac bf 12 1f c3 bf
       -0.4183293 -0.8905832 -1.347737 -1.5243857
000320 b5 95 d6 bf b2 ec 6d bf 9d 46 6c bf 2e b7 1c bf
       -1.6764437 -0.92939293 -0.9229525 -0.6121701
000330 24 23 18 c0 a1 cd a0 bf a3 57 34 bf aa bb 3d 3d
       -2.3771448 -1.2562753 -0.70446223 0.04632155
000340 08 9c e6 bc bc 0d cd bd 75 a7 8b 3c 7b 9f 23 bb
       -0.028150573 -0.10012385 0.017047623 -0.0024966884
000350 c8 78 b1 3d bf 76 38 3d 05 31 cb 3c 25 d8 b4 bd
       0.08665615 0.04503512 0.024803648 -0.08830289
000360 87 72 2b 3f 3f 06 f0 3e b6 f4 96 3f 84 19 47 bf
       0.6697163 0.46879765 1.179343 -0.7777331
000370 76 50 36 bf f5 8c c5 be f1 fe f2 bf c5 6c d1 bf
       -0.71216524 -0.38584104 -1.8984052 -1.6361319
000380 11 e6 91 bf ee dc cc be 3c 07 9e be 7d d1 18 3f
       -1.1398336 -0.40012306 -0.30864894 0.59694654
000390 6a b2 1f 3f e3 af 4a 3f 0f 10 97 3f f0 2b db 3f
       0.62381613 0.7917463 1.1801776 1.7122784
0003a0 6e f1 02 40 86 c0 9e 3f 17 68 6d 3e 83 ef 54 3e
       2.0459857 1.2402503 0.23184238 0.20794491
0003b0 28 96 a8 3f d8 ff b6 3e 5d 45 61 3f 2f 90 05 40
       1.3170824 0.35742068 0.87996465 2.0869253
0003c0 19 55 36 3f 66 a7 c9 3e 51 58 85 3f 5f 3b 22 3f
       0.712236 0.39385527 1.0417577 0.63371843
0003d0 2a 6d 8f 3f 71 c5 21 3f 7e 54 ef 3e c6 2b 2a bf
       1.1205189 0.63191897 0.4674415 -0.6647304
0003e0 36 14 0a bf 52 6a d5 bf 31 cd f1 bf f4 9b d6 bf
       -0.5393709 -1.6673071 -1.8890744 -1.6766343
0003f0 59 2b 91 3d cb a2 33 bc b2 a4 03 3d fe 63 dd 3c
       0.07088346 -0.010964106 0.032139488 0.027025219

conv3.bias f4 [10]
000000 7a 75 e2 bf aa ab a3 bd 9b 61 a2 3f e1 c4 c2 bd
       -1.7692101 -0.07991727 1.2686037 -0.09510208
000010 a6 90 ac bb 85 9b 3f 3c 8b 24 be bd 7d 91 d4 bd
       -0.005266267 0.011694794 -0.09284314 -0.10379312
000020 ff a7 75 bd 74 e9 d9 40
       -0.059974667 6.8097477

conv4.weight f4 [10, 10, 3, 3]
000000 74 c0 15 bf 6e 2d c2 be 3f d5 73 3b 38 f1 a3 bf
       -0.58496785 -0.37925285 0.0037205962 -1.2807989
000010 ff 72 ba bf e7 fb 38 bf f6 24 55 3f 64 ed ff bf
       -1.4566344 -0.7225937 0.8325952 -1.9994321
000020 6e 52 04 c0 da 4c af bd 64 6f 20 3d b0 72 56 bd
       -2.067531 -0.0855958 0.03916873 -0.05235547
000030 58 11 74 3d 1a 73 8a 3d 45 5d ac 3d 5d 0e 91 bc
       0.059586853 0.06760235 0.08416227 -0.017707044
000040 f1 03 e4 3c 11 da a5 3d 56 a2 b9 bd 5a ac db bd
       0.02783391 0.080982335 -0.09064166 -0.10726233
000050 4e b0 83 bd 9e ee a3 bf da a8 22 bd d9 d6 4f 3f
       -0.06430112 -1.2807195 -0.03971181 0.81187207
000060 d8 16 02 c0 ba d8 bb 3e c3 e9 11 40 24 7d 65 bc
       -2.0326443 0.36688787 2.2798927 -0.014006887
000070 bd a0 02 bd 72 00 cc bd 70 cc 10 3e 1a c5 90 bd
       -0.031891573 -0.099610224 0.14140487 -0.07068844
000080 8b c1 a9 3c d6 61 b8 3d c5 c5 c1 3d cd ac 85 bd
       0.020722171 0.09003036 0.0946155 -0.065271
000090 2d 73 e9 3c c7 d6 74 3d 39 7b a0 3c cf 31 d8 3d
       0.028497303 0.05977514 0.019590007 0.10556375
0000a0 82 1c 01 3c 59 c4 9b 3c 61 ff e5 3d 60 c5 3e 3c
       0.007880332 0.019014524 0.1123035 0.011643738
0000b0 ce 40 fc bc cb 78 56 3d 37 82 02 bd c0 6d 5b bd
       -0.03079262 0.05236129 -0.031862464 -0.053571463
0000c0 aa 7d 2b bd df a8 5a 3d 9c 63 01 3e 48 af d1 bd
       -0.04186789 0.053383704 0.12635654 -0.1023851
0000d0 86 b9 1b bd 34 8d 98 bd 68 7d 7c 3d aa e2 98 3b
       -0.038018726 -0.07448807 0.061643034 0.0046656923
0000e0 8b 47 81 bc ac cf 74 bd a0 a2 fc 3c 81 de 00 3e
       -0.015781185 -0.059768364 0.030839264 0.12584879
0000f0 18 44 4b bd 63 78 49 bd df db 16 bd 89 44 6b 3c
       -0.049625486 -0.049187075 -0.03683078 0.014359602
000100 53 08 2c 3d 59 49 6b 3d 71 bd f7 bd 5d 45 19 3d
       0.042000126 0.057442997 -0.1209668 0.037419666
000110 cd be ef 3d 58 a8 0e 3e c2 bd e5 bc 1e 17 ef bd
       0.11706314 0.13931406 -0.028044585 -0.11674331
000120 76 bb b0 bd 83 57 28 3d 29 80 e3 3c 36 1f 77 bd
       -0.08629505 0.041099083 0.027771072 -0.0603325
000130 f8 bb 28 be 9f 98 5e 3d bb 79 8c bc 79 13 ae 3c
       -0.16477954 0.05434477 -0.01714789 0.02124952
000140 b8 5a c1 bd 1b 05 43 bf 68 a9 9c bf 13 16 98 bf
       -0.09441131 -0.76179665 -1.2239199 -1.1881737
000150 52 de d7 3f ea f4 70 be de 87 cc bf a5 6d db 3f
       1.6864722 -0.23530927 -1.5978963 1.7142836
000160 20 9d 6e 3f da b3 c2 3e 2a 5e a9 3f 25 8c b9 3e
       0.93208504 0.3802784 1.3231862 0.36239734
000170 cd 8d e2 3f f5 3c 4f bc b0 7b 44 3f 6b ae 7e be
       1.7699524 -0.012648811 0.7675123 -0.24871223
000180 46 f4 35 c0 ea 24 5b bf ad 67 54 c0 2f a9 bd 3d
       -2.8430343 -0.856032 -3.3188279 0.09260785
000190 3e 52 c4 bc f0 f6 8c 3d d6 f7 a4 bc 9b e1 12 3d
       -0.023964997 0.06883037 -0.020137709 0.035859685
0001a0 14 45 a3 3c e4 e8 6c bd b0 c1 a5 3d eb 04 de bd
       0.0199304 -0.05783929 0.080935836 -0.10840782
0001b0 49 8e ad 3e c4 02 86 3d 6e d9 3e 3e 20 d6 8d bf
       0.33897617 0.06543496 0.1863763 -1.1080971
0001c0 90 1b 8f 3e ae 4a 04 3f 36 3f 13 bf 42 ba 56 bf
       0.27950716 0.5167645 -0.5751833 -0.83877957
0001d0 a0 02 53 3f 24 30 94 3d 70 a0 38 3d ac d1 61 bd
       0.8242588 0.072357446 0.04507488 -0.0551316
0001e0 60 3c cb bd 44 ff 14 3e 82 d3 5c be e6 ab 83 3d
       -0.09923625 0.14550501 -0.21565059 0.064292714
0001f0 18 6f 6d 3d 79 b0 dc bc 8e 7e 27 bd 17 ba d6 bd
       0.057967275 -0.026939617 -0.040892176 -0.104847126
000200 41 fc a5 3d 1a 9b fb 3d e2 2e 99 bd 4a df 2e 3d
       0.08104754 0.12285443 -0.07479645 0.042693414
000210 35 b6 48 3c d8 ea 31 3b 21 ee 3f bd aa ed a0 bd
       0.012250473 0.0027148034 -0.046857957 -0.07857831
000220 d5 6b 0c 3d 99 cb d3 bd 88 88 65 bd b3 f7 89 bd
       0.034282524 -0.103415675 -0.05603841 -0.06736698
000230 7c 44 93 3d 8a 0e 4a 3c 03 95 2d 3c 49 83 de bb
       0.07190797 0.012332568 0.010594609 -0.0067905528
000240 a4 a0 d5 3d 61 dc a5 3c 5c 10 b6 3c 76 8c 2e 3d
       0.104310304 0.020246686 0.022224598 0.042614423
000250 fd 3e 94 3c 94 5d ea bc f7 f1 d8 bd 08 5a 19 3d
       0.018096441 -0.028609075 -0.10593026 0.037439376
000260 17 e0 d0 bd 51 f3 b7 bd 4f d0 2a bd b9 1c c4 3d
       -0.10198992 -0.08981956 -0.041702565 0.09575791
000270 d2 72 4e 3b 13 d7 a0 bd 5d 28 7b 3d 98 28 a0 3d
       0.0031501544 -0.07853522 0.06131779 0.07820243
000280 6d 54 a4 bd 99 9a e4 bd 9d ab c2 3c ee be 12 bd
       -0.080239154 -0.111623 0.023763472 -0.035826616
000290 04 bb b7 3c 2b 1a 88 bc 83 6e 94 3c 36 e2 76 bd
       0.022428043 -0.01661404 0.018119102 -0.060274325
0002a0 af a7 c4 3d 83 97 15 be 73 1f 63 be ed 27 b1 bf
       0.096022956 -0.14608578 -0.22179966 -1.3840309
0002b0 24 96 99 bf 7d 7d 48 bf 5a 3d c1 3d 57 2b 6a 3e
       -1.1998944 -0.7831648 0.0943553 0.22868095
0002c0 21 53 ac 3f 33 f8 bc 3f ba b9 74 3f 5f c6 87 be
       1.3462869 1.4763244 0.95595896 -0.26518533
0002d0 8e 84 57 be 2c 4b ac 3f 96 22 36 3f 1a dc d1 3f
       -0.2104666 1.3460441 0.71146524 1.6395295
0002e0 65 c4 a4 3f 95 e7 01 40 64 b1 08 3f 1c d7 26 bf
       1.2872435 2.0297596 0.53395677 -0.6517198
0002f0 fa a6 6c bf cf 1d 8a bc ea 70 ba bd be 82 4a bd
       -0.92442286 -0.016859917 -0.09103568 -0.04944109
000300 d5 16 14 be 65 ab b3 3d 90 02 38 3d 17 ba df bd
       -0.14461835 0.08772925 0.04492432 -0.10924166
000310 e9 71 05 bd c8 1c 82 3d 26 18 a8 bf e6 ca 43 bf
       -0.032579336 0.06353146 -1.313237 -0.76481473
000320 71 a6 93 bf 03 31 b1 3d e1 3c c5 bf 34 87 37 be
       -1.1535169 0.08651926 -1.5409204 -0.1792267
000330 82 98 0f c0 fa 46 80 bf 6b 6d b2 3f 33 2e ec 3d
       -2.2436833 -1.002166 1.3939642 0.11532249
000340 1d b4 85 bd 33 8e 05 bd 0d 20 a9 bb 26 79 72 3d
       -0.065284945 -0.032606315 -0.0051612915 0.059197567
000350 c5 65 56 3d b4 85 9f bc 87 90 11 3e f8 15 d5 3d
       0.05234315 -0.019472934 0.14215289 0.10404581
000360 b0 bf 0c 3d 2e dc d1 3d b5 9d b7 3d 4a 26 37 bd
       0.034362495 0.10247074 0.08965627 -0.04471425
000370 be 50 f8 3d d4 06 1a ba 58 3e a9 bd 07 a8 21 bd
       0.12124775 -0.0005875651 -0.08263844 -0.039466884
000380 ff 00 27 bc 59 49 80 bd 98 00 9d bd f5 f2 ed 3d
       -0.010193109 -0.0626399 -0.07666129 0.11618606
000390 14 3b 2c 3a ea 15 6f 3b 6f 5f ba 3c 92 cb b7 bc
       0.00065700826 0.0036481568 0.022750584 -0.022435937
0003a0 5e ef 91 3d 60 b2 fc 3d 94 76 78 3d f2 93 51 3d
       0.07125734 0.1233871 0.06065996 0.051166482
0003b0 84 8e f3 bd 46 4c 23 bd 83 11 ae bd 6f cc 6e bd
       -0.11892417 -0.039867662 -0.08499434 -0.05830043
0003c0 08 01 b2 3d b6 4d 2c bd c2 90 f1 bc e8 87 43 3b
       0.08691603 -0.0420663 -0.029487971 0.0029835645
0003d0 76 6c 63 3c 5e b7 95 3d c5 40 4c 3c 9a f2 03 bc
       0.01388084 0.07310365 0.012466614 -0.008053446
0003e0 82 0d f2 ba 98 33 52 3b 3d 27 2d bc c8 50 9b bd
       -0.001846716 0.003207421 -0.010568437 -0.07583767
0003f0 74 b1 31 bc 6d 56 b0 3b df 25 e6 3d 4b 66 50 3d
       -0.010845531 0.0053813965 0.11237692 0.050878804

conv4.bias f4 [10]
000000 dc 05 5a 3e 7a eb 97 3e 17 5a 9a bd 2d b4 80 bd
       0.21291298 0.29671842 -0.075367145 -0.06284366
000010 8f da 85 be 23 27 0f be 27 84 ff be 44 44 76 3e
       -0.2614331 -0.13979773 -0.49905512 0.24049479
000020 d9 a5 d3 be d0 a9 47 3e
       -0.4133747 0.19498372

norm.weight f4 [10]
000000 a5 31 a5 3e 3e 33 40 3e b1 ed 59 3e a6 c2 2f 3e
       0.32264438 0.18769547 0.21282078 0.17164096
000010 af a4 f2 3d c6 6e 6c 3e d8 31 cc 3e 18 e5 55 3e
       0.11847817 0.23089132 0.39881778 0.20888174
000020 4c 5b 7a 3e 32 89 2a 3e
       0.2444889 0.16653898

norm.bias f4 [10]
000000 c8 73 c8 be 16 be 77 be 4e c5 a4 be 4e 2e 21 be
       -0.39150834 -0.24193606 -0.32181782 -0.1574032
000010 f6 90 bf bd a9 aa 70 be a1 36 b8 be d7 61 52 be
       -0.09353821 -0.23502602 -0.3597918 -0.20545135
000020 a6 60 81 be cc 08 0f be
       -0.2526905 -0.139682

norm.running_mean f4 [10]
000000 14 e3 37 c4 c9 77 8b c3 89 a6 ab c3 b2 cb 24 c4
       -735.5481 -278.93582 -343.30106 -659.18274
000010 02 9d b4 42 47 98 04 c4 01 ba 9a c4 cb db 5e c4
       90.306656 -530.37933 -1237.8126 -891.43427
000020 f7 26 49 c4 e5 db 01 c2
       -804.6088 -32.46474

norm.running_var f4 [10]
000000 1b d4 30 48 17 3c e4 47 93 a2 3f 48 b7 58 93 48
       181072.42 116856.18 196234.3 301765.72
000010 54 80 cc 47 96 3a f0 47 b2 a6 a3 48 38 14 2d 48
       104704.66 122997.17 335157.56 177232.88
000020 5b 7b a3 48 06 81 34 48
       334810.84 184836.1

fc1.weight f4 [50, 810]
000000 c8 4e 9c be 61 90 ca be 11 5c 98 bf 07 5f 26 c0
       -0.30528855 -0.39563277 -1.1903096 -2.59955
000010 8a c0 3b bf c3 9b 78 3f 01 c6 ec 3b 3f 28 e4 3e
       -0.73340666 0.97112674 0.0072257523 0.44561955
000020 f5 2e 87 3f 00 35 17 c0 d2 a7 f3 be 02 e3 dd be
       1.0561205 -2.3626099 -0.47588974 -0.43337256
000030 dd 23 81 be 72 ba 47 3f 11 c1 59 bf f0 0c 8a 3f
       -0.25222674 0.7801887 -0.8506022 1.0785198
000040 a3 ac 7a bf b1 ed f4 be 52 04 12 3f 4e 5d ab be
       -0.9791967 -0.47837594 0.5703784 -0.33469623
000050 2a 70 d6 bf 11 2b 08 be 2b d3 ca be 76 db 89 bd
       -1.675298 -0.13297679 -0.39614233 -0.06731312
000060 3d 3b 7b 3e fe 6b 0c 3f d0 2d e7 be 68 6f 42 3f
       0.24534316 0.54852283 -0.4515214 0.7595124
000070 ae 24 a5 3f f8 6f 9e be ea 63 0a 40 09 b7 9d 3f
       1.2901819 -0.309448 2.1623483 1.2321483
000080 7a c9 a6 3f 15 de d9 bf 1e 15 eb be b4 28 08 3d
       1.3030236 -1.7020899 -0.4591455 0.033241943
000090 49 fe 4f bf 1b 2a 1b 3e 28 31 2c 3f 24 a4 19 bf
       -0.81247383 0.1515278 0.67262506 -0.60016084
0000a0 ac 1d 79 3f 3b 60 b8 3e d2 41 39 bf 87 83 ae bd
       0.973109 0.36010918 -0.7236606 -0.085211806
0000b0 26 c6 ba bf 09 a8 8e bf 07 3f 8c bf ff 00 c3 3d
       -1.459172 -1.114503 -1.0956734 0.09521674
0000c0 70 71 be bf b0 32 10 c0 9b bf 61 c0 d4 00 82 c0
       -1.4878368 -2.2530937 -3.5273197 -4.062601
0000d0 5f a0 8e bf 75 d3 d9 3e 21 41 87 bf c4 d6 74 c0
       -1.1142691 0.4254414 -1.0566751 -3.8256083
0000e0 15 49 83 be c9 a2 bd bf 52 43 4b bf 6a 5e c0 be
       -0.25641695 -1.4815303 -0.793996 -0.37572032
0000f0 52 f7 00 c0 f5 e3 2b 3f d7 fd 84 bf a5 ef b3 bf
       -2.0150952 0.6714471 -1.0389966 -1.4057509
000100 39 2f a8 bf b0 a3 c4 be 46 23 59 c0 46 7f 67 bf
       -1.3139411 -0.38406134 -3.392778 -0.9042858
000110 fc 86 03 bf df 62 73 c0 bb ec 7b 3d d2 86 14 bf
       -0.51377845 -3.8029096 0.06150506 -0.5801822
000120 13 0b a8 be ef 5f 7d c0 e8 ca 84 bf dd 29 20 c0
       -0.3282095 -3.9589803 -1.0374422 -2.5025551
000130 d2 d6 27 bf d5 30 f1 bf 64 ab d3 3e 31 06 ab bf
       -0.65562165 -1.8843027 0.41341698 -1.3361264
000140 83 11 81 bf d6 d7 04 3f 05 9c 11 40 77 65 58 bf
       -1.0083469 0.5189184 2.2751477 -0.84529823
000150 4a 78 dd be 20 4e d9 bf 9f b6 5b 3f 40 b4 3f 3f
       -0.43255836 -1.6976967 0.8582553 0.74884415
000160 25 17 d6 3d 7c 3c 8e 3f 4f 85 81 bf 74 70 01 3d
       0.10453633 1.1112208 -1.0118808 0.031601384
000170 54 22 e1 bf a1 62 21 bf 4b 0d 06 3f 50 71 9a 3f
       -1.7588601 -0.6304112 0.52364033 1.206583
000180 84 0e e2 3e b7 5b bd 3e ef 67 f5 3e 7c 66 89 3f
       0.441517 0.36984035 0.47930858 1.0734401
000190 b1 85 27 3f 34 81 30 bf 4e 50 44 3e f1 71 69 3f
       0.6543837 -0.6894715 0.19171259 0.91189486
0001a0 38 cb 63 3f a7 d4 23 be aa 6c e6 3d a3 37 96 3e
       0.8898196 -0.15999089 0.11251195 0.29339322
0001b0 3b f4 0a bf 0b e3 90 3e 6f 90 9a 3e 2f c3 98 3b
       -0.54278916 0.2829822 0.3018832 0.0046619396
0001c0 47 2d d5 be cb 70 c5 bd 8d d1 af 3e 7e ce 24 3f
       -0.41636106 -0.09640654 0.34339562 0.6437758
0001d0 b0 e3 a3 3c 87 54 86 be a3 9b 01 3f 31 cc c3 3d
       0.02000603 -0.26236364 0.5062811 0.09560431
0001e0 59 e9 f0 be e2 f2 86 bf 58 e0 d2 3f e9 0a 7a 3e
       -0.4705303 -1.0542872 1.6474714 0.24418224
0001f0 0f e0 7d 3f b4 d9 49 3f 4b 9a 54 3f 27 bc 17 3f
       0.9917001 0.78847814 0.8304793 0.5927147
000200 ad 9c 66 c0 e7 2e 1f c0 74 aa 7a bf b0 e9 e1 bf
       -3.6033127 -2.4872377 -0.9791634 -1.7649441
000210 47 a9 58 bf e2 64 ad 3f 9d c6 91 3f 5f 63 fc bf
       -0.84633297 1.3546412 1.1388737 -1.9717826
000220 2f 52 35 be a8 05 56 3f 5c b7 cf bf 80 63 65 be
       -0.17707132 0.8360238 -1.6227832 -0.22401237
000230 c7 57 92 bf 4a 6d bb be f5 09 57 3f 57 74 04 3f
       -1.1433038 -0.36606818 0.8399957 0.5174002
000240 4e 76 50 3f 47 fa 60 bf dd f8 f0 bf 9a c3 4d bd
       0.8143052 -0.8788189 -1.8825947 -0.05023537
000250 0e 19 2e bf 0c 6b cd bf 62 50 0f c0 50 21 26 c0
       -0.6800698 -1.6048293 -2.2392812 -2.5957832
000260 fc f8 40 3e 8b 36 81 be 29 e7 ed bf 1e 95 95 bf
       0.1884498 -0.25236925 -1.858617 -1.1686132
000270 34 ff b3 bf b3 a4 5b c0 e2 4c 8a be 5c 54 31 be
       -1.4062257 -3.4319274 -0.27011782 -0.17317337
000280 ba a5 a3 be d1 7f ed 3f 35 64 a4 bf e9 71 1b c0
       -0.31962377 1.8554631 -1.2843081 -2.4288275
000290 4f d5 97 bf 08 18 c9 bd 8f f6 6b 3d 94 ae 05 c0
       -1.1861972 -0.09819037 0.057608183 -2.0887804
0002a0 d0 ee b4 3d 8f 6f 20 3f 46 ad 09 3f 4c 28 b7 bd
       0.08834612 0.62670225 0.5378002 -0.08943233
0002b0 f3 3a 10 bf 15 3d b9 3d 68 cb 23 3f 47 d5 20 c0
       -0.5633995 0.090448536 0.6398225 -2.5130174
0002c0 75 5a 70 c0 03 92 8c bf 9e 33 bf be b5 35 e8 3e
       -3.755521 -1.0982059 -0.37344068 0.45353475
0002d0 73 00 a4 be b3 b6 b6 bd 0f f5 c9 be 22 e5 96 bf
       -0.32031593 -0.08921566 -0.39444777 -1.1788676
0002e0 73 ef 49 bf 60 35 b1 3f e3 e0 85 bd c9 86 61 bf
       -0.78880996 1.3844414 -0.06537034 -0.8809629
0002f0 1e ed 65 3f 5a 7f 4b 3f b4 c2 19 bf d3 bb a9 3e
       0.8981494 0.794912 -0.6006272 0.3315111
000300 9f f7 d2 3f c3 b9 51 3f da 17 d3 3b e7 74 e6 3e
       1.6481818 0.81924075 0.0064420523 0.45011064
000310 a0 6d eb 3e dc 07 1d bf 66 70 1b bf 0f ab 9f 3f
       0.45982075 -0.6134012 -0.6071838 1.2474078
000320 df be 1a 3e ba 28 f4 3e 67 37 d0 be 39 36 9c bf
       0.15111874 0.47687322 -0.4066727 -1.2204047
000330 1b f2 23 3f ea 48 13 c0 dd 48 52 c0 f0 17 05 bf
       0.640413 -2.3013253 -3.2856972 -0.5198965
000340 20 25 2f 3f b3 bc 47 bf 14 d9 a1 be 53 4a 0e c0
       0.68416023 -0.7802231 -0.3161093 -2.2232864
000350 c3 69 19 bf dd a2 85 bf 0a 41 ea bf 0b 57 cc bd
       -0.59927005 -1.0440327 -1.8301098 -0.0997754
000360 c2 36 09 3f e2 91 6d bf f6 53 73 be 5b f0 02 bf
       0.5359918 -0.92800725 -0.23762497 -0.51148003
000370 47 d3 0a c0 d2 6f b6 bf 22 c6 ff be 5e 14 4e be
       -2.1691453 -1.4252875 -0.4995585 -0.20124957
000380 72 ae a0 bf ba e5 87 bf d1 7a 84 3f 55 ce 99 3c
       -1.2553236 -1.0616982 1.034998 0.018775145
000390 a5 49 52 bf 15 5f 1f bf 9e af 66 bd e1 ee bc be
       -0.8214362 -0.6225446 -0.056319825 -0.36901
0003a0 84 55 b4 3f 6b 01 9f be 80 29 67 bf 68 36 f4 bf
       1.4088597 -0.3105577 -0.902977 -1.9079103
0003b0 da 79 35 bf 3b 17 63 be ef 84 8d be 81 9e c3 bf
       -0.70889056 -0.2217683 -0.27640483 -1.5282747
0003c0 cd 9d 39 be f9 42 17 bd b2 df 55 3d 3f d2 3d 3e
       -0.18126602 -0.036929104 0.052215286 0.18537234
0003d0 5e 55 16 3c cf e6 75 3e e6 78 d8 be 20 87 55 3e
       0.009175627 0.24013828 -0.42279738 0.20852327
0003e0 cf c2 8e ba 6e 88 e8 be f9 96 5d 3f e6 6c 89 3e
       -0.0010891798 -0.45416588 0.8655849 0.26840895
0003f0 c4 7a 4c bf aa f2 18 3f ec 90 79 3f 90 66 c4 3e
       -0.79874825 0.59745276 0.9748676 0.383595

fc1.bias f4 [50]
000000 59 ba 52 3f 42 e6 d8 3f e7 20 54 be 0f 7f f5 3e
       0.82315594 1.6945269 -0.20715676 0.479485
000010 fc 87 a9 bd 27 4e 89 3f a3 09 23 3f fe ab d2 bc
       -0.0827789 1.0726975 0.6368658 -0.025716778
000020 50 a0 a7 3f 58 54 18 bd 85 c7 11 bf eb 19 31 3d
       1.3095798 -0.03718981 -0.5694507 0.043237608
000030 cf 45 2c bf db 5e df 3f b5 cf 34 bd 74 80 5e 3f
       -0.6729402 1.7450823 -0.044143397 0.86914754
000040 16 29 a4 bd 36 05 73 bd d5 24 4e be 3b 78 e2 be
       -0.08015649 -0.05933114 -0.20131238 -0.44232354
000050 6f 2c b0 3f 00 70 56 40 25 44 59 be 3d ec 7b bc
       1.376356 3.350586 -0.21217401 -0.015376148
000060 ef 47 25 be 7f 88 59 bf 10 99 10 bd ca 36 15 3f
       -0.16140722 -0.849739 -0.03530222 0.58286726
000070 2e ed f5 3f 45 4a 11 be 39 65 8e bd 2a 0a 48 be
       1.9213006 -0.14188488 -0.069529004 -0.19535127
000080 51 54 37 3e 42 bf 20 40 23 c2 cf bc ad 8e c4 be
       0.17903258 2.5116735 -0.025361126 -0.38390103
000090 cc 5a 6e be 67 bc b9 3f 1f b8 47 be 89 df ef bd
       -0.23276824 1.4510621 -0.1950383 -0.11712558
0000a0 ba be d9 bd d8 70 32 40 cd 14 9a bd df d1 21 be
       -0.10632081 2.7881374 -0.07523499 -0.15802716
0000b0 a5 06 47 bd 52 d6 2c 3f df 28 4b 36 af 7e b6 3f
       -0.04859032 0.67514527 3.0273147e-06 1.4257411
0000c0 65 a8 2b 3f a9 26 09 40
       0.67053825 2.1429846

fc2.weight f4 [7, 50]
000000 74 e8 d9 be dd 52 f7 3d 53 27 9b bd c1 be 8e be
       -0.4256016 0.12076352 -0.0757586 -0.2787991
000010 1a fd af bd e5 8a 35 be 57 7c 41 bf f5 28 27 bd
       -0.08593197 -0.17728765 -0.7558035 -0.040810544
000020 ba 36 c1 bd 64 7f 55 bd f2 67 ab bf a9 7f 08 be
       -0.094342664 -0.052123442 -1.3391097 -0.13329948
000030 06 9c 27 3e 27 15 9c bd 9f 6a d4 bc 41 9c d9 bc
       0.16368112 -0.07621222 -0.025929747 -0.026563765
000040 0f 7c a8 bd 2f 92 6f 3a 66 f3 66 be 7a 0b 30 be
       -0.08226787 0.00091389095 -0.22553787 -0.17191878
000050 ef fd 34 bd fd 4f 1d 3e d1 59 0c be a8 43 66 3d
       -0.044187482 0.15362544 -0.13706137 0.056216866
000060 d9 e3 8d bd 87 30 7e 3e e9 81 c1 bd f3 05 af bd
       -0.06928224 0.24823199 -0.094486065 -0.085460566
000070 d9 7a 31 be 49 78 1f 3d 37 4a a5 bb c8 43 2c 3e
       -0.17332019 0.038933072 -0.0050442475 0.16822731
000080 6b fb d4 bd 0a 54 51 3e 3f bc ed be c0 0b 1d bf
       -0.10399517 0.20442215 -0.46432683 -0.61346054
000090 e5 50 48 be 5e 38 84 3e 81 40 07 be e9 71 62 bd
       -0.19562109 0.25824255 -0.132082 -0.055284414
0000a0 f1 bc 29 3a be d6 9c bd df ff 42 bf 05 f7 4c be
       0.0006474993 -0.07658146 -0.7617168 -0.20016105
0000b0 f0 89 c0 bd 96 87 4c be 3e c3 9f 3d 2d 2d 45 3e
       -0.094013095 -0.19973597 0.07800911 0.19255514
0000c0 b2 99 9a 3d 95 1a 3d be 49 d4 9e bd 37 fc c8 be
       0.07548846 -0.18467171 -0.07755334 -0.39254925
0000d0 e6 fc a7 bd fc 76 ae be 27 8d 83 3b 70 2c af bd
       -0.082025334 -0.34075153 0.0040146294 -0.08553398
0000e0 b2 ce 8a bf b1 b7 99 3d c1 4f 4b 3e f9 83 98 3c
       -1.0844328 0.075057395 0.19854642 0.018617617
0000f0 5f d5 e0 c0 90 4d 09 bf b6 6c c7 bd 88 3e cd bd
       -7.0260463 -0.53633976 -0.09737532 -0.100216925
000100 35 b2 d7 3c 71 ef d8 3d 6d ea 28 bd 0f 54 18 bd
       0.026330093 0.10592545 -0.04123919 -0.03718954
000110 f3 6c e7 bd ae f4 5b bd c8 fb 82 be 98 fb 8d bd
       -0.11300077 -0.05370014 -0.2558272 -0.06932753
000120 7f fb 7a bd fb 12 a4 3c 19 7c 86 3c 63 cb 4a be
       -0.061275 0.020028582 0.016416596 -0.19804148
000130 02 01 f0 bd 62 e9 ad be 18 92 8d be 48 1d ce 3d
       -0.11718942 -0.3396712 -0.27650523 0.10064179
000140 9f 71 82 bd c4 64 d1 3d 21 bf 28 3d 5d ec a1 be
       -0.06369328 0.10224298 0.0411979 -0.31625643
000150 da c5 4e bf 22 cd d5 bf 09 98 5d bc 62 4f a6 be
       -0.8077065 -1.6703227 -0.013525018 -0.3248244
000160 90 97 68 be 73 27 e0 3c 4b 02 87 bd c5 09 e4 be
       -0.22714067 0.02736256 -0.06592234 -0.44538704
000170 9d 9b 39 bf 55 74 1e bd 3f e5 e1 3d 56 35 77 bd
       -0.7250307 -0.03868516 0.11030053 -0.0603536
000180 d1 d2 b7 3d c4 f3 23 3f 58 36 81 bd 3b fb 11 bd
       0.08975757 0.6404383 -0.063091934 -0.035639983
000190 3d 26 a5 3e 3f 76 e2 be bb e9 0a bd a7 03 84 be
       0.32255736 -0.4423084 -0.03391431 -0.25784037
0001a0 f0 2a 3a 3d 3d 85 fc bb 3d 31 55 bf 51 9d ba 3d
       0.045451105 -0.007706313 -0.83278257 0.09112037
0001b0 2e f7 87 bd d4 68 58 3d 6b 84 bc 3e 78 63 8b be
       -0.06638943 0.052834347 0.36819777 -0.27224326
0001c0 fb be 8e 3c dc 1c 84 be f7 55 00 3d aa bf 96 3e
       0.017425051 -0.25803268 0.031331982 0.29443103
0001d0 30 4d c7 bd 4d 4b 41 3c 24 00 90 be 9c 72 dc bc
       -0.09731519 0.011797738 -0.28125107 -0.026910119
0001e0 60 d3 04 be f6 9b 9d 3b df 67 81 3d d7 f2 15 bd
       -0.12971258 0.0048098518 0.0631864 -0.036608543
0001f0 6b 69 19 be 66 c2 44 3e 23 a0 5e bb 11 c1 76 bd
       -0.1498162 0.19214782 -0.003396996 -0.060242716
000200 b6 df 2f be 44 3a b3 3d a1 7d 0f be 7b e1 45 3c
       -0.17175183 0.08751348 -0.14012767 0.0120776845
000210 9a 37 8a bd 39 31 e2 ba a4 d5 d5 bd 71 35 d4 3e
       -0.067488864 -0.0017257101 -0.10441139 0.41447023
000220 7d 78 26 3e bd 4f ac bb 2e f7 3e be 2f ef de bb
       0.162569 -0.005258529 -0.18648979 -0.0068034153
000230 6c c3 8d bd 74 b2 db bd ee 64 20 bf c4 46 43 be
       -0.069220394 -0.107273966 -0.62654006 -0.19069964
000240 d5 75 f9 bd 11 d2 91 3e 0a b2 a6 3c cb d0 83 bc
       -0.12180678 0.2848058 0.020348568 -0.016090771
000250 37 3f 62 bd d8 ff 0b be 5e 9b c3 be 47 85 21 bf
       -0.055236068 -0.13671815 -0.38204473 -0.6309399
000260 01 69 75 3d ec d1 ee be 41 05 a7 3d 73 7e 16 be
       0.059914593 -0.46644533 0.08155299 -0.14696674
000270 4a 5b 18 bf 16 f4 fc bb bf 80 f0 bd 62 a1 d7 3d
       -0.59514296 -0.007719527 -0.11743306 0.10528828
000280 ac d4 db bf 59 4a b8 3e d4 96 2d bc ff 1e 99 3e
       -1.7174277 0.35994223 -0.010595042 0.2990646
000290 20 d8 87 bc 07 9c 18 be cb d1 89 3c 02 72 94 bc
       -0.016582549 -0.1490327 0.01682367 -0.01812077
0002a0 8d 40 a5 bd 88 e2 a6 bd 8b f9 a9 3e 96 c5 c6 bc
       -0.08068953 -0.08148676 0.331982 -0.024264138
0002b0 4a 25 84 3c 4e fb 5e 3d 41 45 0f 3d c2 7b 1d bd
       0.016131062 0.05443888 0.034978155 -0.038448103
0002c0 8a 9b 5a bd 4a 3b a0 3d 6f 75 99 3e bf 6f e0 bc
       -0.05337099 0.078238085 0.29972407 -0.027397035
0002d0 7f b6 8d 3d b4 a8 ed 3d ed b4 26 be b2 fd 58 bd
       0.06919574 0.11604443 -0.16279955 -0.052976318
0002e0 fa 9d d2 be 3e 98 50 bf 06 e2 01 bd 61 dc c4 be
       -0.41136152 -0.81482303 -0.031709693 -0.38449386
0002f0 56 06 3e be c4 3e 79 bd 6a da e6 3d ba a4 b2 3e
       -0.18557104 -0.060850874 0.11272128 0.348913
000300 63 4c c8 bd dd 0a d3 3d 20 f0 68 bd 74 7e cf bb
       -0.097801946 0.103048064 -0.056869626 -0.006332213
000310 71 b0 1c bd 14 5b 3d be 5f e6 e3 be 2d 98 4a 3e
       -0.038254205 -0.18491775 -0.44511697 0.19784613
000320 0a 7e 81 be c4 ff 28 bf 66 3a bb bd 86 fd d3 be
       -0.25291473 -0.6601527 -0.09141998 -0.4140436
000330 f6 43 0a 3e d0 08 be bd e3 7f 4f bf c8 47 38 bb
       0.13502488 -0.092790246 -0.81054515 -0.0028118957
000340 f2 68 2d bd 9d d5 94 bc 9f aa 4c bf 79 e3 6a 3d
       -0.04233641 -0.018168265 -0.7994785 0.05734584
000350 61 74 5b be 6e e9 1e be ec 94 eb 3d 5a b8 fe 3d
       -0.21431114 -0.15518734 0.11503014 0.12437506
000360 8f 23 2e bd fc 4b 4f bd 35 3b 38 3d 92 cb e9 be
       -0.04251438 -0.050609574 0.04497834 -0.45663124
000370 2b 6f 6e bd 77 38 89 3e 7a 07 27 bd 7f aa 2b bd
       -0.058211487 0.26800892 -0.040778615 -0.041910645
000380 54 b9 5c 3b 14 d5 13 be 28 08 4d bd 6d bf 92 3d
       0.00336798 -0.14436752 -0.050056607 0.07165418
000390 11 11 4b be 51 67 b8 bd e7 4b 1b bd 1b 23 ef bc
       -0.19830729 -0.09004081 -0.037914183 -0.029191544
0003a0 cf 73 9a 3e 1b 36 ae 3d 97 e9 ee bd 80 04 04 bf
       0.3016648 0.085064135 -0.116656475 -0.51569366
0003b0 d5 a8 ca 3c fe 6c cc 3d a2 26 8c 3d fe aa ae 3d
       0.024738709 0.09981726 0.06843306 0.08528708
0003c0 b9 33 77 bb 9c 99 5c be 42 7e 1f bf 19 18 07 be
       -0.0037720038 -0.21542972 -0.6230203 -0.13192786
0003d0 bc 1c 8b 3d c0 ee 83 be e4 9c 5b 3c 67 89 c2 bd
       0.0679259 -0.2576809 0.013404105 -0.09498864
0003e0 96 af db bc 61 29 ac bd 0c 61 21 be ae 0c 52 bd
       -0.026817124 -0.0840633 -0.15759677 -0.051281624
0003f0 5c f3 c2 bd 91 e6 9b 3e b8 80 d0 3d c9 b7 a2 3e
       -0.09519073 0.30449346 0.10180801 0.31780842

fc2.bias f4 [7]
000000 3c 5c b0 be ea 7d dc bf 3d bc be 3d 6b f3 0c 3e
       -0.3444537 -1.7225926 0.09313247 0.13764732
000010 65 69 fd 3e 7c f4 b8 be 28 e4 99 3e
       0.49494472 -0.36124027 0.30056882

localization.0.weight f4 [8, 1, 7, 7]
000000 11 ac 3b 3d e0 54 ae bc 7d 0d a0 3d 22 e9 06 3e
       0.045818392 -0.021280706 0.07815073 0.1317487
000010 51 a3 50 3d 98 89 de 3d 70 82 2d 3e f0 dd 3d 3e
       0.050937 0.10866088 0.16944289 0.18541694
000020 d8 dd f4 3d f5 7f 7a 3e 26 6e df 3d ed 88 2d 3e
       0.11956376 0.24462874 0.10909681 0.16946764
000030 e4 35 6a 3e cf 5e 44 3c 00 9d 06 bd 08 07 af 3d
       0.2287212 0.011985495 -0.03286457 0.08546263
000040 8a d4 52 3e 33 e6 37 3b 83 16 40 3e 6d 63 19 3e
       0.2058889 0.0028060793 0.18758588 0.14979334
000050 f6 6d 98 bd d2 63 a7 3d d2 cd 95 bd 3a ad 55 bd
       -0.074428484 0.08173336 -0.07314648 -0.052167155
000060 16 b2 41 3e 49 83 46 3d 03 5f 61 3c 3d 44 b6 3c
       0.1891559 0.048465047 0.013755563 0.022249335
000070 3e f8 41 3d 23 11 a4 bd 9e 82 3f 3e a5 eb e2 3b
       0.047355883 -0.08011081 0.1870217 0.0069250637
000080 b1 5f ea 3d a5 fa 14 3e ac d7 29 bc cf b1 f2 3d
       0.11444033 0.14548738 -0.010366362 0.118503205
000090 ed ad a9 bd 62 5c 42 3e 6d 7f 09 3e f2 f4 23 3d
       -0.08285127 0.18980554 0.13427515 0.04002852
0000a0 63 8a 01 3e 24 e8 81 bd 17 72 8b bc 33 d3 02 3e
       0.12650447 -0.063431054 -0.017022176 0.12775879
0000b0 d2 fd 28 3d 9e 6a 79 bd 94 c3 fd 3c 7b c1 03 3e
       0.041257687 -0.060892694 0.030977048 0.12866776
0000c0 24 93 1c bc ab 75 de bd 80 25 96 bc 4d 0a a4 3d
       -0.009556565 -0.10862287 -0.018328428 0.08009777
0000d0 e4 a9 e0 bd 89 85 c0 bc df 56 42 3d d4 0a 82 39
       -0.10969904 -0.023501175 0.047446128 0.000248036
0000e0 62 15 0f 3e 6f 11 cb 3d 60 cd 07 be 6e a5 4d 3d
       0.13973 0.099154346 -0.13261938 0.050206594
0000f0 fc e7 cc 3d b1 42 e3 bd 8a ca 86 bc b6 e1 ca bc
       0.10005185 -0.11096705 -0.016454 -0.02476583
000100 94 8a db bd 99 8a a0 3d 1a aa c0 bd 27 3c 7a bd
       -0.10719791 0.078389354 -0.09407444 -0.061092522
000110 f3 62 57 3d 0e 7c 4d be f3 ea d3 bd ea 19 f8 bd
       0.0525846 -0.20066854 -0.103475474 -0.12114318
000120 ad 59 26 3d b7 32 c9 3d 62 99 e3 bd 0d b1 00 bd
       0.040612865 0.09824126 -0.1111324 -0.03141885
000130 03 77 80 bd cc f8 cd 3d b9 6e d7 bc 9f 1c 3a 3d
       -0.062727 0.1005722 -0.026297914 0.04543745
000140 e9 4e a9 3c fd fe c3 bd a3 5a 9f bd fa 85 c0 bd
       0.02066751 -0.095701195 -0.077809595 -0.09400554
000150 60 c0 33 be 56 22 8b 3d b6 11 13 bc e4 c5 99 3d
       -0.17553854 0.067936584 -0.008976391 0.07508448
000160 68 b5 c7 bd c3 41 55 bd 69 07 85 3a 50 d7 94 bb
       -0.09751397 -0.05206467 0.0010149303 -0.004542269
000170 06 33 ae bd de 7a 49 bd c7 06 0e be 9f 6b ad 3d
       -0.08505826 -0.04918944 -0.13869773 0.08467793
000180 3c 17 15 bd f5 bb 1e be 21 ea 4c bd ae cc aa bc
       -0.03639911 -0.15501387 -0.05002797 -0.020849552
000190 af 0a 4f 3d 6b 15 aa bd c1 35 c0 3d 36 b7 f1 3d
       0.050547298 -0.083048664 0.09385253 0.11802523
0001a0 e3 e2 3a bc 68 38 a0 3d 3a b4 1d bd 52 81 d6 bd
       -0.011406633 0.07823259 -0.038501956 -0.10473885
0001b0 22 4c 05 3e bf 16 84 3d dd 44 37 bd 83 07 fa bd
       0.13017324 0.06449651 -0.044743408 -0.12208464
0001c0 a8 c0 22 3b 00 a4 14 bd 9b 69 f9 bb c9 70 03 3e
       0.002483407 -0.036289215 -0.007611466 0.12835993
0001d0 b7 c9 cf bd c8 d5 a5 3d 88 d5 68 bd 75 5a b2 bd
       -0.10145896 0.08097416 -0.056844264 -0.087086596
0001e0 32 0a 83 bd 8e bc 9f bd 24 d4 e2 bb 79 59 25 be
       -0.06398429 -0.07799636 -0.006922262 -0.16147412
0001f0 03 37 01 be 93 0d 0c 3d 6d 17 00 3e e9 68 23 bd
       -0.12618642 0.034192633 0.12508936 -0.039894972
000200 fe ba 38 3d a5 89 b1 ba bf e6 b2 3d 04 1e 9c bc
       0.045100205 -0.001354505 0.087354176 -0.019057281
000210 73 42 6a 3d 75 7c 13 3e 28 00 cd bd 67 6b cd bd
       0.057192277 0.14402945 -0.100097954 -0.10030251
000220 01 6e c3 3c be 05 3e bd d5 ad 84 3b 0a df 6d 3c
       0.023856165 -0.046392195 0.0040490427 0.014518509
000230 55 1b 0a be 38 7b 8c 3d 30 dd 26 3c d5 68 6a 3d
       -0.13486989 0.068594396 0.010184571 0.057228882
000240 c7 30 a6 bd 2c 15 37 be b1 76 38 be c7 30 c4 bc
       -0.08114772 -0.1787917 -0.18014027 -0.02394904
000250 3d 9f c2 bd e4 d9 bd bd b7 08 1d bd e2 d9 33 3c
       -0.095030285 -0.09270075 -0.03833839 0.01097724
000260 67 e6 58 3d 76 c7 97 bd 39 ba 88 3d 46 3d 8a bc
       0.052954104 -0.07411091 0.06676144 -0.01687492
000270 fd 17 8a bd b3 e9 01 3e 68 d0 c1 3d 21 20 90 bd
       -0.06742857 0.12686805 0.094635785 -0.07037378
000280 04 2d ac 3d 30 9e 06 3e f9 38 f5 3d 20 09 93 3d
       0.084070235 0.13146281 0.11973757 0.07179475
000290 ca 8d 03 3e e9 72 31 3c 7b e0 f0 bd 2a 97 f7 3d
       0.12847057 0.010830619 -0.11761566 0.12089379
0002a0 9c 7e 90 3d 80 e0 43 3d a9 b6 f9 3c a4 ed 98 bc
       0.07055399 0.04782152 0.030482607 -0.018668003
0002b0 af 69 04 bd a4 ab fb bd 0b eb 0c 3e c7 98 c3 3d
       -0.03232735 -0.12288597 0.13761537 0.09550624
0002c0 24 86 84 bc d5 0c d4 3d 49 eb 91 3d a7 b0 a2 3d
       -0.016177244 0.1035401 0.07124955 0.0794385
0002d0 ff b3 a3 3d 53 c2 11 be f8 42 52 3d 31 45 44 be
       0.07993316 -0.14234285 0.051333398 -0.1916702
0002e0 4c 73 9b 3d ef d6 0d bd b7 ce 93 bd cd 7f 4a 3c
       0.075903505 -0.034628805 -0.07217162 0.012359572
0002f0 b9 fb 92 bd ff 56 1d be fb 57 18 be aa 70 7e 3c
       -0.071769185 -0.15365218 -0.14877312 0.015529791
000300 55 c6 c7 bd 2f 4c 07 bc b4 b2 61 3c 2c c8 84 3d
       -0.09754626 -0.00825791 0.013775516 0.06483492
000310 f7 9a 9b bd cb 86 18 be b1 b7 37 bc 08 d2 bf 3d
       -0.075979166 -0.1489517 -0.011213229 0.09366232
000320 3d e2 0a 3e 92 6b 20 bc 38 b9 3f bd fa fc ff bd
       0.13562866 -0.009791272 -0.046807498 -0.12499423
000330 13 64 b0 bd 2f d3 d8 3d 00 33 bc bd 76 d5 d1 3d
       -0.08612838 0.10587155 -0.09189415 0.102457926
000340 92 cf 11 3e 47 05 ee 3d c6 38 a1 bd 93 e1 9f bd
       0.14239338 0.116221 -0.07872157 -0.07806697
000350 c6 42 6f 3d 46 41 b5 bb 35 b8 18 3e 58 56 96 3d
       0.05841329 -0.005531463 0.1491402 0.073406875
000360 01 27 a7 3d 4f 9b 04 ba 1f c1 68 3d 50 91 64 bb
       0.08161736 -0.0005058543 0.0568248 -0.0034876652
000370 0f 1f d0 3d e1 79 83 bd 8d 2d 49 bd 48 82 01 3e
       0.10162174 -0.06419731 -0.049115706 0.12647355
000380 c7 a5 b2 bd b5 ea 05 bd d9 9a 12 bd 90 a9 ab 3d
       -0.08723026 -0.032694537 -0.035792205 0.08381951
000390 50 e1 90 bd c0 6f 63 3a 15 be e6 ba e7 c4 2d be
       -0.07074225 0.0008676015 -0.0017604256 -0.16969644
0003a0 f8 f3 a4 bb 61 b0 8c 3d 6e fd e3 bd b7 c8 dc 3d
       -0.005033966 0.06869579 -0.11132322 0.10780471
0003b0 03 3b f0 3d c4 7a 54 3d b4 f9 1a 3d 93 c2 0e be
       0.117300056 0.05187489 0.03783579 -0.13941412
0003c0 45 db 06 bc 59 87 dd 3c 25 82 4b 3d b9 3f 21 be
       -0.008230989 0.027042078 0.049684662 -0.15746965
0003d0 1f 55 71 3d 5c 7a 6b bc 3f d2 1c 3e f0 a7 e6 3d
       0.05891907 -0.0143724345 0.15314578 0.112625
0003e0 81 74 ee 3d 4a c7 83 3b 7f 18 de 3c 7a de 70 3c
       0.11643315 0.00402156 0.02711129 0.01470148
0003f0 03 a0 c7 3d 43 56 ca 3d 0f 48 47 bd b0 ee a4 3d
       0.09747317 0.09879734 -0.048652705 0.080533385

localization.0.bias f4 [8]
000000 c0 6d 36 3e ba 79 8e bd 8f e4 9c bd 03 10 5b be
       0.17815304 -0.06956811 -0.076607816 -0.21392827
000010 f1 38 30 bd 66 58 d9 bd 3f 2d 4c be e0 2b 70 be
       -0.043023054 -0.10612564 -0.19939135 -0.23454237
