EmpathyBot/model_snapshots/deep_emotion-200-64-0.005-0.5459780791380271.pt (torch_old, 271009 bytes, 24 tensors)

conv1.weight f4 [10, 1, 3, 3]
0	0xbe6d53e4	-0.23176533
1	0xbea38267	-0.31935427
2	0xc035ed64	-2.8426142
3	0x3eda6322	0.42653757
4	0x3f451029	0.76977783
5	0x3deca3ca	0.11554678
6	0xbfbc16ab	-1.4694418
7	0x3f8a6670	1.0812511
8	0x4027cccf	2.6218755
9	0xbfdba432	-1.7159483
10	0x3efc1274	0.4923283
11	0x400999bf	2.150009
12	0xc030f104	-2.7647104
13	0xbf222a90	-0.63346195
14	0x40210c87	2.5163896
15	0xbf40b373	-0.7527382
16	0x3f04af28	0.5182977
17	0x3e4188af	0.18899797
18	0x3fd430b9	1.6577369
19	0xbf011ad5	-0.5043157
20	0xbf9319a7	-1.1492203
21	0x3fd0d340	1.6314468
22	0xbeaadb40	-0.333704
23	0xbfa1bbfe	-1.2635496
24	0xbf002721	-0.50059706
25	0xbf213fe7	-0.6298813
26	0xbfa45a24	-1.2840009
27	0x3fe79c63	1.80946
28	0x401e4a08	2.4732685
29	0x3f26183a	0.64880717
30	0xbf73f1e9	-0.95291
31	0x3e653aef	0.22385763
32	0xbe5cbaeb	-0.21555679
33	0xbff1a48f	-1.8878344
34	0xbf803f4a	-1.0019314
35	0xbf82b774	-1.0212235
36	0xbcf3c22b	-0.029755672
37	0xbeb1ff7f	-0.3476524
38	0x3e00e999	0.1258911
39	0xbd36f42f	-0.044666465
40	0xbf65a487	-0.89704174
41	0xbf4d89e7	-0.8028855
42	0x400a2d7d	2.1590264
43	0x3f03c1c0	0.51467514
44	0xbf7a8159	-0.9785362
45	0x3f92e031	1.1474668
46	0x40104895	2.25443
47	0x3f991e38	1.1962347
48	0x3feda8af	1.8567103
49	0xbe414b9c	-0.18876499
50	0xc06d77b1	-3.7104304
51	0x3dc83636	0.09775965
52	0x3e0d2fbf	0.13787745
53	0xbfe60a02	-1.7971804
54	0xbc9552b2	-0.018227909
55	0xbc2611a3	-0.010136041
56	0xbff99796	-1.9499385
57	0x3f98443a	1.1895821
58	0x3f242e12	0.641328
59	0xbff41f99	-1.9072143
60	0x3ff82772	1.9387038
61	0x3f4aaa81	0.7916642
62	0xbf1a2d55	-0.6022542
63	0xbe54d6b7	-0.20785032
64	0x3e86cb95	0.26327196
65	0x3f3e8572	0.7442237
66	0xc038dbd5	-2.8884175
67	0xbeac834e	-0.33693928
68	0x3f5355d0	0.82552814
69	0xbec47408	-0.38369775
70	0x3fee9c30	1.8641415
71	0x3f437336	0.7634767
72	0xc0150690	-2.3285255
73	0xbf4a2b38	-0.78972197
74	0xbf002159	-0.50050884
75	0x3e12a007	0.14318858
76	0x3f3192e9	0.6936479
77	0x3e87b684	0.26506436
78	0x3ffcd0e2	1.9751246
79	0x40058998	2.086523
80	0xbfa15af0	-1.2605877
81	0x3fa52717	1.2902554
82	0xbf30f094	-0.69117093
83	0x401517a2	2.3295674
84	0xbf845473	-1.0338272
85	0xc021340a	-2.5188012
86	0xbfc21642	-1.5163043
87	0x3e7bbec9	0.24584498
88	0x3f7ba052	0.98291504
89	0x3fa691ba	1.3013222

conv1.bias f4 [10]
0	0x3ef28e79	0.47374323
1	0xbebb92e7	-0.36635515
2	0xbf4d1794	-0.801141
3	0x3eea0b02	0.45711523
4	0xbd433194	-0.047654703
5	0xbf656bab	-0.89617413
6	0x3f4f8ec6	0.8107723
7	0x3f7b7abd	0.9823416
8	0x3f30c0bd	0.69044095
9	0x3e473511	0.19453837

conv2.weight f4 [10, 10, 3, 3]
0	0xbdaa6c59	-0.08321447
1	0xbdeda161	-0.11603046
2	0xbdc99291	-0.098424084
3	0xbe2c637e	-0.16834828
4	0xbdd4d080	-0.10391331
5	0xbdef5731	-0.11686552
6	0xbdc9ab6d	-0.0984715
7	0xbe81953d	-0.25309172
8	0xbdebdc4a	-0.11516626
9	0xbdbb33f6	-0.0914077
10	0x3ceb4f88	0.028724447
11	0xbcb1de18	-0.021712348
12	0x3c8aeece	0.016959574
13	0x3d094394	0.033511713
14	0x3c2259a8	0.009909071
15	0x3ce6a505	0.02815486
16	0xbe102257	-0.140756
17	0xb9488056	-0.00019121295
18	0xbd148119	-0.03625593
19	0x3d150328	0.036379963
20	0x3d7d9fd9	0.06192002
21	0xbe08c70a	-0.13357177
22	0x3c18c035	0.0093231695
23	0x3c222829	0.00989727
24	0x3c8d7c4f	0.017271189
25	0xbdd4dede	-0.10394071
26	0xbe07fe77	-0.13280664
27	0xbe0418a4	-0.12900025
28	0xbdf268cc	-0.11836395
29	0xbc68e915	-0.014215727
30	0xbe8fd63f	-0.28093144
31	0xbe88a1c7	-0.26685926
32	0x3d13808e	0.03601127
33	0xbde5460d	-0.11195002
34	0xbe12f655	-0.1435178
35	0xbe41c473	-0.18922596
36	0xbd3517a4	-0.044212
37	0xbdbdd3f1	-0.0926894
38	0xbe6a4911	-0.22879435
39	0xbd89a3dd	-0.067207076
40	0xbe34e35b	-0.17664854
41	0x3dd800e5	0.105470456
42	0xbc9f730f	-0.019464044
43	0xbdcfdb99	-0.10149307
44	0xbe5b2af4	-0.21403104
45	0x3ccdbe17	0.025115056
46	0xbdb134b1	-0.08652628
47	0xbd27675f	-0.040870067
48	0xbcfd768f	-0.030940322
49	0x3d960a9f	0.073262446
50	0x3c0a98e5	0.008459304
51	0xbacfe5f5	-0.0015861379
52	0xbd24e66f	-0.04025882
53	0xbdd6f6d2	-0.10496296
54	0xbe5c6ee5	-0.21526678
55	0xbdd9400a	-0.106079176
56	0xbdd03fb2	-0.10168399
57	0x3d405cd2	0.04696352
58	0xbe8d6fd1	-0.27624372
59	0xbe7c5526	-0.24641857
60	0xbd96a633	-0.07355919
61	0x3bcdd744	0.006281765
62	0xbe10ac1c	-0.14128155
63	0xbe71affd	-0.2360229
64	0xbe4c30f2	-0.19940546
65	0xbd5c992c	-0.053857014
66	0xbdf192a0	-0.117955446
67	0xbe172bf4	-0.1476286
68	0x3cf2f53c	0.029657952
69	0xbe637c8d	-0.22215481
70	0xbdd149a0	-0.10219121
71	0xbdb4656b	-0.088084064
72	0xbe6d21e7	-0.23157464
73	0xbdb8dc4c	-0.09026393
74	0xbe463ced	-0.19359179
75	0xbe4c8425	-0.19972284
76	0xbe2fe64c	-0.17177695
77	0xbe7e2b87	-0.24821292
78	0xbdc79cc1	-0.09746695
79	0xbc95c725	-0.018283436
80	0x3d377f5b	0.04479919
81	0xbdd24f17	-0.102689914
82	0x3d52e0c7	0.051483896
83	0xbd84b6b3	-0.064801596
84	0xbe31cfe4	-0.1736446
85	0xbcfa64c0	-0.03056562
86	0x3c503308	0.012707479
87	0xbd3b10b5	-0.04567023
88	0xbe6493c1	-0.22321989
89	0xbd9853c6	-0.074378535
90	0xbf6b47eb	-0.91906613
91	0xbf4ed547	-0.80794185
92	0xbe21dc86	-0.1580678
93	0x3e88ae22	0.26695353
94	0xbea23ac8	-0.31685472
95	0xbe8e9d24	-0.27854264
96	0xc056e022	-3.35743
97	0xbf5f9b7c	-0.87346625
98	0xbfd076a2	-1.6286204
99	0x3eaca257	0.33717605
100	0xbf37dab1	-0.7181807
101	0xbf09b69f	-0.5379428
102	0xbeb0ac91	-0.34506658
103	0xbfa52dbd	-1.2904583
104	0xbf8eedbb	-1.11663
105	0xbe98b130	-0.29822683
106	0xbf7f2304	-0.99662805
107	0xbf78149e	-0.9690646
108	0xbf46f390	-0.77715397
109	0xbf41625c	-0.7554071
110	0xbfb10d8e	-1.3832262
111	0x3e3e7b41	0.18601705
112	0xbd8cf2e5	-0.06882266
113	0x3c757466	0.014981365
114	0x3fb0a3eb	1.3800024
115	0x3e6825b1	0.22670628
116	0x3f34abf5	0.70574886
117	0xbe9ebfec	-0.310058
118	0xbfb0792e	-1.3786981
119	0xbfe4f814	-1.7888207
120	0x3f9626fb	1.1730646
121	0x3f5f070c	0.8712013
122	0xbdc0b39b	-0.09409257
123	0x4002682c	2.0376081
124	0x3fb2a49a	1.3956482
125	0x3faa3223	1.329655
126	0x3ef15db0	0.4714179
127	0xbdea4611	-0.11439145
128	0xbd828477	-0.06372922
129	0xc03bcea3	-2.934487
130	0x3b07ed0c	0.0020740656
131	0x400b341a	2.175055
132	0x3edbf1f4	0.42958033
133	0x3f757d11	0.9589396
134	0xbe9fae17	-0.31187508
135	0x400196f1	2.0248377
136	0x3f2acbfe	0.6671752
137	0x3ef3a2ce	0.47585148
138	0xbf8f218f	-1.1182116
139	0x3e9b6d7b	0.30356964
140	0x3f6aee44	0.91769814
141	0xbfb636d8	-1.4235487
142	0xbf76c9c0	-0.96401596
143	0xbc918571	-0.017763825
144	0xbe2c78cf	-0.1684296
145	0xbe5d8a1f	-0.2163472
146	0x3f17a6c7	0.5923886
147	0xbf9528a1	-1.1653024
148	0xbe01d72c	-0.12679738
149	0x3ef362d2	0.4753633
150	0xbf6a5455	-0.9153493
151	0xbda31131	-0.079622634
152	0xbfadf6bd	-1.3590924
153	0x3f32bcf3	0.69819564
154	0x3f041b20	0.5160389
155	0x3ee85e6a	0.45384532
156	0xbfbbfc28	-1.4686327
157	0x3ebcc91a	0.36872178
158	0x403ea8f8	2.979063
159	0x3eed74b7	0.4637811
160	0x3e14203d	0.14465423
161	0x3f93f5d6	1.1559398
162	0x3fc7201d	1.5556675
163	0x3f3db040	0.7409706
164	0x3f3c556b	0.7356784
165	0xc05cafaf	-3.4482229
166	0xbff84014	-1.9394555
167	0x3f554fdc	0.8332498
168	0xc00de0a6	-2.2168365
169	0xc009053f	-2.1409452
170	0xc0243f99	-2.5663817
171	0xbf1505ac	-0.5821178
172	0xbf17a2eb	-0.5923297
173	0xbf698824	-0.9122336
174	0xbf206e1f	-0.6266803
175	0xbd706de3	-0.058698546
176	0x3ff01179	1.8755332
177	0x404500fb	3.0781848
178	0xbe6c089c	-0.23050159
179	0xbfbee5bf	-1.4913863
180	0xc04e3020	-3.2216873
181	0x3fba8283	1.4571079
182	0xbfa20a08	-1.2659311
183	0x3f18dd1a	0.59712374
184	0x4001c7e0	2.0278244
185	0xbf340a37	-0.70328087
186	0x3fab371f	1.3376197
187	0xbeb0e8ff	-0.34552762
188	0xbfc1f815	-1.5153834
189	0xc027f3b2	-2.624249
190	0x3fa42280	1.2823029
191	0x3fb9b2a6	1.4507644
192	0xc08248ce	-4.0713873
193	0xbf31a380	-0.69390106
194	0xc0053fd7	-2.0820215
195	0xc0a0f4f2	-5.0299006
196	0x3d3d22d2	0.046175785
197	0x4019b7cb	2.4018428
198	0x3e94c5af	0.2905707
199	0x3ea53abd	0.32271376
200	0xbfb7f542	-1.4371722
201	0x3fd7b1c4	1.6851125
202	0x3f44fee6	0.76951444
203	0xbfd87403	-1.6910404
204	0x3fde2e8b	1.7357954
205	0x3fa882a1	1.3164865
206	0xbf483875	-0.78211147
207	0xbf8f7e54	-1.1210427
208	0x3f0fc09f	0.5615329
209	0x3ff1f202	1.890198
210	0x3f08d27e	0.53446186
211	0x3f5d004a	0.86328566
212	0x3eee4a01	0.46540835
213	0xbf28ff3e	-0.6601447
214	0x3f4afe6a	0.79294455
215	0x3f8ca332	1.0987303
216	0xbf7d40a9	-0.9892679
217	0xbf92634c	-1.1436553
218	0x3fb6248d	1.4229904
219	0xc0530e0c	-3.2977324
220	0xbf5137b7	-0.8172564
221	0x3f781a78	0.9691539
222	0x3e8c6a56	0.27424878
223	0x3fc06442	1.5030596
224	0xbebfdc2a	-0.3747266
225	0x3f5d4cb3	0.8644516
226	0xbbfa1c0f	-0.0076327394
227	0xbf5b2c46	-0.8561443
228	0x3f4f60ba	0.8100697
229	0xbe96a32c	-0.29421365
230	0xc08e9eca	-4.4568834
231	0x3fa6d711	1.3034383
232	0x4001232b	2.0177715
233	0xc04a4dad	-3.160991
234	0xbf7923b9	-0.97320133
235	0xc00b4d35	-2.1765873
236	0xbee547ed	-0.44781438
237	0xbfb9fca3	-1.4530224
238	0xbfa6261b	-1.2980379
239	0xbe397946	-0.18112668
240	0x3f43a28e	0.76419914
241	0x40091cad	2.1423752
242	0xbebbc99b	-0.3667725
243	0x4008185d	2.126487
244	0x3ec18898	0.37799525
245	0xc0694960	-3.6451035
246	0x3fac9604	1.3483281
247	0xbba11ff3	-0.0049171387
248	0xbecc5e7f	-0.39915845
249	0xc036b3a0	-2.8547134
250	0xbf6623e3	-0.8989851
251	0xbe4c39b9	-0.19943894
252	0x3a2356e0	0.0006230902
253	0xbd0fa93a	-0.035073496
254	0xbfba1483	-1.453751
255	0xbf073119	-0.5280929

conv2.bias f4 [10]
0	0xbe81fa6b	-0.25386366
1	0x3fbc22dc	1.4698138
2	0xbe2aa9e2	-0.16666368
3	0xbd9b3f4d	-0.07580433
4	0x403e1160	2.9698105
5	0x40a13021	5.037125
6	0x3eb26344	0.3484136
7	0x3f1946f8	0.59873915
8	0xbd3d0e1b	-0.04615603
9	0x400583bb	2.0861652

conv3.weight f4 [10, 10, 3, 3]
0	0xbcada703	-0.021197801
1	0x3e02ebc1	0.12785245
2	0xbdcdd6bc	-0.10050723
3	0xbd0afb84	-0.03393127
4	0x3dda84b8	0.10669845
5	0x3d2c3d3a	0.042050578
6	0x3e2a98b4	0.16659814
7	0x3d957722	0.072981134
8	0xbc8a5e86	-0.016890775
9	0xc00fca39	-2.2467177
10	0xbf5852e5	-0.84501487
11	0x3dbf75f7	0.09348672
12	0xbfd4ff99	-1.6640502
13	0x3ec831cd	0.39100495
14	0x3ec6ede0	0.3885336
15	0xbf8c1646	-1.0944297
16	0x3fa21dcb	1.2665342
17	0x3ffe52df	1.986904
18	0xbc8d2e07	-0.017233862
19	0xbf23dc27	-0.640078
20	0x4017b2e0	2.3702927
21	0x3f3748a6	0.7159523
22	0x3f2a92cc	0.66630244
23	0x4033ed11	2.8113444
24	0x3e8512f8	0.25991035
25	0x3f7b7cd8	0.9823737
26	0x40613440	3.518814
27	0x3bfe31b2	0.007757389
28	0x3cfdfdd7	0.03100483
29	0xbcd388c6	-0.025822055
30	0xbc92351d	-0.017847592
31	0x3dd58438	0.10425609
32	0xbdbf1d1f	-0.09331726
33	0x3d11384f	0.03545409
34	0x3dcc63eb	0.09979995
35	0x3de7eeaa	0.113248184
36	0xbfbbdb1c	-1.4676242
37	0xc04bca28	-3.1842136
38	0x3e3c620c	0.18396777
39	0x3f3c7de4	0.73629594
40	0x403bb547	2.9329393
41	0x3fe61fbb	1.7978433
42	0x3f455d7e	0.7709578
43	0x3fb0d150	1.3813877
44	0x3fc03e2e	1.5018976
45	0x3e8a249a	0.2698105
46	0x3ed32043	0.4123555
47	0xbe2e6165	-0.1702934
48	0x3f68992d	0.9085873
49	0xbe367b27	-0.17820416
50	0x3f339d40	0.7016182
51	0x3f3917b2	0.7230178
52	0xbd8ddb52	-0.06926598
53	0x3f704024	0.9384787
54	0xbed5ad6b	-0.4173387
55	0x3e577657	0.21041237
56	0x3f7d048e	0.98835075
57	0x3c021276	0.007938972
58	0xbebbcb22	-0.36678416
59	0x3ff6d4ca	1.9283688
60	0xbf143781	-0.5789719
61	0x3ea96ff2	0.3309322
62	0x3fc6ce58	1.5531721
63	0xc0180d6f	-2.37582
64	0xc020c3b5	-2.511945
65	0xbe39c150	-0.18140149
66	0xbfee9eac	-1.8642173
67	0xbf83cdb7	-1.0297154
68	0x3f094cc8	0.53632784
69	0x3ea2371a	0.31682664
70	0x3fb8efda	1.4448197
71	0x3efd0ed1	0.49425367
72	0xbcf675df	-0.030085502
73	0xbe1705a5	-0.14748247
74	0xbddaa57a	-0.106760934
75	0x3dc57983	0.09642317
76	0x3bf66978	0.007519897
77	0xbd8c33a0	-0.06845784
78	0x3e4c52e3	0.19953494
79	0x3c845a9b	0.016156485
80	0x3e3d058f	0.18459152
81	0x3f39b993	0.7254879
82	0x3f989289	1.1919719
83	0x3f8609df	1.0471762
84	0x401706f7	2.3598
85	0x40259deb	2.5877635
86	0x3f458df9	0.7716976
87	0x404535a0	3.081398
88	0x3ffd8a52	1.9807837
89	0x3fac41b3	1.345755
90	0x3d304011	0.04302985
91	0x3d8f3d73	0.069941424
92	0xbd3cce8a	-0.04609541
93	0x3d7d99f3	0.061914396
94	0xbd3881ad	-0.045045543
95	0x3dfdc3ae	0.123908386
96	0xbd2cbccc	-0.04217224
97	0xbbde6835	-0.006787325
98	0xbdda0672	-0.106457606
99	0x3c9df2dd	0.019280845
100	0xbdc1ab05	-0.094564475
101	0xbc8faba5	-0.017537901
102	0xbd9913c6	-0.074744746
103	0xbdcb6ec0	-0.09933233
104	0xbd4f8d1d	-0.050671685
105	0xbabe468f	-0.0014516878
106	0xbd3c9934	-0.046044543
107	0x3cd7fbb4	0.026365139
108	0x3c284330	0.010269925
109	0xbd095686	-0.03352978
110	0x3c61d40d	0.013783467
111	0xbdcbed29	-0.09957344
112	0xbcd2c803	-0.025730139
113	0x3dd54783	0.104140304
114	0x3da5e253	0.080998085
115	0xbcf597fb	-0.029979696
116	0xbba7fee8	-0.0051268227
117	0x3cfc94b4	0.030832626
118	0x3c21117d	0.00983083
119	0xbde87ac1	-0.113515384
120	0x3d053464	0.032520667
121	0xbde72629	-0.11286575
122	0xbdf38f4c	-0.11892566
123	0x3dc4572c	0.09586939
124	0xbdd4de8c	-0.1039401
125	0x3d80c2b1	0.062871344
126	0xbca936f3	-0.020656085
127	0x3c2aa8b9	0.010416203
128	0xbe1ce500	-0.15321732
129	0x3d2636a2	0.040579446
130	0xbcdc24c1	-0.026872994
131	0x3c587cd2	0.013213353
132	0xbd898f4b	-0.06716784
133	0xbc235e70	-0.009971246
134	0xbd9ab0a0	-0.0755322
135	0x3d83307a	0.064057305
136	0xbe0dd4ab	-0.13850658
137	0xbd915c34	-0.070976645
138	0xbd26172b	-0.04054944
139	0xbde2b853	-0.11070313
140	0xbbec59c3	-0.007212849
141	0x3daf4555	0.08558146
142	0xbdf06ddd	-0.11739705
143	0xbdd5bf37	-0.10436862
144	0xbd1c1d57	-0.03811392
145	0xbd5aa280	-0.05337763
146	0xbb5716a0	-0.0032819882
147	0xbd100588	-0.035161525
148	0xbba9b14d	-0.0051786066
149	0x3d197b3f	0.037471052
150	0xbd778143	-0.060426008
151	0xbd176a77	-0.036966767
152	0x3c87358a	0.016505022
153	0xbdbee5d5	-0.09321181
154	0xbd816cf2	-0.06319608
155	0xbb1938ba	-0.002337976
156	0xbd234e37	-0.039869513
157	0xbdc9da15	-0.09856049
158	0xbe022974	-0.12711126
159	0xbd0790bf	-0.033097025
160	0xbdef410d	-0.11682329
161	0xbe1b3634	-0.15157396
162	0x3e10442e	0.14088508
163	0x3cc170fc	0.023613445
164	0x3db20ed7	0.08694237
165	0x3c8bb2c7	0.017053021
166	0x3e05e372	0.13075045
167	0x3cb6c963	0.022312826
168	0x3cdff57a	0.027338732
169	0x3deacdef	0.1146506
170	0x3d1a2a24	0.037637845
171	0xbd2474f1	-0.040150587
172	0xbdfea030	-0.12432897
173	0xbd4d0483	-0.05005313
174	0x3d0949cc	0.033517644
175	0xbdde80f6	-0.10864441
176	0xbd0e9df7	-0.034818616
177	0x3d4c287d	0.0498433
178	0xbe068dc7	-0.13140021
179	0xbd8e432c	-0.06946406
180	0x3d96f55e	0.07371019
181	0x3caf7cef	0.021421878
182	0x3c9b5177	0.018959744
183	0x3c3d4c71	0.01155387
184	0x3d86e53e	0.06586693
185	0xbc56c0c9	-0.013107487
186	0x3da10429	0.078621216
187	0xbdf53d18	-0.11974543
188	0xbda19094	-0.07888904
189	0x3f3acecd	0.729718
190	0x3ebe18cd	0.37128296
191	0x3f95bec5	1.1698843
192	0xbf491608	-0.7854924
193	0xbed92bcc	-0.42416227
194	0xbf5cb28b	-0.86209935
195	0xbed09a2f	-0.40742633
196	0xbedd013c	-0.43165004
197	0xbf5fcce3	-0.8742201
198	0xbfd133b4	-1.6343904
199	0xc00108e9	-2.0161688
200	0xc008cdb5	-2.1375554
201	0xbf9c459e	-1.2208745
202	0xbf8effc0	-1.1171799
203	0xbecc33f6	-0.39883393
204	0xc01c21b1	-2.4395564
205	0xbfd5791e	-1.6677587
206	0xbf4b8973	-0.79506606
207	0x3d3dbbaa	0.04632155
208	0xbce69c08	-0.028150573
209	0xbdcd0dbc	-0.10012385
210	0x3c8ba775	0.017047623
211	0xbb239f7b	-0.0024966884
212	0x3db178c8	0.08665615
213	0x3d3876bf	0.04503512
214	0x3ccb3105	0.024803648
215	0xbdb4d825	-0.08830289
216	0x3f455c41	0.77093893
217	0x3de50924	0.11183384
218	0x3f83fba4	1.031117
219	0xbf80aefa	-1.0053399
220	0xbf995e2a	-1.1981862
221	0xbea3412e	-0.31885666
222	0xbfff3c7b	-1.9940332
223	0xc00615f3	-2.0950897
224	0xbfd08376	-1.6290119
225	0xbe960e48	-0.2930777
226	0xbf1120e3	-0.56690806
227	0x3f0c100a	0.54711974
228	0x3f36e6db	0.7144601
229	0x3f965042	1.1743243
230	0x3fc084c9	1.5040523
231	0x40006567	2.006189
232	0x40189b81	2.3844912
233	0x3fc25088	1.5180826
234	0x3e871c61	0.2638884
235	0x3e1fe7d7	0.15615784
236	0x3fc0aa2e	1.5051935
237	0x3eb80839	0.35943773
238	0x3f97d1ab	1.186086
239	0x40182678	2.377348
240	0x3f8b1d30	1.0868282
241	0x3f1fe072	0.6245185
242	0x3fa18b0c	1.2620559
243	0x3eca8429	0.39553955
244	0x3f9939bc	1.1970744
245	0x3f5148e8	0.8175187
246	0x3eed5d33	0.46360168
247	0xbf518fa4	-0.81859803
248	0xbf48a49a	-0.7837616
249	0xbfdf11dc	-1.7427325
250	0xc0031226	-2.0479827
251	0xc00095b8	-2.009138
252	0x3d912b59	0.07088346
253	0xbc33a2cb	-0.010964106
254	0x3d03a4b2	0.032139488
255	0x3cdd63fe	0.027025219

conv3.bias f4 [10]
0	0xbff6b8dd	-1.9275166
1	0xbda3abaa	-0.07991727
2	0x3fa1f568	1.2653017
3	0xbdc2c4e1	-0.09510208
4	0xbbac90a6	-0.005266267
5	0x3c3f9b85	0.011694794
6	0xbdbe248b	-0.09284314
7	0xbdd4917d	-0.10379312
8	0xbd75a7ff	-0.059974667
9	0x41084f40	8.519348

conv4.weight f4 [10, 10, 3, 3]
0	0xbf439257	-0.7639517
1	0xbecce2a0	-0.4001665
2	0xbd1715ec	-0.03688614
3	0xbfbdddc7	-1.4833306
4	0xbfdb0039	-1.7109443
5	0xbf7247b3	-0.94640654
6	0x3f80dcb0	1.0067348
7	0xc0049c38	-2.0720348
8	0xc012c2bd	-2.293136
9	0xbdaf4cda	-0.0855958
10	0x3d206f64	0.03916873
11	0xbd5672b0	-0.05235547
12	0x3d741158	0.059586853
13	0x3d8a731a	0.06760235
14	0x3dac5d45	0.08416227
15	0xbc910e5d	-0.017707044
16	0x3ce403f1	0.02783391
17	0x3da5da11	0.080982335
18	0xbe85c4a2	-0.2612658
19	0xbe0bd08b	-0.13653772
20	0xbe31857b	-0.17336075
21	0xbfc8c524	-1.5685163
22	0x3de1f356	0.11032741
23	0x3f75371a	0.95787203
24	0xc00de565	-2.2171261
25	0x3c6a7195	0.014309307
26	0x402e9b28	2.72822
27	0xbc657d24	-0.014006887
28	0xbd02a0bd	-0.031891573
29	0xbdcc0072	-0.099610224
30	0x3e10cc70	0.14140487
31	0xbd90c51a	-0.07068844
32	0x3ca9c18b	0.020722171
33	0x3db861d6	0.09003036
34	0x3dc1c5c5	0.0946155
35	0xbd85accd	-0.065271
36	0x3ce9732d	0.028497303
37	0x3d74d6c7	0.05977514
38	0x3ca07b39	0.019590007
39	0x3dd831cf	0.10556375
40	0x3c011c82	0.007880332
41	0x3c9bc459	0.019014524
42	0x3de5ff61	0.1123035
43	0x3c3ec560	0.011643738
44	0xbcfc40ce	-0.03079262
45	0x3d5678cb	0.05236129
46	0xbd028237	-0.031862464
47	0xbd5b6dc0	-0.053571463
48	0xbd2b7daa	-0.04186789
49	0x3d5aa8df	0.053383704
50	0x3e01639c	0.12635654
51	0xbdd1af48	-0.1023851
52	0xbd1bb986	-0.038018726
53	0xbd988d34	-0.07448807
54	0x3d7c7d68	0.061643034
55	0x3b98e2aa	0.0046656923
56	0xbc81478b	-0.015781185
57	0xbd74cfac	-0.059768364
58	0x3cfca2a0	0.030839264
59	0x3e00de81	0.12584879
60	0xbd4b4418	-0.049625486
61	0xbd497863	-0.049187075
62	0xbd16dbdf	-0.03683078
63	0x3c6b4489	0.014359602
64	0x3d2c0853	0.042000126
65	0x3d6b4959	0.057442997
66	0xbdf7bd71	-0.1209668
67	0x3d19455d	0.037419666
68	0x3defbecd	0.11706314
69	0x3e0ea858	0.13931406
70	0xbce5bdc2	-0.028044585
71	0xbdef171e	-0.11674331
72	0xbdb0bb76	-0.08629505
73	0x3d285783	0.041099083
74	0x3ce38029	0.027771072
75	0xbd771f36	-0.0603325
76	0xbe28bbf8	-0.16477954
77	0x3d5e989f	0.05434477
78	0xbc8c79bb	-0.01714789
79	0x3cae1379	0.02124952
80	0xbdc15ab8	-0.09441131
81	0xbf5ce921	-0.86293226
82	0xbfbfc32b	-1.4981436
83	0xbfc4719f	-1.5347174
84	0x3ff89318	1.941989
85	0xbd4e8c47	-0.050426748
86	0xbffd747a	-1.9801171
87	0x3fe7a833	1.8098205
88	0x3f5f9566	0.8733734
89	0x3f1981fe	0.5996398
90	0x3fd450d9	1.6587173
91	0x3eb97902	0.36225134
92	0x3ff7beb1	1.9355069
93	0xbdd7542e	-0.10514103
94	0x3f4592a5	0.77176887
95	0xbeb5a31b	-0.35476002
96	0xc05e9413	-3.4777877
97	0xbf89e0fb	-1.0771784
98	0xc0774591	-3.863621
99	0x3dbda92f	0.09260785
100	0xbcc4523e	-0.023964997
101	0x3d8cf6f0	0.06883037
102	0xbca4f7d6	-0.020137709
103	0x3d12e19b	0.035859685
104	0x3ca34514	0.0199304
105	0xbd6ce8e4	-0.05783929
106	0x3da5c1b0	0.080935836
107	0xbdde04eb	-0.10840782
108	0x3eea7ac1	0.4579678
109	0x3e180149	0.1484424
110	0x3eb145c4	0.3462354
111	0xbf8d5485	-1.1041418
112	0x3efe5ad5	0.49678674
113	0x3e91b21d	0.28456202
114	0xbf5dd3e8	-0.8665147
115	0xbf2ebde2	-0.6825849
116	0x3fa0847e	1.2540433
117	0x3d943024	0.072357446
118	0x3d38a070	0.04507488
119	0xbd61d1ac	-0.0551316
120	0xbdcb3c60	-0.09923625
121	0x3e14ff44	0.14550501
122	0xbe5cd382	-0.21565059
123	0x3d83abe6	0.064292714
124	0x3d6d6f18	0.057967275
125	0xbcdcb079	-0.026939617
126	0xbd277e8e	-0.040892176
127	0xbdd6ba17	-0.104847126
128	0x3da5fc41	0.08104754
129	0x3dfb9b1a	0.12285443
130	0xbd992ee2	-0.07479645
131	0x3d2edf4a	0.042693414
132	0x3c48b635	0.012250473
133	0x3b31ead8	0.0027148034
134	0xbd3fee21	-0.046857957
135	0xbda0edaa	-0.07857831
136	0x3d0c6bd5	0.034282524
137	0xbdd3cb99	-0.103415675
138	0xbd658888	-0.05603841
139	0xbd89f7b3	-0.06736698
140	0x3d93447c	0.07190797
141	0x3c4a0e8a	0.012332568
142	0x3c2d9503	0.010594609
143	0xbbde8349	-0.0067905528
144	0x3dd5a0a4	0.104310304
145	0x3ca5dc61	0.020246686
146	0x3cb6105c	0.022224598
147	0x3d2e8c76	0.042614423
148	0x3c943efd	0.018096441
149	0xbcea5d94	-0.028609075
150	0xbdd8f1f7	-0.10593026
151	0x3d195a08	0.037439376
152	0xbdd0e017	-0.10198992
153	0xbdb7f351	-0.08981956
154	0xbd2ad04f	-0.041702565
155	0x3dc41cb9	0.09575791
156	0x3b4e72d2	0.0031501544
157	0xbda0d713	-0.07853522
158	0x3d7b285d	0.06131779
159	0x3da02898	0.07820243
160	0xbda4546d	-0.080239154
161	0xbde49a99	-0.111623
162	0x3cc2ab9d	0.023763472
163	0xbd12beee	-0.035826616
164	0x3cb7bb04	0.022428043
165	0xbc881a2b	-0.01661404
166	0x3c946e83	0.018119102
167	0xbd76e236	-0.060274325
168	0x3dc4a7af	0.096022956
169	0xbe159783	-0.14608578
170	0xbe631f73	-0.22179966
171	0xbfc55e79	-1.5419456
172	0xbfb9e6fa	-1.4523613
173	0xbf686ab6	-0.9078783
174	0x3e34ab8b	0.17643563
175	0x3ef2c1f5	0.47413602
176	0x3fb16e3b	1.3861765
177	0x3fb0bb1c	1.3807101
178	0x3f759974	0.95937276
179	0xbf048039	-0.5175815
180	0xbec765f6	-0.38944978
181	0x3ff011b5	1.8755404
182	0x3f904485	1.127091
183	0x4002478d	2.035617
184	0x3fbb7b3d	1.4646984
185	0x400d070a	2.2035546
186	0x3f068284	0.525429
187	0xbf628900	-0.88490295
188	0xbf951088	-1.164567
189	0xbc8a1dcf	-0.016859917
190	0xbdba70ea	-0.09103568
191	0xbd4a82be	-0.04944109
192	0xbe1416d5	-0.14461835
193	0x3db3ab65	0.08772925
194	0x3d380290	0.04492432
195	0xbddfba17	-0.10924166
196	0xbd0571e9	-0.032579336
197	0x3d821cc8	0.06353146
198	0xbfe54de0	-1.791439
199	0xbf47f360	-0.78105736
200	0xbf8649db	-1.0491289
201	0xbda7fed5	-0.08202902
202	0xbfc60ff2	-1.5473616
203	0xbdb2eddf	-0.087367766
204	0xc00fd708	-2.2474995
205	0xbf78adf3	-0.97140425
206	0x3fc9e61c	1.5773349
207	0x3dec2e33	0.11532249
208	0xbd85b41d	-0.065284945
209	0xbd058e33	-0.032606315
210	0xbba9200d	-0.0051612915
211	0x3d727926	0.059197567
212	0x3d5665c5	0.05234315
213	0xbc9f85b4	-0.019472934
214	0x3e119087	0.14215289
215	0x3dd515f8	0.10404581
216	0x3d0cbfb0	0.034362495
217	0x3dd1dc2e	0.10247074
218	0x3db79db5	0.08965627
219	0xbd37264a	-0.04471425
220	0x3df850be	0.12124775
221	0xba1a06d4	-0.0005875651
222	0xbda93e58	-0.08263844
223	0xbd21a807	-0.039466884
224	0xbc2700ff	-0.010193109
225	0xbd804959	-0.0626399
226	0xbd9d0098	-0.07666129
227	0x3dedf2f5	0.11618606
228	0x3a2c3b14	0.00065700826
229	0x3b6f15ea	0.0036481568
230	0x3cba5f6f	0.022750584
231	0xbcb7cb92	-0.022435937
232	0x3d91ef5e	0.07125734
233	0x3dfcb260	0.1233871
234	0x3d787694	0.06065996
235	0x3d5193f2	0.051166482
236	0xbdf38e84	-0.11892417
237	0xbd234c46	-0.039867662
238	0xbdae1183	-0.08499434
239	0xbd6ecc6f	-0.05830043
240	0x3db20108	0.08691603
241	0xbd2c4db6	-0.0420663
242	0xbcf190c2	-0.029487971
243	0x3b4387e8	0.0029835645
244	0x3c636c76	0.01388084
245	0x3d95b75e	0.07310365
246	0x3c4c40c5	0.012466614
247	0xbc03f29a	-0.008053446
248	0xbaf20d82	-0.001846716
249	0x3b523398	0.003207421
250	0xbc2d273d	-0.010568437
251	0xbd9b50c8	-0.07583767
252	0xbc31b174	-0.010845531
253	0x3bb0566d	0.0053813965
254	0x3de625df	0.11237692
255	0x3d50664b	0.050878804

conv4.bias f4 [10]
0	0x3e703314	0.23456985
1	0x3e8ce435	0.27517858
2	0xbd7c127f	-0.061541077
3	0xbd5e2cf3	-0.054242086
4	0xbe7e2587	-0.24819003
5	0xbe1b9c62	-0.15196374
6	0xbefdfe8e	-0.49608272
7	0x3e8a152e	0.26969284
8	0xbee138d2	-0.43988663
9	0x3e3e62b5	0.18592341

norm.weight f4 [10]
0	0x3ea0cb16	0.31404942
1	0x3e459f3f	0.19299029
2	0x3e4ff7d9	0.2030939
3	0x3e39b870	0.18136764
4	0x3deb6235	0.11493341
5	0x3e5bcc6c	0.214647
6	0x3ecb083e	0.39654726
7	0x3e403c24	0.18772942
8	0x3e85e0aa	0.26147968
9	0x3e252618	0.16127813

norm.bias f4 [10]
0	0xbeb82b06	-0.35970324
1	0xbe64c974	-0.22342473
2	0xbe997002	-0.29968268
3	0xbe0c62a2	-0.137095
4	0xbdd9318b	-0.10605153
5	0xbe5d46f1	-0.21609093
6	0xbecc03a2	-0.39846522
7	0xbe3d8736	-0.1850861
8	0xbe8d8c08	-0.27645898
9	0xbe0fa3e6	-0.14027366

norm.running_mean f4 [10]
0	0xc4a916a1	-1352.7072
1	0xc409d0df	-551.2636
2	0xc3b52628	-362.2981
3	0xc497c7b0	-1214.2402
4	0x43008909	128.5353
5	0xc4501fde	-832.4979
6	0xc4f739f6	-1977.8113
7	0xc4a8ceab	-1350.4584
8	0xc4958c7e	-1196.3904
9	0x41c71a3f	24.887815

norm.running_var f4 [10]
0	0x4902c802	535680.1
1	0x48bbb1c9	384398.28
2	0x490b4ede	570605.9
3	0x4945af9d	809721.8
4	0x48936ff2	301951.56
5	0x48a8a7a1	345405.03
6	0x495806c0	884844.0
7	0x48d1fa2d	430033.4
8	0x4955c1df	875549.94
9	0x48dacb03	448088.1

fc1.weight f4 [50, 810]
0	0xbec6e4cb	-0.3884643
1	0xbe8cbe95	-0.27489153
2	0xbfeec6db	-1.8654436
3	0xc00f75ec	-2.2415724
4	0xbf8c3d13	-1.0956138
5	0x3f169668	0.5882325
6	0xbed118eb	-0.40839323
7	0xbed01cc9	-0.4064696
8	0x3faee6ce	1.3664186
9	0xc032b8c5	-2.7925274
10	0xbf529510	-0.822587
11	0xbf147274	-0.5798714
12	0x3f090bc0	0.53533554
13	0x3fa1d1f5	1.2642199
14	0xbf1780bb	-0.591808
15	0x3fafc685	1.3732458
16	0xbf521be7	-0.82073826
17	0xbf890c67	-1.070691
18	0x3f1e06e4	0.61729264
19	0xbf55a7d2	-0.834592
20	0xc009f9e1	-2.1558764
21	0xbef530e8	-0.47888875
22	0x3e44d340	0.1922121
23	0x3eaa880a	0.33306915
24	0x3eed3eac	0.46336877
25	0xbd766acf	-0.060160454
26	0xbdcb37b0	-0.09922731
27	0x3f7e38bd	0.99305326
28	0x3fbe2a51	1.4856664
29	0xbebdb4c4	-0.37051976
30	0x403d43d0	2.957264
31	0x3fbeb0ac	1.4897666
32	0x3fa5f96c	1.2966743
33	0xbfe287e7	-1.7697724
34	0xbed967a6	-0.4246189
35	0xbe9d745f	-0.30752847
36	0xbf4ce419	-0.8003555
37	0x3f56f2c3	0.83964175
38	0xbc266f36	-0.010158351
39	0xbfb48a37	-1.410468
40	0x3e239c63	0.15977626
41	0x3f9f9864	1.2468381
42	0xbf46ee86	-0.7770771
43	0x3e492f67	0.19646989
44	0xbf8add96	-1.0848873
45	0xbf8df500	-1.1090393
46	0xbf941aea	-1.1570714
47	0x3d85cfbd	0.065337636
48	0xbfa70e3a	-1.3051217
49	0xc075b7a2	-3.839333
50	0xc08e5c15	-4.4487405
51	0xc0950712	-4.657113
52	0xbfe85f9b	-1.8154176
53	0x3f9dc803	1.2326664
54	0xbf1fff95	-0.6249936
55	0xc09a3c1a	-4.8198366
56	0xbf15b470	-0.5847845
57	0xbfb613bb	-1.4224771
58	0xc00823ec	-2.1271925
59	0xbf4120a2	-0.7544042
60	0xbfe37789	-1.7770854
61	0x3fae928c	1.3638473
62	0xbfade4b1	-1.3585416
63	0xbf4d7e84	-0.8027117
64	0xbfee8e22	-1.8637125
65	0x3f10458e	0.5635613
66	0xc02743d9	-2.613516
67	0xbfb0c42e	-1.3809869
68	0x3e821a5b	0.25410733
69	0xc0aac79a	-5.3368654
70	0xbf9d8d08	-1.2308664
71	0xbfc92c03	-1.5716556
72	0x3f8da23b	1.1065134
73	0xc086b9be	-4.2101736
74	0xbf935703	-1.1510929
75	0xc0056091	-2.084019
76	0xbee46367	-0.44607088
77	0xbf95606f	-1.1670054
78	0x3f33ec61	0.7028256
79	0xbfda1397	-1.7037228
80	0xbf26e3c1	-0.65191275
81	0x3f8139be	1.0095747
82	0x3ff4ab56	1.9114788
83	0xbfb1a71f	-1.3879126
84	0xc001581f	-2.0210035
85	0xc02e3a23	-2.7222984
86	0x3fa3a2cc	1.2784057
87	0x3fd460af	1.6592005
88	0x3dbfd236	0.093662664
89	0x3f799aac	0.97501636
90	0xbf47b503	-0.78010577
91	0xbe75d34b	-0.24006383
92	0xbfc6992e	-1.5515497
93	0xbfd0ae21	-1.630314
94	0x3f67bd9b	0.9052369
95	0x3fb93667	1.4469727
96	0x3f4d10fa	0.8010403
97	0x3f2da171	0.67824465
98	0x3f3b35be	0.7312888
99	0x3fa5137b	1.289657
100	0x3ee1e21c	0.4411782
101	0xbee9a837	-0.4563615
102	0xbf38ba68	-0.72159433
103	0x3f349fb8	0.7055621
104	0x3fb7c7a6	1.4357803
105	0xbf7276ef	-0.9471273
106	0x3d9f6021	0.07782007
107	0x3dc953c4	0.0983043
108	0xbf820631	-1.015814
109	0x3e42d5bb	0.19026844
110	0x3e07d77a	0.13265792
111	0xbed7078f	-0.41997954
112	0xbeb1ce77	-0.34727833
113	0x3e8dab7f	0.27669904
114	0x3ec86075	0.3913609
115	0x3eaa05bd	0.33207503
116	0x3f188af4	0.59587026
117	0x3e6b0eca	0.2295486
118	0x3f71b29f	0.9441318
119	0xbd81aa99	-0.06331367
120	0xbf0a8657	-0.54111236
121	0xbf3c929a	-0.73661196
122	0x40275b47	2.6149461
123	0x3d1a309f	0.037644025
124	0x3f20f200	0.6286926
125	0x3fd41c7e	1.6571195
126	0xbd377002	-0.044784553
127	0xbef0f690	-0.47063112
128	0xc04ad4fa	-3.169249
129	0xc01c1dec	-2.4393263
130	0xbf9bbf06	-1.2167671
131	0xbfe0ea56	-1.7571514
132	0xbf5f88f7	-0.87318367
133	0x3fbcbc60	1.4744987
134	0x3f62d00d	0.8859871
135	0xc019cf27	-2.4032686
136	0x3d59194f	0.05300265
137	0x3f52afd5	0.8229955
138	0xbfe7c2e3	-1.810635
139	0xbf6b0680	-0.91806793
140	0xbfa6a599	-1.3019286
141	0xbf58e4c2	-0.84724057
142	0xbd80d7d5	-0.06291167
143	0xbe360555	-0.17775472
144	0x3f8c2b86	1.0950782
145	0xbfcb28a7	-1.5871781
146	0xc019c54d	-2.4026673
147	0xbe80d2d5	-0.25160852
148	0xbf51ec02	-0.82000744
149	0xbfbcd580	-1.4752655
150	0xc02a2b55	-2.6588948
151	0xc0200126	-2.50007
152	0x3f7aa33d	0.9790533
153	0x3fa2e058	1.2724714
154	0xbffdc443	-1.9825519
155	0xbffa4c02	-1.9554446
156	0xbfdb5444	-1.7135091
157	0xc0694fef	-3.6455038
158	0xbefe68ec	-0.49689424
159	0xbe4d4cc8	-0.20048821
160	0xbf933fa2	-1.1503794
161	0x3fa3e922	1.2805521
162	0xbf5f7f65	-0.87303764
163	0xc03d6059	-2.9590056
164	0xc00a9bbb	-2.165755
165	0x3f1dc08b	0.6162192
166	0xbe9ac783	-0.3023034
167	0xc01b6e94	-2.4286242
168	0x3eaac1d0	0.33350992
169	0x3f26205e	0.6489314
170	0x3f6880e3	0.90821666
171	0xbed95c32	-0.42453152
172	0xbea64249	-0.32472447
173	0xbe771f36	-0.24133
174	0x3f776991	0.96645457
175	0xbfe195b4	-1.7623811
176	0xc0989218	-4.7678337
177	0xbfde4db8	-1.7367468
178	0xbe67cc44	-0.22636515
179	0x3ea65249	0.32484654
180	0xbe8c880e	-0.2744755
181	0xbebc9208	-0.36830163
182	0x3e46c4aa	0.19410959
183	0xbf27aaaa	-0.6549479
184	0xc0095c0b	-2.1462429
185	0x3fd67f78	1.675765
186	0xbf0096eb	-0.5023028
187	0xbf4d8121	-0.8027516
188	0x3f83c5c2	1.0294726
189	0x3fd3fde7	1.656186
190	0xbe912256	-0.2834651
191	0x3f71ad1d	0.94404775
192	0x3f8ebd74	1.1151567
193	0x3e91875e	0.2842359
194	0xbf26e415	-0.65191776
195	0xbfa7acec	-1.3099647
196	0x3f22ebd0	0.6364107
197	0x3f8312c2	1.02401
198	0x3e70cb95	0.2351516
199	0x402d8599	2.7112792
200	0x3d5b8df6	0.05360218
201	0xbde1dd2e	-0.11028515
202	0xbf519834	-0.8187287
203	0xc0098d54	-2.149251
204	0x3ec09186	0.37611026
205	0xc00186ac	-2.0238447
206	0xc08c97db	-4.393537
207	0x3bb17d14	0.005416522
208	0x3f6259c8	0.88418245
209	0xbfbb3c86	-1.4627845
210	0xbf8d424f	-1.1035861
211	0xc03c9ec3	-2.94719
212	0xbf963335	-1.1734377
213	0xbf90a8fd	-1.1301571
214	0xbfe92b57	-1.8216351
215	0xbf8dbc4e	-1.1073091
216	0x3fb896e8	1.4421053
217	0xbeae4214	-0.3403479
218	0xbf404bdf	-0.7511577
219	0xbf8750c6	-1.0571525
220	0xc0166dd6	-2.3504539
221	0xbfbb4117	-1.4629239
222	0xbf086833	-0.53283995
223	0xbe8565d7	-0.2605426
224	0xbf1a85bf	-0.6036033
225	0xc022ef1b	-2.5458438
226	0x3fa37650	1.2770481
227	0xbf1563cf	-0.5835542
228	0xbf528229	-0.8222986
229	0xbf0ad056	-0.54224145
230	0xbe746271	-0.23865677
231	0xbf817add	-1.011562
232	0x40044e2c	2.0672712
233	0x3e9abf6b	0.30224165
234	0xbfadc608	-1.3576059
235	0xc0071741	-2.1107943
236	0xbbd642b2	-0.0065387124
237	0xbe93e4ff	-0.28885648
238	0x3ef1afb6	0.4720437
239	0xbff716ed	-1.9303871
240	0xbfba64d9	-1.4562026
241	0xbe73255e	-0.23744723
242	0xbe831331	-0.2560058
243	0xbe84144c	-0.25796735
244	0x3eb8bd22	0.36081797
245	0xbec63246	-0.3871023
246	0xbdd6c9ef	-0.104877345
247	0x3e77a9b9	0.24185838
248	0x3f5f898c	0.87319255
249	0x3cd87e1b	0.02642732
250	0x3e14ab86	0.14518556
251	0x3df784be	0.120858654
252	0xbf8c9f40	-1.0986099
253	0xbea83d01	-0.32859042
254	0x3ee08a7c	0.43855655
255	0x3ebc869b	0.36821446

fc1.bias f4 [50]
0	0x3f9bc5c4	1.2169728
1	0x4001d116	2.0283866
2	0xbe5420e7	-0.20715676
3	0x3f137079	0.57593495
4	0xbe76fc67	-0.24119721
5	0x3faae8f4	1.3352342
6	0x3f9dd374	1.2330155
7	0xbe196eca	-0.14983669
8	0x3fbfb57f	1.4977263
9	0xbe48a302	-0.19593433
10	0xbf556dff	-0.83370966
11	0x3ea816f4	0.32830012
12	0xbf2c6c27	-0.6735253
13	0x3ffccefb	1.9750665
14	0xbd34cfb5	-0.044143397
15	0x3f750d3a	0.9572331
16	0xbda42916	-0.08015649
17	0xbd730536	-0.05933114
18	0xbe4e24d5	-0.20131238
19	0xbee2783b	-0.44232354
20	0x3faf11a5	1.367726
21	0x4069093f	3.6411893
22	0xbe594425	-0.21217401
23	0xbc7bec3d	-0.015376148
24	0xbe2547ef	-0.16140722
25	0xbf4e8c4d	-0.8068283
26	0xbd109910	-0.03530222
27	0x3f364b04	0.71208215
28	0x400614d8	2.0950222
29	0xbe114a45	-0.14188488
30	0xbe674621	-0.22585346
31	0xbe480a2a	-0.19535127
32	0x3e39ddf0	0.18151069
33	0x40252c33	2.5808227
34	0x3d239393	0.03993566
35	0xbf128f89	-0.5725027
36	0xbe6e5acc	-0.23276824
37	0x3fc1b706	1.5133979
38	0xbe47b81f	-0.1950383
39	0xbdefdf89	-0.11712558
40	0xbe87ae47	-0.2650015
41	0x403b5c08	2.9274921
42	0x3e8ca8cc	0.27472532
43	0xbe21d1df	-0.15802716
44	0xbd4706a5	-0.04859032
45	0x3f25c94d	0.64760286
46	0x364b28df	3.0273147e-06
47	0x3fd0b905	1.6306463
48	0x3f6b48b7	0.9190783
49	0x400af73a	2.1713395

fc2.weight f4 [7, 50]
0	0xbebb9766	-0.36638945
1	0x3d38cb3d	0.045115698
2	0xbd9b2753	-0.0757586
3	0xbeab9ad4	-0.33516562
4	0xbe79001b	-0.24316446
5	0xbdfd15cd	-0.12357674
6	0xbf69decb	-0.9135558
7	0xbf0d2a85	-0.55143005
8	0xbdc17c40	-0.09447527
9	0x3dd8d965	0.1058834
10	0xbfba05f6	-1.4533069
11	0xbe1bfa54	-0.15232211
12	0x3e46b13a	0.19403544
13	0xbe10c88c	-0.14139003
14	0xbcd46a9f	-0.025929747
15	0x3c9bca84	0.019017465
16	0xbda87c0f	-0.08226787
17	0x3a6f922f	0.00091389095
18	0xbe66f366	-0.22553787
19	0xbe300b7a	-0.17191878
20	0xbd78860a	-0.060674705
21	0x3e01af0a	0.12664428
22	0xbe0c59d1	-0.13706137
23	0x3d6643a8	0.056216866
24	0xbd8de3d9	-0.06928224
25	0x3e895767	0.26824495
26	0xbdc181e9	-0.094486065
27	0xbd6ad9d5	-0.057336647
28	0xbe53b19d	-0.20673223
29	0x3d1f7849	0.038933072
30	0xbe911ca0	-0.28342152
31	0x3e2c43c8	0.16822731
32	0xbe04fd71	-0.12987305
33	0x3e7999f6	0.24375138
34	0xbefde4c7	-0.49588606
35	0xbf7156d4	-0.94273114
36	0xbe4850e5	-0.19562109
37	0x3e8ba58f	0.2727475
38	0xbe074081	-0.132082
39	0xbd6271e9	-0.055284414
40	0xbdf71f19	-0.12066478
41	0xbd71c7b8	-0.059028357
42	0xbf38d543	-0.7220041
43	0xbe4cf705	-0.20016105
44	0xbdc089f0	-0.094013095
45	0xbdfa4c16	-0.122215435
46	0x3d9fc33e	0.07800911
47	0x3e32dd7c	0.17467302
48	0x3dbba33d	0.091619946
49	0xbe302a4f	-0.1720364
50	0xbd7fcc8d	-0.062450934
51	0xbeef90c7	-0.46790144
52	0xbda7fce6	-0.082025334
53	0xbeeac7b0	-0.45855474
54	0x3b6e11dd	0.0036326565
55	0xbe1493c2	-0.1450949
56	0xbfacec42	-1.35096
57	0xbe4c0498	-0.19923627
58	0x3df66d09	0.120325156
59	0xbd1b5245	-0.037920255
60	0xc0b73d2e	-5.726218
61	0xbf262bc3	-0.64910525
62	0xbd162058	-0.03665194
63	0xbd831a9b	-0.06401559
64	0x3cd7b235	0.026330093
65	0x3e048105	0.12939842
66	0xbd28ea6d	-0.04123919
67	0xbd18540f	-0.03718954
68	0xbde76cf3	-0.11300077
69	0xbd5bf4ae	-0.05370014
70	0xbe8141f0	-0.2524562
71	0xbda2a3e7	-0.07941418
72	0xbd7afb7f	-0.061275
73	0x3ca412fb	0.020028582
74	0x3c867c19	0.016416596
75	0xbe389299	-0.18024673
76	0xbdf00102	-0.11718942
77	0xbe745244	-0.23859507
78	0xbe942bae	-0.28939575
79	0x3dce1d48	0.10064179
80	0xbe753110	-0.23944497
81	0x3dd164c4	0.10224298
82	0x3dadc1df	0.084842436
83	0xbea6b066	-0.32556456
84	0xbf33eb4f	-0.7028093
85	0xc00a1af3	-2.1578948
86	0xbc5d9809	-0.013525018
87	0xbe8d6e62	-0.27623278
88	0xbe689790	-0.22714067
89	0x3ce02773	0.02736256
90	0xbd8fb687	-0.07017236
91	0xbee99eea	-0.45629054
92	0xbf3d481a	-0.73938143
93	0xbd1e7455	-0.03868516
94	0x3de1e53f	0.11030053
95	0xbe016878	-0.12637508
96	0x3db7d2d1	0.08975757
97	0x3f238517	0.63874954
98	0xbe0f0ea1	-0.13970424
99	0xbcf65e94	-0.030074395
100	0x3e7ee5c8	0.24892342
101	0xbf0958c1	-0.5365105
102	0xbd0ae9bb	-0.03391431
103	0xbe4d4bca	-0.20048442
104	0xbd853bf8	-0.06505579
105	0xbcb01761	-0.021495523
106	0xbf577e01	-0.8417664
107	0x3a75b41c	0.00093728467
108	0xbd1091dd	-0.035295356
109	0xbdd5f874	-0.10447779
110	0xbe96d1f8	-0.29457068
111	0xbe9c966f	-0.30583522
112	0xbc916edf	-0.017753063
113	0xbe914d04	-0.2837907
114	0x3d0055f7	0.031331982
115	0x3e98fe1e	0.29881376
116	0xbdc74d30	-0.09731519
117	0x3c414b4d	0.011797738
118	0xbe900024	-0.28125107
119	0xbcdc729c	-0.026910119
120	0xbd948bef	-0.07253253
121	0xbb19e1be	-0.00234805
122	0x3d8167df	0.0631864
123	0xbd15f2d7	-0.036608543
124	0xbe19696b	-0.1498162
125	0x3e3225cd	0.17397232
126	0xbb5ea023	-0.003396996
127	0xbd588061	-0.052856807
128	0xbe2a241a	-0.16615334
129	0x3db33a44	0.08751348
130	0xbec50bd8	-0.384856
131	0x3c45e17b	0.0120776845
132	0xbdced666	-0.10099487
133	0x3cd07fb1	0.025451513
134	0xbd9870d6	-0.07443397
135	0x3edd7f96	0.43261403
136	0x3e26787d	0.162569
137	0x3cde78c8	0.027157202
138	0xbe3ef72e	-0.18648979
139	0xbbdeef2f	-0.0068034153
140	0xbe5fee1c	-0.21868175
141	0xbe1f075d	-0.15530153
142	0xbf2298b2	-0.63514245
143	0xbe4346c4	-0.19069964
144	0xbdf975d5	-0.12180678
145	0x3e779bd8	0.24180543
146	0x3ca6b20a	0.020348568
147	0xbd5df855	-0.054191906
148	0xbdc55db0	-0.0963701
149	0xbdea4dfa	-0.11440654
150	0xbeeb6074	-0.45972025
151	0xbf05ffa0	-0.5234318
152	0x3d756901	0.059914593
153	0xbef767fa	-0.48321515
154	0xbd9acdea	-0.07558806
155	0xbe17a9cd	-0.14810868
156	0xbf5343d3	-0.82525367
157	0xbf4fce7f	-0.81174463
158	0xbdac9cf2	-0.084283724
159	0xbcd6150f	-0.026133088
160	0xbfc4f7d4	-1.5388131
161	0x3e985dce	0.29759067
162	0x3cb79857	0.022411508
163	0x3e864009	0.2622073
164	0xbc87d820	-0.016582549
165	0xbe4cf267	-0.20014344
166	0x3c89d1cb	0.01682367
167	0xbc947202	-0.01812077
168	0xbda5408d	-0.08068953
169	0xbda6e288	-0.08148676
170	0x3eaf6254	0.34254706
171	0xbafce972	-0.0019295646
172	0x3c84254a	0.016131062
173	0x3d5efb4e	0.05443888
174	0x3d0f4541	0.034978155
175	0xbcae31f1	-0.021264048
176	0xbd5a9b8a	-0.05337099
177	0x3d57ccfe	0.05268573
178	0x3e934b5b	0.2876843
179	0xbce06fbf	-0.027397035
180	0xbe258a3b	-0.16166012
181	0x3deda8b4	0.11604443
182	0xbe0651fc	-0.13117212
183	0xbdf029b6	-0.11726706
184	0xbec79a4c	-0.38984907
185	0xbfa9c62e	-1.3263605
186	0xbd01e206	-0.031709693
187	0xbec1466d	-0.37749043
188	0xbe3e0656	-0.18557104
189	0xbd793ec4	-0.060850874
190	0xbd3c4fed	-0.04597466
191	0x3ea2c5e9	0.31791618
192	0xbe27f768	-0.16402972
193	0x3dd30add	0.103048064
194	0xbd68f020	-0.056869626
195	0xbbe9cd49	-0.0071350676
196	0xbd1cb071	-0.038254205
197	0xbdb005ab	-0.08594831
198	0xbed452b7	-0.41469356
199	0x3df74eba	0.12075563
200	0xbe745580	-0.2386074
201	0xbf01829a	-0.5058991
202	0xbdbb3a66	-0.09141998
203	0xbe8471f6	-0.25868195
204	0xbcb24ef7	-0.021766169
205	0xbdea717b	-0.11447426
206	0xbf2e26ed	-0.68028146
207	0xbebb7416	-0.36612004
208	0xbde1f7c2	-0.11033584
209	0xbe31ced3	-0.17364053
210	0xbf6266ac	-0.88437915
211	0x3ceb3b8f	0.028714923
212	0xbe694508	-0.2278024
213	0xbe1b6dc6	-0.15178594
214	0x3deb94ec	0.11503014
215	0x3d9631fb	0.07333752
216	0xbd2e238f	-0.04251438
217	0xbd4f4bfc	-0.050609574
218	0x3d383b35	0.04497834
219	0xbee9cb92	-0.45663124
220	0xbd5ef0b9	-0.05442879
221	0x3e83bd8d	0.25730553
222	0xbd27077a	-0.040778615
223	0xbd2baa7f	-0.041910645
224	0x3b5cb954	0.00336798
225	0xbddbe746	-0.10737471
226	0xbd4d0828	-0.050056607
227	0x3cfc65cb	0.030810257
228	0xbe1e5ec5	-0.15465839
229	0xbdb86751	-0.09004081
230	0xbe01c00a	-0.12670913
231	0xbcef231b	-0.029191544
232	0x3e8474e7	0.2587044
233	0x3d822210	0.06354153
234	0xbe4774ad	-0.19478102
235	0xbf766bd9	-0.9625831
236	0x3ccaa8d5	0.024738709
237	0x3d783a7c	0.06060265
238	0x3d8c26a2	0.06843306
239	0x3daeaafe	0.08528708
240	0xbe1dfc87	-0.15428363
241	0xbe5c4d5a	-0.21513882
242	0xbf2a6d4f	-0.6657304
243	0xbe071819	-0.13192786
244	0x3d8b1cbc	0.0679259
245	0xbe3e47ef	-0.18582128
246	0x3c5b9ce4	0.013404105
247	0xbde6e0ff	-0.11273383
248	0x3cf6c633	0.030123806
249	0xbc874346	-0.01651157
250	0xbe5495b0	-0.20760226
251	0xbe497d3b	-0.19676678
252	0xbdc2f35c	-0.09519073
253	0x3e35ee8f	0.17766784
254	0x3d8d31f6	0.06894295
255	0x3e98c029	0.29834107

fc2.bias f4 [7]
0	0xbe9ed1e6	-0.31019515
1	0xbfc00131	-1.5000364
2	0x3e0eb5d1	0.13936545
3	0x3dc270d9	0.0949418
4	0x3ed939aa	0.42426807
5	0xbeb5301d	-0.3538827
6	0x3e80e02b	0.25171027

localization.0.weight f4 [8, 1, 7, 7]
0	0x3d3bac11	0.045818392
1	0xbcae54e0	-0.021280706
2	0x3da00d7d	0.07815073
3	0x3e06e922	0.1317487
4	0x3d50a351	0.050937
5	0x3dde8998	0.10866088
6	0x3e2d8270	0.16944289
7	0x3e3dddf0	0.18541694
8	0x3df4ddd8	0.11956376
9	0x3e7a7ff5	0.24462874
10	0x3ddf6e26	0.10909681
11	0x3e2d88ed	0.16946764
12	0x3e6a35e4	0.2287212
13	0x3c445ecf	0.011985495
14	0xbd069d00	-0.03286457
15	0x3daf0708	0.08546263
16	0x3e52d48a	0.2058889
17	0x3b37e633	0.0028060793
18	0x3e401683	0.18758588
19	0x3e19636d	0.14979334
20	0xbd986df6	-0.074428484
21	0x3da763d2	0.08173336
22	0xbd95cdd2	-0.07314648
23	0xbd55ad3a	-0.052167155
24	0x3e41b216	0.1891559
25	0x3d468349	0.048465047
26	0x3c615f03	0.013755563
27	0x3cb6443d	0.022249335
28	0x3d41f83e	0.047355883
29	0xbda41123	-0.08011081
30	0x3e3f829e	0.1870217
31	0x3be2eba5	0.0069250637
32	0x3dea5fb1	0.11444033
33	0x3e14faa5	0.14548738
34	0xbc29d7ac	-0.010366362
35	0x3df2b1cf	0.118503205
36	0xbda9aded	-0.08285127
37	0x3e425c62	0.18980554
38	0x3e097f6d	0.13427515
39	0x3d23f4f2	0.04002852
40	0x3e018a63	0.12650447
41	0xbd81e824	-0.063431054
42	0xbc8b7217	-0.017022176
43	0x3e02d333	0.12775879
44	0x3d28fdd2	0.041257687
45	0xbd796a9e	-0.060892694
46	0x3cfdc394	0.030977048
47	0x3e03c17b	0.12866776
48	0xbc1c9324	-0.009556565
49	0xbdde75ab	-0.10862287
50	0xbc962580	-0.018328428
51	0x3da40a4d	0.08009777
52	0xbde0a9e4	-0.10969904
53	0xbcc08589	-0.023501175
54	0x3d4256df	0.047446128
55	0x39820ad4	0.000248036
56	0x3e0f1562	0.13973
57	0x3dcb116f	0.099154346
58	0xbe07cd60	-0.13261938
59	0x3d4da56e	0.050206594
60	0x3dcce7fc	0.10005185
61	0xbde342b1	-0.11096705
62	0xbc86ca8a	-0.016454
63	0xbccae1b6	-0.02476583
64	0xbddb8a94	-0.10719791
65	0x3da08a99	0.078389354
66	0xbdc0aa1a	-0.09407444
67	0xbd7a3c27	-0.061092522
68	0x3d5762f3	0.0525846
69	0xbe4d7c0e	-0.20066854
70	0xbdd3eaf3	-0.103475474
71	0xbdf819ea	-0.12114318
72	0x3d2659ad	0.040612865
73	0x3dc932b7	0.09824126
74	0xbde39962	-0.1111324
75	0xbd00b10d	-0.03141885
76	0xbd807703	-0.062727
77	0x3dcdf8cc	0.1005722
78	0xbcd76eb9	-0.026297914
79	0x3d3a1c9f	0.04543745
80	0x3ca94ee9	0.02066751
81	0xbdc3fefd	-0.095701195
82	0xbd9f5aa3	-0.077809595
83	0xbdc085fa	-0.09400554
84	0xbe33c060	-0.17553854
85	0x3d8b2256	0.067936584
86	0xbc1311b6	-0.008976391
87	0x3d99c5e4	0.07508448
88	0xbdc7b568	-0.09751397
89	0xbd5541c3	-0.05206467
90	0x3a850769	0.0010149303
91	0xbb94d750	-0.004542269
92	0xbdae3306	-0.08505826
93	0xbd497ade	-0.04918944
94	0xbe0e06c7	-0.13869773
95	0x3dad6b9f	0.08467793
96	0xbd15173c	-0.03639911
97	0xbe1ebbf5	-0.15501387
98	0xbd4cea21	-0.05002797
99	0xbcaaccae	-0.020849552
100	0x3d4f0aaf	0.050547298
101	0xbdaa156b	-0.083048664
102	0x3dc035c1	0.09385253
103	0x3df1b736	0.11802523
104	0xbc3ae2e3	-0.011406633
105	0x3da03868	0.07823259
106	0xbd1db43a	-0.038501956
107	0xbdd68152	-0.10473885
108	0x3e054c22	0.13017324
109	0x3d8416bf	0.06449651
110	0xbd3744dd	-0.044743408
111	0xbdfa0783	-0.12208464
112	0x3b22c0a8	0.002483407
113	0xbd14a400	-0.036289215
114	0xbbf9699b	-0.007611466
115	0x3e0370c9	0.12835993
116	0xbdcfc9b7	-0.10145896
117	0x3da5d5c8	0.08097416
118	0xbd68d588	-0.056844264
119	0xbdb25a75	-0.087086596
120	0xbd830a32	-0.06398429
121	0xbd9fbc8e	-0.07799636
122	0xbbe2d424	-0.006922262
123	0xbe255979	-0.16147412
124	0xbe013703	-0.12618642
125	0x3d0c0d93	0.034192633
126	0x3e00176d	0.12508936
127	0xbd2368e9	-0.039894972
128	0x3d38bafe	0.045100205
129	0xbab189a5	-0.001354505
130	0x3db2e6bf	0.087354176
131	0xbc9c1e04	-0.019057281
132	0x3d6a4273	0.057192277
133	0x3e137c75	0.14402945
134	0xbdcd0028	-0.100097954
135	0xbdcd6b67	-0.10030251
136	0x3cc36e01	0.023856165
137	0xbd3e05be	-0.046392195
138	0x3b84add5	0.0040490427
139	0x3c6ddf0a	0.014518509
140	0xbe0a1b55	-0.13486989
141	0x3d8c7b38	0.068594396
142	0x3c26dd30	0.010184571
143	0x3d6a68d5	0.057228882
144	0xbda630c7	-0.08114772
145	0xbe37152c	-0.1787917
146	0xbe3876b1	-0.18014027
147	0xbcc430c7	-0.02394904
148	0xbdc29f3d	-0.095030285
149	0xbdbdd9e4	-0.09270075
150	0xbd1d08b7	-0.03833839
151	0x3c33d9e2	0.01097724
152	0x3d58e667	0.052954104
153	0xbd97c776	-0.07411091
154	0x3d88ba39	0.06676144
155	0xbc8a3d46	-0.01687492
156	0xbd8a17fd	-0.06742857
157	0x3e01e9b3	0.12686805
158	0x3dc1d068	0.094635785
159	0xbd902021	-0.07037378
160	0x3dac2d04	0.084070235
161	0x3e069e30	0.13146281
162	0x3df538f9	0.11973757
163	0x3d930920	0.07179475
164	0x3e038dca	0.12847057
165	0x3c3172e9	0.010830619
166	0xbdf0e07b	-0.11761566
167	0x3df7972a	0.12089379
168	0x3d907e9c	0.07055399
169	0x3d43e080	0.04782152
170	0x3cf9b6a9	0.030482607
171	0xbc98eda4	-0.018668003
172	0xbd0469af	-0.03232735
173	0xbdfbaba4	-0.12288597
174	0x3e0ceb0b	0.13761537
175	0x3dc398c7	0.09550624
176	0xbc848624	-0.016177244
177	0x3dd40cd5	0.1035401
178	0x3d91eb49	0.07124955
179	0x3da2b0a7	0.0794385
180	0x3da3b3ff	0.07993316
181	0xbe11c253	-0.14234285
182	0x3d5242f8	0.051333398
183	0xbe444531	-0.1916702
184	0x3d9b734c	0.075903505
185	0xbd0dd6ef	-0.034628805
186	0xbd93ceb7	-0.07217162
187	0x3c4a7fcd	0.012359572
188	0xbd92fbb9	-0.071769185
189	0xbe1d56ff	-0.15365218
190	0xbe1857fb	-0.14877312
191	0x3c7e70aa	0.015529791
192	0xbdc7c655	-0.09754626
193	0xbc074c2f	-0.00825791
194	0x3c61b2b4	0.013775516
195	0x3d84c82c	0.06483492
196	0xbd9b9af7	-0.075979166
197	0xbe1886cb	-0.1489517
198	0xbc37b7b1	-0.011213229
199	0x3dbfd208	0.09366232
200	0x3e0ae23d	0.13562866
201	0xbc206b92	-0.009791272
202	0xbd3fb938	-0.046807498
203	0xbdfffcfa	-0.12499423
204	0xbdb06413	-0.08612838
205	0x3dd8d32f	0.10587155
206	0xbdbc3300	-0.09189415
207	0x3dd1d576	0.102457926
208	0x3e11cf92	0.14239338
209	0x3dee0547	0.116221
210	0xbda138c6	-0.07872157
211	0xbd9fe193	-0.07806697
212	0x3d6f42c6	0.05841329
213	0xbbb54146	-0.005531463
214	0x3e18b835	0.1491402
215	0x3d965658	0.073406875
216	0x3da72701	0.08161736
217	0xba049b4f	-0.0005058543
218	0x3d68c11f	0.0568248
219	0xbb649150	-0.0034876652
220	0x3dd01f0f	0.10162174
221	0xbd8379e1	-0.06419731
222	0xbd492d8d	-0.049115706
223	0x3e018248	0.12647355
224	0xbdb2a5c7	-0.08723026
225	0xbd05eab5	-0.032694537
226	0xbd129ad9	-0.035792205
227	0x3daba990	0.08381951
228	0xbd90e150	-0.07074225
229	0x3a636fc0	0.0008676015
230	0xbae6be15	-0.0017604256
231	0xbe2dc4e7	-0.16969644
232	0xbba4f3f8	-0.005033966
233	0x3d8cb061	0.06869579
234	0xbde3fd6e	-0.11132322
235	0x3ddcc8b7	0.10780471
236	0x3df03b03	0.117300056
237	0x3d547ac4	0.05187489
238	0x3d1af9b4	0.03783579
239	0xbe0ec293	-0.13941412
240	0xbc06db45	-0.008230989
241	0x3cdd8759	0.027042078
242	0x3d4b8225	0.049684662
243	0xbe213fb9	-0.15746965
244	0x3d71551f	0.05891907
245	0xbc6b7a5c	-0.0143724345
246	0x3e1cd23f	0.15314578
247	0x3de6a7f0	0.112625
248	0x3dee7481	0.11643315
249	0x3b83c74a	0.00402156
250	0x3cde187f	0.02711129
251	0x3c70de7a	0.01470148
252	0x3dc7a003	0.09747317
253	0x3dca5643	0.09879734
254	0xbd47480f	-0.048652705
255	0x3da4eeb0	0.080533385

localization.0.bias f4 [8]
0	0x3e366dc0	0.17815304
1	0xbd8e79ba	-0.06956811
2	0xbd9ce48f	-0.076607816
3	0xbe5b1003	-0.21392827
4	0xbd3038f1	-0.043023054
5	0xbdd95866	-0.10612564
6	0xbe4c2d3f	-0.19939135
7	0xbe702be0	-0.23454237
