EmpathyBot/model_snapshots/deep_emotion-200-64-0.005-0.5422626788036411.pt (torch_old, 271007 bytes, 24 tensors)

conv1.weight f4 [10, 1, 3, 3]
00000000: ba77 c0bd b44e 8fbe d8db 2dc0 4b18 183f
00000010: 9224 4e3f 532e 703d 8b6d b6bf f28d 8b3f
00000020: de90 1d40 236e c0bf e001 013f 2a5f 0240
00000030: 0471 26c0 2010 10bf 2287 1f40 1455 2dbf
00000040: 8a12 073f 92fe fa3d d232 d13f 3f19 02bf
00000050: 7674 87bf 06e2 c13f d300 c1be eb5f 94bf
00000060: bf45 06bf 5d22 1cbf 3bf2 9cbf 2917 db3f
00000070: 8098 1140 9ee3 123f 3a0b 70bf 5bed 653e
00000080: cacf 42be a227 d9bf 000d 68bf 6604 77bf
00000090: d5ba febd 1123 15be 84d3 7b3e abed 4ebd
000000a0: 90a1 3bbf 16f5 1cbf 0e66 fd3f 42b6 0a3f
000000b0: 9171 58bf d79a 813f f693 fb3f cbff 8f3f
000000c0: 34a7 e83f f77b 85bd 2330 5dc0 aea2 553e
000000d0: fbbd 893d b286 cebf 7d05 6d3c fa29 133d
000000e0: a19e ebbf 1dcc 873f 1946 0b3f 9115 eabf
000000f0: 8914 e13f 9ed7 213f 1238 0fbf 63fe 82be
00000100: 15c7 123e e8e3 293f f2b5 2ec0 996d dabe
00000110: 031d 383f 0819 9fbe a5f1 e93f e29f 1c3f
00000120: 79d8 0ac0 a01e 31bf ef32 e4be d3eb 9d3d
00000130: a780 273f fb7d 763e 3b2f e53f 451e 0240
00000140: 3c14 92bf 2a9d 893f 3c3d 25bf 5c6a 0740
00000150: e709 66bf 076d 1ac0 113c b5bf aede 913e
00000160: 1831 6d3f 05bc a43f
-0.09397836 -0.27989733 -2.7165432 0.5941207 0.8052455 0.05863793 -1.425218 1.0902693
2.461967 -1.5033611 0.50393486 2.0370584 -2.600648 -0.56274605 2.4926229 -0.67707944
0.52762663 0.12255587 1.6343634 -0.5081977 -1.0582416 1.5147102 -0.3769594 -1.1591772
-0.52450174 -0.60989934 -1.2261423 1.7116443 2.2749329 0.57378566 -0.9376713 0.22453825
-0.19024578 -1.696522 -0.90644836 -0.96491086 -0.12437979 -0.14564158 0.24592406 -0.050519627
-0.732934 -0.6131147 1.979677 0.54184353 -0.8454829 1.0125378 1.9654529 1.1249937
1.8176026 -0.06517785 -3.456063 0.20862839 0.06725689 -1.6134856 0.014466641 0.035928704
-1.8407785 1.0609165 0.54403836 -1.8287832 1.7584392 0.6321963 -0.5594493 -0.25584707
0.14333756 0.6636338 -2.729855 -0.4266174 0.7191927 -0.31073785 1.8276869 0.6118146
-2.1694624 -0.69187355 -0.4457011 0.077109955 0.6543068 0.24071495 1.7905039 2.0330975
-1.1412425 1.0751088 -0.6454656 2.1158667 -0.8985886 -2.4129045 -1.4158956 0.28490204
0.92653036 1.2869879

conv1.bias f4 [10]
00000000: d29b bd3e aab0 acbe 2834 46bf 1223 ef3e
00000010: 7c1a 383c 31c7 70bf 82a8 733f 4199 803f
00000020: d2a6 033f 358e dc3d
0.37032944 -0.33728534 -0.77423334 0.46706444 0.011236783 -0.9405394 0.95179 1.0046769
0.5142642 0.10769311

conv2.weight f4 [10, 10, 3, 3]
00000000: 596c aabd 61a1 edbd 9192 c9bd 7e63 2cbe
00000010: 80d0 d4bd 3157 efbd 6dab c9bd 3d95 81be
00000020: 4adc ebbd f633 bbbd 884f eb3c 18de b1bc
00000030: ceee 8a3c 9443 093d a859 223c 05a5 e63c
00000040: 5722 10be 5680 48b9 1981 14bd 2803 153d
00000050: d99f 7d3d 0ac7 08be 35c0 183c 2928 223c
00000060: 4f7c 8d3c dede d4bd 77fe 07be a418 04be
00000070: cc68 f2bd 15e9 68bc 3fd6 8fbe c7a1 88be
00000080: 8e80 133d 0d46 e5bd 55f6 12be 73c4 41be
00000090: a417 35bd f1d3 bdbd 1149 6abe dda3 89bd
000000a0: 5be3 34be e500 d83d 0f73 9fbc 99db cfbd
000000b0: f42a 5bbe 17be cd3c b134 b1bd 5f67 27bd
000000c0: 8f76 fdbc 9f0a 963d e598 0a3c f5e5 cfba
000000d0: 6fe6 24bd d2f6 d6bd e56e 5cbe 0a40 d9bd
000000e0: b23f d0bd d25c 403d d16f 8dbe 2655 7cbe
000000f0: 33a6 96bd 44d7 cd3b 1cac 10be fdaf 71be
00000100: f230 4cbe 2c99 5cbd a092 f1bd f42b 17be
00000110: 3cf5 f23c 8d7c 63be a049 d1bd 6b65 b4bd
00000120: e721 6dbe 4cdc b8bd ed3c 46be 2584 4cbe
00000130: 4ce6 2fbe 872b 7ebe c19c c7bd 25c7 95bc
00000140: 5b7f 373d 174f d2bd c7e0 523d b3b6 84bd
00000150: e4cf 31be c064 fabc 0833 503c b510 3bbd
00000160: c193 64be c653 98bd 6934 58bf cdbe 44bf
00000170: 3725 bf3c 4f60 813e 74b0 24be e3a2 8cbd
00000180: 8c77 51c0 7aba 36bf 4919 c6bf 450a 193e
00000190: ef1d efbe a819 f6be 3540 ddbe 1e9a b3bf
000001a0: 8cbc 69bf 61db 51be d5f1 6ebf 2104 5bbf
000001b0: 3e57 30bf fd2f 0bbf ef3b 9bbf 86b9 093e
000001c0: eae2 d6bd c28c 923b 95fc a13f 4a81 0a3e
000001d0: 04d3 1d3f 392d 7fbe b20c 9bbf 9e73 c6bf
000001e0: edd9 983f 438a 5e3f 39b0 223d 1518 f83f
000001f0: 0168 ad3f ed5e a23f 8cda 293f f813 21be
00000200: e16a e0bd 7c1d 32c0 d372 11bf 1f7b c83f
00000210: 2630 4c3f 4879 e23e 6ae1 73bf 2f0a d13f
00000220: f3de 0a3f cfcc 1d3f 3581 6bbf bb49 c33e
00000230: d053 733f a872 abbf d78d 80bf 2d44 1c3e
00000240: 61ec 67bd 8e48 a9bd c686 343f 0010 6abf
00000250: adfe 6abe 778f e03e 898b 48bf dc4c a5be
00000260: 541e 95bf 3f1e 1b3f d3ca 0f3f 45e7 ca3e
00000270: a236 aabf f160 9c3e 708e 3140 7f72 d83e
00000280: 8a20 f53d 1215 863f 1def b33f e697 473f
00000290: 0b25 513f 8fd9 40c0 7246 e9bf c10d 5b3f
000002a0: 0cc0 03c0 eadf 0bc0 681d 13c0 d50f 43bf
000002b0: 40db 49bf 8ae5 6ebf 2d42 08bf e4c5 783e
000002c0: 6679 de3f 26bc 2e40 241c 52be 3d4d b6bf
000002d0: d56d 27c0 ddf5 a43f bf26 b7bf a7f3 2a3f
000002e0: 45e9 eb3f 67c6 54bf 7eef 9f3f 6a51 acbe
000002f0: 0ac5 c8bf 2349 0ac0 eadc a83f 3fa5 a03f
00000300: 6748 76c0 7465 fcbe 8363 e8bf 47b3 8ac0
00000310: 77ea 8f3e 1c92 0c40 7c5f 383e 8d5a 2d3e
00000320: edb8 b9bf dd7b cd3f 6078 2b3f fd56 babf
00000330: c867 d73f 85e7 9d3f ee61 20bf c0f5 83bf
00000340: 487d 0d3f 3d3e e13f 6070 e83e f67a 4a3f
00000350: 4cb7 fa3e b041 c7be 9cb6 603f 3cab 963f
00000360: 7ac8 90bf 7a22 90bf ac8f a63f 4526 51c0
00000370: 2282 4abf 7085 0c3f 6ac6 ea3c 5490 a33f
00000380: efa4 a5be d5b4 393f 39b4 7fbd 8251 7abf
00000390: 65f0 293f 5463 86be 07e8 86c0 89a4 9f3f
000003a0: 69dd f63f 0def 32c0 8fe2 6cbf 53a1 f1bf
000003b0: da37 c8be 7620 bbbf d637 9abf b379 b9be
000003c0: dc0c 253f afbc 0740 3302 b7be 12e6 0440
000003d0: 3c05 8d3e a03c 61c0 c321 973f cb30 d4bc
000003e0: c93e b9be 36bb 34c0 3b60 54bf 25bf 3cbe
000003f0: 4e47 7a3d 0e23 d03e ee6b aabf 408d eebe
-0.08321447 -0.11603046 -0.098424084 -0.16834828 -0.10391331 -0.11686552 -0.0984715 -0.25309172
-0.11516626 -0.0914077 0.028724447 -0.021712348 0.016959574 0.033511713 0.009909071 0.02815486
-0.140756 -0.00019121295 -0.03625593 0.036379963 0.06192002 -0.13357177 0.0093231695 0.00989727
0.017271189 -0.10394071 -0.13280664 -0.12900025 -0.11836395 -0.014215727 -0.28093144 -0.26685926
0.03601127 -0.11195002 -0.1435178 -0.18922596 -0.044212 -0.0926894 -0.22879435 -0.067207076
-0.17664854 0.105470456 -0.019464044 -0.10149307 -0.21403104 0.025115056 -0.08652628 -0.040870067
-0.030940322 0.073262446 0.008459304 -0.0015861379 -0.04025882 -0.10496296 -0.21526678 -0.106079176
-0.10168399 0.04696352 -0.27624372 -0.24641857 -0.07355919 0.006281765 -0.14128155 -0.2360229
-0.19940546 -0.053857014 -0.117955446 -0.1476286 0.029657952 -0.22215481 -0.10219121 -0.088084064
-0.23157464 -0.09026393 -0.19359179 -0.19972284 -0.17177695 -0.24821292 -0.09746695 -0.018283436
0.04479919 -0.102689914 0.051483896 -0.064801596 -0.1736446 -0.03056562 0.012707479 -0.04567023
-0.22321989 -0.074378535 -0.8445497 -0.7685364 0.023333175 0.2526879 -0.16082937 -0.06867006
-3.2729216 -0.7137829 -1.5476466 0.14945324 -0.46702525 -0.4806645 -0.4321305 -1.4031408
-0.91303325 -0.20493843 -0.93337756 -0.85553175 -0.6888312 -0.543701 -1.2127665 0.13449678
-0.10492499 0.004472346 1.2655207 0.13525882 0.6165011 -0.24919595 -1.2113249 -1.5504034
1.1941506 0.8692972 0.03971884 1.9382349 1.3547364 1.2685219 0.663491 -0.15730274
-0.109578855 -2.7830496 -0.5681583 1.5662574 0.7976097 0.44233155 -0.9526583 1.6331233
0.54246444 0.6164064 -0.9199403 0.3814219 0.9504976 -1.3394365 -1.0043286 0.15260382
-0.056621913 -0.08265792 0.7051815 -0.91430664 -0.22948714 0.43859455 -0.78337914 -0.32285202
-1.164988 0.60593027 0.5616886 0.3962957 -1.3297923 0.3054271 2.7743187 0.42274854
0.11969097 1.047518 1.4057347 0.77966154 0.8169715 -3.0132787 -1.8224623 0.8556786
-2.0585966 -2.1855416 -2.2986698 -0.7619603 -0.78850174 -0.93319 -0.53225976 0.2429424
1.7380798 2.7302337 -0.20518547 -1.4242321 -2.6160786 1.2887532 -1.4308699 0.66778034
1.8430563 -0.8311524 1.2494962 -0.33655864 -1.5685132 -2.160714 1.3192418 1.2550429
-3.848169 -0.49296153 -1.8155369 -4.3343844 0.2810857 2.1964178 0.18005174 0.16929074
-1.450956 1.6053425 0.6698055 -1.4557797 1.6828547 1.2336279 -0.6264943 -1.0309372
0.5526929 1.7597119 0.45398235 0.79093874 0.4896797 -0.38917303 0.8777864 1.1771007
-1.131118 -1.1260521 1.3012595 -3.2679608 -0.79104817 0.5489111 0.028659064 1.277842
-0.32352397 0.7254155 -0.062427733 -0.9778062 0.6638244 -0.26247656 -4.2158237 1.2472087
1.9286319 -2.7958405 -0.925332 -1.8877357 -0.3910511 -1.4619281 -1.204829 -0.36225662
0.64472747 2.1208913 -0.35743865 2.0765424 0.27543056 -3.5193253 1.1807178 -0.025902173
-0.36180714 -2.8239264 -0.82959336 -0.18432291 0.061103158 0.40651745 -1.3314188 -0.4659214

conv2.bias f4 [10]
00000000: 6bfa 81be 1d67 b93f 563b 95bd 4d3f 9bbd
00000010: 71ae 2c40 dc71 9240 2077 ae3e 6e53 133f
00000020: 1b0e 3dbd f72d ea3f
-0.25386366 1.4484593 -0.07286708 -0.07580433 2.698147 4.576399 0.3407526 0.5754918
-0.04615603 1.8295277

conv3.weight f4 [10, 10, 3, 3]
00000000: 03a7 adbc c1eb 023e bcd6 cdbd 84fb 0abd
00000010: b884 da3d 3a3d 2c3d b498 2a3e 2277 953d
00000020: 865e 8abc 5842 06c0 dc43 44bf 8f97 7cbd
00000030: a8d9 bcbf 5b41 da3e 8544 a03e 80ba 70bf
00000040: f45d 7c3f 9e67 e83f b98b ccbe 4765 4dbf
00000050: 3cbf 1d40 96c7 f93e 830c 273f 5ae0 3040
00000060: 2e55 183e 877b 5b3f a5c5 4740 b231 fe3b
00000070: d7fd fd3c c688 d3bc 1d35 92bc 3884 d53d
00000080: 1f1d bfbd 4f38 113d eb63 cc3d aaee e73d
00000090: e94a bfbf 9026 37c0 8fe9 673e f8a6 eb3e
000000a0: b493 2740 5b92 d33f 69b9 523f 130f 933f
000000b0: 73de c63f 171b ab3e e0af de3e b73b 323d
000000c0: 625f 453f b151 95be 25bb 3f3f 68a1 1e3f
000000d0: 95f8 46be 645b 833f 032d d1be 873b c13d
000000e0: ad14 813f 6c42 813d 8346 e3be b1fc df3f
000000f0: dc1f 2abf 1068 9f3e 8e02 b93f 228a 06c0
00000100: 08f8 1bc0 2819 94be 8d30 bfbf bc0a 81bf
00000110: d762 053f e832 fc3e 39b8 b93f 2810 b73e
00000120: df75 f6bc a505 17be 7aa5 dabd 8379 c53d
00000130: 7869 f63b a033 8cbd e352 4c3e 9b5a 843c
00000140: 8f05 3d3e 21f4 413f 9ee1 923f 0329 5f3f
00000150: 15ef 0440 46c0 1a40 477f 573f 5fc8 2840
00000160: fd22 ee3f caec b83f 1140 303d 733d 8f3d
00000170: 8ace 3cbd f399 7d3d ad81 38bd aec3 fd3d
00000180: ccbc 2cbd 3568 debb 7206 dabd ddf2 9d3c
00000190: 05ab c1bd a5ab 8fbc c613 99bd c06e cbbd
000001a0: 1d8d 4fbd 8f46 beba 3499 3cbd b4fb d73c
000001b0: 3043 283c 8656 09bd 0dd4 613c 29ed cbbd
000001c0: 03c8 d2bc 8347 d53d 53e2 a53d fb97 f5bc
000001d0: e8fe a7bb b494 fc3c 7d11 213c c17a e8bd
000001e0: 6434 053d 2926 e7bd 4c8f f3bd 2c57 c43d
000001f0: 8cde d4bd b1c2 803d f336 a9bc b9a8 2a3c
00000200: 00e5 1cbe a236 263d c124 dcbc d27c 583c
00000210: 4b8f 89bd 705e 23bc a0b0 9abd 7a30 833d
00000220: abd4 0dbe 345c 91bd 2b17 26bd 53b8 e2bd
00000230: c359 ecbb 5545 af3d dd6d f0bd 37bf d5bd
00000240: 571d 1cbd 80a2 5abd a016 57bb 8805 10bd
00000250: 4db1 a9bb 3f7b 193d 4381 77bd 776a 17bd
00000260: 8a35 873c d5e5 bebd f26c 81bd ba38 19bb
00000270: 374e 23bd 15da c9bd 7429 02be bf90 07bd
00000280: 0d41 efbd 3436 1bbe 2e44 103e fc70 c13c
00000290: d70e b23d c7b2 8b3c 72e3 053e 63c9 b63c
000002a0: 7af5 df3c efcd ea3d 242a 1a3d f174 24bd
000002b0: 30a0 febd 8304 4dbd cc49 093d f680 debd
000002c0: f79d 0ebd 7d28 4c3d c78d 06be 2c43 8ebd
000002d0: 5ef5 963d ef7c af3c 7751 9b3c 714c 3d3c
000002e0: 3ee5 863d c9c0 56bc 2904 a13d 183d f5bd
000002f0: 9490 a1bd 144a f73e 7fdb 863e 176c 903f
00000300: 95b1 0ebf 097e c0be 6464 74bf d9fb 7abe
00000310: 6e75 ecbe 76d0 82bf d018 aebf 24be dbbf
00000320: b412 01c0 9e78 8cbf dc5e 8ebf 24f2 2abf
00000330: f4ca 12c0 7a69 adbf 8bb2 22bf aabb 3d3d
00000340: 089c e6bc bc0d cdbd 75a7 8b3c 7b9f 23bb
00000350: c878 b13d bf76 383d 0531 cb3c 25d8 b4bd
00000360: 5bc6 4a3f e329 a73e 4c0d 733f c651 7fbf
00000370: a473 8bbf e736 cabe 6cda 01c0 1459 00c0
00000380: 9af1 9abf 8644 b6be a204 fabe f6a6 f93e
00000390: 8390 193f 74fd 823f 9e7b b83f e21b e53f
000003a0: 719c 0440 53d0 b83f 7dcc 963e b7a5 66bd
000003b0: 445e a93f 286c 853e e9dc 683f 6775 2140
000003c0: 5c45 733f 6bc2 ce3e b06c 9d3f 5ed2 d63e
000003d0: e3ea 903f 49f5 4f3f 9a9e 023f aa8b 3abf
000003e0: 30d0 80bf dab5 c4bf ff27 f2bf e822 08c0
000003f0: 592b 913d cba2 33bc b2a4 033d fe63 dd3c
-0.021197801 0.12785245 -0.10050723 -0.03393127 0.10669845 0.042050578 0.16659814 0.072981134
-0.016890775 -2.0977993 -0.76666045 -0.061667975 -1.4753923 0.42627987 0.31302276 -0.94034576
0.9858086 1.8156621 -0.3995035 -0.8023266 2.464797 0.48785084 0.65253466 2.7636933
0.14876243 0.8573536 3.1214383 0.007757389 0.03100483 -0.025822055 -0.017847592 0.10425609
-0.09331726 0.03545409 0.09979995 0.113248184 -1.4944736 -2.8617287 0.2264769 0.46025825
2.61839 1.6529039 0.82314163 1.1488975 1.5536636 0.33419105 0.43493557 0.04351398
0.7709867 -0.29163888 0.74894935 0.61965036 -0.19430764 1.0262265 -0.40854654 0.09435182
1.0084435 0.06311497 -0.44389734 1.749899 -0.66454864 0.3113408 1.4453905 -2.102181
-2.4370136 -0.28925443 -1.4936692 -1.0081401 0.5210394 0.49257588 1.4509345 0.35754514
-0.030085502 -0.14748247 -0.106760934 0.09642317 0.007519897 -0.06845784 0.19953494 0.016156485
0.18459152 0.75763136 1.1475103 0.87171954 2.0770924 2.4179854 0.84178585 2.6372297
1.8604428 1.4447262 0.04302985 0.069941424 -0.04609541 0.061914396 -0.045045543 0.123908386
-0.04217224 -0.006787325 -0.106457606 0.019280845 -0.094564475 -0.017537901 -0.074744746 -0.09933233
-0.050671685 -0.0014516878 -0.046044543 0.026365139 0.010269925 -0.03352978 0.013783467 -0.09957344
-0.025730139 0.104140304 0.080998085 -0.029979696 -0.0051268227 0.030832626 0.00983083 -0.113515384
0.032520667 -0.11286575 -0.11892566 0.09586939 -0.1039401 0.062871344 -0.020656085 0.010416203
-0.15321732 0.040579446 -0.026872994 0.013213353 -0.06716784 -0.009971246 -0.0755322 0.064057305
-0.13850658 -0.070976645 -0.04054944 -0.11070313 -0.007212849 0.08558146 -0.11739705 -0.10436862
-0.03811392 -0.05337763 -0.0032819882 -0.035161525 -0.0051786066 0.037471052 -0.060426008 -0.036966767
0.016505022 -0.09321181 -0.06319608 -0.002337976 -0.039869513 -0.09856049 -0.12711126 -0.033097025
-0.11682329 -0.15157396 0.14088508 0.023613445 0.08694237 0.017053021 0.13075045 0.022312826
0.027338732 0.1146506 0.037637845 -0.040150587 -0.12432897 -0.05005313 0.033517644 -0.10864441
-0.034818616 0.0498433 -0.13140021 -0.06946406 0.07371019 0.021421878 0.018959744 0.01155387
0.06586693 -0.013107487 0.078621216 -0.11974543 -0.07888904 0.48298705 0.26339337 1.1282986
-0.5573972 -0.37596157 -0.95465684 -0.24510135 -0.46183342 -1.0219867 -1.3601322 -1.7167401
-2.0167665 -1.097431 -1.1122699 -0.6677573 -2.2936373 -1.3547814 -0.63553685 0.04632155
-0.028150573 -0.10012385 0.017047623 -0.0024966884 0.08665615 0.04503512 0.024803648 -0.08830289
0.79208916 0.32649145 0.94942164 -0.9973415 -1.0894666 -0.39495012 -2.0289564 -2.005437
-1.2104981 -0.35599154 -0.4883166 0.48760194 0.5998613 1.0233598 1.4412725 1.7899134
2.0720484 1.4438576 0.29452887 -0.05631038 1.3231893 0.2605908 0.9096208 2.5227907
0.9502771 0.40382704 1.2298794 0.41957372 1.1321682 0.8123365 0.51023257 -0.7286936
-1.0063534 -1.5367997 -1.8918456 -2.1271305 0.07088346 -0.010964106 0.032139488 0.027025219

conv3.bias f4 [10]
00000000: 6e09 f5bf aaab a3bd a523 8f3f e1c4 c2bd
00000010: a690 acbb 859b 3f3c 8b24 bebd 7d91 d4bd
00000020: ffa7 75bd 4428 f540
-1.9143503 -0.07991727 1.1182753 -0.09510208 -0.005266267 0.011694794 -0.09284314 -0.10379312
-0.059974667 7.661165

conv4.weight f4 [10, 10, 3, 3]
00000000: bca3 2ebf 35f3 87be 2fd0 3cbd 6a09 a7bf
00000010: d521 b1bf a8b0 4bbf c346 633f 71e0 07c0
00000020: aa35 11c0 da4c afbd 646f 203d b072 56bd
00000030: 5811 743d 1a73 8a3d 455d ac3d 5d0e 91bc
00000040: f103 e43c 11da a53d 77d9 04be 8ba6 07be
00000050: d2b5 61bd 5133 c1bf b2d7 92bd 1c47 7d3f
00000060: bcef 08c0 748f 2f3e 7970 1c40 247d 65bc
00000070: bda0 02bd 7200 ccbd 70cc 103e 1ac5 90bd
00000080: 8bc1 a93c d661 b83d c5c5 c13d cdac 85bd
00000090: 2d73 e93c c7d6 743d 397b a03c cf31 d83d
000000a0: 821c 013c 59c4 9b3c 61ff e53d 60c5 3e3c
000000b0: ce40 fcbc cb78 563d 3782 02bd c06d 5bbd
000000c0: aa7d 2bbd dfa8 5a3d 9c63 013e 48af d1bd
000000d0: 86b9 1bbd 348d 98bd 687d 7c3d aae2 983b
000000e0: 8b47 81bc accf 74bd a0a2 fc3c 81de 003e
000000f0: 1844 4bbd 6378 49bd dfdb 16bd 8944 6b3c
00000100: 5308 2c3d 5949 6b3d 71bd f7bd 5d45 193d
00000110: cdbe ef3d 58a8 0e3e c2bd e5bc 1e17 efbd
00000120: 76bb b0bd 8357 283d 2980 e33c 361f 77bd
00000130: f8bb 28be 9f98 5e3d bb79 8cbc 7913 ae3c
00000140: b85a c1bd bcf4 30bf 4ba8 aabf ed21 aebf
00000150: a8cd f43f 490d 93be 2505 debf 1d44 ec3f
00000160: f2c7 7e3f ca9f 123f b54e c93f d919 fb3e
00000170: 7f15 f53f 85b9 99bc 9836 543f a14e 86be
00000180: 408f 46c0 6c09 76bf 6b8c 62c0 2fa9 bd3d
00000190: 3e52 c4bc f0f6 8c3d d6f7 a4bc 9be1 123d
000001a0: 1445 a33c e4e8 6cbd b0c1 a53d eb04 debd
000001b0: 34ea ae3e b7d4 6c3e 1668 d43e 1c00 81bf
000001c0: 306c fb3e 3bc6 b63e 2c14 37bf 17a1 4cbf
000001d0: 0e1b 843f 2430 943d 70a0 383d acd1 61bd
000001e0: 603c cbbd 44ff 143e 82d3 5cbe e6ab 833d
000001f0: 186f 6d3d 79b0 dcbc 8e7e 27bd 17ba d6bd
00000200: 41fc a53d 1a9b fb3d e22e 99bd 4adf 2e3d
00000210: 35b6 483c d8ea 313b 21ee 3fbd aaed a0bd
00000220: d56b 0c3d 99cb d3bd 8888 65bd b3f7 89bd
00000230: 7c44 933d 8a0e 4a3c 0395 2d3c 4983 debb
00000240: a4a0 d53d 61dc a53c 5c10 b63c 768c 2e3d
00000250: fd3e 943c 945d eabc f7f1 d8bd 085a 193d
00000260: 17e0 d0bd 51f3 b7bd 4fd0 2abd b91c c43d
00000270: d272 4e3b 13d7 a0bd 5d28 7b3d 9828 a03d
00000280: 6d54 a4bd 999a e4bd 9dab c23c eebe 12bd
00000290: 04bb b73c 2b1a 88bc 836e 943c 36e2 76bd
000002a0: afa7 c43d 8397 15be 731f 63be ef31 bcbf
000002b0: 02db afbf f897 46bf e577 46bd 83c3 6e3e
000002c0: 1c53 b93f acf8 b43f 0e7b 5d3f 6cf8 b5be
000002d0: afa3 e2be 2e8b d33f 3322 7e3f f87f db3f
000002e0: f813 ac3f 196f 0140 3dcb ff3e ba9b 59bf
000002f0: baab 85bf cf1d 8abc ea70 babd be82 4abd
00000300: d516 14be 65ab b33d 9002 383d 17ba dfbd
00000310: e971 05bd c81c 823d 34a8 dbbf b82e 5abf
00000320: 6dcb 82bf 3cb3 f43d b1e5 cebf 886a b6bd
00000330: a429 05c0 1d9e 7dbf bfc6 c43f 332e ec3d
00000340: 1db4 85bd 338e 05bd 0d20 a9bb 2679 723d
00000350: c565 563d b485 9fbc 8790 113e f815 d53d
00000360: b0bf 0c3d 2edc d13d b59d b73d 4a26 37bd
00000370: be50 f83d d406 1aba 583e a9bd 07a8 21bd
00000380: ff00 27bc 5949 80bd 9800 9dbd f5f2 ed3d
00000390: 143b 2c3a ea15 6f3b 6f5f ba3c 92cb b7bc
000003a0: 5eef 913d 60b2 fc3d 9476 783d f293 513d
000003b0: 848e f3bd 464c 23bd 8311 aebd 6fcc 6ebd
000003c0: 0801 b23d b64d 2cbd c290 f1bc e887 433b
000003d0: 766c 633c 5eb7 953d c540 4c3c 9af2 03bc
000003e0: 820d f2ba 9833 523b 3d27 2dbc c850 9bbd
000003f0: 74b1 31bc 6d56 b03b df25 e63d 4b66 503d
-0.6821859 -0.2655274 -0.046096977 -1.3049748 -1.383845 -0.7956643 0.8877985 -2.1230738
-2.2689004 -0.0855958 0.03916873 -0.05235547 0.059586853 0.06760235 0.08416227 -0.017707044
0.02783391 0.080982335 -0.12973581 -0.13247125 -0.055105038 -1.5093786 -0.07170047 0.9893663
-2.1396322 0.17144567 2.4443648 -0.014006887 -0.031891573 -0.099610224 0.14140487 -0.07068844
0.020722171 0.09003036 0.0946155 -0.065271 0.028497303 0.05977514 0.019590007 0.10556375
0.007880332 0.019014524 0.1123035 0.011643738 -0.03079262 0.05236129 -0.031862464 -0.053571463
-0.04186789 0.053383704 0.12635654 -0.1023851 -0.038018726 -0.07448807 0.061643034 0.0046656923
-0.015781185 -0.059768364 0.030839264 0.12584879 -0.049625486 -0.049187075 -0.03683078 0.014359602
0.042000126 0.057442997 -0.1209668 0.037419666 0.11706314 0.13931406 -0.028044585 -0.11674331
-0.08629505 0.041099083 0.027771072 -0.0603325 -0.16477954 0.05434477 -0.01714789 0.02124952
-0.09441131 -0.69123435 -1.3332609 -1.3604103 1.9125261 -0.28721073 -1.734532 1.8458287
0.9952384 0.5727507 1.5727144 0.49043158 1.9147185 -0.01876522 0.82895803 -0.26231864
-3.1024933 -0.96108127 -3.5398204 0.09260785 -0.023964997 0.06883037 -0.020137709 0.035859685
0.0199304 -0.05783929 0.080935836 -0.10840782 0.34163058 0.2312802 0.4148566 -1.0078158
0.49105978 0.35698113 -0.71515155 -0.79933304 1.0320756 0.072357446 0.04507488 -0.0551316
-0.09923625 0.14550501 -0.21565059 0.064292714 0.057967275 -0.026939617 -0.040892176 -0.104847126
0.08104754 0.12285443 -0.07479645 0.042693414 0.012250473 0.0027148034 -0.046857957 -0.07857831
0.034282524 -0.103415675 -0.05603841 -0.06736698 0.07190797 0.012332568 0.010594609 -0.0067905528
0.104310304 0.020246686 0.022224598 0.042614423 0.018096441 -0.028609075 -0.10593026 0.037439376
-0.10198992 -0.08981956 -0.041702565 0.09575791 0.0031501544 -0.07853522 0.06131779 0.07820243
-0.080239154 -0.111623 0.023763472 -0.035826616 0.022428043 -0.01661404 0.018119102 -0.060274325
0.096022956 -0.14608578 -0.22179966 -1.4702739 -1.3738711 -0.77575636 -0.048454184 0.2331677
1.4478488 1.4138389 0.8651589 -0.35541093 -0.44265506 1.6526849 0.99270934 1.7148428
1.3443594 2.0224059 0.49959746 -0.85003245 -1.0443032 -0.016859917 -0.09103568 -0.04944109
-0.14461835 0.08772925 0.04492432 -0.10924166 -0.032579336 0.06353146 -1.7160707 -0.8522754
-1.0218331 0.11948249 -1.6163846 -0.08907038 -2.0806665 -0.99069387 1.5373152 0.11532249
-0.065284945 -0.032606315 -0.0051612915 0.059197567 0.05234315 -0.019472934 0.14215289 0.10404581
0.034362495 0.10247074 0.08965627 -0.04471425 0.12124775 -0.0005875651 -0.08263844 -0.039466884
-0.010193109 -0.0626399 -0.07666129 0.11618606 0.00065700826 0.0036481568 0.022750584 -0.022435937
0.07125734 0.1233871 0.06065996 0.051166482 -0.11892417 -0.039867662 -0.08499434 -0.05830043
0.08691603 -0.0420663 -0.029487971 0.0029835645 0.01388084 0.07310365 0.012466614 -0.008053446
-0.001846716 0.003207421 -0.010568437 -0.07583767 -0.010845531 0.0053813965 0.11237692 0.050878804

conv4.bias f4 [10]
00000000: c40d 5c3e bead 913e f00d 90bd f945 82bd
00000010: d4bf 7ebe 8618 12be 1907 03bf a202 843e
00000020: 0676 e1be 0145 473e
0.21489626 0.28452867 -0.07033908 -0.063610025 -0.24877864 -0.14267167 -0.51182705 0.2578326
-0.44035357 0.19459917

norm.weight f4 [10]
00000000: 3aaa aa3e d970 3b3e 7c3c 663e cef0 3d3e
00000010: 3d6e f53d f7aa 693e a30e c63e 86fb 4a3e
00000020: 8a77 813e c5b5 2a3e
0.33332998 0.18304767 0.2248401 0.18548891 0.11983917 0.22819124 0.38683042 0.19822511
0.25286514 0.16670902

norm.bias f4 [10]
00000000: 8a79 c6be 7521 78be a562 bebe 0c6f 15be
00000010: 34c1 ecbd ae8f 70be 5d80 c4be f363 3fbe
00000020: 43ec 75be 18ee 22be
-0.38764602 -0.24231513 -0.37184635 -0.14593142 -0.11560288 -0.2349231 -0.38379183 -0.18690471
-0.24015908 -0.15911138

norm.running_mean f4 [10]
00000000: 12b9 74c4 0441 a4c3 b34c b8c3 1d51 54c4
00000010: 0737 3b42 083e 32c4 938d c2c4 3cde 81c4
00000020: 96b6 72c4 2a20 c841
-978.8917 -328.50793 -368.5992 -849.2674 46.803738 -712.96924 -1556.4242 -1038.9448
-970.8529 25.015705

norm.running_var f4 [10]
00000000: 71db 8e48 ca56 4948 7300 9f48 526e dd48
00000010: 0855 2e48 54bc 5548 b6ba fd48 c05f 7648
00000020: 79a3 e548 a3e5 8c48
292571.53 206171.16 325635.6 453490.56 178516.12 218865.31 519637.7 252287.0
470299.78 288557.1

fc1.weight f4 [50, 810]
00000000: bf8c 9bbe b9b3 04be 4cb2 91bf 58c1 06c0
00000010: 91e0 95bf 4331 5e3f fa69 20bf d200 a1be
00000020: 01a1 823f 4a32 29c0 12f7 4cbf 072a 88be
00000030: ddcc 2c3f 0349 bb3f f8a0 8abf 6596 9d3f
00000040: 3419 4fbf af8e 92bf bf7b 963e 8c07 8fbe
00000050: 4b96 febf 4872 90bf 9cf7 d9bd 3804 8b3e
00000060: 5aad 5f3e 6f34 90bd 3f37 d7bb a70a 933f
00000070: b672 c83f 2bce cebe d820 3c40 e5c4 963f
00000080: 632b 803f abcb c2bf 4a34 c8be 49c0 91be
00000090: e0ef 66bf 6260 0d3f 2750 663f 49cc 3cbf
000000a0: 0121 613f b76f b23f 95e4 00bf a05d dcbe
000000b0: 99d6 9dbf 8ba8 b9bf 39f8 8cbf 8edd d63c
000000c0: ed52 f3bf f123 55c0 d8d4 5fc0 da36 8ac0
000000d0: 376a e7bf 00d3 043f e3dc 0cbf ebdd 8dc0
000000e0: 2df9 3fbf bcad abbf b918 dfbf b071 ecbe
000000f0: 1746 efbf 38c7 943f ab90 87bf c954 70bf
00000100: 99fc e3bf b3f8 74be 6a23 46c0 af7b 83bf
00000110: 4591 f4be 079e 97c0 9409 58bf b092 7cbf
00000120: 3b9a 2f3e adb7 8ec0 2bb4 b6bf f3c9 25c0
00000130: 1d14 05bf 44cd eabf 84d9 6a3f 3f96 b8bf
00000140: c89d 9bbf a2c8 083f 6533 be3f 9210 b8bf
00000150: e1aa 89bf a7dc 2ac0 0275 a23f 8c18 d13f
00000160: 729f eb3e f886 b93f 7390 55bf ba5a 573d
00000170: eb74 afbf ffa0 acbf d1c8 6c3f db25 d93f
00000180: e4e0 dd3e ca81 943e ad4b ac3e 791e b73f
00000190: 6628 753f 264a 33bf 6a5c dabe 2e63 413f
000001a0: b4b0 8d3f d863 32bf 8c3b 123e de25 463e
000001b0: 7573 03bf 1d62 663e d5f7 bc3e b5c6 e63c
000001c0: 4b6b ab3d a226 973d 4ee4 86bc b6c8 183f
000001d0: 55c3 943e f9b3 41bd 7920 793f 586e 383e
000001e0: e948 8dbe 3696 3dbf 186c 0540 0c27 393e
000001f0: 4973 6f3f 0d37 943f e96d b73e b0ad bcbd
00000200: c72c 54c0 9c6a 1cc0 59fa aebf 9bd1 d4bf
00000210: c3f6 9abf 4c2d 973f 083b 243f 6bc6 1ac0
00000220: cabe 84be bdcf 873f bfe2 c3bf 62b3 bfbe
00000230: 5641 a0bf f81b 19be 53e9 3c3f 92ce d13b
00000240: a6c7 9a3f 34d1 b2bf 6d61 04c0 9f7f 3bbe
00000250: 3f99 ecbe 3d4b c7bf 894e 08c0 0f50 31c0
00000260: 07ac 403d 952f 2d3f c361 02c0 44af d4bf
00000270: 5565 f4bf b520 75c0 2f07 39bf 9473 303e
00000280: fb8c e8be ba00 fb3f 1eca 4bbf aa0e 0fc0
00000290: e698 06c0 63b5 403e ec72 03be 30d1 ccbf
000002a0: 170e d5bd ac62 433f 37ff 073f dccc 9dbe
000002b0: aeaa 99be 213a 673e 1dd6 843f 873c fabf
000002c0: ccaa 90c0 4629 debf 6c55 bebe fa48 6cbe
000002d0: b5de 54bf 123c 24bf dc16 c53c 9629 29bf
000002e0: bcd5 8dbf cc4c e33f 696f a7bd 92b6 6fbf
000002f0: 47e0 783f e058 b03f a3a5 3bbf c8d8 883f
00000300: 1ca3 b23f 6fd6 d9bd 8346 85be 13e3 99be
00000310: feaf 553f ff12 873e d0d3 dabe 3f40 fa3f
00000320: a023 d23e 4878 de3c 0e6d 02bf 6072 dfbf
00000330: db26 013f 7095 1ac0 fbbb 8bc0 e92d 20be
00000340: 20d9 a63f 0095 afbe 1b4d 03bf d021 36c0
00000350: 3fea 4cbf 3f9e 86bf 353a c4bf 3a98 1ebf
00000360: 49c1 513f becf 2ebf 342a 25bf e4a0 61bf
00000370: 0dac 17c0 4322 acbf c96a 3ebf 7efd 03bf
00000380: b011 e0be 0469 eabf f347 8c3f 89b2 30be
00000390: 094a 9abf 49c5 2fbf 92bf b6bd cdeb 51bf
000003a0: 2773 c03f 084f abbd 3b9a 8bbf a61c e7bf
000003b0: 80f4 15bf 14f7 0d3e c518 a1bd 98bd bfbf
000003c0: 3c28 abbf bbf2 ebbd 6c42 ad3d 1ede 7abe
000003d0: 0940 823e 3cb7 ef3d 3bd9 80be 1fa2 ea3e
000003e0: fa53 d03d 3f10 d8be 9928 3d3f cb9b bf3e
000003f0: db41 a5bf 04d9 b13e fd93 0b3f 99dc c73e
-0.30380818 -0.12959184 -1.1382537 -2.1055508 -1.1709157 0.8679392 -0.6266171 -0.31445938
1.0205384 -2.6436944 -0.800645 -0.26594564 0.67500097 1.4631656 -1.0830374 1.2311522
-0.8089783 -1.1449794 0.29391286 -0.27935445 -1.9889616 -1.1284876 -0.10642931 0.27151656
0.21843472 -0.07041251 -0.006567865 1.1487626 1.5660007 -0.4039167 2.9395046 1.1778837
1.001324 -1.5218405 -0.39102393 -0.28467014 -0.9020977 0.55225194 0.8996605 -0.73749214
0.87940985 1.3940343 -0.5034879 -0.4304018 -1.2331115 -1.450456 -1.1013252 0.026228692
-1.9009682 -3.3303187 -3.497366 -4.3191957 -1.8079289 0.5188446 -0.55024546 -4.4333396
-0.7498959 -1.3412395 -1.742942 -0.46180487 -1.8693265 1.1623297 -1.0591024 -0.9387937
-1.7811462 -0.23922996 -3.0959115 -1.027212 -0.47767082 -4.7380404 -0.84389615 -0.9866133
0.17148678 -4.4599214 -1.4273733 -2.590451 -0.51983815 -1.8343892 0.9173815 -1.4420851
-1.2157526 0.5343114 1.4859434 -1.4380057 -1.0755273 -2.6697176 1.2691958 1.6335616
0.46020085 1.4494314 -0.83423537 0.052576758 -1.3707556 -1.3486632 0.9249392 1.6964678
0.4333564 0.2900527 0.33651486 1.4306175 0.9576477 -0.70035017 -0.4264863 0.7554196
1.106955 -0.696836 0.14280528 0.19350383 -0.5134805 0.22498365 0.3690783 0.028170923
0.08370074 0.073804155 -0.016466286 0.5968126 0.29055277 -0.047290776 0.97315174 0.18010843
-0.2759469 -0.7405733 2.0847225 0.18081301 0.93535286 1.15793 0.35826042 -0.09212816
-3.315233 -2.444007 -1.367015 -1.6626467 -1.2106556 1.1810699 0.64152575 -2.4183605
-0.2592681 1.0610272 -1.5303572 -0.37441546 -1.2519939 -0.14952075 0.73793525 0.006402799
1.2092178 -1.3970094 -2.0684464 -0.18310402 -0.46210667 -1.5569836 -2.1297934 -2.7705114
0.047039058 0.6765073 -2.037217 -1.6615987 -1.9093424 -3.8301213 -0.72276586 0.1723159
-0.4542006 1.9609597 -0.7960528 -2.23527 -2.1030822 0.18819194 -0.12836808 -1.6001339
-0.10403078 0.76322436 0.531238 -0.30820358 -0.3001303 0.22580768 1.0377842 -1.9549721
-4.520849 -1.7356346 -0.37174547 -0.23074713 -0.83152324 -0.6415416 0.024058752 -0.6607908
-1.1080852 1.7757812 -0.08175547 -0.93637955 0.9721722 1.3777122 -0.73299617 1.0691156
1.3956027 -0.10636603 -0.2603036 -0.30056056 0.8347167 0.2638168 -0.42739725 1.9550856
0.41042805 0.027156964 -0.50947654 -1.745678 0.50449914 -2.415371 -4.366697 -0.15642513
1.3035011 -0.34293365 -0.5128953 -2.8458138 -0.8004493 -1.0517043 -1.5330263 -0.6195103
0.81935555 -0.6828574 -0.6451752 -0.88136125 -2.3698761 -1.3447956 -0.7438169 -0.51558673
-0.43763494 -1.8313298 1.0959457 -0.17255606 -1.2053844 -0.6866041 -0.08923258 -0.8200043
1.5035142 -0.083646834 -1.0906442 -1.8055618 -0.585762 0.13863784 -0.078660525 -1.4979734
-1.3371654 -0.115209065 0.084599346 -0.24498793 0.2543948 0.11704871 -0.25165734 0.45826814
0.10172267 -0.42199895 0.7389007 0.37423548 -1.2910722 0.34735882 0.5452269 0.3903549

fc1.bias f4 [50]
00000000: e435 873f 71f1 f93f e720 54be eca9 d73e
00000010: fc87 a9bd 692f 9a3f f911 7b3f 17ed 00be
00000020: 3e8e ba3f 5854 18bd e45e 4fbf 778c c13e
00000030: edc5 1fbf 87cd ee3f b5cf 34bd cabc 4a3f
00000040: 1629 a4bd 3605 73bd d524 4ebe 3b78 e2be
00000050: 6c4d b33f 632c 6340 2544 59be 3dec 7bbc
00000060: ef47 25be 3730 63bf 1099 10bd 1877 253f
00000070: 9d7a 0240 454a 11be 2146 67be 2a0a 48be
00000080: eab5 4b3e 74a2 2240 1fed 883d 6dc8 c3be
00000090: cc5a 6ebe b012 bf3f 1fb8 47be 89df efbd
000000a0: 47ae 87be 7776 3c40 20f6 203e dfd1 21be
000000b0: a506 47bd 5cd9 463f df28 4b36 32ae cb3f
000000c0: e790 3e3f 5c7c 0d40
1.0563321 1.9526807 -0.20715676 0.42121828 -0.0827789 1.2045718 0.980743 -0.12590443
1.4574659 -0.03718981 -0.81004167 0.3780248 -0.62411386 1.8656472 -0.044143397 0.7919432
-0.08015649 -0.05933114 -0.20131238 -0.44232354 1.4008002 3.5495842 -0.21217401 -0.015376148
-0.16140722 -0.88745445 -0.03530222 0.6463485 2.0387337 -0.14188488 -0.22585346 -0.19535127
0.19893613 2.5411654 0.06685852 -0.3823885 -0.23276824 1.4927578 -0.1950383 -0.11712558
-0.2650015 2.9447305 0.15718889 -0.15802716 -0.04859032 0.77675414 3.0273147e-06 1.5912535
0.74439853 2.2107153

fc2.weight f4 [7, 50]
00000000: 00d6 babe dede 973d 5327 9bbd dbe0 afbe
00000010: 1afd afbd c9a1 41be 94be 68bf 9d29 03bf
00000020: c2b1 74bd 647f 55bd 8b4e c7bf 120d f8bd
00000030: f231 613e 0c97 b8bd 9f6a d4bc 065b d4ba
00000040: 0f7c a8bd 2f92 6f3a 66f3 66be 7a0b 30be
00000050: 2810 71bd 7c53 083e d159 0cbe a843 663d
00000060: d9e3 8dbd 947e 813e e981 c1bd dba9 fcbc
00000070: 404d 50be 4978 1f3d a01c 91be c843 2c3e
00000080: c598 35be 50a6 4b3e 1d08 f3be 3dc1 6bbf
00000090: e550 48be 8acd 8c3e 8140 07be e971 62bd
000000a0: 191f f7bd b2e1 7fbd f6f8 4abf 05f7 4cbe
000000b0: f089 c0bd f033 0dbe 3ec3 9f3d 9716 4b3e
000000c0: 09ee 623d a3ce 2bbe 8e8f d1bd 13c3 93be
000000d0: e6fc a7bd ea2f d9be 278d 833b b095 bebd
000000e0: 7033 8ebf 750f 53be 31db a23d f983 983c
000000f0: d1ca cac0 176b 1ebf ae88 04be 1700 e1bc
00000100: 35b2 d73c bef6 1c3e 6dea 28bd 0f54 18bd
00000110: f36c e7bd aef4 5bbd 08da 5dbe 044c b3bd
00000120: 7ffb 7abd fb12 a43c 197c 863c b70a 47be
00000130: 0201 f0bd 7523 6ebe afb6 8ebe 481d ce3d
00000140: 1031 75be c464 d13d 23e9 9a3d 6796 95be
00000150: f6b1 59bf c4cf 35c0 0998 5dbc ee7e abbe
00000160: 9097 68be 7327 e03c 87b6 8fbd 1226 99be
00000170: cae3 35bf 5574 1ebd 3fe5 e13d 41e0 87bc
00000180: d1d2 b73d 7246 213f 7e1b 82bd c8cf 14bc
00000190: 1092 853e 2a01 22bf bbe9 0abd 045a 73be
000001a0: f02a 3a3d 5ff2 0cbd 2b72 5ebf 1584 38bd
000001b0: ea2d 69bd d468 583d e230 2cbd 8af2 76be
000001c0: a92b 82bc 5b59 a1be f755 003d e0f2 8c3e
000001d0: 304d c7bd 4d4b 413c 2400 90be 9c72 dcbc
000001e0: 2f42 b3bd ac73 433c df67 813d d7f2 15bd
000001f0: 6b69 19be b16e 5c3e 23a0 5ebb b402 efbd
00000200: 54ca 39be 443a b33d d80b c5be 7be1 453c
00000210: 7373 acbc 813e ef3c c952 09bd 10ce fd3e
00000220: 7d78 263e dbdb b23c 2ef7 3ebe 2fef debb
00000230: 1cee 5fbe a72e 3abe 50fe 14bf c446 43be
00000240: d575 f9bd f1d8 873e 0ab2 a63c f3b9 5bbd
00000250: 99ac c1bd bed4 bfbd 03f3 dcbe 6ab2 24bf
00000260: 0169 753d db31 0dbf 4105 a73d 82a2 0cbe
00000270: 3fb6 30bf 9da0 4cbf 31da debd 62a1 d73d
00000280: 895c eebf 6fea a63e c7f2 dabc 289c 7a3e
00000290: 20d8 87bc f35e 10be cbd1 893c 0272 94bc
000002a0: 8d40 a5bd 88e2 a6bd d4c0 953e 6e88 203a
000002b0: 4a25 843c 4efb 5e3d 4145 0f3d b5f3 4cbd
000002c0: 8a9b 5abd f7fe a13d 0624 9e3e bf6f e0bc
000002d0: 3b8a 25be b4a8 ed3d a99a fabd c387 87bd
000002e0: ff53 dbbe 4ba9 82bf 06e2 01bd 028f c5be
000002f0: 5606 3ebe c43e 79bd ed4f 3cbd b0e7 a63e
00000300: 1d3d 47be dd0a d33d 20f0 68bd e98d b7bc
00000310: 71b0 1cbd d9e9 a5bd 65e6 bdbe fceb f73d
00000320: 221e 46be abbd 1dbf 663a bbbd 056e babe
00000330: f643 0a3e ce3d c7bd fac8 37bf cc77 b6be
00000340: 6f97 adbd 9dd5 94bc d636 2dbf 9795 50bd
00000350: ba5d 83be 2961 38be ec94 eb3d f409 cc3d
00000360: 8f23 2ebd fc4b 4fbd 353b 383d 92cb e9be
00000370: 6af3 c3bd 5525 813e 7a07 27bd 7faa 2bbd
00000380: 54b9 5c3b b9a7 b3bd 2808 4dbd ed96 153d
00000390: bc79 22be 5167 b8bd 0ac0 01be 1b23 efbc
000003a0: 2519 833e 5e20 da3d 2148 5fbe ce14 63bf
000003b0: d5a8 ca3c 57fd 8d3d a226 8c3d feaa ae3d
000003c0: 87fc 1dbe 88e7 33be 61e1 1bbf 1918 07be
000003d0: bc1c 8b3d 75f4 48be e49c 5b3c 225d c1bd
000003e0: 30f8 173c 1080 30bd e469 6ebe 1d84 2ebd
000003f0: 5cf3 c2bd fbe4 8e3e b880 d03d 8b29 ad3e
-0.36491394 0.074155554 -0.0757586 -0.3435124 -0.08593197 -0.18909372 -0.909158 -0.5123537
-0.059739836 -0.052123442 -1.5570844 -0.12111868 0.21991709 -0.09013185 -0.025929747 -0.0016201444
-0.08226787 0.00091389095 -0.22553787 -0.17191878 -0.0588533 0.13313097 -0.13706137 0.056216866
-0.06928224 0.25291884 -0.094486065 -0.030842712 -0.20341969 0.038933072 -0.28342152 0.16822731
-0.17734058 0.19887662 -0.47467127 -0.92091733 -0.19562109 0.27500564 -0.132082 -0.055284414
-0.12066478 -0.0624711 -0.79286134 -0.20016105 -0.094013095 -0.13789344 0.07800911 0.19832836
0.05540279 -0.16778044 -0.10232459 -0.28859767 -0.082025334 -0.42419368 0.0040146294 -0.093058944
-1.1109447 -0.20611365 0.07951964 0.018617617 -6.337258 -0.61882156 -0.12942764 -0.027465863
0.026330093 0.153285 -0.04123919 -0.03718954 -0.11300077 -0.05370014 -0.21665204 -0.08754733
-0.061275 0.020028582 0.016416596 -0.19437681 -0.11718942 -0.23255713 -0.27873752 0.10064179
-0.23944497 0.10224298 0.075639986 -0.2921631 -0.8503717 -2.840806 -0.013525018 -0.33495277
-0.22714067 0.02736256 -0.07017236 -0.29911858 -0.71050704 -0.03868516 0.11030053 -0.016586425
0.08975757 0.62998116 -0.063529 -0.009082742 0.26088 -0.63283026 -0.03391431 -0.23764807
0.045451105 -0.03441083 -0.86892956 -0.04504784 -0.056928553 0.052834347 -0.042038806 -0.24115959
-0.01588996 -0.31513485 0.031331982 0.2752905 -0.09731519 0.011797738 -0.28125107 -0.026910119
-0.08752858 0.011929434 0.0631864 -0.036608543 -0.1498162 0.215266 -0.003396996 -0.116704375
-0.18143588 0.08751348 -0.384856 0.0120776845 -0.021051144 0.029204609 -0.033526216 0.49571276
0.162569 0.02183335 -0.18648979 -0.0068034153 -0.21868175 -0.18181859 -0.5820055 -0.19069964
-0.12180678 0.265327 0.020348568 -0.053644132 -0.094567485 -0.09366749 -0.43154153 -0.6433474
0.059914593 -0.551542 0.08155299 -0.13733867 -0.69028085 -0.79932576 -0.108814605 0.10528828
-1.862199 0.32600734 -0.026727093 0.24473631 -0.016582549 -0.1409872 0.01682367 -0.01812077
-0.08068953 -0.08148676 0.2924868 0.0006123845 0.016131062 0.05443888 0.034978155 -0.050037105
-0.05337099 0.07909959 0.3088686 -0.027397035 -0.16166012 0.11604443 -0.1223653 -0.06617691
-0.4283752 -1.0207914 -0.031709693 -0.3858567 -0.18557104 -0.060850874 -0.04597466 0.3259864
-0.19456907 0.103048064 -0.056869626 -0.022406535 -0.038254205 -0.081012435 -0.3708984 0.12105557
-0.19347432 -0.61617535 -0.09141998 -0.36412063 0.13502488 -0.09728585 -0.7179104 -0.35638273
-0.08476149 -0.018168265 -0.676618 -0.05092391 -0.25657445 -0.18005814 0.11503014 0.09962836
-0.04251438 -0.050609574 0.04497834 -0.45663124 -0.09567912 0.25223795 -0.040778615 -0.041910645
0.00336798 -0.08772225 -0.050056607 0.036520887 -0.1586675 -0.09004081 -0.12670913 -0.029191544
0.2560512 0.10650705 -0.21804859 -0.8870362 0.024738709 0.06933086 0.06843306 0.08528708
-0.15428363 -0.17568791 -0.60890776 -0.13192786 0.0679259 -0.19624503 0.013404105 -0.09441592
0.009275481 -0.04309088 -0.23282582 -0.04260646 -0.09519073 0.27909073 0.10180801 0.33820757

fc2.bias f4 [7]
00000000: c586 87be 2d08 cfbf 72b9 ec3d 0c91 d23d
00000010: 2894 e13e f219 c6be a956 8d3e
-0.26470008 -1.617437 0.115588084 0.10281572 0.44058347 -0.3869167 0.2760518

localization.0.weight f4 [8, 1, 7, 7]
00000000: 11ac 3b3d e054 aebc 7d0d a03d 22e9 063e
00000010: 51a3 503d 9889 de3d 7082 2d3e f0dd 3d3e
00000020: d8dd f43d f57f 7a3e 266e df3d ed88 2d3e
00000030: e435 6a3e cf5e 443c 009d 06bd 0807 af3d
00000040: 8ad4 523e 33e6 373b 8316 403e 6d63 193e
00000050: f66d 98bd d263 a73d d2cd 95bd 3aad 55bd
00000060: 16b2 413e 4983 463d 035f 613c 3d44 b63c
00000070: 3ef8 413d 2311 a4bd 9e82 3f3e a5eb e23b
00000080: b15f ea3d a5fa 143e acd7 29bc cfb1 f23d
00000090: edad a9bd 625c 423e 6d7f 093e f2f4 233d
000000a0: 638a 013e 24e8 81bd 1772 8bbc 33d3 023e
000000b0: d2fd 283d 9e6a 79bd 94c3 fd3c 7bc1 033e
000000c0: 2493 1cbc ab75 debd 8025 96bc 4d0a a43d
000000d0: e4a9 e0bd 8985 c0bc df56 423d d40a 8239
000000e0: 6215 0f3e 6f11 cb3d 60cd 07be 6ea5 4d3d
000000f0: fce7 cc3d b142 e3bd 8aca 86bc b6e1 cabc
00000100: 948a dbbd 998a a03d 1aaa c0bd 273c 7abd
00000110: f362 573d 0e7c 4dbe f3ea d3bd ea19 f8bd
00000120: ad59 263d b732 c93d 6299 e3bd 0db1 00bd
00000130: 0377 80bd ccf8 cd3d b96e d7bc 9f1c 3a3d
00000140: e94e a93c fdfe c3bd a35a 9fbd fa85 c0bd
00000150: 60c0 33be 5622 8b3d b611 13bc e4c5 993d
00000160: 68b5 c7bd c341 55bd 6907 853a 50d7 94bb
00000170: 0633 aebd de7a 49bd c706 0ebe 9f6b ad3d
00000180: 3c17 15bd f5bb 1ebe 21ea 4cbd aecc aabc
00000190: af0a 4f3d 6b15 aabd c135 c03d 36b7 f13d
000001a0: e3e2 3abc 6838 a03d 3ab4 1dbd 5281 d6bd
000001b0: 224c 053e bf16 843d dd44 37bd 8307 fabd
000001c0: a8c0 223b 00a4 14bd 9b69 f9bb c970 033e
000001d0: b7c9 cfbd c8d5 a53d 88d5 68bd 755a b2bd
000001e0: 320a 83bd 8ebc 9fbd 24d4 e2bb 7959 25be
000001f0: 0337 01be 930d 0c3d 6d17 003e e968 23bd
00000200: feba 383d a589 b1ba bfe6 b23d 041e 9cbc
00000210: 7342 6a3d 757c 133e 2800 cdbd 676b cdbd
00000220: 016e c33c be05 3ebd d5ad 843b 0adf 6d3c
00000230: 551b 0abe 387b 8c3d 30dd 263c d568 6a3d
00000240: c730 a6bd 2c15 37be b176 38be c730 c4bc
00000250: 3d9f c2bd e4d9 bdbd b708 1dbd e2d9 333c
00000260: 67e6 583d 76c7 97bd 39ba 883d 463d 8abc
00000270: fd17 8abd b3e9 013e 68d0 c13d 2120 90bd
00000280: 042d ac3d 309e 063e f938 f53d 2009 933d
00000290: ca8d 033e e972 313c 7be0 f0bd 2a97 f73d
000002a0: 9c7e 903d 80e0 433d a9b6 f93c a4ed 98bc
000002b0: af69 04bd a4ab fbbd 0beb 0c3e c798 c33d
000002c0: 2486 84bc d50c d43d 49eb 913d a7b0 a23d
000002d0: ffb3 a33d 53c2 11be f842 523d 3145 44be
000002e0: 4c73 9b3d efd6 0dbd b7ce 93bd cd7f 4a3c
000002f0: b9fb 92bd ff56 1dbe fb57 18be aa70 7e3c
00000300: 55c6 c7bd 2f4c 07bc b4b2 613c 2cc8 843d
00000310: f79a 9bbd cb86 18be b1b7 37bc 08d2 bf3d
00000320: 3de2 0a3e 926b 20bc 38b9 3fbd fafc ffbd
00000330: 1364 b0bd 2fd3 d83d 0033 bcbd 76d5 d13d
00000340: 92cf 113e 4705 ee3d c638 a1bd 93e1 9fbd
00000350: c642 6f3d 4641 b5bb 35b8 183e 5856 963d
00000360: 0127 a73d 4f9b 04ba 1fc1 683d 5091 64bb
00000370: 0f1f d03d e179 83bd 8d2d 49bd 4882 013e
00000380: c7a5 b2bd b5ea 05bd d99a 12bd 90a9 ab3d
00000390: 50e1 90bd c06f 633a 15be e6ba e7c4 2dbe
000003a0: f8f3 a4bb 61b0 8c3d 6efd e3bd b7c8 dc3d
000003b0: 033b f03d c47a 543d b4f9 1a3d 93c2 0ebe
000003c0: 45db 06bc 5987 dd3c 2582 4b3d b93f 21be
000003d0: 1f55 713d 5c7a 6bbc 3fd2 1c3e f0a7 e63d
000003e0: 8174 ee3d 4ac7 833b 7f18 de3c 7ade 703c
000003f0: 03a0 c73d 4356 ca3d 0f48 47bd b0ee a43d
0.045818392 -0.021280706 0.07815073 0.1317487 0.050937 0.10866088 0.16944289 0.18541694
0.11956376 0.24462874 0.10909681 0.16946764 0.2287212 0.011985495 -0.03286457 0.08546263
0.2058889 0.0028060793 0.18758588 0.14979334 -0.074428484 0.08173336 -0.07314648 -0.052167155
0.1891559 0.048465047 0.013755563 0.022249335 0.047355883 -0.08011081 0.1870217 0.0069250637
0.11444033 0.14548738 -0.010366362 0.118503205 -0.08285127 0.18980554 0.13427515 0.04002852
0.12650447 -0.063431054 -0.017022176 0.12775879 0.041257687 -0.060892694 0.030977048 0.12866776
-0.009556565 -0.10862287 -0.018328428 0.08009777 -0.10969904 -0.023501175 0.047446128 0.000248036
0.13973 0.099154346 -0.13261938 0.050206594 0.10005185 -0.11096705 -0.016454 -0.02476583
-0.10719791 0.078389354 -0.09407444 -0.061092522 0.0525846 -0.20066854 -0.103475474 -0.12114318
0.040612865 0.09824126 -0.1111324 -0.03141885 -0.062727 0.1005722 -0.026297914 0.04543745
0.02066751 -0.095701195 -0.077809595 -0.09400554 -0.17553854 0.067936584 -0.008976391 0.07508448
-0.09751397 -0.05206467 0.0010149303 -0.004542269 -0.08505826 -0.04918944 -0.13869773 0.08467793
-0.03639911 -0.15501387 -0.05002797 -0.020849552 0.050547298 -0.083048664 0.09385253 0.11802523
-0.011406633 0.07823259 -0.038501956 -0.10473885 0.13017324 0.06449651 -0.044743408 -0.12208464
0.002483407 -0.036289215 -0.007611466 0.12835993 -0.10145896 0.08097416 -0.056844264 -0.087086596
-0.06398429 -0.07799636 -0.006922262 -0.16147412 -0.12618642 0.034192633 0.12508936 -0.039894972
0.045100205 -0.001354505 0.087354176 -0.019057281 0.057192277 0.14402945 -0.100097954 -0.10030251
0.023856165 -0.046392195 0.0040490427 0.014518509 -0.13486989 0.068594396 0.010184571 0.057228882
-0.08114772 -0.1787917 -0.18014027 -0.02394904 -0.095030285 -0.09270075 -0.03833839 0.01097724
0.052954104 -0.07411091 0.06676144 -0.01687492 -0.06742857 0.12686805 0.094635785 -0.07037378
0.084070235 0.13146281 0.11973757 0.07179475 0.12847057 0.010830619 -0.11761566 0.12089379
0.07055399 0.04782152 0.030482607 -0.018668003 -0.03232735 -0.12288597 0.13761537 0.09550624
-0.016177244 0.1035401 0.07124955 0.0794385 0.07993316 -0.14234285 0.051333398 -0.1916702
0.075903505 -0.034628805 -0.07217162 0.012359572 -0.071769185 -0.15365218 -0.14877312 0.015529791
-0.09754626 -0.00825791 0.013775516 0.06483492 -0.075979166 -0.1489517 -0.011213229 0.09366232
0.13562866 -0.009791272 -0.046807498 -0.12499423 -0.08612838 0.10587155 -0.09189415 0.102457926
0.14239338 0.116221 -0.07872157 -0.07806697 0.05841329 -0.005531463 0.1491402 0.073406875
0.08161736 -0.0005058543 0.0568248 -0.0034876652 0.10162174 -0.06419731 -0.049115706 0.12647355
-0.08723026 -0.032694537 -0.035792205 0.08381951 -0.07074225 0.0008676015 -0.0017604256 -0.16969644
-0.005033966 0.06869579 -0.11132322 0.10780471 0.117300056 0.05187489 0.03783579 -0.13941412
-0.008230989 0.027042078 0.049684662 -0.15746965 0.05891907 -0.0143724345 0.15314578 0.112625
0.11643315 0.00402156 0.02711129 0.01470148 0.09747317 0.09879734 -0.048652705 0.080533385

localization.0.bias f4 [8]
00000000: c06d 363e ba79 8ebd 8fe4 9cbd 0310 5bbe
00000010: f138 30bd 6658 d9bd 3f2d 4cbe e02b 70be
0.17815304 -0.06956811 -0.076607816 -0.21392827 -0.043023054 -0.10612564 -0.19939135 -0.23454237

localization.3.weight f4 [10, 8, 5, 5]
00000000: 3cc6 47bd 6fbb 613d 69ee 91bd c526 11be
00000010: 669e 853c 6f4e a8ba cf35 6ebc 0536 5cbd
00000020: 6853 b9bc 35f4 2cbd 6ce4 893d b765 a6bd
00000030: 9d97 4dbd df96 86bd 72d6 1dbe 5478 1fbc
00000040: 8631 d8bc 6607 cfbd fca6 f6bd e5a1 72bd
00000050: 5a4d bfbd d512 36bd d88f ccbd 74cf 04be
00000060: 4071 99bd 156b 9d3d b656 263d 4c7a 6a3c
00000070: c41d 043d b08b 91bd 07c7 6a3c 183d 643d
00000080: 0d28 79bc 53a5 bdbd 7cb4 dabd ecaa b5bc
00000090: a1cd c23c 0a09 89bd 03f5 acbd 35f9 0abe
000000a0: 9bcd 18bd ea34 e83a 9ad2 dcbc 313d eebd
000000b0: 9e41 efbd 795f 07be f7a0 95bd 00a5 81bd
000000c0: 749a 34be e2ee 35be ba64 bf3c 6253 0fbc
000000d0: 7aef 1b39 4fb5 eb3c 5406 3dbd 3d6f a2bd
000000e0: b725 0f3c 0783 fdbd 4afc 973b 6a85 e43b
000000f0: 1c3d a33d 0b2a 1a3d de1a a6bd 29ad 093d
00000100: 5926 babc db9d 5ebd 473a 96bd 1e07 bcbc
00000110: 7145 903b 4843 93bd bedb 2abd 0d60 e7bd
00000120: c9df d3bd ee20 74bd 63e5 393b b6f7 253d
00000130: 8f25 ae3c df03 cbbc 3294 3fbd 4bca 663d
00000140: e0f1 293d 7f95 a63b 8178 6fbc ba4b 00be
00000150: 518c fc3c 6367 63bd 828a 69bc 4bc3 debd
00000160: d6cb 883c 5cfb a4bd a1b1 f93c 073f c1bd
00000170: 28df f1bc 1094 20bc 93a3 0dbd f379 5ebc
00000180: 2030 1dbe e30f 42ba 0559 69bd e870 05bd
00000190: ac38 86bd b767 9bbc e936 06be 8fa7 02be
000001a0: 10dc 87bd 524e c2bc 3abc bebd 1fd4 19be
000001b0: 744c ffbd 8c2e cdbd 83ad 9fbd da9d bfbd
000001c0: 1a1c 23bd 682b e8bd e8b7 b73c 84f7 14bd
000001d0: c3eb bcbd ad29 f6bc b448 e8bd 44bf 413d
000001e0: 0b18 88bd 16de 92bd f88a dcbd 24a9 91bd
000001f0: b9ad 04bd 6ad8 43bd 94e6 0dbe 7c7b e6bd
00000200: 1946 43be ddf8 1fbe 51e5 03be 2e3d 03bd
00000210: c57b d0bd 581b 29be d189 1fbe 56a4 e4bb
00000220: 852f c8bd da4d ccbd 6444 15bd 753f 42bd
00000230: 3ea4 debd 741e e0bd 489b e9bd 1a5b c63c
00000240: 6a63 f8bc 3efe 91bc 0a12 93bd 19eb 74bd
00000250: b1b7 aa3d 2baa efbc f2a2 2dbc a0d8 0c3c
00000260: 9402 a43b 0f9b f63c 33d3 353c c62a e23d
00000270: cb5c 9b3c 8240 a1bd 07e7 b8bd 6c16 24bd
00000280: 64f6 99bd b984 0bbd 987c 3fbd b7b2 9bbd
00000290: 77cf 10be 4731 22bd 81b8 efbd 6efc bebd
000002a0: a761 e03c bada d63b b41f 92bd a9e2 69bd
000002b0: 0e41 7bbd 1c87 58bc 0158 3fbd 7e1a 05bd
000002c0: a31d 51bd f14a 86bd bebd a13d 680d 3abd
000002d0: f02f 803d 4033 3bbc 72aa 823d d1a7 4b3d
000002e0: f268 ad3d 4448 783d 8d70 0abd 8b65 e7bc
000002f0: 56dc 893a 60ed 73bd 2597 2abc c13d 79bd
00000300: 271e 653d b9e4 8dbd d724 ae3c 4591 12bd
00000310: 827d 79bc 51d0 a3bd fe61 1bbd a0c7 58bd
00000320: 17b2 2a3d a6ef 90bd 7b43 a43c 7b90 733c
00000330: c4dc 83bd ea91 1dbd 0a13 21bc 8d0f 9bbb
00000340: 0e2b 20bd 9353 9f3b 2a93 15bc 1e59 063d
00000350: 6159 8dbd 0e5c aabd 09eb 68bc ad77 adbd
00000360: 99a7 a3bd afc8 f7bc 33f1 4fbd e668 4dbd
00000370: dbdc 2f3d 11cc 2b3d c27d 9cbd 3e5b e4bc
00000380: 5bdd acbd f37a bbbd 16dc 2e3d 2027 0b3d
00000390: 473c 64bc eb08 4fbb b0db 0fbd efb5 8fbd
000003a0: 3094 dcbc 8e41 9bbd ddfe 4f3b 9527 09bd
000003b0: a884 c53c 8a4d 93bd e6b7 aaba 5b4f 2ebc
000003c0: 5551 8bbd ed25 ea3c 1e18 15bd 0dac 7bbd
000003d0: dbf3 63bd ea4a a4bd 143d 8c3c ec03 c3bd
000003e0: 1542 fabc ca4d 003d 2db0 5dbd d342 a1bd
000003f0: 19a3 673a 73d2 abba 4013 b5bc d63f 8a3c
-0.048773035 0.05511039 -0.07125551 -0.14174946 0.016310882 -0.0012840758 -0.014539196 -0.053762455
-0.022622779 -0.04222508 0.06733021 -0.08124869 -0.050193418 -0.06571745 -0.15413836 -0.009733278
-0.026390802 -0.10108833 -0.120435685 -0.059236426 -0.093409255 -0.044451553 -0.099883735 -0.12969762
-0.07492304 0.0768644 0.040610038 0.014311384 0.03225495 -0.071067214 0.014329678 0.055722326
-0.015207303 -0.09260049 -0.10678956 -0.022176228 0.023779692 -0.06691177 -0.0844517 -0.13571627
-0.037305456 0.0017715965 -0.026955891 -0.11632765 -0.11682437 -0.13220014 -0.07306092 -0.063302994
-0.17637044 -0.17766908 0.02336346 -0.008747907 0.00014871164 0.028772978 -0.046148613 -0.07931373
0.008737019 -0.12378507 0.0046382295 0.006973912 0.0797064 0.03763775 -0.08110593 0.033612404
-0.022723364 -0.05434976 -0.07335334 -0.022952612 0.0044028093 -0.07190567 -0.04171347 -0.11297617
-0.10345418 -0.059601717 0.0028365485 0.04051944 0.021258144 -0.02478212 -0.04677219 0.056345265
0.041490436 0.0050837393 -0.014616133 -0.12528887 0.030828627 -0.05551852 -0.014254214 -0.10877093
0.016698759 -0.080557555 0.030480208 -0.0943585 -0.029525355 -0.009800926 -0.034579825 -0.01357888
-0.1535039 -0.000740288 -0.05696966 -0.03257838 -0.06553778 -0.018970354 -0.13106884 -0.12759231
-0.066337705 -0.023718987 -0.09313245 -0.15022324 -0.12465754 -0.10018644 -0.077967666 -0.0935628
-0.03982172 -0.11336404 0.02242656 -0.03636886 -0.092246555 -0.03004917 -0.11341992 0.047301546
-0.06645211 -0.07171266 -0.10768694 -0.07112339 -0.032392237 -0.04781381 -0.1385749 -0.112540215
-0.19069709 -0.15622278 -0.12880446 -0.032040767 -0.10179857 -0.16514337 -0.15579917 -0.006977598
-0.09774689 -0.099757865 -0.036442176 -0.0474238 -0.108711705 -0.109433085 -0.11406571 0.024213362
-0.030320842 -0.017821427 -0.07181175 -0.05979452 0.083358176 -0.029255947 -0.010597931 0.008596569
0.00500519 0.030103235 0.011097717 0.11043315 0.018965146 -0.07873632 -0.0902844 -0.040060446
-0.075176984 -0.03406212 -0.04674968 -0.076024465 -0.14141642 -0.039597776 -0.11705113 -0.09325491
0.027390314 0.006556836 -0.07134953 -0.057100926 -0.061341338 -0.013215806 -0.046714786 -0.032495968
-0.051053654 -0.06557263 0.078975186 -0.04542294 0.06259143 -0.011425793 0.06380166 0.04972059
0.08467282 0.060615793 -0.033798743 -0.028246662 0.0010517936 -0.05955255 -0.010412012 -0.06084991
0.05593696 -0.06928391 0.021257801 -0.03578307 -0.015227677 -0.079987176 -0.03793525 -0.052924752
0.041673746 -0.07076959 0.020051708 0.01486599 -0.06438592 -0.038469233 -0.009831199 -0.0047320784
-0.03910356 0.0048622577 -0.009129325 0.032799833 -0.06901813 -0.08318339 -0.014216193 -0.08470092
-0.07990951 -0.03024706 -0.050767135 -0.050148867 0.042935234 0.04194266 -0.07641174 -0.027875539
-0.08440658 -0.0915431 0.04269036 0.03397286 -0.013930387 -0.003159101 -0.03512162 -0.07017123
-0.02692613 -0.07580863 0.0031737604 -0.033485014 0.024111107 -0.07192524 -0.0013024777 -0.010639037
-0.06802622 0.028582538 -0.036399953 -0.061443377 -0.05565248 -0.08022101 0.017118968 -0.095222324
-0.030549088 0.031324185 -0.054123092 -0.07874074 0.0008836254 -0.0013108983 -0.022103906 0.016876142

localization.3.bias f4 [10]
00000000: cfa1 36be 642a 18bc 2851 213d ac8b a83c
00000010: 2526 bdbd 1a39 a7bd b526 4ebd 4141 013b
00000020: 3266 a3bc 92e1 f13c
-0.17835163 -0.00928745 0.039384037 0.020574413 -0.09235791 -0.08165188 -0.050329883 0.0019722732
-0.019946191 0.029526506
